scripts_pom/leffingwell_models/graphnets_d2/gnn_embedder.pt (torch, 650822 bytes, 112 tensors)

layers.0.edge_model.edge_mlp.0.weight f4 [50, 385]
0	0x3b6b7d8e	0.003593299
1	0x3cc2bfef	0.023773162
2	0x3c5048d8	0.01271268
3	0xbccdc090	-0.025116235
4	0xbcd7e042	-0.026352052
5	0xbd08f89a	-0.03344021
6	0x3dc31989	0.09526355
7	0xbd98f224	-0.0746806
8	0xbc4f1a03	-0.012640479
9	0xbd2fd494	-0.04292734
10	0x3bd32183	0.006443204
11	0x3c1c1e96	0.009528777
12	0x3ca0b5ec	0.019617997
13	0xbb083369	-0.0020782596
14	0xbc945ab5	-0.018109659
15	0x3d90a752	0.07063164
16	0xbd24b450	-0.040211022
17	0x3a634a38	0.0008670422
18	0x3cdf1d3f	0.027235625
19	0x3a4a78c0	0.00077236816
20	0x3bae04ed	0.005310646
21	0x3d2ff1c4	0.042955175
22	0x3d29cea8	0.04145685
23	0x3d3c0096	0.045898996
24	0x3d2a4772	0.04157204
25	0x3cdff522	0.027338568
26	0xbaba049f	-0.0014192051
27	0xbd45b91e	-0.048272245
28	0x3bc57e88	0.0060270466
29	0x3ceb6a89	0.028737323
30	0x3afee6d2	0.0019447452
31	0x3cdefcef	0.027220218
32	0xbd1e6ea6	-0.03867974
33	0xbabe3244	-0.001451083
34	0x3d4d54b2	0.0501296
35	0xbd3de41a	-0.046360113
36	0xbbf3fb4e	-0.0074457293
37	0x3cba22fb	0.022721758
38	0xbd47a41e	-0.0487405
39	0xbca247d7	-0.019809647
40	0xbcb5aca2	-0.022177044
41	0x3d0a7b52	0.033809014
42	0xbc0242e8	-0.007950522
43	0x3acbef09	0.0015558909
44	0x3d28144c	0.04103498
45	0x3c403ec5	0.011733715
46	0xbc8e5ffb	-0.017379751
47	0x3ccde0e3	0.025131648
48	0xbcadf134	-0.021233179
49	0x3d345318	0.044024557
50	0xbc78208b	-0.015144478
51	0x3d38ef86	0.045150302
52	0xbc7c88d3	-0.015413481
53	0x3ce26cf1	0.027639838
54	0x3d3951ff	0.045244213
55	0xbd62b922	-0.055352338
56	0x3c5b25ac	0.013375681
57	0xbc2365a6	-0.009972965
58	0x3c0e88f5	0.008699645
59	0xbc8f0e96	-0.01746301
60	0x3d1c1741	0.038108114
61	0x3d2441de	0.04010188
62	0xbc91da70	-0.017804354
63	0x3c7ff45d	0.015622226
64	0x3d2c172e	0.042014293
65	0xbc0797ed	-0.008275968
66	0xbb261eb2	-0.0025347886
67	0x3ccf5efb	0.025313845
68	0xbd3774c3	-0.044789087
69	0xbb89c4b5	-0.0042043575
70	0x3d3a6b5d	0.045512546
71	0xbc428210	-0.01187183
72	0x3bfc8981	0.0077068214
73	0xbdc88c91	-0.09792436
74	0x3d61d243	0.05513216
75	0x3d870445	0.06592611
76	0x3c4c62f5	0.012474765
77	0xbcc1c9cc	-0.023655795
78	0x3d838a7a	0.06422897
79	0x3c33bd88	0.010970481
80	0x3d110c7f	0.035412308
81	0x3d056a6a	0.032572187
82	0xbd34b5f8	-0.04411885
83	0x3d2bd39b	0.04194985
84	0xbd5d5c47	-0.05404308
85	0xbc8b144c	-0.016977452
86	0x3bfc9ce1	0.007709131
87	0xbd26fadf	-0.040766593
88	0xbb24eaf8	-0.0025164466
89	0xbcd92763	-0.026508039
90	0xbb8c74b4	-0.004286373
91	0x3dae3bfb	0.08507534
92	0xbd7c39d9	-0.061578605
93	0x3c90d575	0.01767991
94	0xbc67a1b5	-0.014137675
95	0x3bdba8ff	0.0067034955
96	0xba10c319	-0.0005522236
97	0xbc8a2272	-0.016862128
98	0xbd3e78e9	-0.046502028
99	0x3cd5eb7e	0.026113268
100	0xbad10fee	-0.0015950182
101	0x3bbf4210	0.0058367327
102	0x3d00492d	0.031319786
103	0x3d3f0eaa	0.046644844
104	0xbcdb0d60	-0.026739776
105	0x3d3066c6	0.043066762
106	0xbcde3137	-0.027123077
107	0xbcf84fa9	-0.030311422
108	0x3bf93fef	0.0076064984
109	0xbca5a5a4	-0.020220585
110	0xbd059b37	-0.032618728
111	0x3c679454	0.014134485
112	0x3d2ad1b5	0.0417039
113	0x3cfa1186	0.030525934
114	0x3c93d3f1	0.018045397
115	0x3ce3539f	0.027749835
116	0x3d2b79f1	0.04186434
117	0xbcb90403	-0.02258492
118	0x3d252df7	0.04032704
119	0x3c61c49e	0.013779787
120	0x3d0cdf0a	0.034392394
121	0xbd4a90b0	-0.04945439
122	0x3c4256c4	0.011861507
123	0xbb272d37	-0.0025509128
124	0xba9a85cc	-0.0011789142
125	0xbd18174f	-0.037131604
126	0xbbb4f73d	-0.005522637
127	0xbc3c5f26	-0.0114972945
128	0xbc8e445f	-0.017366586
129	0x3d2d96bf	0.04238009
130	0xbd39da2a	-0.045374073
131	0x3ba7482d	0.0051050396
132	0x3cbb195f	0.022839246
133	0x3c1ee47f	0.009698032
134	0x3d0fb558	0.035085052
135	0x3bce994d	0.006304896
136	0x3d023e99	0.03179798
137	0x3cc485d9	0.023989605
138	0xbd0aaae4	-0.03385438
139	0xbd336edc	-0.043806896
140	0xbd8d649e	-0.06903957
141	0xbcab2eda	-0.020896364
142	0xbc7f130f	-0.015568509
143	0x3b427a1e	0.0029674838
144	0xbd22cdbd	-0.03974699
145	0xbd183233	-0.03715725
146	0x3d13f96c	0.03612654
147	0xbd44dd2a	-0.04806248
148	0x3a935330	0.0011240002
149	0xbc384d68	-0.011248924
150	0xbd3114f0	-0.04323286
151	0x3cb1cfd1	0.02170554
152	0x3d38f757	0.045157757
153	0xbc25b2a0	-0.010113388
154	0xbcf71d63	-0.03016538
155	0xbd0238c0	-0.031792402
156	0xbd171412	-0.036884375
157	0x3c4209b4	0.011843134
158	0x3d5ef526	0.05443301
159	0x3c159cbf	0.009131609
160	0x3d0d6ae5	0.03452577
161	0x3c88330b	0.016625902
162	0x3d0caefa	0.03434656
163	0x3db754d8	0.089517295
164	0x3cba4418	0.022737548
165	0x3cbb479e	0.022861298
166	0x3bd1bd1e	0.0064007184
167	0xbc5b15d6	-0.013371905
168	0x3d01a27e	0.031649105
169	0x3c5fabd4	0.013651807
170	0x3d01643d	0.031589735
171	0x3dcf33e5	0.1011732
172	0xbc94a775	-0.018146256
173	0x3dd0674b	0.101759516
174	0x3d022ede	0.031782977
175	0x39f579ae	0.000468207
176	0xbd598a9c	-0.053110704
177	0x3c31f4ee	0.010861618
178	0x3d023bcd	0.03179531
179	0xbd2dc7b6	-0.042426787
180	0x3c7b4940	0.015337288
181	0x3cbf1b09	0.023328321
182	0xbcc86e15	-0.024466554
183	0xbcd24db1	-0.025671812
184	0xbcc0aeef	-0.023520915
185	0x3d5791e7	0.052629378
186	0xbcf889e6	-0.030339193
187	0xbd479a03	-0.04873086
188	0x3c9a0dad	0.01880535
189	0xbd2b43fe	-0.04181289
190	0xbd92079f	-0.0713036
191	0x3c53835f	0.012909739
192	0xbc9ed4ef	-0.019388644
193	0x3bee7b98	0.007277917
194	0x3d49c3e1	0.04925907
195	0x3cd0b479	0.025476681
196	0x3c52c3f5	0.012864103
197	0x3ccc64a9	0.024950342
198	0x3d342d54	0.04398854
199	0xbdab2570	-0.0835675
200	0xbd11ce36	-0.03559705
201	0xbd0ae4a6	-0.033909462
202	0x3c9e0ac3	0.019292241
203	0xbd2a9b83	-0.041652214
204	0x3ca5562a	0.020182688
205	0x3d3c0d1c	0.04591094
206	0x3b66476b	0.0035137783
207	0x3d42616c	0.04745619
208	0x3be5fa70	0.00701838
209	0x3c325325	0.010884081
210	0x3c03e93b	0.008051212
211	0x3d85d7cc	0.065353006
212	0xbd065fc3	-0.03280617
213	0xbd4dd774	-0.0502543
214	0xbd533048	-0.051559716
215	0x3dad6c4f	0.08467924
216	0xbc9ca6d2	-0.019122515
217	0x3cdb563a	0.026774514
218	0xbc9dd437	-0.019266231
219	0xbd159c1d	-0.036525834
220	0xbb39d284	-0.0028354237
221	0xbd24e0b2	-0.04025335
222	0x3ccd981e	0.02509695
223	0xbbeb626b	-0.007183363
224	0xbcf6a4b6	-0.030107837
225	0xbd87f7b1	-0.0663904
226	0x3d23cb32	0.039988704
227	0x3cea1929	0.02857645
228	0x3bcd3b9e	0.0062632104
229	0x3d9455fc	0.07242963
230	0xbbbff030	-0.00585749
231	0xbd96b8c2	-0.073594585
232	0xbd542058	-0.051788658
233	0x3ca90510	0.020632297
234	0xbcbda1a1	-0.02314836
235	0xbd8f9a26	-0.07011823
236	0xbd7ea9ae	-0.062173538
237	0xbc392608	-0.011300571
238	0x3b2d9290	0.0026485063
239	0x3cc38f04	0.023871906
240	0xbcb2942b	-0.021799168
241	0x3c7c6363	0.015404555
242	0x3d2dede8	0.042463213
243	0x3c81cb27	0.01584394
244	0x3c86d04e	0.01645675
245	0x3c7aaff8	0.015300743
246	0x3ce0ae72	0.027426932
247	0xbda13725	-0.07871846
248	0x3d6276d9	0.055289123
249	0x3b090ab8	0.002091093
250	0x3c346cb4	0.011012245
251	0xbc60979c	-0.0137080215
252	0x3d99e1cd	0.07513771
253	0x3c7fc2c6	0.015610402
254	0x3ce97bb0	0.028501362
255	0x3d20e1a1	0.039277676

layers.0.edge_model.edge_mlp.0.bias f4 [50]
0	0x3c533422	0.012890847
1	0xbb435c41	-0.0029809626
2	0x3d23025b	0.03979717
3	0xbbc76031	-0.006084465
4	0x3bbff9b6	0.0058586253
5	0xbbb51ab3	-0.0055268644
6	0xbc3a18ab	-0.01135842
7	0xbd998d43	-0.07497647
8	0x3d26c99d	0.040719617
9	0x3c519b39	0.012793356
10	0xbd756a1d	-0.05991565
11	0x3d392bbd	0.045207728
12	0x3cf3c01e	0.029754695
13	0x3cdf6d90	0.027273923
14	0x3d933e36	0.071896
15	0x3d289ee0	0.04116714
16	0xbd3b33eb	-0.04570381
17	0xbc27d704	-0.010244135
18	0x3da3e1f7	0.08002084
19	0x3c0cb4bb	0.008588011
20	0x3d6fef8e	0.058578067
21	0xbbe9743b	-0.0071244515
22	0xbd811e98	-0.063046634
23	0x3b995835	0.0046797046
24	0xbd4e0fe0	-0.05030811
25	0xbcf7c51f	-0.030245362
26	0xbd2a8957	-0.041634884
27	0x3d275284	0.040850177
28	0x3b0e2ad2	0.0021693003
29	0x3c8f8c9c	0.017523102
30	0x3d699184	0.05702354
31	0xbbb25ddf	-0.005443319
32	0xbbebc9da	-0.0071956934
33	0x3c8e42c1	0.017365815
34	0xbc4d9658	-0.012548052
35	0xbbd957db	-0.0066327876
36	0xbd811050	-0.063019395
37	0x3d00e48c	0.03146796
38	0x3d4174d0	0.04723054
39	0xbbeb7bf3	-0.0071864068
40	0xbbcd138f	-0.006258435
41	0x3d27c54c	0.04095964
42	0x3c3354ff	0.010945558
43	0xbca938ed	-0.020657027
44	0x3d69d8d1	0.057091538
45	0xbd20cc13	-0.03925712
46	0x3d4cfbcc	0.05004482
47	0xbcbc1294	-0.022958077
48	0xbb87d545	-0.0041452968
49	0x3c3f7fc3	0.011688176

layers.0.edge_model.edge_mlp.2.weight f4 [50]
0	0x3f71ed65	0.9450286
1	0x3f862ad8	1.0481825
2	0x3f83a000	1.0283203
3	0x3f82cabd	1.0218121
4	0x3f868b96	1.0511348
5	0x3f849c1f	1.0360144
6	0x3f86753f	1.0504531
7	0x3f833a20	1.0252113
8	0x3f93a974	1.1536088
9	0x3f7c4ac4	0.98551583
10	0x3f883bf4	1.0643296
11	0x3f788270	0.9707403
12	0x3f87fed5	1.0624644
13	0x3f7d5f42	0.98973477
14	0x3f8cf71a	1.101291
15	0x3f79ba7b	0.9755017
16	0x3f8b9a2b	1.0906423
17	0x3f82beaa	1.0214436
18	0x3f826b1f	1.0188941
19	0x3f8b8fce	1.0903261
20	0x3f7cd8bd	0.98768216
21	0x3f87643b	1.0577463
22	0x3f7dbea0	0.99118996
23	0x3f890047	1.070321
24	0x3f7f4bff	0.99725336
25	0x3f7ee231	0.9956389
26	0x3f8290e3	1.0200466
27	0x3f7909ff	0.9728088
28	0x3f818b75	1.0120684
29	0x3f812018	1.0087919
30	0x3f8135e0	1.0094566
31	0x3f8119c0	1.0085983
32	0x3f7de1a4	0.99172425
33	0x3f80cc61	1.0062371
34	0x3f7d7c55	0.9901784
35	0x3f838735	1.0275637
36	0x3f837fd2	1.0273383
37	0x3f8220c2	1.0166247
38	0x3f814254	1.0098367
39	0x3f84521b	1.0337557
40	0x3f846649	1.0343715
41	0x3f820037	1.0156316
42	0x3f84d43b	1.0377268
43	0x3f7d4df0	0.9894705
44	0x3f7f98c8	0.998425
45	0x3f81c9a0	1.0139656
46	0x3f8d4361	1.1036187
47	0x3f8664a8	1.0499468
48	0x3f82615d	1.0185963
49	0x3f86c9a7	1.053029

layers.0.edge_model.edge_mlp.2.bias f4 [50]
0	0xbd2d4ce5	-0.04230966
1	0x3dcbdba3	0.09954002
2	0xbd713947	-0.058892515
3	0xbde7ba7a	-0.113148645
4	0x3d9cbddc	0.076534
5	0xbd11ecef	-0.035626348
6	0xbd8ae96c	-0.06782803
7	0x3d0d79af	0.034539875
8	0x3d722451	0.059116665
9	0x3d314a1b	0.043283563
10	0x3bb7e09c	0.0056114923
11	0xbc774752	-0.015092688
12	0xbdd82924	-0.10554722
13	0x3d798b2b	0.060923737
14	0xbe544e3c	-0.20732969
15	0xbe038127	-0.12842236
16	0xb951436e	-0.00019956913
17	0xbd157c28	-0.036495358
18	0xbdb9cf7f	-0.0907278
19	0x3d9a8a79	0.07545943
20	0x3cab966b	0.020945748
21	0x3e357dfe	0.17723843
22	0xbca574ed	-0.020197356
23	0xbd0eea43	-0.034891378
24	0xbd05d9cd	-0.032678414
25	0xbe38c6b1	-0.18044545
26	0x3bde410c	0.0067826565
27	0xbd961203	-0.07327654
28	0x3ce697c5	0.028148541
29	0x3db00821	0.085953005
30	0x3dd35ff9	0.1032104
31	0xbb9c9590	-0.0047785714
32	0x3e426a50	0.18985868
33	0xbde8968d	-0.1135684
34	0xbcab2946	-0.020893704
35	0x3c8a5487	0.016886009
36	0xbdd322c0	-0.103093624
37	0x3e4ebb08	0.20188534
38	0x3e0c72af	0.13715623
39	0x3b224f23	0.0024766407
40	0xbe14e82b	-0.1454169
41	0xbd60e99c	-0.054910287
42	0xbd8c9911	-0.068651326
43	0xbe53f6f7	-0.20699678
44	0xbd84d02e	-0.064850196
45	0xbd385639	-0.045004103
46	0xbd52e903	-0.05149175
47	0x3e40768e	0.18795225
48	0x3dd5d058	0.10440129
49	0xbc6fd849	-0.014638969

layers.0.edge_model.edge_mlp.2.running_mean f4 [50]
0	0x3f462db8	0.7741351
1	0x4000c495	2.0119984
2	0xbf9733ce	-1.1812685
3	0x3fc2f04c	1.5229583
4	0xbfa014c4	-1.2506337
5	0xbf40bb50	-0.75285816
6	0x3f9003e4	1.1251187
7	0xbfbc552d	-1.4713494
8	0x404a7ba1	3.1637957
9	0x3f68f748	0.9100232
10	0xbfa1c5d4	-1.2638497
11	0x3f9236ed	1.1423012
12	0xbfc389b0	-1.5276394
13	0x3fcc2569	1.5948917
14	0x3f20160a	0.6253363
15	0x3f55db4f	0.83537763
16	0x3fd746a9	1.6818439
17	0xbfcd27ad	-1.6027733
18	0x402ae4c7	2.6702135
19	0xbf984cb9	-1.1898414
20	0x4065365c	3.5814428
21	0x3fb80b40	1.4378433
22	0xbf711aff	-0.9418182
23	0xbfadcc26	-1.3577926
24	0xbf6d2e74	-0.92649007
25	0x3f703ab4	0.93839574
26	0xbfadb9aa	-1.3572285
27	0x3fc925e7	1.5714692
28	0x3f18f4cb	0.59748524
29	0xbf6cdccf	-0.9252443
30	0x3fc3cb5e	1.5296438
31	0xbf461bc5	-0.7738612
32	0x3f7aedc3	0.98019046
33	0x3f41443a	0.7549473
34	0xbf87b296	-1.0601375
35	0x3fb973cf	1.4488467
36	0xbf86cc09	-1.0531017
37	0x4024de93	2.5760849
38	0x3fcc4460	1.5958366
39	0xbf845264	-1.0337644
40	0xbf832bd0	-1.0247746
41	0xbf5588b5	-0.83411723
42	0x3fbe4451	1.4864599
43	0x3f5a8cbd	0.85371
44	0x3f71b600	0.94418335
45	0xbf4b8f73	-0.7951576
46	0xbfbf26de	-1.4933736
47	0xbf683429	-0.9070459
48	0xbfa58169	-1.2930118
49	0xbf974cfc	-1.1820369

layers.0.edge_model.edge_mlp.2.running_var f4 [50]
0	0x3c9f5dd7	0.019453926
1	0x3ca9ae0f	0.02071288
2	0x3c025e20	0.007957011
3	0x3d4ff2c3	0.050768625
4	0x3c70b2e7	0.014691091
5	0x3d0d8674	0.034552053
6	0x3cd55a12	0.026043925
7	0x3b48e75e	0.0030655484
8	0x3cae9dd3	0.02131549
9	0x3ceec04b	0.029144427
10	0x3b990e86	0.004670921
11	0x3d4b3700	0.049613
12	0x3abb6c27	0.00142992
13	0x3ce696dc	0.028148107
14	0x3cb5c041	0.0221864
15	0x3d0ee34f	0.034884747
16	0x3ca32b7d	0.019918198
17	0x3b1ca5ca	0.002390253
18	0x3d0755aa	0.03304068
19	0x3ca48dee	0.020087209
20	0x3cd85dbb	0.026411882
21	0x3cd77819	0.026302384
22	0x3cb3a5a1	0.021929564
23	0x3b53b2f4	0.003230271
24	0x3c461f87	0.012092478
25	0x3d51612a	0.051118053
26	0x3c03d1e4	0.008045647
27	0x3d8f48f3	0.06996336
28	0x3d08bd92	0.033383913
29	0x3c215c02	0.0098485965
30	0x3cbe6dd3	0.023245728
31	0x3d213eb8	0.039366454
32	0x3cce3741	0.025172831
33	0x3d09dc3f	0.03365731
34	0x3c5ae0e2	0.01335928
35	0x3cf5e533	0.030016517
36	0x3cde12b4	0.027108528
37	0x3d0805b5	0.033208568
38	0x3cf804ea	0.03027578
39	0x3c313fc6	0.010818427
40	0x3c8675dc	0.016413622
41	0x3ce77fba	0.028259147
42	0x3d49022b	0.049074333
43	0x3cd64cdb	0.026159694
44	0x3d0e936f	0.034808572
45	0x3c98fb47	0.018674506
46	0x3b0ea166	0.0021763681
47	0x3caa793b	0.02080976
48	0x3bbf6f9e	0.005842163
49	0x3c110bec	0.00885294

layers.0.edge_model.edge_mlp.3.weight f4 [50, 50]
0	0x3dc614c2	0.09671928
1	0x3ddd62f0	0.108098865
2	0x3c3287a3	0.010896596
3	0xbdd3a92a	-0.10335
4	0xbd836b21	-0.064169176
5	0xbd6665a6	-0.056249283
6	0x3c5aba50	0.013350084
7	0x3bdbfe71	0.0067136814
8	0xbcb408e4	-0.021976896
9	0xbcea5f7c	-0.028609984
10	0xbdb9a713	-0.0906507
11	0x3da4da02	0.08049394
12	0xbdac3c0c	-0.084098905
13	0xbd29d4fd	-0.041462887
14	0x3e033939	0.12814797
15	0xbd805098	-0.06265372
16	0x3da1b429	0.07895691
17	0x3e0672c3	0.13129716
18	0x3da4b7c0	0.0804286
19	0xbe374ae1	-0.17899658
20	0x3cf49411	0.02985576
21	0xbdcae4ec	-0.09906945
22	0x3dd249a4	0.10267952
23	0x3e0f8feb	0.14019744
24	0x3de4519b	0.111483775
25	0x3e1aec41	0.15129186
26	0xbe0b95f3	-0.1363142
27	0xbd6cee1d	-0.05784427
28	0xbc4022ad	-0.011727017
29	0xbdaeb04e	-0.08529721
30	0x3da2506c	0.079254955
31	0xbde8afdf	-0.1136167
32	0xbd724f40	-0.05915761
33	0xbddfdaaa	-0.10930379
34	0x3e10c53e	0.14137742
35	0x3d18b1cc	0.037278935
36	0xbd2960bf	-0.04135203
37	0x3d920dbf	0.07131528
38	0xbca2e1bd	-0.019883031
39	0x3ddacc0a	0.106834486
40	0x3b7d9c0a	0.0038697743
41	0x3e1060bc	0.14099401
42	0xbca7b877	-0.020473702
43	0x3d96c2b6	0.07361357
44	0xbe27941e	-0.16365096
45	0x3d27f7c9	0.04100779
46	0xbdbdcc1e	-0.09267448
47	0x3e1c57a0	0.15267801
48	0xbd9d0495	-0.076668896
49	0xbc7604d4	-0.0150158
50	0x3db490fe	0.088167176
51	0x3e0c778b	0.13717477
52	0xbdc9526a	-0.09830172
53	0xbe1ef2d9	-0.15522327
54	0x3ded8e59	0.11599416
55	0x3e07ad21	0.13249637
56	0x3d160754	0.036628082
57	0x3c73ceb5	0.014880826
58	0x3e3346a7	0.1750742
59	0xbca3f566	-0.020014476
60	0xbdd4177b	-0.10356041
61	0x3cf08ba4	0.02936346
62	0xbcdcb657	-0.026942415
63	0xbdcbe8bd	-0.09956501
64	0x3daf01ae	0.08545242
65	0xbc8e76b3	-0.017390585
66	0xbd2ac741	-0.04169393
67	0xbd76ec1d	-0.06028377
68	0xbd4ef81a	-0.050529577
69	0xbb1a208a	-0.002351793
70	0x3df87042	0.121307865
71	0x3d7522d7	0.05984768
72	0x3da5c79d	0.08094714
73	0xbddfa143	-0.1091943
74	0x3de60b9c	0.11232683
75	0xbd67d6f5	-0.056601483
76	0xbdf69eff	-0.12042045
77	0x3d349e21	0.044096116
78	0xbd13ce3e	-0.03608536
79	0xbd0e877b	-0.034797173
80	0xbe0dc933	-0.13846283
81	0xbe13e510	-0.14442849
82	0xbdbe7383	-0.09299376
83	0xbe082f1b	-0.1329922
84	0xbd8f50b5	-0.069978155
85	0xbde464fc	-0.11152074
86	0x3cf1eca6	0.029531788
87	0x3bc2498d	0.005929178
88	0x3deb7a8b	0.114979826
89	0xbe4daf84	-0.20086485
90	0xbdd45c23	-0.10369136
91	0xbe372acd	-0.17887421
92	0xbdb3ceda	-0.08779688
93	0xbcf8d7f3	-0.03037641
94	0xbe046677	-0.12929712
95	0x3d9e7940	0.0773797
96	0xbdd52e2b	-0.104091965
97	0xbcffffb2	-0.031249855
98	0xbdef6ad0	-0.11690295
99	0x3df471e4	0.119357854
100	0x3d323bfe	0.043514244
101	0xbd4b9f45	-0.049712438
102	0xbd915252	-0.070957795
103	0xbe0e5d39	-0.13902749
104	0x3dd03d77	0.101679735
105	0x3dd99dbe	0.1062579
106	0x3d29d03c	0.041458353
107	0xbe38245d	-0.17982621
108	0x3c2faf3f	0.010722934
109	0xbda5841a	-0.08081837
110	0xbd642672	-0.055700727
111	0x3db4da82	0.088307396
112	0x3dc20ff4	0.09475699
113	0xbd9ce9af	-0.07661759
114	0x3c80b4ca	0.015711207
115	0xbdd5d2ed	-0.104406215
116	0xbe302b67	-0.17204057
117	0xbd8e7b21	-0.06957079
118	0x3daa6414	0.0831987
119	0x3a820914	0.0009920918
120	0xbc6bff07	-0.014404065
121	0x3dc473e0	0.09592414
122	0xbdfdf42c	-0.12400088
123	0xbcb43f50	-0.022002846
124	0xbe1fc223	-0.15601401
125	0x3d82b5b5	0.06382314
126	0x3c59288a	0.013254294
127	0xbd9e267a	-0.077221826
128	0x3dc107c4	0.09425309
129	0x3934c7b3	0.00017240531
130	0x3d2f164f	0.042745885
131	0xbdcbd1a4	-0.09952095
132	0x3c4a7d01	0.012358905
133	0xbca40dd0	-0.020026118
134	0x3d896dcf	0.067103975
135	0xbe111276	-0.14167199
136	0x3dcaedab	0.09908613
137	0xbdb451ee	-0.08804689
138	0xbde26d16	-0.11055963
139	0xbcecd2e1	-0.028909149
140	0xbbe002ec	-0.006836286
141	0xbe11d2de	-0.14240596
142	0x3c461ea5	0.012092267
143	0xbd8d0a78	-0.068867624
144	0x389486a8	7.0822716e-05
145	0xbd054be3	-0.032543074
146	0xbc73eebd	-0.014888463
147	0x3c086e1f	0.008327036
148	0x3dfd7cfd	0.12377355
149	0x3deab096	0.11459462
150	0x3d47e2b4	0.048800185
151	0xbcf2032c	-0.029542528
152	0x3d7b7713	0.061392855
153	0xbda5abd1	-0.08089412
154	0x3db33826	0.08750944
155	0x3dccf822	0.10008265
156	0xbddbede2	-0.10738732
157	0xbd340170	-0.043946683
158	0x3d3572d3	0.044298958
159	0x3df57454	0.119850785
160	0x3d86e613	0.06586852
161	0x3e0abd08	0.13548672
162	0xbde623a2	-0.11237265
163	0xbdf772be	-0.12082432
164	0x3b59cc39	0.0033233298
165	0x3cc7fca2	0.024412457
166	0x3d1dcc66	0.038525008
167	0x3d7677c1	0.0601728
168	0x3d7d64b3	0.061863612
169	0xbd57732a	-0.052600063
170	0xbd56e6a8	-0.052466065
171	0xbdfaa445	-0.12238363
172	0xbc4788a4	-0.012178574
173	0x3e0da88d	0.13833828
174	0x3d8480d0	0.064698815
175	0x3d89506b	0.06704792
176	0xbd273d41	-0.0408299
177	0xbcdd8840	-0.027042508
178	0x3df73013	0.12069716
179	0xbd97ded3	-0.07415547
180	0x3bff7f8a	0.0077971863
181	0xbde8b804	-0.11363223
182	0xbe077ad8	-0.13230455
183	0x3dad5b0b	0.08464631
184	0x3b08eb31	0.0020892138
185	0xbe0086ad	-0.12551375
186	0x3df41b85	0.119193114
187	0x3c8d4350	0.017244011
188	0xbd39a229	-0.045320664
189	0x3c151dab	0.009101312
190	0xbdb5525c	-0.088535994
191	0xbdb7555d	-0.08951829
192	0xbcd5a7a5	-0.026080916
193	0xbc9477b8	-0.018123493
194	0x3dd8b2cd	0.105809785
195	0xbd0deb7f	-0.034648415
196	0xbd3a4ec1	-0.04548526
197	0x3c1fac83	0.00974572
198	0xbd90e36c	-0.07074627
199	0x3db69709	0.089155264
200	0xbd9ef812	-0.077621594
201	0xbd394d43	-0.0452397
202	0x3b400fc2	0.0029306267
203	0x3de13084	0.10995582
204	0xbd934ea8	-0.07192737
205	0xbdcf9e93	-0.101376675
206	0x3c8ac492	0.016939435
207	0xba4471a7	-0.0007493742
208	0x3c74e346	0.014946764
209	0x3e06ad1f	0.13151978
210	0x3db30293	0.08740725
211	0xbd38fc18	-0.04516229
212	0x3df949bd	0.121722676
213	0x3e113b6a	0.14182821
214	0x3c2b3e62	0.010451885
215	0xbddd57a5	-0.108077325
216	0x3cca8f37	0.024726493
217	0xbd9dc0e5	-0.07702807
218	0xbd915d7d	-0.070979096
219	0xbe07ed8c	-0.1327421
220	0x3cfadba6	0.030622315
221	0xbe02e20a	-0.1278154
222	0xbc6d3d13	-0.014479893
223	0x3c9c3547	0.019068373
224	0x3df7fd80	0.12108898
225	0xbdcdd61a	-0.10050602
226	0x3e13eb11	0.1444514
227	0x3e117bd4	0.14207393
228	0xbdf16aae	-0.11787926
229	0x3df866df	0.12128996
230	0xbdda0bdb	-0.106467925
231	0x3d570750	0.052497208
232	0xbe00d574	-0.12581426
233	0x3e416dce	0.18889543
234	0xbb802466	-0.003910589
235	0xbdad8784	-0.08473113
236	0x3cff0dc8	0.031134501
237	0xbdc3f5b0	-0.095683455
238	0xbdf028b6	-0.11726515
239	0x3e1d30c9	0.15350641
240	0x3e2bbb74	0.16770726
241	0x3e1efe26	0.15526637
242	0x3cff87ba	0.03119265
243	0x3e4e14d2	0.2012513
244	0x3dd95b5d	0.10613129
245	0x3e581b24	0.21104103
246	0x3e26fbab	0.16306941
247	0xbc8652b7	-0.016396863
248	0x3dd910c2	0.105988994
249	0x3d3fecfa	0.046856858
250	0x3dabbb88	0.08385378
251	0xbc596e7d	-0.013270971
252	0xbdc6b9ec	-0.097034305
253	0x3e1fe3a3	0.1561418
254	0xbdfb3db2	-0.12267627
255	0xbe0b9f90	-0.13635087

layers.0.edge_model.edge_mlp.3.bias f4 [50]
0	0xbcbebd9a	-0.023283768
1	0xbdc17f28	-0.09448081
2	0x3df04c51	0.11733306
3	0xbc3c2ebb	-0.011485751
4	0xbeae4091	-0.34033635
5	0xbdf0b5e7	-0.11753445
6	0x3d5303b5	0.051517207
7	0xbe2959f6	-0.16538224
8	0x3c9d1a3f	0.019177554
9	0xbd80d2a4	-0.062901765
10	0x3db61324	0.088903695
11	0xbe1168d8	-0.14200151
12	0xbba4c816	-0.005028735
13	0xbcf92453	-0.030412829
14	0xbce4c9ab	-0.027928194
15	0xbdc09f3c	-0.094053715
16	0xbd743c5f	-0.059627887
17	0xbda7964e	-0.08182965
18	0xbc7133e2	-0.0147218425
19	0xbd68f5a5	-0.05687489
20	0x3cab729a	0.02092867
21	0xbd9637ea	-0.073348835
22	0xbe0672d8	-0.13129747
23	0xbe513042	-0.20428565
24	0x3ca83a7b	0.020535698
25	0x3d5a8aed	0.053355146
26	0xbd328c61	-0.043590907
27	0xbde3fb50	-0.111319184
28	0xbe8ab0a4	-0.2708789
29	0xbb07f917	-0.0020747834
30	0xbdeb8243	-0.11499455
31	0x3e23c11c	0.15991634
32	0x3bee0898	0.007264208
33	0xbe5c8a24	-0.21537071
34	0x3c2646e6	0.010148739
35	0x3e2e25c5	0.17006595
36	0xbdd6e20f	-0.10492336
37	0xbe1258f9	-0.14291753
38	0xbd56c0b4	-0.05242987
39	0xbd301eef	-0.04299825
40	0xbe4b2831	-0.1983955
41	0xbe0b238f	-0.13587783
42	0xbe7042aa	-0.2346293
43	0xbc6c1471	-0.0144091705
44	0xbe25c40c	-0.16188067
45	0xbcb204a7	-0.021730734
46	0xbeaad972	-0.33369023
47	0xbdbd9a35	-0.09257928
48	0x3e22c801	0.15896608
49	0xbdac4caa	-0.0841306

layers.0.edge_model.edge_mlp.5.weight f4 [50]
0	0x3f6c0e18	0.92209005
1	0x3f7812c3	0.9690363
2	0x3f7a5d1b	0.9779832
3	0x3f7b5d9c	0.9818971
4	0x3f7e28fd	0.99281293
5	0x3f7a2d97	0.97725815
6	0x3f738bc5	0.95135146
7	0x3f78ba18	0.97158957
8	0x3f78047c	0.9688184
9	0x3f7426ce	0.9537171
10	0x3f7aace6	0.9792007
11	0x3f82235a	1.0167038
12	0x3f749baf	0.95550054
13	0x3f740f2f	0.9533567
14	0x3f80a717	1.0050992
15	0x3f80d670	1.0065441
16	0x3f73b334	0.9519532
17	0x3f844870	1.0334606
18	0x3f789037	0.97095054
19	0x3f81da59	1.014476
20	0x3f7fe79b	0.99962777
21	0x3f80a97b	1.0051721
22	0x3f70d6d6	0.94077814
23	0x3f8089d0	1.0042057
24	0x3f69bda2	0.9130498
25	0x3f72b5e9	0.9480882
26	0x3f7e2e3b	0.9928929
27	0x3f7b5d9f	0.9818973
28	0x3f7c73e1	0.9861432
29	0x3f756c73	0.95868605
30	0x3f73663d	0.9507788
31	0x3f77462d	0.96591455
32	0x3f7df199	0.99196774
33	0x3f82fce7	1.023343
34	0x3f879362	1.0591853
35	0x3f7d7ca8	0.99018335
36	0x3f8421b5	1.0322787
37	0x3f7dcf97	0.9914488
38	0x3f6bb282	0.92069256
39	0x3f7e7d07	0.99409527
40	0x3f7b79ed	0.9823292
41	0x3f813e70	1.009718
42	0x3f80dc63	1.0067257
43	0x3f7656a9	0.9622598
44	0x3f7c12c6	0.98466146
45	0x3f79ffb7	0.97655815
46	0x3f841c43	1.0321125
47	0x3f87c575	1.0607134
48	0x3f7f8f07	0.9982762
49	0x3f6e35d7	0.93050903

layers.0.edge_model.edge_mlp.5.bias f4 [50]
0	0x3d61018c	0.054933116
1	0x3c8c63e9	0.017137485
2	0xbba63b0c	-0.005072957
3	0x3ca1db6a	0.019757945
4	0xbd1637f5	-0.03667446
5	0xbd43b058	-0.047775596
6	0x3c86d036	0.016456705
7	0x3d5f3af0	0.054499567
8	0x3c8c4dc9	0.017126935
9	0x3c2c2e8c	0.0105091445
10	0xbb8e89b5	-0.004349912
11	0x3d4e28d2	0.050331898
12	0x3cd5cb11	0.026097806
13	0xbd80ee2a	-0.06295426
14	0xbda27a43	-0.07933476
15	0x3da96d88	0.082728446
16	0x3d886027	0.066589646
17	0xbcd85eac	-0.02641233
18	0x3da3967d	0.07987688
19	0x3be01403	0.006838323
20	0xbd743a81	-0.059626106
21	0x3d77a1aa	0.06045691
22	0x3d94d872	0.07267846
23	0xbd86ab30	-0.0657562
24	0xbddf5554	-0.10904947
25	0xbd24ca43	-0.040231954
26	0xbcb03d5f	-0.021513639
27	0xbd696ed4	-0.05699046
28	0x3c7f9afc	0.015600916
29	0x3dae5535	0.08512346
30	0x3cf48a30	0.02985105
31	0x3c1f49c3	0.009722176
32	0xbd8b5c19	-0.068046756
33	0xbc77f06a	-0.015133003
34	0xbd4c863e	-0.04993271
35	0x3d8298e1	0.063768156
36	0x3c84ae75	0.016196469
37	0xbd33442d	-0.04376619
38	0x3b550dc8	0.0032509435
39	0x3d24c223	0.040224206
40	0x3d6bc21e	0.05755817
41	0x3c9f3f11	0.019439252
42	0xbd80af89	-0.06283481
43	0x3d894a87	0.06703668
44	0xbcafe1b1	-0.021469923
45	0xbc251cb4	-0.010077644
46	0xbd7c3fd8	-0.061584324
47	0x3c123cca	0.008925626
48	0xbd698549	-0.057011876
49	0x3d3d6a91	0.046244208

layers.0.edge_model.edge_mlp.5.running_mean f4 [50]
0	0xbd81cb3b	-0.06337591
1	0x3d051a87	0.032496
2	0x3de5483a	0.11195417
3	0xbd8ee988	-0.06978136
4	0xbea0d8a7	-0.31415293
5	0xbe9161c8	-0.28394914
6	0xbe006d2c	-0.12541646
7	0xbc813c38	-0.015775785
8	0x3df0ab50	0.11751425
9	0xbdbd0fc0	-0.0923152
10	0xbd90bcc7	-0.070672564
11	0xbe800048	-0.25000215
12	0x3cfd0f96	0.030891221
13	0xbd882141	-0.06646968
14	0xbd37f35d	-0.044909824
15	0x3cc572a4	0.024102516
16	0xbe4275de	-0.18990275
17	0xbda1a830	-0.07893407
18	0x3dc4c8c6	0.09608607
19	0xbe3cb23b	-0.18427365
20	0x3c505083	0.012714508
21	0x3da10c30	0.07863653
22	0xbe61632a	-0.22010484
23	0xbe8e9955	-0.27851358
24	0x3dec36e1	0.11533905
25	0x3e0aca8d	0.1355383
26	0x3d43ac91	0.047771994
27	0xbe3d1647	-0.1846553
28	0xbea1f7ab	-0.31634268
29	0xbd667a1d	-0.0562688
30	0xbdfe61f9	-0.124210306
31	0x3e9cf725	0.30657306
32	0xba88922c	-0.0010419539
33	0xbea67cbf	-0.3251705
34	0xbd69803d	-0.057007063
35	0x3e4d5f24	0.20055825
36	0xbe4530dd	-0.19256921
37	0xbdd1b7e2	-0.10240151
38	0x3c643b88	0.013930209
39	0xbd9d9c72	-0.07695855
40	0xbe580682	-0.21096233
41	0xbdfccfb6	-0.12344305
42	0xbed36c7d	-0.41293707
43	0x3b668d38	0.0035179388
44	0xbe1b8380	-0.15186882
45	0x3c6e9e4a	0.014564106
46	0xbeed2409	-0.46316555
47	0xbd15ad11	-0.036542002
48	0x3e4b61d8	0.19861543
49	0xbe41ef84	-0.18939024

layers.0.edge_model.edge_mlp.5.running_var f4 [50]
0	0x3fa50168	1.2891054
1	0x3fc819a8	1.563283
2	0x3fa27c54	1.2694192
3	0x3fb2f22b	1.3980154
4	0x3fa2ee51	1.2728978
5	0x3f842061	1.0322381
6	0x3f590198	0.84768057
7	0x3fc21d8b	1.5165266
8	0x3fa3182d	1.2741753
9	0x3f78be66	0.97165525
10	0x3f3ba956	0.7330526
11	0x3f5b5894	0.85682034
12	0x3f95b234	1.1695008
13	0x3f7ac57b	0.9795758
14	0x3f9540b2	1.1660368
15	0x3fc27124	1.5190778
16	0x3f9f9c32	1.2469542
17	0x3fd82b66	1.6888244
18	0x3fa07d40	1.2538223
19	0x3f7d9d62	0.9906827
20	0x3f7fd2af	0.9993085
21	0x3fe03f9b	1.7519411
22	0x3f364a29	0.7120691
23	0x3f71bea6	0.9443153
24	0x3f8a497b	1.0803674
25	0x3fb39636	1.4030216
26	0x3fa43fd8	1.2831984
27	0x3f58b927	0.8465752
28	0x3fb0c892	1.3811209
29	0x3f83681d	1.0266148
30	0x3fa916f6	1.3210132
31	0x3f9d8366	1.2305725
32	0x3fb643bb	1.423942
33	0x3f9f1c38	1.2430487
34	0x3f7440d2	0.9541141
35	0x3fce8826	1.6135299
36	0x3ff9460c	1.9474502
37	0x3fc10c6c	1.5081916
38	0x3f8b1207	1.0864877
39	0x3fbdc881	1.4826814
40	0x3f3affaa	0.7304636
41	0x3fd91c38	1.6961737
42	0x3f467b5c	0.7753198
43	0x3f8c440b	1.0958265
44	0x3fafbe06	1.3729866
45	0x3fde82a0	1.7383614
46	0x3f6f7a57	0.9354605
47	0x3f924e49	1.1430141
48	0x3fdf5e43	1.7450641
49	0x3f851327	1.039647

layers.0.edge_model.edge_mlp.6.weight f4 [14, 50]
0	0x3e12b0d7	0.14325272
1	0xbdd4d0b0	-0.103913665
2	0x3d97928b	0.07400998
3	0x3dbc5750	0.09196341
4	0x3e36d793	0.17855673
5	0x3dfae43a	0.12250562
6	0x3d8bf971	0.068346865
7	0xbd055733	-0.032553863
8	0x3c0fd3fd	0.008778569
9	0x3d95971b	0.07304212
10	0xbd8babe4	-0.06819895
11	0xbe272655	-0.16323216
12	0x3c92efef	0.017936675
13	0xbe2dddbf	-0.1697912
14	0x3ccf5bc5	0.025312314
15	0xbbc4634a	-0.0059932815
16	0x3db8c64e	0.090221986
17	0x3dd53f3b	0.10412451
18	0xbe2dff3f	-0.169919
19	0x3e12e66d	0.14345713
20	0xbe293a4b	-0.16526143
21	0xbe2b091f	-0.16702698
22	0xbc616638	-0.013757281
23	0x3d3c96a7	0.04604211
24	0xbd1bf7eb	-0.03807823
25	0xbcfae31e	-0.030625876
26	0xbc7014b4	-0.0146533735
27	0xbd178f09	-0.037001643
28	0xbd6d9415	-0.05800255
29	0x3d7c612e	0.061616115
30	0x3d36ff62	0.044677146
31	0xbd90bf85	-0.070677795
32	0x3d975a87	0.073903136
33	0x3e005c30	0.12535167
34	0xbd1bd252	-0.038042374
35	0xbd618cfd	-0.055066098
36	0x3dda98f3	0.10673704
37	0xbc8dbb47	-0.017301215
38	0x3dfdfa42	0.124012485
39	0x3e113461	0.14180137
40	0xbe17936b	-0.14802329
41	0x3c1887ac	0.00930969
42	0xbdd88c76	-0.10573666
43	0x3cb8cc87	0.022558464
44	0x3dff9918	0.12480372
45	0x3cb016fb	0.021495333
46	0xbd78af87	-0.06071427
47	0x3d4c2318	0.049838156
48	0x3dbff67c	0.09373185
49	0xbd268986	-0.040658496
50	0x3cd092b3	0.025460577
51	0xbb4de647	-0.0031417774
52	0x3c802856	0.015644234
53	0xbd8f06f2	-0.069837466
54	0x3d5e7f53	0.054320645
55	0x3db75dd8	0.08953446
56	0x3c78bc77	0.015181652
57	0xbc95a2b8	-0.018266067
58	0xbdfee438	-0.12445873
59	0xbe1a2288	-0.15052235
60	0xbd6cd332	-0.0578186
61	0xbd812dde	-0.063075766
62	0x3a9fe06e	0.0012197623
63	0x3e04a78d	0.1295454
64	0x3c1b1d44	0.009467427
65	0xbdaa2351	-0.08307517
66	0xbbe42de3	-0.006963478
67	0xbd13b36b	-0.03605978
68	0xbe051c84	-0.12999159
69	0xbdcb0e0b	-0.09914788
70	0x3e125a36	0.14292225
71	0xbd1d7b6a	-0.038447775
72	0xbd44cc65	-0.04804649
73	0x3c870b9d	0.01648503
74	0x3d48e4be	0.04904627
75	0x3de8fd6f	0.113764636
76	0x3d820b2e	0.063497886
77	0x3d8568d3	0.06514134
78	0xbdd94689	-0.10609157
79	0x3d7dfd7b	0.062009316
80	0xbddc8ab6	-0.107686445
81	0xbd285326	-0.04109492
82	0xbda7846c	-0.08179554
83	0xbd0b9aea	-0.034083284
84	0x3e2185b0	0.15773654
85	0xbdf68c49	-0.12038476
86	0xbdd3fbd8	-0.1035077
87	0x3e0ce02c	0.1375739
88	0xbe051d54	-0.12999469
89	0xbe03dc5d	-0.1287703
90	0x3ce1ec40	0.027578473
91	0x3d248f56	0.04017576
92	0x3d0f0102	0.03491307
93	0x3daa9375	0.083289064
94	0xbe1a1327	-0.15046369
95	0xbd9bb9bf	-0.07603788
96	0x3e098cd1	0.13432623
97	0x3e1daeb9	0.15398683
98	0x3bffd2c1	0.0078071062
99	0xbd4a1327	-0.04933467
100	0x3d036a43	0.03208376
101	0xbdecafe9	-0.1155699
102	0xbd9681d0	-0.073489785
103	0x3d7656de	0.060141437
104	0x3de26eba	0.11056276
105	0x3db9cd5e	0.09072374
106	0x3e1bf1b7	0.15228926
107	0xbd36a395	-0.044589598
108	0xbda5dfcf	-0.08099329
109	0x3d7f85a2	0.0623833
110	0x3db7ee53	0.089810036
111	0x3e034121	0.12817813
112	0xbde51ef5	-0.11187545
113	0x3df6648a	0.12030895
114	0x3d69b067	0.057052996
115	0x3db6a20d	0.089176275
116	0x3e05757b	0.13033096
117	0xbd0c6595	-0.034276564
118	0x3ddb8ee0	0.107206106
119	0xbd82c6c0	-0.06385565
120	0xbd5e32fa	-0.054247834
121	0x3e043d7f	0.12914084
122	0x3d9cd1fa	0.07657237
123	0x3e2eb3ce	0.17060778
124	0x3d800dda	0.06252642
125	0x3d3d6c8c	0.046246096
126	0x3dffbabe	0.1248679
127	0x3df3ffd1	0.119140275
128	0x3d83d4d7	0.0643708
129	0x3a341ae1	0.00068704603
130	0xbcdbddf7	-0.02683924
131	0x3d5fde5a	0.05465541
132	0xbdd145d7	-0.10218399
133	0xbd19e8ae	-0.037575416
134	0x3e1bcad3	0.1521409
135	0xbd878ba6	-0.06618433
136	0xbd1ca976	-0.038247548
137	0xbd4b3604	-0.04961206
138	0x3dca8470	0.09888542
139	0xbe06d84b	-0.13168447
140	0x3d3dcaa1	0.04633582
141	0xbda0fd17	-0.07860773
142	0xbe02fc39	-0.12791528
143	0xbd2f1040	-0.042740107
144	0xbe30e690	-0.17275453
145	0x3ddea91c	0.10872099
146	0x3e07bb7c	0.13255113
147	0x3d666ef5	0.05625816
148	0xbd9d9168	-0.0769375
149	0xbd7517db	-0.059837203
150	0x3c104f98	0.008808039
151	0xbd795d50	-0.060880005
152	0xbdcf2253	-0.10113969
153	0xbc6306d9	-0.013856613
154	0xbdae67f2	-0.0851592
155	0xbd6e6b1e	-0.058207624
156	0xbdf5838e	-0.11987983
157	0x3d6df703	0.058096897
158	0xbda5624c	-0.08075389
159	0x3e05d084	0.13067824
160	0xbcae5865	-0.021282384
161	0x3d8aeefd	0.06783865
162	0xbe172de7	-0.14763604
163	0xbc847451	-0.016168745
164	0x3d885160	0.06656146
165	0xbc12f8ba	-0.008970434
166	0xbe10d8e1	-0.14145233
167	0xbd9e5a93	-0.077321194
168	0xbd27f274	-0.041002706
169	0x3c8d924b	0.017281672
170	0xbd4b0647	-0.049566533
171	0x3ba92e6a	0.0051630037
172	0xbd9d5d53	-0.07683816
173	0xbd5dcf08	-0.05415252
174	0x3c17ac59	0.0092573995
175	0xbd4daaf5	-0.050211865
176	0x3d18c2e1	0.037295226
177	0xbda67bca	-0.0812908
178	0xbd192e2b	-0.037397545
179	0x3d9daa81	0.07698537
180	0xbd5d0846	-0.05396297
181	0xbdb4f729	-0.088362046
182	0xbdc415d8	-0.09574479
183	0xbdae63d6	-0.08515136
184	0xbd5cad52	-0.05387623
185	0x3db1e240	0.08685732
186	0xbd922679	-0.07136244
187	0x3dfeb399	0.12436599
188	0x3d7232f2	0.059130616
189	0x3d99e9fa	0.075153306
190	0x3dddea40	0.10835695
191	0xbcc39544	-0.023874886
192	0xbe28fd12	-0.16502789
193	0x3d5c05f3	0.05371661
194	0xbd739776	-0.059470616
195	0xbd9625fe	-0.07331465
196	0x3dfbc672	0.1229371
197	0xbe2409c7	-0.16019355
198	0xbc0a8f27	-0.008456982
199	0xbe1f7f8d	-0.15576
200	0xbdf54f0a	-0.11977966
201	0x3d667753	0.05626614
202	0x3cf97601	0.030451776
203	0x3da1bacb	0.07896956
204	0xbdd03ac0	-0.10167456
205	0xbda9ad58	-0.08285016
206	0xbd98eb94	-0.07466808
207	0x3e1a4abd	0.15067573
208	0x3dd10275	0.10205547
209	0xbe1177cb	-0.14205854
210	0xbbba9075	-0.00569349
211	0xbda68147	-0.081301264
212	0x3ce1bf89	0.027557151
213	0xbd5816d4	-0.052756146
214	0xbe20966b	-0.1568238
215	0xbdb5d124	-0.08877781
216	0xbd7c943e	-0.061664812
217	0xbe33e052	-0.1756604
218	0xbe002144	-0.1251269
219	0xbe0a9ae3	-0.13535647
220	0xbdaacaee	-0.08339487
221	0xbd8cc3d5	-0.068732895
222	0x3ce51275	0.027962903
223	0x3e0b03ac	0.1357562
224	0x3d9d2ce9	0.076745816
225	0xbdc8bc0a	-0.098014906
226	0x3caeb9bf	0.021328805
227	0xbda6a946	-0.08137755
228	0xbc6766a3	-0.014123592
229	0x3d3da821	0.04630292
230	0xbd12638d	-0.03573947
231	0x3dc34ece	0.09536515
232	0xbdb3483a	-0.087540105
233	0xbdac7dad	-0.08422408
234	0xbd57b009	-0.052658115
235	0xbe0dcc6a	-0.13847509
236	0xbce1be90	-0.027556688
237	0xbdddc222	-0.108280435
238	0x3dc06d44	0.09395841
239	0xbe1d1c2f	-0.15342782
240	0xbd23333e	-0.03984379
241	0xbdc7ec5f	-0.09761881
242	0xbde058f5	-0.10954467
243	0xbc22496a	-0.009905199
244	0xbe20d601	-0.15706636
245	0x3dbb350f	0.091409795
246	0xbbd8f51f	-0.0066210176
247	0xbd325d4a	-0.043546
248	0xbcb384fa	-0.021913994
249	0x3cd49afc	0.025952809
250	0xbd15d7e4	-0.036582842
251	0xbce05982	-0.02738643
252	0x3d75eb9c	0.060039148
253	0x3da7cd0c	0.081934065
254	0x3e0df029	0.13861145
255	0xbd47a3e8	-0.048740298

layers.0.edge_model.edge_mlp.6.bias f4 [14]
0	0xbc84c8b4	-0.016208984
1	0xbe314e5d	-0.1731505
2	0x3da576de	0.08079313
3	0xbcec54e6	-0.028849076
4	0x3d234eb1	0.039869968
5	0x3cd4ad34	0.025961496
6	0xbc9d2e59	-0.01918714
7	0xbde61979	-0.11235327
8	0xbdb2acf4	-0.087243944
9	0xbd8868e7	-0.066606335
10	0x3e1639af	0.14670442
11	0x3e019061	0.12652732
12	0xbcdaf3bf	-0.026727555
13	0x3bff9bf0	0.0078005716

layers.0.node_model.node_mlp_1.0.weight f4 [50, 99]
0	0xbca4c387	-0.020112766
1	0x3d059d6b	0.03262083
2	0xbd9a42a3	-0.07532241
3	0x3d81da91	0.06340516
4	0xbc79498a	-0.015215287
5	0x3d9e900d	0.07742319
6	0xbd41cd75	-0.04731508
7	0x3d9698f9	0.07353396
8	0xbc50d6a2	-0.012746485
9	0x3d752786	0.059852146
10	0x3ba6619a	0.005077553
11	0x3cc90c90	0.024542123
12	0xbca6dd0c	-0.020369075
13	0x3d1856f9	0.03719232
14	0x3ca54453	0.020174181
15	0xbeafd7db	-0.34344372
16	0x3dc0ffa9	0.09423763
17	0xbbe85e2d	-0.0070913048
18	0xbd03360f	-0.032033976
19	0xbd813407	-0.063087516
20	0x3d9defe3	0.077117704
21	0x3d722e78	0.059126347
22	0xbd41bbe0	-0.047298312
23	0x3dac1a3a	0.0840344
24	0xbd8e2dad	-0.06942306
25	0xbb470d6d	-0.0030372993
26	0x3cee49ed	0.029087985
27	0x3dcdcda8	0.100489914
28	0xbd96e4b2	-0.07367839
29	0x3d6eded5	0.058317978
30	0xbc5b783a	-0.013395363
31	0x3d3af0fc	0.045639977
32	0x3a3b2a93	0.0007139828
33	0x3cdd3454	0.027002491
34	0x3d5cba9b	0.0538889
35	0xbcf8e698	-0.030383393
36	0xbd460ee7	-0.048354056
37	0xbd3ec776	-0.04657694
38	0x3daff167	0.08590966
39	0x3d47c637	0.048773017
40	0xbdb1e1e4	-0.08685663
41	0x3d9c7e84	0.076413184
42	0x3d8835ac	0.06650862
43	0xbd8c3074	-0.06845179
44	0xbc5d53a9	-0.013508716
45	0x3d07deb0	0.033171356
46	0x3dcc4c7c	0.09975526
47	0x3d984c3d	0.07436416
48	0x3cb8d264	0.02256126
49	0xbcd51a68	-0.026013568
50	0x3da22dd6	0.07918899
51	0x3dc86347	0.09784561
52	0x3d9c0de3	0.07619836
53	0x3d56e61c	0.052465543
54	0x3cb8bb20	0.022550166
55	0x3d17d7cf	0.037071045
56	0x3daabad9	0.083364196
57	0xbd9c1d87	-0.076228194
58	0x3dbac9b1	0.09120501
59	0x3d7aac2a	0.061199345
60	0x3d6f4b34	0.05842133
61	0x3da76249	0.08173043
62	0xbd459fa1	-0.048247937
63	0x3e04bd29	0.12962784
64	0x3d217262	0.039415725
65	0x3c56fd02	0.013121845
66	0xbd917e3c	-0.071041554
67	0x3ce1aede	0.027549203
68	0x3dbb714e	0.091524705
69	0x3c6a033d	0.014282999
70	0x3dbc02da	0.091802314
71	0xbd9ffc7c	-0.078118294
72	0x3e1b4d82	0.15166286
73	0xbdaaa26e	-0.08331762
74	0xbca7820c	-0.020447753
75	0xbdfadecc	-0.122495264
76	0xbd91df54	-0.071226746
77	0x38a36b4d	7.792432e-05
78	0x3c6b55d7	0.0143637275
79	0xbc1a3fb4	-0.009414602
80	0xbdcc8880	-0.09986973
81	0x3db3a85c	0.087723464
82	0xbd1c2153	-0.038117718
83	0x3dc7d278	0.097569406
84	0x3d2a4cd5	0.04157718
85	0x3cacd96f	0.021099774
86	0x3d56e8bc	0.052468047
87	0xbc943346	-0.018090855
88	0xbcb108b0	-0.021610588
89	0x3cea8f7f	0.028632877
90	0xbdd1402a	-0.102173164
91	0xbd5d4a75	-0.054026086
92	0x3d8957f7	0.06706231
93	0xbda27d7a	-0.07934089
94	0xbdaefeb3	-0.08544674
95	0x3d2f44d4	0.04279025
96	0xbd61858a	-0.055058993
97	0xbe0a57db	-0.13510077
98	0x3d545833	0.051841926
99	0x3d152712	0.036414213
100	0x3d1a5f2b	0.037688415
101	0xbdb8b3c1	-0.0901866
102	0xbd8a4455	-0.067513146
103	0x3d551aa8	0.052027375
104	0x3a82fa17	0.0009992745
105	0x3e4a0f41	0.19732381
106	0x3d8f3e58	0.06994313
107	0x3d141ea5	0.036162037
108	0x3d958e21	0.073024996
109	0x3d6d2346	0.057894967
110	0x3d4c8cff	0.04993915
111	0xbc71acec	-0.0147507
112	0xbd44b508	-0.048024207
113	0xbcd54491	-0.026033672
114	0x3c490d4a	0.012271235
115	0xbdc45f9d	-0.09588549
116	0x3d968cbe	0.07351063
117	0xbd91f932	-0.07127608
118	0xbd858956	-0.065203354
119	0x3d072812	0.0329972
120	0xbdb89c5d	-0.09014199
121	0x3b1c1ab7	0.0023819634
122	0x3ccc7d2d	0.024962032
123	0x3dcdb4a0	0.10044217
124	0x3d19254b	0.03738908
125	0x3d6b59c8	0.05745867
126	0xbc8f90c6	-0.017525088
127	0xbdafe593	-0.0858871
128	0x3d8a85f0	0.06763828
129	0xbdad63bf	-0.08466291
130	0x3c3de857	0.011591039
131	0xbd966452	-0.07343353
132	0x3d62601d	0.055267442
133	0x3d19b78a	0.037528552
134	0xbd77aa52	-0.060465164
135	0xbd74ba3d	-0.059747923
136	0x3c39cd06	0.011340385
137	0x3d9f440c	0.07776651
138	0xbb2bc76e	-0.0026211399
139	0xbd9591bc	-0.07303187
140	0x3d96d898	0.07365531
141	0xbd93a903	-0.07209971
142	0x3d840fe8	0.064483464
143	0xbd4c8088	-0.049927264
144	0x3d05fadd	0.032709945
145	0xbc20ddad	-0.009818477
146	0x3dbb7dfc	0.09154889
147	0xbce7b217	-0.028283162
148	0xbdb13191	-0.08652032
149	0xbc5e31f9	-0.013561719
150	0xbd86be33	-0.06579246
151	0x3dc1a969	0.094561405
152	0x3d7e3ca7	0.06206956
153	0xbd4915b9	-0.049092982
154	0x3da4a556	0.08039348
155	0xbca429bb	-0.02003943
156	0xbcd86698	-0.026416108
157	0x3e1e2ff2	0.15447977
158	0x3d78e191	0.060761992
159	0xbd16b62f	-0.036794838
160	0x3e2d054c	0.16896552
161	0x3d9e3214	0.077243954
162	0xbd95c73e	-0.07313393
163	0xbd30e47e	-0.043186657
164	0xbca779fa	-0.020443905
165	0xbd7e53e8	-0.062091738
166	0xbd0ee30e	-0.034884505
167	0x3ca422d2	0.020036135
168	0xbd947268	-0.07248384
169	0x3d9873cb	0.07443961
170	0xbd601775	-0.05470987
171	0xbd282214	-0.041048124
172	0x3dab8289	0.08374507
173	0x3c151f19	0.009101653
174	0x3dd89e2a	0.105770424
175	0xbd867a58	-0.06566304
176	0xbd8722ff	-0.06598472
177	0x3e610d30	0.21977687
178	0xbdb80cca	-0.08986814
179	0xbd467f96	-0.04846152
180	0x3d60042c	0.05469148
181	0xbce7f04d	-0.028312827
182	0x3da7eb5b	0.08199187
183	0x3d430cd1	0.047619645
184	0x3d8d16a7	0.06889086
185	0xbda0fce7	-0.07860737
186	0x3d8d8744	0.069105655
187	0xbc13b025	-0.009014164
188	0xbd8681d1	-0.06567729
189	0x3d4ad528	0.049519688
190	0x3da00f1f	0.07815384
191	0x3d2246be	0.039618246
192	0x3db82dcc	0.0899311
193	0xbd172e5c	-0.036909446
194	0x3de92119	0.11383266
195	0x3ddfdc46	0.10930686
196	0x3ccd55ac	0.025065266
197	0xbcdaf2aa	-0.02672704
198	0x3d835c74	0.064141184
199	0xbd40a460	-0.04703176
200	0x3da9b86e	0.0828713
201	0xbd33e883	-0.043922912
202	0x3dba53e4	0.09098032
203	0x3da9bba4	0.08287743
204	0xbd8e09eb	-0.069354855
205	0x3de808af	0.11329781
206	0xbd94eadb	-0.072713576
207	0x3d2648ce	0.040596776
208	0xbdc9c0be	-0.09851216
209	0xbcbf5f05	-0.023360739
210	0xbd6f4373	-0.058413934
211	0xbb5bdbba	-0.0033547715
212	0xbdc1b962	-0.09459187
213	0x3d8022e0	0.06256652
214	0xbc8c70ea	-0.017143685
215	0xbb4fe1c2	-0.0031720256
216	0x3d1a9763	0.03774203
217	0x3c88dd4d	0.016707087
218	0xbdc58774	-0.09644976
219	0xbd25b6c2	-0.040457495
220	0x3dae7dfc	0.08520123
221	0xbc50ec98	-0.012751721
222	0xbd9ead3e	-0.07747887
223	0x3da97391	0.08273996
224	0xbdb66c23	-0.08907344
225	0xbd4e3298	-0.05034122
226	0x3ccae19d	0.024765784
227	0xbd0c0871	-0.034187738
228	0x3d0642f9	0.032778714
229	0xbcb1ab23	-0.02168805
230	0xbce8d6db	-0.028422764
231	0xbd948334	-0.072515875
232	0x3d6a5bc8	0.057216436
233	0x3bfad3aa	0.007654627
234	0xbd5b4b40	-0.05353856
235	0x3c8f8855	0.017521063
236	0xbd039d2d	-0.032132316
237	0x3d2aab6e	0.041667394
238	0x3d58138c	0.052753016
239	0xbd19f938	-0.03759119
240	0x3d802fe6	0.06259136
241	0xbd31b5f7	-0.043386426
242	0xbd0f3bb3	-0.034969043
243	0xbd8d522d	-0.069004394
244	0x3da17319	0.07883281
245	0x3cb5e4e2	0.022203866
246	0x3d4efa42	0.050531633
247	0x3d19ec44	0.037578836
248	0x3d542eca	0.051802434
249	0x3b747213	0.003729944
250	0xbb0df28c	-0.0021659462
251	0xbd5b32ba	-0.053515173
252	0x3d9373df	0.07199835
253	0xbbb172c3	-0.005415292
254	0x3d4d2a2c	0.050089046
255	0x3d116ea4	0.035505906

layers.0.node_model.node_mlp_1.0.bias f4 [50]
0	0x39ecd807	0.0004517438
1	0x3dd34d80	0.10317516
2	0x3dd76804	0.10517886
3	0x3d89b928	0.06724769
4	0x3d2d4da7	0.042310383
5	0x3e04140c	0.12898272
6	0xbd35cb03	-0.04438306
7	0xbd13b08c	-0.03605704
8	0xbcba2f51	-0.02272764
9	0xbd7743f5	-0.060367543
10	0xbc33ba06	-0.010969644
11	0x3d824c31	0.063621886
12	0x3e054dcd	0.1301796
13	0x3cde5c19	0.027143525
14	0x3d016440	0.031589746
15	0xbd9187fe	-0.071060166
16	0xbdbf3d15	-0.09337822
17	0xbb3372fb	-0.0027381766
18	0xbd1aa23d	-0.03775238
19	0x3e103832	0.14083937
20	0xbbaca66b	-0.005268862
21	0xbdf32af2	-0.118734255
22	0xbe1df589	-0.15425695
23	0xbdc46e24	-0.0959132
24	0xbd3d6617	-0.04623994
25	0xbce3c105	-0.027802
26	0xbd6894cb	-0.056782525
27	0xbd9a339c	-0.07529375
28	0x3ddc20ab	0.107484184
29	0xbca8f44b	-0.0206243
30	0x3d27e4f5	0.040989835
31	0x3e2a159f	0.1660981
32	0x3daca549	0.08429963
33	0xbd018308	-0.0316191
34	0x3dabb3d9	0.083839126
35	0xbdf4f6e3	-0.119611524
36	0x3c225e60	0.009910196
37	0xbc46e537	-0.01213961
38	0x3e5436c3	0.20724015
39	0x3c3babfb	0.011454578
40	0xbe3f69f5	-0.18692763
41	0xbd87e572	-0.0663556
42	0xbbe53f7f	-0.0069960947
43	0xbbb9c593	-0.0056693046
44	0x3d9de45d	0.077095725
45	0x3d6dbf40	0.05804372
46	0xbd61027b	-0.054934006
47	0x3d979a77	0.07402509
48	0xbcdf1f49	-0.027236598
49	0x3ca97312	0.020684753

layers.0.node_model.node_mlp_1.2.weight f4 [50]
0	0x3f82cb60	1.0218315
1	0x3f7b6f0d	0.98216325
2	0x3f8541c4	1.0410695
3	0x3f88a2ca	1.0674679
4	0x3f81143f	1.0084304
5	0x3f7d49ae	0.9894055
6	0x3f7d1b3a	0.9886967
7	0x3f831623	1.024113
8	0x3f8397f7	1.0280751
9	0x3f8025f8	1.0011587
10	0x3f884fed	1.0649391
11	0x3f861464	1.0474973
12	0x3f8335c3	1.0250782
13	0x3f7b6de5	0.9821456
14	0x3f818553	1.0118812
15	0x3f825be3	1.0184292
16	0x3f834d05	1.025788
17	0x3f6d8b96	0.92791116
18	0x3f80a1ba	1.0049355
19	0x3f7b35fa	0.98129237
20	0x3f7a9c19	0.97894436
21	0x3f88e371	1.069441
22	0x3f88d0a8	1.0688677
23	0x3f8709d2	1.0549872
24	0x3f806174	1.002974
25	0x3f8679eb	1.0505956
26	0x3f877752	1.0583289
27	0x3f80ccce	1.0062501
28	0x3f8265e4	1.0187345
29	0x3f8647b8	1.0490637
30	0x3f84aa1e	1.0364416
31	0x3f811bd1	1.0086614
32	0x3f7e2640	0.99277115
33	0x3f71637b	0.9429242
34	0x3f7bff3b	0.98436326
35	0x3f78524a	0.97000563
36	0x3f7d6c30	0.98993206
37	0x3f7ea8cd	0.9947632
38	0x3f8252ac	1.018148
39	0x3f78e8b6	0.9723009
40	0x3f81606f	1.0107554
41	0x3f84252d	1.0323845
42	0x3f759b5a	0.9594017
43	0x3f76766f	0.96274465
44	0x3f785e6e	0.9701909
45	0x3f83397a	1.0251915
46	0x3f879ffd	1.05957
47	0x3f8105df	1.0079917
48	0x3f76e296	0.9643949
49	0x3f75493d	0.9581488

layers.0.node_model.node_mlp_1.2.bias f4 [50]
0	0x3db06294	0.08612552
1	0x3cf5bafc	0.029996388
2	0x3d8b0286	0.06787591
3	0xba625ed6	-0.00086353475
4	0x3e1f68d1	0.15567328
5	0x3e4e6078	0.20153987
6	0xbdf335e1	-0.11875511
7	0x3e23ac2a	0.15983644
8	0xbdf59f96	-0.11993329
9	0xbcaa4b6f	-0.020787923
10	0x3e164364	0.14674145
11	0xbc899227	-0.016793324
12	0x3d0777f5	0.033073384
13	0xbd85f84f	-0.06541502
14	0x3b6aebe1	0.0035846161
15	0x3be7ccd2	0.007073977
16	0xbd211f81	-0.039336685
17	0x3cd6b41f	0.026208935
18	0x3d89b4e6	0.06723957
19	0xbd955ceb	-0.07293113
20	0x3d9f19a7	0.07768565
21	0x3d99937d	0.07498834
22	0xbd459f42	-0.048247583
23	0x3d64dcf0	0.055874765
24	0x3d721f39	0.059111807
25	0x3c9d58ca	0.019207377
26	0xbde3990d	-0.111131765
27	0x3cf957d2	0.030437384
28	0x3ca460de	0.020065721
29	0xbbc0cf63	-0.0058840974
30	0xbdf10869	-0.11769182
31	0xbcb9b827	-0.022670818
32	0x3b9b0f90	0.00473208
33	0xbd37453d	-0.044743765
34	0xbd0284f6	-0.031865083
35	0x3de357d8	0.11100739
36	0x3e237bbc	0.1596517
37	0xbe4696c7	-0.19393454
38	0xbd0aeebe	-0.03391909
39	0x3db52862	0.08845593
40	0x3e17c769	0.14822163
41	0x3dcde711	0.10053838
42	0x3c6e1c65	0.014533137
43	0x3d1fae49	0.03898457
44	0x3d2eeb32	0.04270477
45	0x3e031fb0	0.12805057
46	0xbd8e49af	-0.06947648
47	0x3c7e8281	0.015534044
48	0x3e5a24a2	0.21303037
49	0xbde4c059	-0.111695

layers.0.node_model.node_mlp_1.2.running_mean f4 [50]
0	0x3d9dc34e	0.07703267
1	0x3dd6d6bf	0.10490178
2	0x3f30b8ac	0.69031787
3	0xbeafc19f	-0.3432741
4	0x3e2dd67a	0.16976348
5	0x3e271bf2	0.16319254
6	0xbe981dd7	-0.29710266
7	0x3e7a745a	0.24458447
8	0x3e796e72	0.24358538
9	0xbe71c0a3	-0.23608641
10	0x3db3fe26	0.08788709
11	0xbdbeb84f	-0.09312498
12	0x3f086e31	0.5329314
13	0xbeba2b77	-0.36361286
14	0x3e377a65	0.17917784
15	0xbe676666	-0.22597656
16	0xbeffc0c4	-0.49951756
17	0xbe8a105d	-0.2696561
18	0xbc835f6e	-0.016036715
19	0x3ccd057f	0.025027035
20	0x3e15aae2	0.14615968
21	0xbed2af7c	-0.4114951
22	0xbf0bfed4	-0.5468571
23	0x3c8cf26a	0.017205436
24	0xbaa87dfd	-0.001285493
25	0xbe715ec2	-0.23571303
26	0xbd308a9e	-0.043100946
27	0xbe921b93	-0.28536662
28	0x3e8cb85a	0.274844
29	0x3dfac72a	0.12245019
30	0xbea7046b	-0.32620558
31	0x3e91f81f	0.28509614
32	0xbcec3a34	-0.028836347
33	0x3e82fa83	0.2558175
34	0xbd8cab0d	-0.06868563
35	0xbf0b3dc8	-0.54391146
36	0xbe52abce	-0.20573351
37	0x3e67f324	0.22651345
38	0x3f032d84	0.51241326
39	0xbf049dd1	-0.5180331
40	0xbf3c4a18	-0.7355056
41	0xbebbc2ad	-0.36671963
42	0x3e7b2cc2	0.24528793
43	0xbe43824c	-0.19092673
44	0xbe48a3d6	-0.19593748
45	0xbec8501d	-0.39123622
46	0x3d2896b2	0.04115934
47	0x3e13f0a8	0.14447272
48	0xbe1e5dee	-0.15465519
49	0x3e073966	0.1320549

layers.0.node_model.node_mlp_1.2.running_var f4 [50]
0	0x3da9c2ac	0.08289084
1	0x3e1c7c24	0.15281731
2	0x3ddb9124	0.10721043
3	0x3e832bed	0.2561945
4	0x3dada1e0	0.08478141
5	0x3d8c8a36	0.06862299
6	0x3e38e3b5	0.18055613
7	0x3e335ae1	0.17515136
8	0x3deea5c6	0.116527125
9	0x3e90e29f	0.28297898
10	0x3e953cd2	0.29147965
11	0x3e17bf2d	0.14819022
12	0x3d734076	0.059387647
13	0x3e00367b	0.12520783
14	0x3d821675	0.063519396
15	0x3ea4c53e	0.32181734
16	0x3e4182e8	0.18897593
17	0x3e3a5f90	0.18200517
18	0x3e8865f5	0.26640287
19	0x3e7e0a69	0.24808659
20	0x3e18a276	0.14905724
21	0x3e832bdf	0.25619408
22	0x3e913844	0.2836324
23	0x3e5662db	0.20936148
24	0x3e7d9c2b	0.24766605
25	0x3ecd8350	0.40139246
26	0x3e43d10b	0.19122712
27	0x3e3ad6da	0.18246022
28	0x3e4af5ad	0.1982028
29	0x3e0a2323	0.13489966
30	0x3e22c921	0.15897037
31	0x3da812c8	0.08206707
32	0x3e109d07	0.14122401
33	0x3e0a8226	0.1352621
34	0x3e69524a	0.22785297
35	0x3e257588	0.16158116
36	0x3e2c7273	0.16840534
37	0x3d716ee8	0.05894366
38	0x3e1a3f97	0.1506332
39	0x3deda303	0.11603358
40	0x3e0cfb85	0.13767822
41	0x3e6ede66	0.23327026
42	0x3ea2faf0	0.31832075
43	0x3e26e2bd	0.16297431
44	0x3e879856	0.2648341
45	0x3e0f5d76	0.14000496
46	0x3e2b972b	0.16756885
47	0x3e35484d	0.17703362
48	0x3de038fc	0.10948369
49	0x3de2463e	0.11048554
