scripts_pom/leffingwell_models/graphnets_d2/gnn_embedder.pt (torch, 973958 bytes, 112 tensors)

layers.0.edge_model.edge_mlp.0.weight f4 [14, 385]
00000000: f2a4 3c3c 498d 4cbd 7ea6 29bc 31ec 3fbd
00000010: 7982 0fbd beaf e73c b78c 973d e030 b1bd
00000020: 3080 fc3a f618 b2bc 2ac8 d7bc 6189 303d
00000030: 7cbd 093d 5a7a 42bd e337 3bbc 1695 c2bc
00000040: 0ff1 e43c 1f5a b8bc b4d6 b83a 79ce f4bc
00000050: ffac 4dbd 9393 1c3d 967b 433d 359a 1ebd
00000060: d1d5 fcbc 8e24 a6bb 0b69 3bbd 4929 90ba
00000070: 40d2 343d 3f27 47bc 6e85 3bbd 4d2e c3bc
00000080: 7a99 793c 6326 c2bc a166 08bd ced3 143d
00000090: aded babc b8c0 f2bc c713 33bd 298c e13c
000000a0: 71af 373c 53f2 81bc 4691 4a3d c1ed 4dbb
000000b0: 407e 2f3d 6ba2 b13c 8fd8 24bd 1607 033d
000000c0: e029 23bd 519a 373c dca9 07bd 0339 0e3d
000000d0: 64ac 1a3d fef4 be3c d85b cdbc affd 8abd
000000e0: 542a 9ebc ce70 4b3b 5908 acbc eaf7 fc3c
000000f0: 56c5 14bc ceba 42bd 8737 47bd 0e8f 38bd
00000100: 5e97 e1bc 34e6 4a3c 7206 00bb e802 9dbc
00000110: 93c1 4b3c 2752 70bc 3b64 7c3c 57b9 333d
00000120: 70f6 13bd 176d 02bd a261 473d 55f0 b4bc
00000130: a358 8f3a 81cf 1d3c db0c cc3c 941d 57bc
00000140: c72a d63c 1dbf cfb9 802e a53c 4189 713c
00000150: 4e78 6b3d c7aa 8ebc 4268 03bd 058d 72bc
00000160: 8185 d03c 6a61 b5bc 5acd 85bc 61cf ae3d
00000170: 5915 c9bc 90e1 a23c e041 5f3a 31b7 46bd
00000180: ab63 c63b 7a78 053d 1e30 3fbd ef28 0f3b
00000190: 287b 383b 109d 3b3d 32c4 c8bc a2d1 92bc
000001a0: 2c5c afbc 77c8 c3bc cc15 213c 17ad 283d
000001b0: de65 143d b9af 353d f6aa f8bc 01b2 40bd
000001c0: 9aac d53c ccc5 063d 1d10 473d a40d 1f3d
000001d0: 8654 303c 4e2a 65bb c110 053d d35f 093c
000001e0: cf41 9dbc 1de4 a53c 6fcc 053d f336 123d
000001f0: 6de5 e7bc e1b0 a5bc b91d 303d 3d4f a0b7
00000200: eb40 203d ea2e afba ffe5 093d 9809 dabc
00000210: 9a88 a9bc b5bf bcbc bba1 11bd cefe 3fbd
00000220: 71ab 4abd a997 ac3c df5a 02bc 15c2 3d3d
00000230: 04fb a83b 521c a53d 18d7 1b3b 9a30 8ebd
00000240: 3709 e7bc d56c 38bd 63a5 153c 0a78 443d
00000250: c946 b43b f045 08bd 5291 443d 6952 9a3c
00000260: 1a54 f53c ec38 2abd c06d 98ba 3487 083d
00000270: 38ff 3c3d 030c 3bbb f59c de3d cf74 88bd
00000280: 67c1 f0bc fa19 3f3c 596e a7bb 93c1 d03c
00000290: 302a b93c 4c2a a8bc 603c a83c eccb e9bb
000002a0: 49af e23a c824 773d 3cf4 223d 929e c23c
000002b0: f195 853c 6a33 3fbc 236a 963c 21de 373d
000002c0: fbe7 d03b 070b 0cbc f153 1dbd c6e4 f2bc
000002d0: 5676 b2bc e643 c53c 619b 263c 7942 1d3d
000002e0: 1f59 42bd 8583 1a3b 75a6 ec3b 1af6 dbbc
000002f0: 8659 04bb e202 c03c 7c57 9c3c 020b 31bd
00000300: 16ae 8bbb fd4a 103d badc c9bc 0b65 dc3b
00000310: 8db6 b33c 3fcb c6ba 9f60 21bb 209c 6fbc
00000320: 7273 9f3d 57bb fabb 15a2 f13c f857 063b
00000330: 76bf dc3c 0a35 85bc cb3e dcbc e0d7 2dbd
00000340: c5fb bcbb f70e 7e3a 544f 15bd 24c0 8f3c
00000350: 3844 78bb 9fe5 0f3d fd27 e3bc f5ff 853d
00000360: 6ce1 28bb 8471 1f3d 76d1 42bd 2a63 f43c
00000370: 3f1b 7cbc cb52 f03b 7807 013d 1e7f d5bc
00000380: 25bc 5b3c e75a 303b 9724 aabc dab4 fabc
00000390: 5361 5c3b c3f0 80bd 260c 3abc da84 483c
000003a0: f616 aa3c 2aee 6e3b 56ba 1f3d d852 d3ba
000003b0: b0ba 1bbd 96f2 39bd fd8d 17ba 811d b8bb
000003c0: d111 f9bc e25f e43c b608 12bc 1749 9c3d
000003d0: ac21 9d3c 416d bb3a c26b cfbc 96d8 acbc
000003e0: 1207 f3bb 0509 12bd e1f2 1b3d 5803 8c3d
000003f0: 10c0 063d 9b7b 933c 7e4d e43c 19ed df3c
0.011513935 -0.049939428 -0.010354636 -0.04685611 -0.035036538 0.028282043 0.07399886 -0.086519
0.0019264277 -0.021740418 -0.026340563 0.043099765 0.033627972 -0.047479965 -0.011426899 -0.02375273
0.027946977 -0.02250391 0.0014102072 -0.02988361 -0.05021381 0.038226675 0.047725283 -0.038721282
-0.030863674 -0.0050702756 -0.045754474 -0.0010998632 0.044145823 -0.012155353 -0.045781545 -0.023825789
0.015234346 -0.023699945 -0.033301 0.036334805 -0.02281841 -0.029632911 -0.043720033 0.027532654
0.011211262 -0.01586262 0.04945495 -0.003142223 0.04284501 0.021683892 -0.04024559 0.03198918
-0.039834857 0.0112062255 -0.033120975 0.03472234 0.03776206 0.02331018 -0.025068209 -0.067866676
-0.019307293 0.0031042579 -0.021000074 0.030879933 -0.009080252 -0.047541432 -0.04863694 -0.045058303
-0.027537998 0.012383986 -0.0019535092 -0.019166425 0.012436288 -0.014668024 0.015404756 0.043877926
-0.036123693 -0.031842317 0.048677094 -0.022087255 0.001093645 0.009631992 0.024908474 -0.013129611
0.026143445 -0.00039624507 0.020163774 0.014742197 0.05748778 -0.017415417 -0.03208185 -0.0148041295
0.025454285 -0.022141177 -0.01633327 0.08535648 -0.024546312 0.019882947 0.0008516591 -0.04851455
0.006054362 0.0325856 -0.046676748 0.0021844467 0.0028149579 0.045804083 -0.024507616 -0.017922226
-0.021406256 -0.0238993 0.009831857 0.041180696 0.03622996 0.044357035 -0.030354958 -0.047044758
0.02608328 0.032903478 0.04859935 0.038831368 0.010762339 -0.0034967843 0.03248668 0.008384663
-0.019196419 0.020250374 0.032665666 0.035696935 -0.02830764 -0.020225944 0.042997096 -1.9110385e-05
0.03912441 -0.0013365422 0.033666607 -0.026615903 -0.02069502 -0.023040632 -0.03555463 -0.04687386
-0.049479906 0.021068411 -0.007956236 0.04632767 0.0051568765 0.08062042 0.002377933 -0.06942864
-0.028202636 -0.045025665 0.00913367 0.04796604 0.0055016023 -0.033269823 0.04799015 0.018838124
0.02994733 -0.04155819 -0.0011629388 0.033332065 0.046141833 -0.0028541095 0.10869781 -0.066629045
-0.029389096 0.011663908 -0.00510959 0.025482928 0.022603124 -0.020527981 0.020536602 -0.007134905
0.0017294671 0.06033781 0.0397837 0.023757253 0.01630685 -0.011669973 0.018361157 0.044889573
0.0063753105 -0.008547551 -0.03841013 -0.029650103 -0.021784943 0.024080228 0.010168881 0.03839347
-0.047448274 0.0023576927 0.0072219917 -0.026850749 -0.0020194962 0.023438875 0.019084685 -0.04322339
-0.004262696 0.035227764 -0.024641383 0.0067259124 0.021937633 -0.0015166773 -0.002462424 -0.014624625
0.07785691 -0.007651727 0.029496232 0.002049921 0.026946764 -0.016260643 -0.02688541 -0.042442203
-0.005767318 0.0009691561 -0.036452606 0.017547674 -0.0037882458 0.035131093 -0.027729029 0.065429606
-0.0025769128 0.038926616 -0.04756304 0.029832441 -0.015387355 0.0073340884 0.031501263 -0.02606159
0.013411556 0.002690965 -0.0207694 -0.030603815 0.0033627346 -0.06295922 -0.0113554355 0.0122387055
0.020762902 0.0036457875 0.038996063 -0.0016122712 -0.038019836 -0.045397364 -0.0005781351 -0.0056187515
-0.030404003 0.027877752 -0.00891321 0.07631128 0.019181095 0.0014299528 -0.025319938 -0.02109937
-0.0074166143 -0.035653133 0.038073424 0.06836575 0.03289801 0.018003276 0.027868982 0.027334737

layers.0.edge_model.edge_mlp.0.bias f4 [14]
00000000: f1da 493d 74ef 0fbd fcc1 20bb 0293 77bb
00000010: 2dac f03c a5b4 043c 1343 1b3d e840 293d
00000020: e4a6 d23c ff70 6f3c a112 adbb bc9b c538
00000030: 292b 233c d6e5 d4bc
0.049281064 -0.03514047 -0.0024529686 -0.0037776832 0.029378975 0.00809971 0.037905764 0.041321665
0.025714345 0.014614343 -0.0052817618 9.4227e-05 0.009959021 -0.0259885

layers.0.edge_model.edge_mlp.1.weight f4 [14]
00000000: 77e1 753f 814d 863f 9c19 863f 1478 803f
00000010: bc8b 843f eed7 803f c2ad 853f 9452 773f
00000020: 9f36 843f aee5 7b3f d1a8 8c3f 854a 7d3f
00000030: 3ef6 873f 518f 813f
0.9604716 1.0492402 1.0476565 1.0036645 1.0355144 1.0065897 1.0443652 0.9661038
1.0329169 0.9839734 1.0989019 0.9894183 1.0622022 1.0121862

layers.0.edge_model.edge_mlp.1.bias f4 [14]
00000000: b6d6 623c d5d2 1cbe be1f debd aeb6 73bc
00000010: 3071 673d 5e4e ce3c 839a 82bd 560a b2bd
00000020: df3a a9bd 12f6 eabc 4dfd 26be f202 953c
00000030: f2b2 1bbd eee9 babd
0.013845136 -0.15314801 -0.10845898 -0.014875097 0.05650443 0.025183853 -0.06377127 -0.08693378
-0.08263182 -0.028681789 -0.16307564 0.018189881 -0.038012452 -0.0912665

layers.0.edge_model.edge_mlp.1.running_mean f4 [14]
00000000: dbdc 893d 9ed2 6a3c 883e c1bf c2ce 7a3f
00000010: 33da 63be 313e b53f ece0 60bf 4600 3dbd
00000020: 2923 06bf 85eb 9dbf eebe 93bf 9b81 bc3e
00000030: d335 40be 92d0 41bf
0.06731578 0.014332442 -1.5097208 0.9797174 -0.22251205 1.4159604 -0.87843204 -0.04614284
-0.523974 -1.23375 -1.1542642 0.3681763 -0.18770532 -0.7570888

layers.0.edge_model.edge_mlp.1.running_var f4 [14]
00000000: 2b50 063d 5d7c 6b3d e573 e03c 4601 d83c
00000010: 5310 053d 6519 ea3c 7e0a d23c 97c6 703d
00000020: 4230 0c3d 4d43 023d 7957 8e3c a483 b13c
00000030: b043 883d 1a66 253d
0.032791298 0.05749165 0.027399013 0.026367795 0.03248627 0.028576562 0.025639769 0.05878314
0.03422571 0.031802464 0.017375695 0.021669216 0.06653535 0.040380575

layers.0.edge_model.edge_mlp.3.weight f4 [14, 14]
00000000: 8f64 103e 0414 2abe 0e7a 0c3e 5537 ddbd
00000010: 412c 3a3e a82a 27be 4102 873e c484 20be
00000020: e25e bfbd 7c82 8a3e a6f6 c4bb 92b0 03be
00000030: 2f4f 6c3e 887d debd c8a5 423e c010 12bc
00000040: a111 53be e2b8 c03d bd73 ba3d b906 553e
00000050: bd4c 44bd 66b9 113e 4205 a2bd af7f 47be
00000060: f171 b3bd 03f2 30bd 7650 48be 9c78 843e
00000070: 8486 5c3d 5839 493c 0d79 4e3d 4ced 343e
00000080: 1535 83be 32f3 5bbe 1dde 34be 84b4 d53d
00000090: 73f3 7f3c f48a 8a3e 49f9 fa3d 0250 193e
000000a0: 2fcf 883e 1168 823e f43d 18be 48d2 36be
000000b0: dbb9 073e 78ee 0e3e d2bc 6fbe 0024 273e
000000c0: cadc 283e 32a1 153e 7638 673e 685a 543e
000000d0: 846d f6bd cff7 56be 0be1 883d 537b d43d
000000e0: 6d76 6fbe 887c 1bbe 73ab fb3d ebef 023e
000000f0: d9eb 883e a123 f13d b2eb 773e a9df 2abd
00000100: 8bef 13be 67f0 92bd 9607 68bd 8250 28be
00000110: 52ac abbd 9631 303e 2e53 fd3d cf27 62bd
00000120: c327 743e 94ae 3bbd 36d5 34be 152f 973e
00000130: 3f6f efbd effb 2fbe 559f 6b3e eba1 803e
00000140: aac5 8c3e a9ee cf3d 469b 52bd cb76 4f3e
00000150: 1d64 64be ef36 543e 6848 3ebe e846 86be
00000160: 3c09 5b3e 2f8b 2dbd 5d8b 87be b7ba bfbd
00000170: cee3 a5bd 10f6 de3d 5273 84be 9dfb 5dbe
00000180: 1226 5b3e fb7b 723a df61 333e 1760 103d
00000190: d5ec fb3d c12d 74bd 7432 1fbe 9bfa d2bc
000001a0: cf9a 3e3e 503b 24be 28ed e4bd 0452 54bd
000001b0: 939b 793e 90b3 6f3e 0b66 9bbc d99b 4ebe
000001c0: 30ca 453e 7c47 1b3d 305c 3dbe de46 79be
000001d0: c33a d9bd 3566 41be c425 f13c 49c2 a23c
000001e0: 2d29 27be eab9 d93d e6af b1bd dd29 3e3e
000001f0: c62e 5d3e 6984 8c3e 64cd 603d d67f 4fbe
00000200: 12ce 283e 9b56 6d3c 0b33 5ebe 2f02 3dbe
00000210: eba9 4b3e 18cb 1e3e 1576 633e 1d96 913e
00000220: f0d6 743e 8549 18be 6b91 173d a007 863e
00000230: a501 edbd 5c4c 3c3e 2856 c0bd 7169 3c3e
00000240: 9c49 2c3e 1353 fcbd 10f6 823e 9de7 af3d
00000250: 58d6 5dbe 9cec 59be abcc 423e 7991 3cbe
00000260: d31f 87be 5803 1e3e 2a45 20be 93ba 3f3e
00000270: f7ac c53c 8c1a 223d f5a1 233e 244f 83be
00000280: 9fb4 803d da14 8b3c 5605 6bbe 5f75 49be
00000290: 55da 243e f91a 96bd b533 8dbe f380 e9bd
000002a0: 6ec9 563e 765f 7f3c ccf8 b73d b45c 873e
000002b0: a06f 83bc 5338 a63d 1f15 3c3e 2b6d 603d
000002c0: 251e aebc 8bc7 cebd 0ce5 073e 16a8 90be
000002d0: be98 36bd af21 61be 0dfc 033d 7756 b7bd
000002e0: 90a2 d9bd c0d4 6a3e 29c3 d2bd dd63 8a3e
000002f0: d7ed 69be 8d2a cfbd 82ae bdbd b318 503e
00000300: 7c4f fabc 3d4a 92be ba6b 8dbd e5e7 37be
0.1410086 -0.16609198 0.13718435 -0.10801569 0.18180944 -0.16324866 0.26368907 -0.15675646
-0.09344269 0.27052677 -0.006010848 -0.12860325 0.23077081 -0.10863787 0.19008553 -0.008915126
-0.20612194 0.094102636 0.091041066 0.20803346 -0.047924746 0.1423088 -0.07911159 -0.19482301
-0.08761967 -0.04319955 -0.19561943 0.25873268 0.05383922 0.012281738 0.05040841 0.17668647
-0.25626436 -0.2147949 -0.17662854 0.10434821 0.015622008 0.27059138 0.122545786 0.14971927
0.2672057 0.2547002 -0.14867383 -0.17853653 0.13254492 0.13958156 -0.23411873 0.16322327
0.16490474 0.14612272 0.22580132 0.20737612 -0.12032607 -0.20992969 0.066835485 0.10375085
-0.2338502 -0.15184224 0.12288561 0.12786834 0.26742437 0.11774374 0.24211004 -0.041717205
-0.14446847 -0.07174759 -0.05664786 -0.16436961 -0.08382477 0.17206416 0.12369381 -0.055213746
0.23843293 -0.045820788 -0.17659459 0.29528108 -0.116911404 -0.17185949 0.23009999 0.25123534
0.27494556 0.10152943 -0.05141761 0.2026016 -0.22303815 0.2072408 -0.18582308 -0.26225972
0.21390241 -0.042369064 -0.26473513 -0.09361785 -0.08100091 0.108867764 -0.25869232 -0.21678014
0.21401241 0.0009250042 0.17517804 0.03524789 0.123010315 -0.059613947 -0.1554659 -0.025754264
0.18613742 -0.16038251 -0.111780465 -0.05183603 0.24375753 0.23408341 -0.018969556 -0.20176639
0.1931541 0.03790997 -0.18492198 -0.2434344 -0.10606911 -0.18886645 0.029436953 0.019868033
-0.16324301 0.106311634 -0.08676128 0.18570657 0.21599874 0.2744477 0.054883376 -0.2026361
0.1648486 0.01448598 -0.21699159 -0.18457864 0.19889037 0.15507162 0.22213013 0.2843484
0.23910117 -0.14871795 0.037003916 0.26177692 -0.11572579 0.18388504 -0.09391433 0.18399598
0.16824955 -0.12320533 0.25578356 0.085890986 -0.21663797 -0.21281666 0.19023387 -0.18414868
-0.26391467 0.15430963 -0.15651384 0.18723516 0.024130328 0.0395761 0.1597975 -0.25646317
0.06284451 0.016977716 -0.22951254 -0.1967368 0.16098912 -0.073293634 -0.27578512 -0.11401548
0.20975277 0.0155867245 0.08983001 0.26437914 -0.016044438 0.08116212 0.18367432 0.05479161
-0.021254608 -0.100966536 0.13270968 -0.2825324 -0.04457926 -0.21985506 0.032222796 -0.08952039
-0.106267095 0.2293272 -0.1029113 0.27029315 -0.22844635 -0.10115538 -0.092618 0.20321922
-0.03055548 -0.28572264 -0.06905313 -0.17959554

layers.0.edge_model.edge_mlp.3.bias f4 [14]
00000000: 3388 f93d be3d 50be 0dd5 75be e201 0fbe
00000010: 9792 23be 302a 953d 5cdb 193e dff5 2e3d
00000020: 01c5 363d 39e2 68be 5743 5e3e 9fae 15be
00000030: ea5c d53c 6fa7 5ebd
0.12184181 -0.20336053 -0.24007054 -0.13965562 -0.15973888 0.07283437 0.15025085 0.04271495
0.04462147 -0.22742547 0.21705376 -0.14617394 0.026045281 -0.054358896

layers.0.edge_model.edge_mlp.4.weight f4 [14]
00000000: eba5 813f f886 7b3f ebc7 7a3f 38fd 6d3f
00000010: 8440 6f3f 3227 7f3f f2c4 853f 840a 833f
00000020: 2a8f 7b3f 3a27 813f 187f 8c3f 04aa 803f
00000030: 583f 853f 2817 723f
1.0128759 0.9825282 0.979613 0.92964506 0.9345782 0.9966918 1.0450728 1.0237584
0.98265326 1.0090096 1.0976286 1.0051885 1.0409956 0.94566584

layers.0.edge_model.edge_mlp.4.bias f4 [14]
00000000: 6b8e 603c 9d0a f539 96d8 53bd 7d46 8cbc
00000010: 18af f33c 0a86 9bbd 9bff 27be e12c 1ebe
00000020: 6f52 83bd 4a3a d6bd 9ce6 b8bd 5824 d5bc
00000030: 0756 09bc 275a 1bbd
0.01370583 0.0004673795 -0.051720224 -0.017123455 0.029746577 -0.07593925 -0.164061 -0.15446807
-0.06412207 -0.104603365 -0.0902836 -0.026018307 -0.008382327 -0.037927773

layers.0.edge_model.edge_mlp.4.running_mean f4 [14]
00000000: 1d34 0a3e c4ea 40be c50a 96be efc2 22be
00000010: c6e4 0fbe 1df2 843c 01f5 3d3e 8678 7a3c
00000020: 348c 443d ae38 96be ceb3 293e 16ee 29be
00000030: bb3b 84bc 1b69 5bbc
0.13496442 -0.18839556 -0.29305092 -0.15894674 -0.14052114 0.01622873 0.18550493 0.015287524
0.04798527 -0.29340118 0.16572496 -0.16594729 -0.016141763 -0.013391758

layers.0.edge_model.edge_mlp.4.running_var f4 [14]
00000000: 7c48 673e 2414 cf3e 41d1 4e3f f205 083f
00000010: f000 073f dabd 093f 0cb2 ce3e e376 673e
00000020: b385 183f e9cf 983f b400 843f 7da1 5a3f
00000030: 9acd 043f ff19 8e3f
0.22586244 0.40445054 0.80788046 0.5313407 0.52735806 0.53805315 0.40370214 0.22603945
0.5957901 1.1938449 1.0312715 0.8540266 0.51876223 1.1101683

layers.0.edge_model.edge_mlp.6.weight f4 [14, 14]
00000000: 48e4 f6bd 88b9 7f3e e05c 69be 5f56 d4bd
00000010: 8895 4b3c 1de6 4abe 4204 3f3b abd7 463e
00000020: 88fd 3cbd fc0c 47be 9b2e e8bd faaa 953c
00000030: fb68 833e 82fb 34be ac6b d43c 7409 16be
00000040: 1570 ebbc 94bd 6bbd 6e13 173c f8c2 403e
00000050: 2250 85be 6d7f 67be 86c0 833e 8bb2 2cbe
00000060: 839f 223d 1a77 7e3e 66cc 103d be88 85bd
00000070: b889 7a3e 350a 1f3e 400f 86bc ac54 9c3d
00000080: eff7 303c 72ba d3bd 9159 62be 0873 3fbe
00000090: 32aa f4bc 8372 a2bd bf85 a53c a152 1fbe
000000a0: 401e 48be 8c1f 463c ab55 953d 3b61 563d
000000b0: 44fe 80bc 586e 093e 0185 5cbe ad1b 803e
000000c0: 1373 efbd 40f2 babc fdfa 3d3e dccf c43d
000000d0: 7205 9a3e 5699 75bd c480 083e 41d6 fb3b
000000e0: a96e 1a3e d47e 27be 49f6 413d 02a4 353d
000000f0: 7049 263e 7e59 8dbd d3d8 05be 7776 a6bc
00000100: 856f 14be 4913 55be 55b8 42be 325b 35be
00000110: f84a bb3d 12fb 263e 1443 ebbd da9f 6b3e
00000120: 69bf 8b3e cc27 763a c5d2 85be 3595 01be
00000130: fec1 c7ba 8301 b33d a153 403e 88fb 8ebd
00000140: b4e3 46bd 382a a23c d2b4 dabd 49ba f0bd
00000150: 1db4 a43d a46b 613e d43b 52be 538b 1b3d
00000160: 9475 1c3e 4b06 34bd 7133 323d fafe 36be
00000170: 79d5 7f3e c082 583d 326d 01be c21b 79be
00000180: e946 1dbe 1d78 603e e7a5 f9bc 3e14 6c3e
00000190: 95b3 173e 31ed 143e f390 a23d 704a 173d
000001a0: a642 e43d 9d19 893b 758b 5b3e 221b debd
000001b0: 00e4 efbd 0f05 6bbe 6f9e 933c 4482 503e
000001c0: 19ca 5bbe 5f7f eebb 5966 a83d 513c f53d
000001d0: fde2 ecbd 437f a33d 8210 0ebe d2c5 00be
000001e0: 6757 473d 3765 71be 3a8f 19bc a3b7 403e
000001f0: cfc0 6ebd 2044 063e 433a 783e 8774 05be
00000200: 10d9 873e 0983 43be c538 01be 1266 173e
00000210: 7f6f 5d3e c33d b4bd f476 98bd 0a7d 50be
00000220: e67a 51be a5f0 81be 080f 703e 4bb5 42be
00000230: 9d08 183d 3fd9 f43d 4fd2 793e ad0d 57be
00000240: acf2 473c 1f67 22be 64d1 2ebe 557c 313d
00000250: bd00 883d a7d5 eebc 5ab3 793e 3b7d 213e
00000260: 0cbd 403e 0c30 da3d 2fda 303e 6ade 22be
00000270: 094c 3c3e af6a 2abe 9e38 b33c 0de4 4e3e
00000280: 059e 1a3e 5593 523e a4e7 3cbc 9f58 753d
00000290: ea52 15be 1582 11be 0cb0 cfbd de2b 11be
000002a0: 2a43 e33d e8f9 aabd 255b 8abe bb4f 3b3e
000002b0: ce1d 3ebe 20c1 3a3e c11e 78be bf89 ef3d
000002c0: 843e 64be ff0e 7abe e7e9 9f3d eecb 243e
000002d0: 4076 93be 69c2 1b3e 057f 8cbe 608e 23be
000002e0: 4549 b53d c9d3 873c 065b 633d 77f3 f2bd
000002f0: 9262 063e 7c70 673e 901b db3d 441b 21be
00000300: 35c1 6cbe daa1 5fbe a53b 233e 7764 4f3e
-0.1205526 0.24973118 -0.22789335 -0.103680365 0.012425788 -0.19814344 0.0029146825 0.19418208
-0.046140224 -0.19438547 -0.11337014 0.018270005 0.2566603 -0.17674068 0.025930248 -0.14652044
-0.028739968 -0.057553843 0.009220941 0.18824375 -0.260377 -0.22607203 0.2573282 -0.16864984
0.039702903 0.24850121 0.03535118 -0.06520222 0.24466598 0.15531237 -0.016364694 0.076333374
0.0108012995 -0.10338296 -0.2210448 -0.18696225 -0.029866312 -0.079319976 0.020205377 -0.15558864
-0.1954279 0.012092482 0.072917305 0.05233882 -0.015746243 0.13420999 -0.21535112 0.25021115
-0.116918705 -0.022820592 0.18552776 0.096099585 0.3008228 -0.059960686 0.1333037 0.007685453
0.15081276 -0.16356975 0.047354016 0.044345863 0.16238952 -0.06901835 -0.13070993 -0.02032016
-0.14495666 -0.20808138 -0.1901563 -0.1771057 0.091451585 0.16306713 -0.114874035 0.23010197
0.27294472 0.00093900855 -0.26137367 -0.12654574 -0.0015240309 0.08740523 0.18781902 -0.069815695
-0.048557 0.019795522 -0.1067902 -0.11754281 0.080421664 0.22013718 -0.20530635 0.037974667
0.15279227 -0.043951314 0.04350609 -0.17870703 0.24983777 0.052859068 -0.12639311 -0.24326995
-0.15359081 0.2192082 -0.030474616 0.23054597 0.14814599 0.14543606 0.07937803 0.036936224
0.11145525 0.0041839615 0.21439917 -0.10845019 -0.117134094 -0.22951148 0.018019883 0.20362192
-0.21463813 -0.0072783674 0.08222646 0.11974395 -0.11566732 0.079832576 -0.13873485 -0.12575462
0.048667338 -0.23573767 -0.009372527 0.18820052 -0.058289345 0.13111925 0.24240975 -0.13032733
0.26532793 -0.19092955 -0.12619312 0.1478503 0.21624564 -0.088008426 -0.074445635 -0.20360199
-0.20457038 -0.2537891 0.23443234 -0.1901447 0.03711759 0.11955499 0.24396633 -0.2100131
0.012203854 -0.1585965 -0.17072064 0.043331463 0.06640766 -0.029154612 0.24384823 0.15770428
0.18822116 0.106536955 0.1727073 -0.15905157 0.1838838 -0.16642259 0.021877583 0.20204182
0.15099342 0.20564015 -0.011529837 0.05989897 -0.1458241 -0.14209779 -0.10141 -0.1417689
0.11096795 -0.08348447 -0.27022663 0.18292134 -0.18566057 0.18237734 -0.24230482 0.11696195
-0.22289473 -0.24419783 0.07808285 0.16093418 -0.28801155 0.1521088 -0.27440658 -0.1597228
0.08851866 0.01658048 0.05550673 -0.118628435 0.13123539 0.22601503 0.106986165 -0.15733057
-0.23120578 -0.21839085 0.15940721 0.20253168

layers.0.edge_model.edge_mlp.6.bias f4 [14]
00000000: b98b cabd 28b8 d3bd 7e26 743d 68d4 15be
00000010: 5b9e 58be 1c90 13be f22f 20be 4f19 76be
00000020: b571 1dbe 522b fa3d c2cd 7e3e a999 26be
00000030: 6d5a fcbc 45a4 69be
-0.09889931 -0.103378594 0.05960702 -0.14631808 -0.21154158 -0.14410442 -0.1564329 -0.24033092
-0.15375407 0.12215294 0.24883178 -0.16269554 -0.030804837 -0.2281657

layers.0.node_model.node_mlp_1.0.weight f4 [85, 99]
00000000: 9d04 62bd 9b91 893c b98c 51bc 3409 5f3c
00000010: e3ec b0bd 333f f23d 22e8 e13c 1eb3 12be
00000020: 487e 1e3c 2694 c23d 0173 3dbd 065c 613d
00000030: eeeb a03d e00b 943b b044 fc3c fe87 bb3d
00000040: ac29 03bd 1f36 1bbd 29a8 743d 2969 c73c
00000050: eef4 f73c 0b67 4f3c 18b0 913d 3767 c2bd
00000060: 63fa 99bb 2ffd a0bc 4445 083c 0db1 f53c
00000070: 4d4d 9f3d 1d3f 243d 2d56 0cbd 2708 5e3d
00000080: 7f37 c5bd 0e2b f2bc c56e 5a3d 4127 96bd
00000090: f432 c23d 4f92 bc3d 765a 04bd 2630 0a3d
000000a0: 6ba0 a3bb ef06 3b3d 5bef bbbd 9bb0 c33d
000000b0: 852d 6dbd 2ef5 88bd 2c4e 453d 9852 a53c
000000c0: 702e ae3c d7fa 193c 613f bdbd 9e80 013d
000000d0: f524 b03c e944 a73d 9fd0 4f3d 4199 1abc
000000e0: 32cf 0fbe 9969 be3d 77fe e93c 46df 023d
000000f0: 6b01 b23c d87e 793d c76c 0d3d 1ab0 91bd
00000100: bb21 523d c0bc f7bc 8f72 a1bd 9d96 373d
00000110: 94d2 11bd 93ae 3ebd b43e aabd a253 b23c
00000120: 45f4 3c3d 391f 163d 92a1 15bd e9d4 29bd
00000130: 3636 b63d a727 b1bc 421e 19be f9d2 3abc
00000140: 69f4 48bd c6f5 1a3d 6d8e bc3d 9945 9cbd
00000150: 2b75 a83d e463 b6bd 57c8 173d 5734 ca3d
00000160: 1945 043a 53b0 cf3d f607 963d 56c8 bbbb
00000170: dfa1 e4bc 9b6f 8f3d 1642 acbd 0c1f d1bc
00000180: 2063 bf3d 0e64 a63d 1a35 60bd 0a1a 7cbd
00000190: a8c3 bab9 624e a63c 0a1a d0bb 81bf 363d
000001a0: abc3 31bd 101c 8bbd 2560 933c 746c 1b3d
000001b0: 9924 4cbd e28a 0fbd 2643 8c3d d812 2c3d
000001c0: 8948 6a3c bff2 313a 11b8 563e d5a3 be3a
000001d0: 0e26 bebd 2421 3b3d a788 68bd f230 0c3c
000001e0: 2a95 5abc ce3f c8bd 1132 0e3c d8cf 00bd
000001f0: 2f06 00bc 21a9 89bd e3ae ca3c 4ead 7cbd
00000200: 8673 b7bd 9670 973d c814 993d 9b8e a0bd
00000210: c89a bbbd 69cc c83d 3b0f ba3c f0f6 53bd
00000220: e68e 8bbd f2c8 6c3c 9e73 bbbd 0327 08bd
00000230: f0e3 bfbd 4841 c6bd b7e7 82bc 3ac4 48bd
00000240: 16bd 5d3c 56b1 86bd ceec c13d dd40 a3bc
00000250: 3ec3 1a3d 2a1d ab3d 88fd 873c f993 c83d
00000260: 587f dfbb c43d c93d 728f 653d bac7 d93c
00000270: 7e29 8f3d 7026 b5bd 6aa0 bb3c cb96 98bc
00000280: 7b5f 9c3c 3ac9 423d df5b 84bd fd1d 2fbd
00000290: c007 1f3e 6fcd 78bd a269 b53d 51f4 aebc
000002a0: 1670 41bd c20c 33bc 38ca 22bd b430 64bd
000002b0: 5b75 e63d 2994 2f3d 9b4d 14be 70a1 ab3b
000002c0: cab3 92bc 1b16 1abd 06ef 27bd d318 3fbd
000002d0: ece6 da3c 5e5d 1e3c 9a01 33bc 20ef 3a3d
000002e0: da15 94bd 6db1 f5bd efb5 c4bd c3b4 ae3d
000002f0: 7bc2 81bd 157c 323d e1bf bcbd 7446 0d3c
00000300: c9cd 87bc d626 58bd f1ca 053d 552f 16bd
00000310: e592 903d bd68 ff3d 832a a4bd 2413 c2bd
00000320: d3db c1bd bafc edbc efb8 d93c 90e0 8e3c
00000330: a832 63bd 9fa9 ab3d 914a 453b 8ed3 c8bd
00000340: a9f7 a3bd 9ed4 a03d 1f44 22bd ff89 823d
00000350: c928 903d 4c3b 13bd 18f5 573d 2353 243d
00000360: 96b3 8fbc 0d0d 02bd a6a6 9d3c b851 90bd
00000370: e754 44bd b03e cbbd 81cf 2f3c 5e89 8a3d
00000380: f1e8 583d 9dab f13c 7138 47ba b0cf 1e3c
00000390: 23bb 953b 5c82 9f3d ee86 203d 8b29 a13d
000003a0: cfc3 80bc ac63 2d3d 786b 6bbc ad37 793d
000003b0: c303 b6bd c7da 56bc 4c67 7ebd 0748 11ba
000003c0: ba7b abbd 7d4b 2abd f144 aabc 50c7 fdbc
000003d0: 24a9 ae3d 5af0 2a3c 1620 19bd 5539 52bd
000003e0: 8d4a 403c 1fa9 0f3d 2a2d 493d 594f 9f3d
000003f0: 1590 043d 0ee4 c1bc 9895 00bd 700f 403d
-0.05518018 0.016793063 -0.012789899 0.013613034 -0.086389326 0.118284605 0.02757651 -0.1432614
0.0096736625 0.09500913 -0.046252254 0.0550194 0.078575 0.004518017 0.030794472 0.09156798
-0.032022163 -0.03789341 0.059730683 0.024342136 0.030268159 0.012658845 0.07113665 -0.09492343
-0.004699038 -0.019651977 0.008317295 0.029991651 0.07778416 0.040099252 -0.03426187 0.054206993
-0.09629726 -0.029561546 0.053328294 -0.07331706 0.09482375 0.09207594 -0.032312833 0.033737324
-0.0049934885 0.04566091 -0.09176513 0.09555169 -0.05790474 -0.06687389 0.048170254 0.020180985
0.021262378 0.009398184 -0.09240604 0.0316168 0.021501997 0.081674404 0.050736066 -0.009435953
-0.14043882 0.09297485 0.028563721 0.03195121 0.021729192 0.060911983 0.034527566 -0.07113667
0.0513017 -0.03024137 -0.078831784 0.04482137 -0.035601214 -0.046553206 -0.08312741 0.021768395
0.04613139 0.03665087 -0.03653104 -0.041462813 0.08897059 -0.021625353 -0.14952949 -0.011402839
-0.049061213 0.037832044 0.09206853 -0.07630462 0.08225473 -0.089057714 0.037056293 0.09873264
0.0005045697 0.10141053 0.07325737 -0.005730669 -0.027909217 0.07003709 -0.084110424 -0.0255275
0.093450785 0.08124553 -0.05473814 -0.06154827 -0.0003562246 0.020301048 -0.0063507603 0.044616226
-0.043399494 -0.06792462 0.017990181 0.037945226 -0.04983959 -0.03504456 0.06848745 0.04201016
0.01429952 0.0006788186 0.20968653 0.0014544675 -0.09284602 0.045685902 -0.056770947 0.008556591
-0.013341228 -0.09777795 0.008678929 -0.031448215 -0.007813974 -0.06721712 0.024741596 -0.061688714
-0.08957581 0.07394521 0.07474667 -0.078397 -0.091603816 0.09804613 0.02271234 -0.05174917
-0.06814365 0.014452206 -0.091529116 -0.03324033 -0.093696475 -0.0968042 -0.01597963 -0.04901526
0.013533851 -0.06576793 0.09468995 -0.01992839 0.037783854 0.08355172 0.016600385 0.097938485
-0.0068206005 0.09826234 0.056045003 0.026584495 0.06990336 -0.08845222 0.02290364 -0.018626591
0.019088497 0.047555186 -0.064628355 -0.04275321 0.155303 -0.06074279 0.088580385 -0.021356734
-0.047226034 -0.010928335 -0.039743632 -0.05571051 0.112528525 0.042865906 -0.14482729 0.0052377507
-0.017907996 -0.037618738 -0.040999435 -0.046654534 0.02672144 0.009665815 -0.010925675 0.045638204
-0.0723073 -0.11996732 -0.096050136 0.08530571 -0.06335922 0.043575365 -0.092162855 0.008622754
-0.016577618 -0.05277141 0.032664243 -0.036666233 0.07059268 0.12471149 -0.08015921 -0.09476307
-0.09465756 -0.029051173 0.026577441 0.017441064 -0.05546823 0.08381962 0.003010426 -0.09805976
-0.08006222 0.078530535 -0.039615747 0.06373977 0.07039029 -0.03594522 0.052723974 0.040118348
-0.017541688 -0.031750727 0.019244503 -0.070468366 -0.04793253 -0.09924066 0.010730625 0.06764482
0.052956525 0.029500777 -0.0007599658 0.009693071 0.0045694276 0.07788536 0.03919118 0.07869252
-0.015718369 0.042331383 -0.014368884 0.060844112 -0.08887436 -0.013113684 -0.06211023 -0.0005542044
-0.08373208 -0.041575897 -0.020784827 -0.030978829 0.08528355 0.010433281 -0.037384115 -0.051324207
0.011736524 0.035073396 0.049115337 0.07778806 0.03236397 -0.023668315 -0.031392664 0.046889722

layers.0.node_model.node_mlp_1.0.bias f4 [85]
00000000: e8dd e5bc 348c 25bd 2671 0cbd b2ca a8bc
00000010: 1ee8 db3c e407 91bc 24e1 4bbd 500c 783d
00000020: 24a0 37bd 7aee bf3d 769e 4a3d f5b6 c63d
00000030: c878 973d b625 303d ea31 69bd b5a7 a2bd
00000040: fa29 a1bd 4290 233d c075 a3bd 5979 b3bb
00000050: 2166 b33d 3bb7 a3bc 42da e0bc e602 32bd
00000060: 3f2e da3b 539d 27bd 56ef a93c 8601 a7bd
00000070: 2607 bcbc 8521 643d 6df4 f8bc e013 a83c
00000080: 66a3 9bbd f6bd 8db9 37b8 cbbd b680 c8bd
00000090: 979d c9bc 5de6 64bc a099 3e3d 6b1f bb3d
000000a0: 383b acbd 8d15 163d 6c57 06bd 41e8 2abd
000000b0: ad9e 753d e592 293d 84a3 113c b807 1f3d
000000c0: f6cf e2bb fa1a cabd 3f71 bfbd 6e9d 20bd
000000d0: ad5b c9bd 1669 963d bd3c 60bc c7a0 b6bd
000000e0: 94d5 08bc 46be 61bd 3e16 35bd a5e2 8b3d
000000f0: 698d ea3b e02f 9e3d d3f0 b2bd b23b 563d
00000100: 06f8 0abc 7dee 90bd 8254 e2bc 5ffc 8d3d
00000110: 241c 88bd fa26 f3bc 8fed 023d 2a95 a73d
00000120: f2ac c13c 2e5b d33c 8a6f 77bd 50d7 3c3d
00000130: 1371 d33b 5e44 15bd a4e6 a43d 01df 993d
00000140: 2af2 ff3c f4c5 8cbd 4ce6 a33d 4544 703c
00000150: 0bfe fcbc
-0.028059915 -0.04041691 -0.034287594 -0.020604465 0.02684408 -0.017703958 -0.049775258 0.060558617
-0.044830456 0.09371658 0.049467526 0.09702865 0.07396084 0.043004714 -0.056932367 -0.07942144
-0.078693345 0.039932497 -0.079814434 -0.0054771123 0.08759714 -0.019984832 -0.027447823 -0.043459795
0.006658345 -0.04092152 0.020744007 -0.081545874 -0.022952627 0.05569603 -0.030389989 0.02051729
-0.07599525 -0.00027035148 -0.099472456 -0.09790175 -0.024611278 -0.0139709385 0.046533227 0.09136852
-0.084097326 0.036641646 -0.032798216 -0.0417254 0.05996578 0.041399855 0.008889083 0.03882572
-0.0069217635 -0.098684266 -0.09347772 -0.039212637 -0.09831939 0.07344262 -0.013686356 -0.089173846
-0.008351702 -0.0551131 -0.044210665 0.068303384 0.0071579707 0.07723975 -0.0873734 0.052303024
-0.008481985 -0.07076738 -0.027628187 0.069329016 -0.066459924 -0.029681671 0.031964835 0.08182748
0.023642037 0.025800314 -0.060409106 0.046103776 0.0064526885 -0.036442153 0.08051804 0.07513238
0.031243403 -0.06873694 0.0800291 0.014664714 -0.030882856

layers.0.node_model.node_mlp_1.1.weight f4 [85]
00000000: 96cf 823f c857 7c3f 870f 833f 4006 803f
00000010: b932 733f f838 853f a4e0 823f 8e49 863f
00000020: ed27 833f 8c6b 703f f3a3 753f c31b 813f
00000030: 42b9 883f 7175 873f 7c02 833f 7821 873f
00000040: ccd5 823f 48c8 873f 77ec 743f e806 8d3f
00000050: e218 7e3f 4178 803f 90e8 783f 882c 7c3f
00000060: faba 7a3f d381 803f b7f2 893f eca0 943f
00000070: 7266 7a3f 6e2f 873f e530 793f 469c 803f
00000080: ecae 703f 6d76 873f 181f 803f 1542 7e3f
00000090: 322e 7c3f 964d 883f a5ce 883f 0b0e 8c3f
000000a0: 2217 813f 18e9 833f 23be 843f 3e9c 803f
000000b0: ea1f 823f 7c22 803f 928d 7c3f d345 823f
000000c0: a52c 813f 2f0f 823f 094f 883f 24c9 833f
000000d0: 249c 813f 0a8b 7b3f 6e8b 743f d6f8 743f
000000e0: e4ab 7b3f 2096 833f adbe 7c3f bdd6 813f
000000f0: 2e8f 703f 935a 7b3f f988 823f da11 8c3f
00000100: 3c22 7d3f 6d8f 763f 5745 803f 0f34 833f
00000110: 4cfd 853f 88a3 763f b6b0 823f 4d73 7b3f
00000120: b7f7 843f 2fd8 853f 23bd 883f c360 7e3f
00000130: b2f5 7f3f 24cc 713f a3c7 723f 158f 7c3f
00000140: b29b 7b3f edf7 843f 7f90 833f 0167 813f
00000150: 9403 753f
1.02196 0.98571444 1.0239114 1.0001907 0.9499927 1.040801 1.0224805 1.0491197
1.0246559 0.93914104 0.9595329 1.0086597 1.0681536 1.0582715 1.0235133 1.0557089
1.0221496 1.0607996 0.95673317 1.1017733 0.9925672 1.0036699 0.9722986 0.9850545
0.97941554 1.0039619 1.0777196 1.161161 0.9781257 1.0561349 0.9734023 1.0047691
0.9401691 1.0583016 1.0009489 0.99319583 0.9850799 1.0648677 1.0688063 1.0941786
1.0085185 1.030551 1.0370525 1.0047681 1.0165989 1.0010524 0.9865352 1.0177559
1.009175 1.0160884 1.064912 1.0295758 1.0125775 0.9825903 0.9552525 0.95692194
0.9830916 1.028019 0.9872845 1.0143658 0.93968475 0.9818508 1.0198051 1.0942948
0.9888036 0.963126 1.0021161 1.0250262 1.0467925 0.9634328 1.0210178 0.9822281
1.0388097 1.0456599 1.068272 0.99366397 0.99984276 0.9445212 0.9483587 0.98655826
0.9828445 1.0388161 1.0278472 1.0109559 0.95708585

layers.0.node_model.node_mlp_1.1.bias f4 [85]
00000000: 8e29 bb3c e987 593c d77a b3bd 2044 323c
00000010: 4e1e 4ebd 33b0 9cbd aa1e 33bd 8b2b 54bc
00000020: 9f6a 78bd 4a58 753d bd66 b9bd da81 8fba
00000030: 7b2f d6bc 14f7 2c3c 8647 0cbe 5d55 bcbb
00000040: a76c 2e3d 1474 bbbb ae25 1bbd 0340 3dbe
00000050: bdfd 59bd e792 54bd 336f c13c 5bbb 023c
00000060: 378c ba3c f2c7 fb3d ba82 9cbc 0096 44be
00000070: e9b1 d5bd 9571 c0bc 5d0e 42bc 375c eb3d
00000080: 6d74 19bd fd3b d7bd f007 24bd 298b 3dbd
00000090: 76f4 dcbd 9f6d eabd 5a39 51bd 38ff 0dbc
000000a0: e58c 6a3d 3d2e f8bc bce8 afbd 0fa9 bebd
000000b0: bdda bebd aaf1 b93d dec6 8e3d 8073 cdbc
000000c0: 0928 1e3b 1bfa 3d3d af64 ccbd 4428 b73b
000000d0: ac54 fabc 0057 113e f3c4 793d 3294 6a3d
000000e0: a0e9 8abd f5f5 843c b393 57bd 833f 28bd
000000f0: b675 a2bc fc54 2d3d 2157 80bc 8b08 98bd
00000100: 1d9b d8bd 39b6 2cbd 046e 9fbc bd88 6dbd
00000110: 1982 19be 0e83 e03c beca aabd 6193 843d
00000120: 08b8 a5bd 67f7 bebd 28d9 03be 221d 12bd
00000130: 7e39 03be 9325 4e3d ca89 6abd b380 e9bb
00000140: 65d2 5cbd 6df6 95bd 5516 73bb ac3b 513b
00000150: a332 35bc
0.022846963 0.013277032 -0.08763664 0.0108805 -0.05032187 -0.07650795 -0.043730415 -0.012949835
-0.060648557 0.059898652 -0.09052799 -0.0010948733 -0.026145687 0.010556955 -0.13699159 -0.005747481
0.042584088 -0.0057206247 -0.03787773 -0.1848145 -0.0532205 -0.05189791 0.023612594 0.007979239
0.022771938 0.12293996 -0.019105304 -0.19197845 -0.10434324 -0.02349166 -0.011844245 0.11492198
-0.037464548 -0.10509489 -0.040046632 -0.04627529 -0.10788815 -0.1144669 -0.051080085 -0.008666806
0.057263274 -0.030295486 -0.085893124 -0.09309589 -0.09319065 0.09079297 0.06971525 -0.025079489
0.002413275 0.046381097 -0.09980141 0.005589517 -0.030557953 0.14193344 0.06097884 0.057270236
-0.06782842 0.016230563 -0.05263109 -0.041076194 -0.01983152 0.042317376 -0.015666546 -0.074235044
-0.105764605 -0.04216597 -0.01946164 -0.057991732 -0.14991035 0.027406242 -0.08339451 0.06473423
-0.08091742 -0.09324532 -0.12875807 -0.035672314 -0.128149 0.050328802 -0.057260312 -0.007125938
-0.053911585 -0.073223926 -0.0037092168 0.0031926436 -0.011059436

layers.0.node_model.node_mlp_1.1.running_mean f4 [85]
00000000: 4d37 8b3d 9cd8 d43d b6bf 2cbc eb80 ec3d
00000010: c377 fd3d 04ae d43d 07df 09bd 13bb cb3d
00000020: aa7b b1bd 46eb 76bd c20e 843e 4f15 723c
00000030: ad00 df3d b364 29be 273a cdbe 9db1 0ebe
00000040: 48a2 533b 930c 843e 0f4c 9e3d b11f 3dbe
00000050: dfe6 f8bc 98a9 50bb 2c9d 18be 8bfd a53c
00000060: 9bfb c33c 7956 50be 9ac3 b03d 8bed 53bd
00000070: 3dd0 89bd ed42 063e c87d 23be 7037 083e
00000080: 090e 6dbd 3cac 71be fc27 26bd 5d23 90be
00000090: 31b5 3ebe e81b 96be 4188 2f3d 5b69 abbc
000000a0: 1e67 7cbd 2d6c daba 6555 2bbe 3a31 0f3c
000000b0: a7a1 81bd c435 e7bd 1c90 57be 4616 9b3e
000000c0: 1ce1 03bd f406 1a3e 093e aabe 4335 f6bc
000000d0: 3a0c 21be e143 41bd f8ea 7a3d 6762 233e
000000e0: ccfd 27be a851 e8bb ee69 91be 8974 3ebe
000000f0: 0e9f 30bc a5ec a0bd de8d b6bd eecf d5bc
00000100: 98be 6bbe 94e1 8bbd c225 893d 2186 dfbd
00000110: f71c 37be 3f73 bc3c dc02 223d d44e 973e
00000120: e469 ce3c fe00 a1bd 2209 35be 64eb 6a3c
00000130: aa7e 383c b204 753d de84 883e 300e 58bd
00000140: 49a0 ab3e 381a fcbc 6a20 a4bd 26dc 47bd
00000150: 5516 30be
0.06797657 0.103928775 -0.010543754 0.11548027 0.12376358 0.10384753 -0.03365996 0.09947791
-0.08666165 -0.060282968 0.2579251 0.014775588 0.10888801 -0.1654232 -0.4008343 -0.13934942
0.0032292772 0.25790843 0.07729351 -0.1846912 -0.030383525 -0.0031839367 -0.14903706 0.0202625
0.023923686 -0.20345487 0.08631058 -0.05174021 -0.067291714 0.13111468 -0.1596595 0.13302398
-0.057874713 -0.23600858 -0.040565476 -0.2815198 -0.18623807 -0.29318166 0.04285455 -0.02092426
-0.061621778 -0.0016664319 -0.16731794 0.008739764 -0.06329661 -0.11289552 -0.21051067 0.3029043
-0.032197103 0.15041715 -0.33250454 -0.030054694 -0.1572732 -0.047183875 0.06125924 0.15955506
-0.1640541 -0.0070898123 -0.2840113 -0.18599142 -0.010780109 -0.07857636 -0.08913778 -0.026100125
-0.23021924 -0.06830135 0.06696655 -0.10914255 -0.17882143 0.023004172 0.03955351 0.2955233
0.025196977 -0.07861517 -0.17679265 0.014338348 0.011260668 0.05981893 0.2666387 -0.052747905
0.33520725 -0.03077422 -0.08013995 -0.048793934 -0.17196019

layers.0.node_model.node_mlp_1.1.running_var f4 [85]
00000000: 395c 273d 2f88 303d d74f ff3c 9668 943c
00000010: 923c 3a3d 635e 673d 1d04 b63d 71f6 6b3d
00000020: 4b9b ea3c 5d87 2c3d 40ee f33c 0b9d 873d
00000030: cc2f dc3c b379 753d a047 cf3c ab18 183d
00000040: f570 f83c c61b 0f3d ff72 1e3d 7938 af3c
00000050: f243 9e3d 1968 0d3d 9950 503d 0069 5b3d
00000060: 6ba4 d83d 0dc7 283e 2a90 7f3d ff63 593c
00000070: 5381 133d 2d24 cb3c b430 303d 0d6f 543d
00000080: 90c6 ff3c e517 c13c 41a4 463d b442 123d
00000090: 83f9 3f3d 44dd e33c 1648 163d acde f23c
000000a0: bf34 233d e38a d63d 05f8 a63c a51f 193d
000000b0: b7c3 163d 5396 1d3d c231 643d f852 923c
000000c0: 6cbe 3b3d aedc 143d 1f74 673d eb33 a43c
000000d0: 2a2f 603d e0bf a13c ae93 1b3d e426 c93d
000000e0: c1d7 8a3c ae82 6f3d f0e6 3e3d 19de a03c
000000f0: b68f 023d fbc2 ca3c 9234 9b3d 94c1 563d
00000100: 37d3 853d 2501 363d 3163 493d 30d7 1d3d
00000110: e9f6 de3c 610e 8c3d a950 113d 28c7 053d
00000120: 1b17 653d e107 1d3d 6dda f83c 2ae5 f23c
00000130: d437 df3d e257 f73c 2421 9b3d b853 b53d
00000140: d863 953c 0c65 003d 062d af3c 9e90 be3d
00000150: 94a6 153d
0.040859435 0.043098625 0.031166 0.018116277 0.04546792 0.0564865 0.08887503 0.05760807
0.028638503 0.04212128 0.029776692 0.066217504 0.02687826 0.059930515 0.025302708 0.0371329
0.0303273 0.034938596 0.038683888 0.021389233 0.07727803 0.034523103 0.050858114 0.053566933
0.10578235 0.16482182 0.062393345 0.01326847 0.036012005 0.024797523 0.043015197 0.05186372
0.031222612 0.023570964 0.04849649 0.035708144 0.046868812 0.027815469 0.03668984 0.029647194
0.039845224 0.10475709 0.020381937 0.037383694 0.036807742 0.03847344 0.055711515 0.017861828
0.045835897 0.03634327 0.056507226 0.020044288 0.05473248 0.019744813 0.037982635 0.09821871
0.016948583 0.058474235 0.046606958 0.019637154 0.031875335 0.024751177 0.07578386 0.052430704
0.06534427 0.044434685 0.049166862 0.038535297 0.027217345 0.0683868 0.035477314 0.032660633
0.05593024 0.038337592 0.030377591 0.02965029 0.1089932 0.030193273 0.075746804 0.08853859
0.018236086 0.031346366 0.021383774 0.09304927 0.036535814

layers.0.node_model.node_mlp_1.3.weight f4 [85, 85]
00000000: 1058 773d f42d 153d fda0 d1bb 391f 7e3c
00000010: 2fb2 89bd b2fe b33c 90a4 fbbc 4d8b 803b
00000020: 200d 04bc 73d7 3e3d d3fa 0bbe 09a6 03bd
00000030: 9822 4a3d a816 17bd bb37 80bd b180 cbbd
00000040: 8518 913c 81db 8bbd 5845 a63d a43a da3c
00000050: a5f5 babd 4d42 cc3d 02bd bd3c 2243 bd3d
00000060: 9372 65bc 5136 de3d fa3d 0cbe f3c0 15be
00000070: 9175 f3bc 62bd bdbc 7044 fd3d 2bdc f33d
00000080: b7fd 943c 8ec4 5a3c a972 e93d ad2d e7bb
00000090: 664e 2cbd 6e6a 2bbc f384 09be b138 adbd
000000a0: 4a39 e8bc b051 e43d 2e89 10bd 0bea 04bd
000000b0: 86ab 533d 44d7 a5bd 4023 eb3d 68f8 17bd
000000c0: 64b2 afbd 0cce 6e3d 4561 933d a01d 5d3d
000000d0: 8a7f 86bd 6792 10bd f551 0ebe abc7 7bbd
000000e0: 44f1 44bd 6e4e 383d cba1 ca3c c0ba 61bc
000000f0: 5779 753d 9489 b33d 4c98 0fbe 5256 d0bd
00000100: 20bf bf3c 4c99 993d 0293 eabb f617 14bd
00000110: 2515 27bd b0e0 b13d 9eeb 50bd edac eebc
00000120: 927c ecbc 6817 9e3c b822 ee3c 886c 20bd
00000130: 465d 2abd 1d8d cb3d f480 d6bc b1f6 593d
00000140: fbfc 3abd b6c8 babc ec8e adbd 40bd 71bb
00000150: 94a6 9d3d ed77 50bb 01f3 afbd 521e adbd
00000160: 05a2 25bb 42a0 3fbd a243 353d 92e1 0d3d
00000170: 2662 733d bdf6 dfbd 4f4a f43d 9dde 09bd
00000180: d94d 2a3d 96f5 443d 75e9 e1bc d723 4b3d
00000190: 2cfd 8f3d 801c a3bd ad87 ddbc 6009 86bc
000001a0: 3733 133d df40 d9bd 6af1 eabd 8ce8 963d
000001b0: d2bf 88bd 96dd db3d 939a c3bd f277 a33d
000001c0: 2683 863b 1665 1d3d 573c 48bc 6280 bfbd
000001d0: 3c69 05be a506 2e3d 1254 d53d 34e2 05be
000001e0: 9e2a 41bd e772 253d 3add 953d 5d38 cb3d
000001f0: 8b44 0a3d 7675 533d 2f51 37bd 2942 9d3d
00000200: c4c8 ad3d ee20 0439 a31a 85bb f2e2 533d
00000210: a178 3d3d d7d6 96bd 8c02 d1bd 953b 133d
00000220: ad8c 553d e840 753b 4d4f b5bd 70c3 8dbd
00000230: c3f8 3abd 9070 e03c cf54 05bd 5231 073d
00000240: 462f 943d d2ae 89bc b4a0 87bd f040 b53d
00000250: 3dcf 253d cf9d 8e3d 79fc cebd 2b42 a53d
00000260: 0fe4 f83d 662f b7bb b174 adbd 41ce fcbd
00000270: 6178 28bd a694 b1bd 0ac0 fbbd 2d73 ab3d
00000280: 2718 0b3e 953a 9d3d 7368 5ebd 8e50 173d
00000290: d31e 94bd 9f66 aebd 907e 04bd 26b6 873d
000002a0: 4a4f edbb 8435 b2bc 8196 273d 85c4 333d
000002b0: 9488 163c f84e 91bb 3d05 fcbc 2787 cbbd
000002c0: 6191 903d 93f3 12be ae9d ce3d 5272 44bd
000002d0: 952b 413d 4aa8 10be 402f b13d 40e7 4cbd
000002e0: c53f 86bc dea8 003e 5795 8e3d b925 573d
000002f0: c41d d6bd 4ad6 a1bc 06b9 d2bc 4342 2a3d
00000300: f86a ff3c 9c94 833c 77aa 6e3d c256 38bd
00000310: 54f3 c03c 3dad f43d c906 a33a d3ed e5bc
00000320: 3430 353d 0448 173d 2883 4dbd 7d38 38bd
00000330: 93e2 84bd 3e47 b33b 1b53 c9bd cb21 a9bd
00000340: bbcf b0bc 4b78 0c3e a23c 88bd 42dc 99bd
00000350: 086f 193d bc5a a63d 4604 01bd bbe5 59bc
00000360: 3adc a5bc 1e3c 093e eee5 023e ba5b a1bd
00000370: d9a0 a3bd 3dcd 8d3d b001 8c3c 7b1e 99bd
00000380: cc3f 0bbd 719b 34bd 9d25 c4b9 fb83 1bbd
00000390: 6497 8b3d 7796 66bd 0860 343d 2738 27bd
000003a0: da10 8c3d b0d8 bcbd be4f 38bd e5d0 06bd
000003b0: 7e9a 443d a8ef 7f3d 2405 8dbd 785a 953c
000003c0: c123 ac3c 8b68 a23d 1c21 3e3d d52d 68bd
000003d0: ebf0 0abd d168 a1bd 4115 8dbc c0fa 0cbe
000003e0: e06f ac3c 3766 ef3c 7277 853d 8472 abbd
000003f0: b911 5a3d b976 12bd e2e4 afba 9751 2cbd
0.060386717 0.036420777 -0.006397365 0.015510374 -0.06723439 0.021972034 -0.030718118 0.003922856
-0.00805977 0.046592187 -0.136699 -0.032140765 0.049349397 -0.03688684 -0.0626063 -0.09936655
0.017711887 -0.068289764 0.08118695 0.02663929 -0.09128884 0.09973583 0.023161415 0.0924132
-0.014004367 0.10850204 -0.13695517 -0.14624386 -0.029719146 -0.023161594 0.12366569 0.11907228
0.018187387 0.013352526 0.11398823 -0.0070550055 -0.042066954 -0.0104623865 -0.13429622 -0.08458079
-0.02834763 0.11148393 -0.035287075 -0.032449763 0.05167725 -0.08097699 0.11481333 -0.037102133
-0.08578947 0.05830197 0.07196287 0.05398333 -0.06567295 -0.03529587 -0.13898452 -0.061469715
-0.04808165 0.04499667 0.024735352 -0.013777435 0.05993017 0.08766475 -0.1402294 -0.10172714
0.023406565 0.07499942 -0.007158638 -0.036155663 -0.04079165 0.08685434 -0.051005952 -0.029135192
-0.028867994 0.01929827 0.02906929 -0.039166003 -0.04159286 0.099390246 -0.026184537 0.05321378
-0.045651417 -0.022800785 -0.08474526 -0.0036886483 0.07697788 -0.0031809763 -0.08591271 -0.08453049
-0.0025273573 -0.046783693 0.044253953 0.03463895 0.059419774 -0.109357335 0.11928236 -0.033659566
0.041578148 0.04808577 -0.027577141 0.049594726 0.070307106 -0.0796442 -0.027042234 -0.016361892
0.035937514 -0.10608076 -0.11471827 0.073685735 -0.06677212 0.107356235 -0.09550967 0.07981862
0.0041049896 0.03842648 -0.012221417 -0.09350659 -0.13028425 0.042486805 0.10416426 -0.13074571
-0.047159784 0.040392783 0.07317586 0.0992286 0.033756774 0.05162569 -0.044755157 0.07678635
0.08485559 0.00012600768 -0.0040620132 0.051730104 0.04625762 -0.07365196 -0.10205564 0.035945494
0.052136112 0.003742272 -0.08853016 -0.06922042 -0.045647394 0.027397424 -0.032551583 0.03300602
0.07235579 -0.016806994 -0.066224486 0.088502765 0.04048084 0.06963693 -0.10106749 0.08069261
0.12152874 -0.005590367 -0.08469523 -0.12344027 -0.041130427 -0.086709306 -0.12292488 0.083715774
0.13583432 0.07677189 -0.05429883 0.036942057 -0.07232442 -0.08515667 -0.032347262 0.06626539
-0.007242118 -0.021754034 0.040915016 0.043888588 0.009187836 -0.0044344626 -0.030764217 -0.09937888
0.07058979 -0.14350729 0.10088669 -0.047960587 0.047160704 -0.14126697 0.0865159 -0.050025225
-0.01638783 0.12564418 0.06962078 0.05252621 -0.10454896 -0.019755501 -0.025722992 0.0415671
0.031178936 0.016062073 0.058268037 -0.045004614 0.023553528 0.11947105 0.0012437935 -0.028067505
0.044235423 0.036933914 -0.05017391 -0.044975746 -0.06488528 0.005471139 -0.09830304 -0.082583986
-0.021583429 0.13717763 -0.0665219 -0.07512714 0.037459403 0.08122775 -0.031498216 -0.013299401
-0.020246614 0.13401839 0.12783024 -0.078788236 -0.07989664 0.06923912 0.017090648 -0.07476517
-0.03399639 -0.044093553 -0.00037412057 -0.037967663 0.06815985 -0.05629584 0.044036895 -0.040825035
0.06839152 -0.09221017 -0.044997923 -0.03291406 0.047998898 0.062484413 -0.06885746 0.018231615
0.021013143 0.07930096 0.046418294 -0.056684334 -0.033921164 -0.0788132 -0.017222049 -0.13767529
0.02104944 0.029223545 0.06516923 -0.083714515 0.053239558 -0.035757754 -0.0013419653 -0.042069998

layers.0.node_model.node_mlp_1.3.bias f4 [85]
00000000: 07ec 4fbd 029f bcbd 6d98 37bd c935 153a
00000010: cb03 f73b 887b 7138 f2be a9bd d156 57bd
00000020: b2ed ba3d a427 c0bd 79e9 523c 6fd4 48bd
00000030: 23e4 ddbc 9b0f 713d 053a 90bc 0bd2 4d3d
00000040: b6f3 0e3c be1e 8d3d 767a b1bd c781 e9bc
00000050: 4ab8 e7bc 6ec8 7bbd 0036 da3d 2399 9c3d
00000060: d576 3abc 6a02 443d 7431 b33d dac2 92bd
00000070: 08ed 843d 085c 73bd 8dab f0bc 659e 87bc
00000080: cab2 363d 1cee b53d 6755 3a3d a3d2 00bd
00000090: 7e23 d33d cf6e bb3b 7ac1 263c 5d24 0d3d
000000a0: c72b a63c 5448 c4bd f560 3fbd a746 3e3d
000000b0: f9c0 253c 53ba b53d 7252 6d3d ec7f 8c3d
000000c0: f046 d7bd df64 a7bc b209 b6bc bef8 b4b9
000000d0: b2aa db3d b54f 8bbc 9edf d33d 2739 b8bd
000000e0: 46de 243c 29b5 fc3b 92c2 bfbd 8e95 c7bc
000000f0: 7ef1 f83c 1129 063d 9ddb c43d 2527 2f3d
00000100: 0fe0 ebbc 58c5 723d 61c0 04bd 4251 ccbd
00000110: 8661 ce3d 1a8f 673b 6e9c a83d ae81 99bd
00000120: a1a1 9e3d 1dea d33d eaf0 be3d 496a c7bc
00000130: feea 49bc 76e5 d5bc 2973 57bc 99b4 d03d
00000140: 47eb d83d 91af b9bd 0272 34bc 8a10 893d
00000150: 3f05 ac3c
-0.050762203 -0.09210016 -0.0448231 0.00056919135 0.007538294 5.7573925e-05 -0.08288373 -0.05257303
0.09127368 -0.09382561 0.012873047 -0.049030717 -0.027086323 0.058852773 -0.01760579 0.05024914
0.008725097 0.06890629 -0.08665936 -0.028504265 -0.028286118 -0.06147044 0.10654831 0.07646396
-0.011380871 0.047853865 0.08749667 -0.07166071 0.064905226 -0.05941394 -0.029378677 -0.01655502
0.0446041 0.088833064 0.045491602 -0.03145088 0.10309504 0.0057199965 0.010177964 0.034458507
0.020284547 -0.09584108 -0.046723325 0.046454098 0.010116809 0.08873429 0.057939954 0.06860337
-0.10511577 -0.020433841 -0.02222142 -0.00034517603 0.10725917 -0.01700578 0.10345386 -0.08995276
0.01006276 0.0077120257 -0.09363283 -0.024363305 0.03038859 0.032754008 0.096122004 0.04276194
-0.028793363 0.059270233 -0.03241003 -0.09976436 0.10077195 0.0035333098 0.082329616 -0.074954376
0.07745672 0.10347388 0.093232945 -0.024342673 -0.012324093 -0.026110392 -0.013150015 0.10190696
0.105917506 -0.0906669 -0.01101351 0.06692608 0.020998595

layers.0.node_model.node_mlp_1.4.weight f4 [85]
00000000: 13fd 6b3f 046c 753f 6019 793f 917d 7b3f
00000010: 6cab 7b3f 9be4 693f 27ad 7b3f 6682 7d3f
00000020: 0ab7 753f e57c 843f 04d6 833f 9838 7e3f
00000030: 661b 853f 7583 733f 2611 803f f219 6c3f
00000040: 4786 6b3f 42ba 8d3f 125b 663f 8028 7b3f
00000050: ebbc 703f c808 743f 0950 7f3f 708e 683f
00000060: 6b12 763f 79a6 853f fb87 7d3f afb9 7c3f
00000070: 2e3a 733f bd74 6d3f d697 823f dbe5 803f
00000080: e622 793f 00a5 863f 6919 713f e29d 783f
00000090: a3c6 813f bc85 7d3f eba9 743f 2b1f 753f
000000a0: 40bd 823f 07ae 853f 5bc9 7f3f c565 733f
000000b0: 0270 723f eed2 723f 22dd 803f c775 863f
000000c0: 7252 723f 87bc 823f 6210 813f 6344 823f
000000d0: 891d 783f 5daa 813f d1ae 723f 22a6 893f
000000e0: fad2 793f fb81 763f af43 743f c4a8 7a3f
000000f0: 707a 803f 13d0 743f a7e7 813f 669e 803f
00000100: af0a 743f ac38 7a3f 260f 743f 874d 773f
00000110: 2d12 6d3f 84e6 893f 5b59 7c3f 5a51 823f
00000120: e1c9 7d3f 01cc 723f 1373 803f 050b 7d3f
00000130: f671 803f fd47 713f 1b3d 7d3f c138 6e3f
00000140: 4080 793f 9f55 763f e56a 6e3f 74d2 6b3f
00000150: d457 693f
0.92183036 0.95867944 0.97304344 0.98238474 0.98308444 0.9136445 0.98311085 0.990271
0.9598242 1.0350615 1.0299687 0.99305105 1.0398986 0.9512246 1.0005233 0.9222709
0.92001766 1.1072466 0.8998271 0.98108673 0.94038266 0.953259 0.997315 0.9084234
0.96121854 1.0441428 0.99035615 0.9872083 0.9501065 0.92756253 1.0202587 1.0070146
0.97318876 1.0519104 0.941794 0.9711591 1.0138744 0.9903219 0.95571774 0.95750684
1.0214005 1.0443734 0.9991662 0.95077163 0.9470216 0.94853103 1.0067484 1.0504693
0.9465705 1.0213784 1.0083125 1.017712 0.9692007 1.0130116 0.94798 1.0753825
0.9758755 0.96292084 0.95415777 0.97913766 1.0037365 0.95629996 1.014882 1.0048339
0.953288 0.97742724 0.95335615 0.9660267 0.9260586 1.0773473 0.98573846 1.0181077
0.9913617 0.94842535 1.0035118 0.9884494 1.0034778 0.9425047 0.98921365 0.9305535
0.9746132 0.962244 0.9313186 0.92118 0.9114964

layers.0.node_model.node_mlp_1.4.bias f4 [85]
00000000: 8f91 113e 76b8 863d 683d 8cbd 1d6e e3bd
00000010: ea39 82bd 642c 293d 93ef 68bd f68c cbbd
00000020: a7f7 bdbc f2d2 99bd d185 09be a2db 3fbd
00000030: 4238 0dbe ee4b 2e3d 9c90 99bd c483 e23c
00000040: 5584 dabb d182 5fbe bbc4 e93c 7943 2dbd
00000050: 734d 6a3d eccf 43bd 9b33 cfbc 0307 e2bd
00000060: f591 953b bcb4 ffbd c615 55be 68ac b4bd
00000070: da10 c8bd 803f 873d 96e3 4ebd 56c5 3ebe
00000080: 308c 083b 35ae 10be 54ca cabc 5aeb a3bd
00000090: 90ed 71bd 4157 cbbd b1c8 82bd 1096 ddbd
000000a0: 6227 54be 6fce a0bd 6fbc e5bd d0a3 bcbd
000000b0: 0c50 19bd dca5 2f3d 3893 b5bc da7c 3cbe
000000c0: 5702 28bd 8fd2 2cbe c008 0cbe 2faf e5bd
000000d0: 3c3e 08be 33ee 77bb 0e00 46bb c1f6 2fbe
000000e0: e42f 26be 828e 62bd c361 863c 6859 debd
000000f0: 7eed 66be 758f 6cbd 3eee e1bd 4cbc 03be
00000100: afbe 14bc 2e0b 05bd 4b3d 4d3d 64c8 14bd
00000110: 1367 ca3c d05d 0cbe 7801 4fbc 885b abbd
00000120: 5515 eabd 24cb 3a3d 189b d5bd d8f7 8cbd
00000130: 6090 f4bd 6825 87bc 00eb a8bd 1945 893b
00000140: 472d 113e eaac 23bd 5203 683d 6fc7 123e
00000150: e684 05bd
0.14215682 0.06578152 -0.0684765 -0.11104987 -0.063587025 0.0413021 -0.0568691 -0.099389955
-0.023189379 -0.07510938 -0.13429953 -0.046840318 -0.13790992 0.04255288 -0.07498285 0.027650721
-0.0066686072 -0.21827246 0.028536191 -0.042300675 0.057202768 -0.04780571 -0.025293162 -0.11036494
0.0045645186 -0.12485644 -0.20809087 -0.088219464 -0.09768839 0.066039085 -0.05051001 -0.18629965
0.0020835511 -0.14128955 -0.02475468 -0.08003874 -0.059064448 -0.09928752 -0.06385935 -0.10819638
-0.20718148 -0.07851874 -0.112175815 -0.09210932 -0.037429854 0.042882785 -0.022164926 -0.18407002
-0.041017856 -0.16877197 -0.13675213 -0.11215054 -0.1330499 -0.0037831187 -0.0030212435 -0.17183973
-0.16229206 -0.055311687 0.016404038 -0.10856897 -0.22551534 -0.057754 -0.11031769 -0.12864798
-0.009078666 -0.032481365 0.05010728 -0.03632392 0.024707353 -0.13707662 -0.0126346275 -0.083670676
-0.1142985 0.045603886 -0.104299724 -0.0688321 -0.119416 -0.016497329 -0.08247948 0.0041891453
0.14177428 -0.039959826 0.05664379 0.1433389 -0.032597445
