scripts_pom/leffingwell_models/graphnets_d2/nn_predictor.pt (torch, 132224 bytes, 10 tensors)

layers.0.weight f4 [100, 100]
000000 3a 4c fa 3d 9f da 67 bd da dc b6 3c 75 2f b9 bd
       0.1222157 -0.056604978 0.022322107 -0.09042255
000010 87 c5 08 bb c4 ea 11 bb 3f 49 ba 3b af 25 86 3d
       -0.0020869689 -0.0022265175 0.005685001 0.06550156
000020 23 79 f1 3d af c2 28 3d 92 ae 97 bc c6 34 7b 3b
       0.11790683 0.04120129 -0.018515859 0.0038331016
000030 bf 01 cf bd 6f 8a c8 3c 33 8f 31 bc 0e b4 1a 3e
       -0.10107755 0.024480073 -0.010837364 0.15107748
000040 e0 b8 01 3d 19 14 49 3d 84 d2 84 bd db 34 d3 bd
       0.03167045 0.049091432 -0.06485465 -0.10312816
000050 63 38 ae bd 70 2f a6 3d b7 50 f5 3d 07 32 83 bd
       -0.08506849 0.08114517 0.11978286 -0.06406026
000060 c1 c0 be 3b 41 6d cf 3d 81 b1 67 bd ab ba fb 3c
       0.005821318 0.101282604 -0.056565765 0.030728659
000070 a6 a0 0c 3e 9b 97 de 3d 81 9c cd bd 86 bd 8f bd
       0.13733158 0.1086876 -0.100396164 -0.070185706
000080 ce eb 6b bd 1b 02 91 bc a7 35 8e bd 4f 94 d0 3c
       -0.057597928 -0.0177012 -0.06943827 0.025461344
000090 9e db cc bc 7f f6 05 bd da 11 91 3b 5b 08 37 bd
       -0.025007065 -0.03270578 0.004427177 -0.044685703
0000a0 d1 02 97 bd 0b 9f 55 3d 0b 17 d2 3d 8f 52 a0 3c
       -0.07373584 0.05215363 0.10258301 0.019570617
0000b0 db 7a fb bc ec 5d 7b bd 5a 04 e3 3d 30 20 04 bc
       -0.03069823 -0.061368868 0.11084814 -0.008064315
0000c0 b8 73 77 bc b3 04 bd 3d 22 88 fd 3d 32 7e e3 bd
       -0.015103273 0.09229412 0.12379481 -0.11108054
0000d0 16 90 85 3d 0e d8 4d 3e e1 5f 75 bd 91 3d 3f 3c
       0.06521623 0.2010195 -0.05990589 0.011672393
0000e0 67 ff df 3d 92 b0 39 bd f7 24 34 bd e3 e9 06 3e
       0.10937386 -0.045334406 -0.043980565 0.13175158
0000f0 af e8 75 3d 02 e5 98 3d ef 0f 72 3d cf df c2 3d
       0.060036357 0.07465555 0.059097227 0.09515344
000100 14 38 d6 bc 5a 83 8e bd c5 01 0c 3e c5 de 88 bd
       -0.026149787 -0.06958647 0.1367255 -0.06683115
000110 d0 c3 aa bd a9 b6 08 3d 54 fc 14 bd dc e3 14 3e
       -0.083381295 0.033377323 -0.03637345 0.14540046
000120 17 2b c5 bd 04 db 2a bc 7b 95 9b bc 0f 01 46 bd
       -0.09627359 -0.010428194 -0.018992176 -0.048340853
000130 a3 78 4c 3c 54 ed bd bc da f5 7d 3d 3f 78 16 3d
       0.012479934 -0.023184456 0.06200204 0.03673577
000140 cf 5e 31 bd b4 1b a3 3d 3f 47 0c 3d 58 85 bd 3d
       -0.043303307 0.07964268 0.034247633 0.09253949
000150 c8 89 ff 3b 2a f1 ea 3d bd 2e 63 bd c1 66 44 bd
       0.007798407 0.1147178 -0.055464495 -0.047949556
000160 78 dd fd bc 31 02 49 bc fc 07 c4 3c 61 9e 9b 3d
       -0.030989394 -0.012268589 0.023929588 0.07598568
000170 ba 36 84 bc db 9e f6 3c 49 df cd bc 02 1b c6 3c
       -0.016139377 0.030105045 -0.025130885 0.0241828
000180 ed f8 bb bd e9 86 84 3c df 81 40 3d b6 cf 9c 3d
       -0.09178338 0.016177611 0.046998855 0.07656805
000190 23 2a 0d 3e 17 a1 ac 3c fa 12 63 3d 8e 8b 9a 3d
       0.13785605 0.021072907 0.05543802 0.07546149
0001a0 38 92 8f bd 8c fa f4 bc 25 e6 68 bb 81 b6 c7 bd
       -0.07010311 -0.029904626 -0.0035537567 -0.09751607
0001b0 0c 52 cc bc 43 c8 20 bd e3 07 05 3d 18 0e e4 3a
       -0.024941467 -0.039253484 0.032478224 0.001739922
0001c0 94 12 68 3d dc a0 8d 3d b8 55 e1 3d c4 c4 1a 3d
       0.056658342 0.06915447 0.11002678 0.037785307
0001d0 e3 7e 04 3e 10 cd 09 bd a0 c0 d5 3d 9e 4a c7 bb
       0.12939028 -0.03364283 0.10437131 -0.006081893
0001e0 3c ed 60 bd 84 ed e0 3d e9 8c 82 3d 9c b5 46 3d
       -0.054913744 0.109828025 0.06374533 0.04851304
0001f0 b7 94 a0 3d 7c 7e 3c 3d e6 3d 2c bd df 3a 14 be
       0.07840865 0.046019062 -0.04205122 -0.14475583
000200 8c 15 f9 3b a9 88 9e bd 8a df ed bd ef 44 d4 bc
       0.0076014455 -0.077409096 -0.11614902 -0.025911776
000210 ac 9f 97 3d ea 7f bc 3d 3d 9c 68 3c fe d9 a7 bc
       0.07403502 0.09204085 0.014197406 -0.020489689
000220 90 22 16 3d 73 8a 98 bd c3 cd 05 be 44 43 b1 bd
       0.036654055 -0.07448282 -0.13066773 -0.08655408
000230 7d e3 bb 3c 48 d1 4e bd cb 04 17 be 53 67 94 bd
       0.022935623 -0.050492555 -0.14747922 -0.0724627
000240 19 ac 96 3c 6e d1 e8 bd 2b 36 95 3d be 10 d6 3d
       0.01839261 -0.113680705 0.07285722 0.10452412
000250 a9 a0 71 bd 60 66 8d bc f4 61 7b 3d 56 57 fc bb
       -0.058991108 -0.01726073 0.061372712 -0.007700841
000260 2b 90 37 3d 1a 3d ad bd 50 f2 8d bd 01 81 7c bd
       0.044815224 -0.0845892 -0.06930983 -0.061646465
000270 96 12 44 3d 3d 45 ce bd 53 0b 35 bd 99 51 36 3d
       0.047869287 -0.100718 -0.044200253 0.04451141
000280 71 4e 84 bc f9 3c 7f 3d 97 52 48 bd c6 39 f0 3d
       -0.016150685 0.062314007 -0.04890689 0.117297694
000290 d8 3f 01 3d 81 06 94 bd 13 62 ce bc e1 22 d3 bc
       0.031555027 -0.07227803 -0.02519325 -0.025773467
0002a0 a9 eb 5f 3d 28 7e 79 bb 13 49 7e 3c b0 97 24 bd
       0.054668102 -0.003806958 0.015520352 -0.040183723
0002b0 3c d1 b9 3d 8c c1 a0 3d 7b 7d 80 bc ab 38 17 3d
       0.090731114 0.07849416 -0.015684834 0.036919277
0002c0 98 00 18 3e db 0a 77 3d ff 32 18 be 39 1e 2f 3c
       0.14843976 0.060313087 -0.14863203 0.010688358
0002d0 ee d6 bd 3d 24 21 d1 bd 85 a6 13 bd d1 14 7b 3d
       0.0926951 -0.10211399 -0.036047477 0.06129915
0002e0 10 5e 20 be 14 f5 02 3e c1 30 ea bb e6 fc 83 bd
       -0.15660882 0.12788802 -0.007146925 -0.06444721
0002f0 0f 68 00 3e 5e d5 79 bd 65 27 02 be 48 5a 83 3d
       0.12539695 -0.0609945 -0.1271034 0.06413704
000300 73 81 78 3d 62 8b a4 bc 5d be 3e bd 7c de 42 bb
       0.060670327 -0.020085994 -0.046568263 -0.0029734662
000310 fa 92 6b 3c 06 d7 85 bb 43 69 03 3e 25 ac 10 3d
       0.014378304 -0.0040844707 0.12833123 0.03532042
000320 4f 58 aa ba 98 71 bf bd 9f 9d cf 3d 75 df 30 bc
       -0.0012996289 -0.09347838 0.10137486 -0.010795464
000330 0e cf 41 bd 2c 02 eb bd 2f 5b 52 bd 52 3f 65 3d
       -0.047316603 -0.114750236 -0.05135649 0.05596859
000340 7f fd 42 bd c9 7b 3f bc 77 41 47 bd 5c 1e 81 bc
       -0.047605034 -0.0116872275 -0.048646417 -0.015761547
000350 3f 89 aa bc b9 20 e3 bd 04 af fa bc 44 18 f8 3c
       -0.020817397 -0.11090226 -0.030601032 0.030285008
000360 4a 6b 7a 3d 7f f2 85 3c 9f 51 bb 3d 05 82 22 bd
       0.061137475 0.016350983 0.09146427 -0.039674778
000370 68 2f b4 3d b9 ce 37 3d 25 0c c7 bc 4e 93 f7 3d
       0.087981045 0.04487488 -0.024297783 0.12088643
000380 d4 2b 94 bd 09 ca ae 3d ad bc f1 bc af cf cf bd
       -0.07234922 0.08534629 -0.029508913 -0.101470344
000390 47 e2 fc bc 5e d4 9c bc 85 44 8f 3c ef 26 ca 3d
       -0.030869616 -0.019144233 0.017488727 0.09870707
0003a0 fd 2a 38 bd 33 05 be bc 58 fb cd bc ce c1 44 3d
       -0.04496287 -0.023195839 -0.025144264 0.04803639
0003b0 e1 9a c2 3d 66 2b 9e bd 20 a4 36 3d 1b 2f ff 3d
       0.09502197 -0.07723121 0.044590116 0.124601565
0003c0 77 28 6c 3d eb 33 a6 bd 47 b5 e5 bd ec f7 09 3e
       0.057655778 -0.08115371 -0.112162165 0.13473481
0003d0 0d d6 cc bd 76 8a 82 3d be d8 eb bd 73 99 d0 3d
       -0.100017644 0.063740656 -0.1151595 0.10185518
0003e0 9d 30 96 bc b8 ce 7c bd b9 4f 6a 3d 82 24 80 bc
       -0.018333727 -0.06172058 0.057204936 -0.015642408
0003f0 10 d7 84 bb f5 16 0e be 1f d9 2a bd 50 4a 1f 3c
       -0.0040539578 -0.13875945 -0.04171097 0.009722307

layers.0.bias f4 [100]
000000 5f 49 df bb 2a 1f f5 bd 64 95 f3 3c 2e 04 91 bd
       -0.0068141664 -0.11968835 0.029734321 -0.07080875
000010 5e 75 08 be 6b 14 b5 3a f3 e2 65 bc bb 90 e8 bd
       -0.13326022 0.0013815289 -0.01403116 -0.1135573
000020 f3 8e 54 3c 25 b8 7e 3d 80 c9 45 be 76 0c 1d be
       0.012973535 0.062187333 -0.19315147 -0.15336785
000030 11 04 0a bd 48 ff e5 3c 1d d7 df bd 9e 72 87 bd
       -0.033695284 0.02807583 -0.109297015 -0.06613658
000040 93 e0 b9 bd c5 24 ce 3c 14 66 a2 bb 87 4f ab 3d
       -0.09076037 0.025164017 -0.0049560163 0.08364778
000050 36 c3 bc bd 03 f2 95 bd ed 21 68 3d 2f b4 33 be
       -0.09216921 -0.07321551 0.05667298 -0.17549203
000060 76 07 0e be 1e 2b 84 bd df 05 3f bb 8f 11 a5 3d
       -0.13870034 -0.064535365 -0.0029147787 0.0805999
000070 c8 dd df bc be ce 98 bd 16 88 ea 3c ce 39 11 be
       -0.027327433 -0.07461308 0.028629344 -0.14182207
000080 8e fe 54 bd ba ab f6 bd a4 bb ad bd 04 c0 44 3b
       -0.052000575 -0.12044473 -0.08483055 0.0030021677
000090 45 5f 23 bd 6a e4 bc bc 49 cb 2c bc c3 2a 6a 3d
       -0.039885778 -0.023058135 -0.010546514 0.057169687
0000a0 50 1c 47 3d 4e 74 93 3d a7 28 eb bc 84 c4 87 3d
       0.048610985 0.07199918 -0.028705908 0.06629279
0000b0 27 54 e3 bd 41 33 e8 bd 78 69 25 3c 72 6f 6c bd
       -0.11100035 -0.11337901 0.0100959465 -0.05772347
0000c0 23 9f ec bc 61 20 0b be d8 1b a9 3d c2 8e 0f be
       -0.028884476 -0.1358657 0.08257264 -0.14019302
0000d0 f9 2d 35 be e2 13 63 3d a8 ec dd bd c4 a9 ce bd
       -0.17693318 0.055438884 -0.10836154 -0.10090974
0000e0 25 ca af 3c 78 ab 20 be 78 e7 56 be bb de d3 3d
       0.021458695 -0.1569041 -0.20986736 0.10345217
0000f0 03 91 de bc ab 72 33 3d 3f 31 e5 bc f0 75 83 bb
       -0.027168756 0.043810528 -0.027977584 -0.004011862
000100 33 d4 42 bd 91 dc b6 3d f9 5e a5 3c ca 2f 51 3d
       -0.04756565 0.089287885 0.020186888 0.051070966
000110 61 6e 64 bd a8 7a 4a 3d c9 b2 79 bd 08 02 01 bc
       -0.055769328 0.04943338 -0.06096152 -0.007874019
000120 4f fa 17 be c5 6f fa bb 01 05 0c be 82 38 c1 bd
       -0.14841579 -0.0076427185 -0.13673784 -0.09434606
000130 15 dd 8e bd 63 7b ff bd 3c 88 51 bd 00 43 2a be
       -0.06975762 -0.12474706 -0.051155314 -0.16627121
000140 cf c3 11 3d 15 35 94 bd 43 cf 67 bd 54 1a 8c 3c
       0.03558713 -0.07236687 -0.056594145 0.017102398
000150 62 78 18 3d 31 89 ce 3d 33 eb ad 3d 62 8d 4e bd
       0.03722418 0.10084761 0.08492126 -0.050427802
000160 98 46 b3 bd 8f f7 c9 bd be af 25 be 71 e8 c4 3c
       -0.08753699 -0.09861671 -0.16180322 0.024036618
000170 3c 32 f6 3c 48 b7 9c 3c 6a 3e 17 bd f5 21 24 be
       0.03005325 0.019130364 -0.036924757 -0.16028579
000180 63 98 14 3d 7a 06 df bd 85 1d 15 be 1c 5b 0b 3e
       0.03627814 -0.10889907 -0.14562042 0.13608974

layers.2.weight f4 [100, 100]
000000 1c 69 b0 3d da 5c 94 3d 98 1d 6d 3d ea c6 92 3d
       0.08613798 0.072442725 0.05788955 0.07166846
000010 b7 e4 13 3d cb da 5d 3d 54 8d 9d bd 88 f7 89 3d
       0.03610679 0.054163735 -0.07692972 0.06736666
000020 a6 91 f2 3c f3 f3 5d bd b6 5e 87 3d 11 98 33 3c
       0.029610466 -0.054187726 0.066098616 0.010961548
000030 cc b7 a7 3d e4 2d 70 3d da d3 84 3d f3 b2 6c 3b
       0.08189353 0.058637515 0.0648572 0.0036117404
000040 45 f6 18 3e 17 a2 2e 3d f2 32 8c bc 90 80 e1 3b
       0.14937694 0.04263505 -0.017114136 0.006881781
000050 f1 09 bb bc 82 10 24 3d 7c 29 5f bd d6 72 1a 3e
       -0.022831889 0.040054806 -0.054482922 0.15082869
000060 80 a9 16 bc db 7f 8e 3d fb 8b b5 bc 09 e1 2f bd
       -0.009195685 0.0695798 -0.022161474 -0.04293922
000070 02 86 45 3d 56 24 07 be 38 24 06 3e 81 27 c2 bd
       0.048223503 -0.13197455 0.13099754 -0.09480191
000080 86 16 fc 3d 9a 09 14 3c b5 58 46 bd 1f d9 50 3d
       0.123089835 0.009035492 -0.04842444 0.050988313
000090 00 8c d5 3c 0f 70 b8 3d e3 f9 6b 3c b2 4b 8a bb
       0.026067734 0.090057485 0.014402839 -0.0042204494
0000a0 b8 86 f9 bc 5a 54 27 bd 1d bd 1f 3c 43 4d d8 3d
       -0.030459747 -0.04085193 0.009749678 0.105616115
0000b0 68 65 15 3d fe 4a 3f bd 73 87 be 3d d1 ed 20 3d
       0.03647366 -0.046702377 0.09303179 0.0392893
0000c0 ce c6 aa 3d 17 57 56 bd b5 69 29 be e3 98 f1 38
       0.083387 -0.05232915 -0.1654423 0.00011520253
0000d0 f4 be b5 bd 97 1c d2 3d 62 6d 76 3d fd b2 93 3c
       -0.08874312 0.10259359 0.06016291 0.018029684
0000e0 de d0 95 3d 02 1d 97 bd 1e 24 ea 3d c6 fc 82 bd
       0.07315229 -0.0737858 0.1143267 -0.06395869
0000f0 17 a5 a5 3d 79 ce 25 bd 82 d8 96 3d 6e 0c f7 3b
       0.08088129 -0.04048011 0.07365514 0.0075393235
000100 b6 6e 6a 3d 66 51 34 bd 95 68 dd 3d 8b ae db bc
       0.05723449 -0.04402294 0.10810963 -0.026816627
000110 e5 02 76 bd d5 f7 96 bd 75 21 1c 3e a6 ac 2e 3d
       -0.060061354 -0.07371489 0.15247138 0.04264512
000120 c0 80 0c 3e 2e e6 88 bd c0 cc df bd 5f 97 c5 bd
       0.13720989 -0.06684528 -0.10927725 -0.09648012
000130 c3 d7 c8 bc 3f c6 5e 3d 3f 22 20 3d f6 b5 c1 3d
       -0.024516946 0.05438828 0.03909516 0.094585344
000140 f5 0b 4a bd aa 79 67 bd af 94 82 3d 4a 87 12 3c
       -0.04932781 -0.056512512 0.063760154 0.008943388
000150 66 a2 ab 3d 77 d3 16 bd 4d 60 3a 3d 23 e1 c0 bd
       0.083805844 -0.036822762 0.045501996 -0.094179414
000160 09 b4 5d bd e7 52 94 3c 68 6c 14 3c 8e d9 7d bc
       -0.054126773 0.018105937 0.009059049 -0.015493764
000170 04 9e 8f 3d a3 c3 8c 3d 13 e6 b8 bd 3b 7e 95 3a
       0.07012561 0.06873252 -0.09028258 0.0011405417
000180 14 9f a0 3d ba e6 88 bc 47 2d df 3b 14 96 a9 bd
       0.07842842 -0.016711581 0.0068108174 -0.08280578
000190 85 dc dc bc ae f9 c0 bc 67 99 da bc ba df 8c bd
       -0.02696062 -0.023556557 -0.026684476 -0.0687861
0001a0 b9 11 75 bd 68 ef 67 bd ed 92 0d be b0 5b da bd
       -0.059831355 -0.0566248 -0.13825579 -0.10662019
0001b0 62 bc c2 bd e7 08 29 3b a2 fa df 3d a3 48 54 3d
       -0.095085874 0.002579266 0.10936476 0.051827084
0001c0 1c 9c 34 3d bc 6a df bd a6 be ff bd a4 49 90 bd
       0.04409419 -0.1090903 -0.12487535 -0.07045296
0001d0 30 cd 4c bd ce 1f ef bd b6 df 0c bd d0 f5 d0 bc
       -0.05000037 -0.11675988 -0.034393035 -0.025507838
0001e0 01 76 00 bd 5e 3f 55 bb d4 2b dd bd 92 1b 79 bd
       -0.031362537 -0.003253899 -0.10799375 -0.06081731
0001f0 99 60 7c bd 43 d5 ed 3b 07 23 d0 bd 9b 58 07 bd
       -0.06161556 0.007258089 -0.10162931 -0.033043485
000200 f0 e4 d8 3d 19 2b b2 bd eb 79 8a 3d e8 88 03 3e
       0.10590541 -0.086996265 0.06761535 0.12845194
000210 c1 50 7b bd ce ec 1e 3e 7d d8 5f 3b 2e d2 56 bc
       -0.06135631 0.15520021 0.0034156137 -0.013111634
000220 00 9c b9 bd 2b a7 e9 bd 55 8a a2 3d e9 1f 61 bd
       -0.09062958 -0.11408838 0.07936541 -0.054962073
000230 59 e3 23 bd 2e 24 8e bd 08 58 8f 3d 15 13 44 3c
       -0.040011737 -0.069404945 0.069992125 0.01196744
000240 91 e6 c3 bd 66 55 a7 bc fb ee 07 3e 5b 79 04 3e
       -0.095654614 -0.020426463 0.13274758 0.12936918
000250 48 bb e2 3d 5d c2 c0 bd 65 54 db bb 89 10 90 bd
       0.11070877 -0.09412072 -0.00669341 -0.07034404
000260 ea 89 68 bd b6 95 a5 bd 4a 05 27 bb 2f 89 d5 3c
       -0.05677215 -0.08085196 -0.002548533 0.02606639
000270 33 7d 79 3d 73 fa 11 bc 36 ec 8b bb b6 62 22 bd
       0.060910415 -0.008909809 -0.004270102 -0.03964492
000280 e7 6d cf 3d 5b 52 f6 3d 48 e9 92 3c a4 b0 7a bc
       0.10128384 0.12027427 0.017933503 -0.0153009035
000290 21 72 a0 3d 3f 30 ff bd 90 62 cf 3b 48 da d0 3d
       0.07834268 -0.12460374 0.0063288882 0.10197884
0002a0 2b f7 d8 bc 96 a6 aa bd f7 89 ef bd 27 39 74 3b
       -0.026485046 -0.08332555 -0.116962366 0.003726551
0002b0 c8 a5 df 3c 46 4a 85 3c 49 f0 4d bd 1e 4a dd bb
       0.02730073 0.016270768 -0.050277982 -0.00675322
0002c0 14 2a c0 bd 4f d7 d4 bb 3f 52 e5 3b ec 84 86 bd
       -0.09383026 -0.0064953933 0.00699833 -0.065683216
0002d0 63 a6 6c bd 1e a8 5a 3d 23 42 0f bd a0 46 3e bd
       -0.057775866 0.053382985 -0.034975182 -0.046454072
0002e0 ae 4d 73 3d 97 1c 74 3d a1 88 a1 3d 2d 06 78 3c
       0.059400253 0.059597578 0.07887388 0.015138191
0002f0 e7 6c 38 bd e7 e3 05 bd 35 dd 1c bc f5 f7 55 3d
       -0.045025732 -0.032688048 -0.009574224 0.052238423
000300 0c 0d a2 3d 3c 52 15 3e 9d 7d 29 bd 47 1d 58 bd
       0.07912645 0.14582151 -0.04137956 -0.052762296
000310 dd 63 d9 bc 6e b5 0e bd 26 ff fc 3c c8 9b 97 bc
       -0.026536876 -0.034840994 0.030883383 -0.0185069
000320 1c f6 c4 bd 2a b4 2f bd a7 b9 96 3d 19 71 fb 3c
       -0.09617254 -0.042896427 0.07359629 0.030693578
000330 e7 fa a2 bb 0f f1 8b bd c0 98 89 bd 47 67 c2 bd
       -0.0049737575 -0.06833088 -0.06718588 -0.09492355
000340 4f 6a 1b bd dd b2 bb 3c f2 92 60 3d 01 28 28 3d
       -0.03794318 0.022912437 0.054827638 0.041053776
000350 ba 27 c6 bd f3 64 90 bd 8d 48 81 bc 3f c1 b5 3d
       -0.09675546 -0.070505045 -0.015781665 0.088747494
000360 30 67 15 3c 4d 76 15 bd d1 8e 13 3d cb f6 30 bd
       0.00911884 -0.036489774 0.036024872 -0.04320411
000370 d7 8e 84 bd 9d 3d 7f 3d 4f fc 60 bd 40 21 ce bc
       -0.06472557 0.06231462 -0.05492812 -0.02516234
000380 b3 99 dc bd ea bf 66 3d ae dd 87 3d 93 0f dc 3c
       -0.10771503 0.056335367 0.06634079 0.026862895
000390 79 47 99 bd 82 7a d9 bd 17 a2 b2 bd 2b b8 98 3d
       -0.074843355 -0.1061907 -0.087223224 0.07457002
0003a0 9b 0d 2c 3d c9 9f 9b 3d af b6 33 3d 9e 02 8d 3c
       0.042005163 0.07598836 0.043875393 0.017213162
0003b0 7f 4c cf bb 6b c0 9b bd e1 6a ba bd 44 ea cf bd
       -0.0063262577 -0.0760506 -0.09102417 -0.101521045
0003c0 8a 44 fc 3c 49 0e 5e bd 2c ab d0 bc c0 85 87 bd
       0.0307944 -0.054212842 -0.025472246 -0.06617308
0003d0 0d 47 95 bc b7 71 9c bd f0 70 9c bd 13 d4 e5 3c
       -0.018222356 -0.07638877 -0.076387286 0.028055226
0003e0 03 bf 1a bd b9 f6 66 3d 2d de 28 bd 31 cd a5 bd
       -0.03777982 0.056387637 -0.04122751 -0.08095778
0003f0 60 ee e1 bc 7f fc 71 bd 9a a0 fa bc fd f7 c2 bd
       -0.027579486 -0.05907869 -0.030594159 -0.09519956

layers.2.bias f4 [100]
000000 96 84 eb 3d f9 58 b0 bd bf 5d 91 bd 62 2c e6 bc
       0.11499898 -0.0861072 -0.07097959 -0.028097335
000010 3a d9 e3 ba 2f 41 41 bd f8 c7 1f 3c e6 08 ad 3d
       -0.0017383464 -0.047181305 0.009752266 0.08448963
000020 9e 6a 27 3d 71 1c 98 3d a0 56 ed 3c d1 11 49 bd
       0.040873162 0.074273 0.02897197 -0.049089257
000030 d4 ab 1c bc 18 9d 07 3d 99 78 e8 3d ea 4b 80 bc
       -0.009562451 0.0331088 0.11351127 -0.015661199
000040 a9 da 84 bc b6 1c b8 bd f5 98 71 bd 8a a5 9b 3c
       -0.016217547 -0.08989851 -0.05898376 0.018999834
000050 61 f5 35 bd 3e bd 98 bd 9a 72 b1 3d 4a a1 09 3e
       -0.044423465 -0.0745797 0.08664437 0.13440433
000060 0e 5b 04 be 25 78 4e 3d da 7c 5e ba 48 ac ba 3d
       -0.1292536 0.050407548 -0.0008487232 0.09114891
000070 c1 13 e3 bb 79 da 1e bd 59 f3 04 bd c8 08 e8 bc
       -0.006929845 -0.03878257 -0.032458637 -0.0283245
000080 bc 16 7f 3d 1c 19 c4 bc 21 8a 87 bd ad 91 0c bb
       0.06227754 -0.023937754 -0.06618143 -0.0021449134
000090 21 08 e0 3c 0c d6 b7 3c 29 c9 ba ba f4 30 07 3e
       0.027347626 0.022440933 -0.0014250624 0.13202268
0000a0 26 3f a0 3d 76 c7 85 bc e7 66 d4 bd f7 89 be bc
       0.078245446 -0.016330462 -0.103711896 -0.023259146
0000b0 cc 76 15 3e 66 d9 85 3d 63 80 5d bd 58 0d d0 bd
       0.14596099 0.06535606 -0.054077517 -0.10158795
0000c0 7c c7 e4 bd 5d 94 db bd a0 a4 37 be cd d5 50 3e
       -0.11170861 -0.107216574 -0.17933893 0.20394059
0000d0 ba ab 06 bd 2f 2d e4 bd fd ec 38 bc 43 ea 10 bc
       -0.032878615 -0.111414306 -0.011286971 -0.008844915
0000e0 2a e8 72 3e b7 eb 4b 3d cf ef 32 bd fb 3a a7 3d
       0.23721376 0.049785342 -0.04368573 0.081655465
0000f0 5e 3b 8d 3b 85 42 44 3c 1f 4b 99 bd 18 06 55 3d
       0.0043100556 0.01197875 -0.07485031 0.052007765
000100 58 22 ee 3d fe f9 f7 bb b8 aa ba bb 38 f7 63 3e
       0.11627644 -0.007567643 -0.005696621 0.22262275
000110 76 f5 9c 3d a4 38 b7 bc 6d f6 4a bd d4 81 b3 bd
       0.076640055 -0.022365876 -0.049551416 -0.08764997
000120 c6 01 80 bd 93 fc a2 3b eb 7c 80 bd ca 9c a4 bd
       -0.06250338 0.004973957 -0.06273826 -0.08037718
000130 e0 51 51 bd 3c 61 6e 3d 70 5f b0 bd 12 21 09 be
       -0.051103473 0.0581982 -0.08611953 -0.13391522
000140 cb e2 39 bd f5 c9 23 3d bc a1 62 bc a1 f8 c9 bd
       -0.045382302 0.039987523 -0.013832506 -0.09861875
000150 76 6d 94 bd 14 d4 17 bd 85 ae 8f 3a 6e ef ad 3d
       -0.072474405 -0.037067488 0.0010962045 0.08492933
000160 85 4e 39 3d e7 f7 2f bd 00 c1 8b bd a7 d6 5b 3d
       0.045240898 -0.042961027 -0.06823921 0.053671505
000170 1d 5c 83 3e b7 0e 9d bd 9a 71 a6 bd 49 28 47 bd
       0.25656214 -0.07668822 -0.081271365 -0.048622403
000180 47 78 09 3d af 0e ec 3d de ff 3a 3e e9 a0 36 bd
       0.03356197 0.11526238 0.18261668 -0.04458705

layers.4.weight f4 [100]
000000 45 6e 4e 3f 15 ea 83 3f 7f e1 7d 3f cb 9b 41 3f
       0.8063701 1.0305811 0.99172205 0.75628346
000010 58 a1 75 3f be d8 73 3f 58 e3 55 3f a9 09 8c 3f
       0.95949316 0.952526 0.83550024 1.0940448
000020 cc b9 6f 3f 28 23 82 3f 23 62 83 3f 8c 6a 89 3f
       0.9364288 1.0166979 1.0264324 1.073564
000030 03 cf 6e 3f b3 3d 50 3f 53 88 83 3f b9 8c 54 3f
       0.93284625 0.81344146 1.0275978 0.83027226
000040 8c 0c 64 3f 2d c3 5b 3f e5 7a 7e 3f 07 15 7d 3f
       0.89081645 0.8584469 0.9940627 0.9886021
000050 91 69 79 3f fe f9 86 3f 0f 6c 6b 3f 06 7e 40 3f
       0.97426707 1.0545042 0.9196176 0.75192297
000060 58 45 69 3f 89 40 82 3f d3 d5 75 3f 11 a5 81 3f
       0.91121435 1.0175945 0.96029395 1.0128499
000070 17 9a 6c 3f 50 f6 94 3f 8b b2 79 3f 19 a7 72 3f
       0.9242262 1.1637669 0.9753806 0.9478622
000080 bb c1 7f 3f f2 06 86 3f 86 84 7e 3f 4e 2e 50 3f
       0.99904984 1.047087 0.99420965 0.81320655
000090 c8 29 63 3f 9a 27 63 3f 20 f2 80 3f 33 0c 57 3f
       0.8873563 0.887323 1.0073891 0.8400299
0000a0 b7 94 57 3f dd bd 44 3f a7 0a 71 3f aa 3a 4d 3f
       0.84211296 0.7685221 0.9415688 0.8016764
0000b0 ef 84 4d 3f f1 a8 7f 3f 88 9f 57 3f 38 9f 7a 3f
       0.80280966 0.9986716 0.842278 0.978992
0000c0 e2 ad 79 3f 12 89 77 3f dd d5 7f 3f d7 69 5e 3f
       0.9753095 0.9669353 0.99935704 0.8688025
0000d0 8a 9e 43 3f 87 5e 77 3f 1c ac 75 3f 0a 78 48 3f
       0.76413786 0.9662861 0.95965743 0.78308165
0000e0 e1 fc 75 3f 34 a8 7c 3f ff d8 40 3f 1a 6f 67 3f
       0.9608899 0.9869416 0.7533111 0.904039
0000f0 b8 ea 9b 3f 30 2b 83 3f 26 fe 7a 3f 1f 96 5a 3f
       1.2181005 1.0247555 0.9804405 0.85385317
000100 d7 15 58 3f 6e 93 88 3f 07 1d 86 3f 24 c2 64 3f
       0.84408325 1.0669992 1.0477608 0.89358735
000110 a4 28 64 3f ee dd 64 3f 57 ed 47 3f a2 23 68 3f
       0.8912451 0.8940114 0.78096527 0.9067937
000120 72 8c 4b 3f e6 10 79 3f b0 63 65 3f 7a 91 66 3f
       0.7951118 0.9729141 0.89605236 0.9006573
000130 aa d5 6f 3f 80 84 4d 3f 9c 40 4a 3f 85 f2 7b 3f
       0.936854 0.80280304 0.79004836 0.9841693
000140 fe 5a 4e 3f b6 88 49 3f 56 79 4b 3f 97 27 65 3f
       0.80607593 0.7872423 0.7948202 0.89513534
000150 77 f8 6f 3f 49 f1 54 3f 83 06 63 3f 5b e8 6e 3f
       0.937385 0.8318067 0.8868181 0.93323296
000160 e9 0f 60 3f 1c 42 78 3f 67 ef 77 3f f8 df 68 3f
       0.87524277 0.96975875 0.96849674 0.9096675
000170 ba 3e 59 3f 79 42 67 3f c7 53 81 3f 00 84 74 3f
       0.8486134 0.90335804 1.0103692 0.95513916
000180 bb cd 4b 3f 38 d4 51 3f 0f af 50 3f 06 6f 7c 3f
       0.79610795 0.81964445 0.8151712 0.9860691

layers.4.bias f4 [100]
000000 9e 60 ab be 83 fe bc 3e 93 c2 ac 3e 1c 77 b9 be
       -0.3347215 0.36912927 0.33742198 -0.36223686
000010 a2 c9 bb 3e e7 c9 c1 3e 4c 8b c3 be 58 1f b1 3e
       0.3667727 0.37849352 -0.38192213 0.34594226
000020 52 ff bd 3e df 07 d4 3e 52 a5 c3 3e bf 6b d6 3e
       0.37108856 0.41412255 0.38212067 0.4187908
000030 a5 f0 bb 3e 82 cb cc be b8 87 00 3f 5d 72 ce be
       0.36707035 -0.39999014 0.5020709 -0.40321627
000040 3a 95 ca 3e c3 fa b9 3e e6 49 af 3e f4 45 cc 3e
       0.39566976 0.36324129 0.34236068 0.3989712
000050 b8 f2 a9 3e 30 da bc 3e 21 25 bd 3e be e8 bc be
       0.33192992 0.36885214 0.3694239 -0.36896318
000060 9d a1 b9 3e 56 89 cc 3e d6 33 ca 3e ab 11 07 bf
       0.36256114 0.3994853 0.39492673 -0.52761334
000070 f4 93 c6 3e 1c 5f 35 3f 52 4b eb be 4f 40 be 3e
       0.38784754 0.7084825 -0.45955902 0.3715844
000080 5d c2 b7 3e 1f 74 ba 3e 60 d5 ac 3e ad f3 bc be
       0.35890475 0.36416718 0.33756542 -0.3690466
000090 05 4d 04 bf be 7c c1 be 91 86 ca 3e cd 34 c7 be
       -0.5168002 -0.37790483 0.3955579 -0.3890747
0000a0 26 59 b7 be 22 9e bf be 5e a0 ba 3e 8b a9 c2 be
       -0.35810202 -0.37425333 0.36450475 -0.38019976
0000b0 ce a0 b0 be ee a6 c5 3e 45 ac b6 be 79 5e c3 3e
       -0.34497684 0.3860392 -0.35678306 0.38158014
0000c0 57 7b cb 3e 63 a6 c0 3e 6c 22 c1 3e 5c 38 c1 be
       0.39742538 0.37626943 0.37721574 -0.3773831
0000d0 1b 0a bf be ca 1f bb 3e b9 3a c9 3e 28 3e be be
       -0.37312397 0.3654769 0.39302614 -0.37156796
0000e0 91 f6 d0 be 3b 71 b4 3e c1 9a ca be b8 9e de 3e
       -0.40813115 0.35242638 -0.39571193 0.43480468
0000f0 b7 a6 10 3f 9a 6c c1 3e 8b 45 b5 3e ba 7f ba be
       0.56504387 0.3777817 0.3540462 -0.36425573
000100 56 3f bc be 0a b0 e8 3e b2 8f c5 3e b7 73 b8 be
       -0.3676707 0.45446807 0.38586193 -0.36025783
000110 13 99 bd be df cc c1 be ea eb bb be 07 81 be 3e
       -0.3703085 -0.37851617 -0.36703426 0.37207815
000120 19 2c c5 be d0 d2 d0 3e 5d 35 cb 3e 09 6c c3 3e
       -0.38510206 0.40785837 0.3968915 0.38168362
000130 e1 33 cb 3e e8 21 ad be 7e ce bd be 23 66 b6 3e
       0.39688018 -0.3381493 -0.37071604 0.356248
000140 96 6c ba be 1a a3 c5 be e6 72 b0 be fa 21 c6 3e
       -0.3641097 -0.38601 -0.3446266 0.38697797
000150 25 23 b9 3e 7b da a3 be 1f d8 bd 3e 1d a7 e0 be
       0.36159626 -0.32002625 0.3707895 -0.43877497
000160 98 ad a9 be 5c 91 c9 3e 0b cd bf 3e e9 a8 be 3e
       -0.33140254 0.39368713 0.37461123 0.37238243
000170 7c 3f cc be a4 d1 ac 3e 11 72 bd 3e 48 84 bf 3e
       -0.39892185 0.33753693 0.37001088 0.3740561
000180 89 e7 ae be 63 7a c5 be 92 74 ac be 08 bf ae be
       -0.34161022 -0.38569936 -0.33682686 -0.3413012

layers.4.running_mean f4 [100]
000000 e2 50 a0 3f c2 34 50 3e 04 00 00 00 67 a7 34 3f
       1.2524683 0.20332626 6e-45 0.70567936
000010 26 9c b6 3e dd e3 09 3f fb 8a c0 3f c9 97 41 3e
       0.35666007 0.53863317 1.5042413 0.18905558
000020 ad 8b 5b 3f 53 45 53 3e 03 61 cd 3d a0 21 68 3e
       0.85760003 0.20631914 0.10028269 0.22669077
000030 9b 73 8f 3f a1 c3 b2 3f 72 e4 1c 3f e0 1c 1b 3f
       1.1207155 1.3965951 0.6128608 0.60590935
000040 dc 8f fb 3e 95 1a d8 3f 35 95 db 3e f3 51 e7 3e
       0.49133193 1.6883112 0.42887273 0.4517971
000050 04 00 00 00 b4 db 1e 3e 52 b0 18 3f 45 5b 4d 3f
       6e-45 0.15513498 0.59644043 0.8021739
000060 59 0d 1e 3e f5 c5 5b 40 da 9a 50 3e 30 82 9b 3f
       0.15434779 3.4339573 0.20371571 1.2149105
000070 cd 2f af 3f 01 40 46 3f c9 ab cc 3f 21 63 f9 3e
       1.3686463 0.7744141 1.5989925 0.48708442
000080 db 95 25 40 5d 85 0d 3e 5d 6d c6 3e 77 67 f9 3e
       2.5872715 0.13820405 0.38755313 0.4871175
000090 8f 80 92 3f a1 51 86 3f 0d 62 c9 3e 1f b4 31 3f
       1.1445483 1.0493661 0.3933262 0.6941547
0000a0 25 0b 47 3f d3 d1 90 3f f2 4b 06 3f 7b 9a e1 3e
       0.7775138 1.1314033 0.52459633 0.44063172
0000b0 97 11 80 3f 1a 42 19 3e 2c aa 1a 3f 1e 21 5a 3e
       1.0005368 0.14966622 0.6041591 0.21301696
0000c0 be 8a cd 3e 85 5c 9d 3e 10 bb 1e 3e 9e 5d c0 3f
       0.40144914 0.3073465 0.15501046 1.502857
0000d0 41 2c c2 3f f6 cd db 3e ad 0d 9d 3e 77 1c 84 3f
       1.5169755 0.42930573 0.30674496 1.0321187
0000e0 ab 5b ca 3f 60 4b 87 3e 38 b2 35 3f c2 c9 0e 3f
       1.5809225 0.26424694 0.70975065 0.5577661
0000f0 f5 21 20 3f 56 30 51 3e 04 00 00 00 c3 cc 38 3f
       0.62551814 0.20428595 6e-45 0.7218744
000100 81 e2 b7 3f e3 80 67 3f d5 17 05 3f cf 3e ce 3f
       1.4365999 0.9043104 0.5198949 1.6112918
000110 ec de 51 3f d3 c8 26 3f 38 3f c4 3e ae 3f c8 3e
       0.81980777 0.65150183 0.38329482 0.39111084
000120 32 c4 79 3f 2f ee 1f 3f 6b 1e ed 3f 40 1f 48 3f
       0.97564995 0.62472814 1.8524908 0.78172684
000130 72 bc 82 3f 44 d7 fd 3e 82 8a 48 3e fb a3 b6 3e
       1.0213759 0.49578297 0.19584087 0.35671982
000140 ee 47 c7 3e b6 c9 29 3f 2b 5b c9 3e 47 ac 9b 3f
       0.38922065 0.6632341 0.39327368 1.216195
000150 64 81 8f 3f 46 46 10 3f 5b 35 44 3f 1b 82 bd 3f
       1.1211362 0.5635723 0.76643914 1.480533
000160 66 02 2c 3f 22 59 7f 3f 09 14 ca 3f c4 30 5e 40
       0.6719116 0.9974538 1.5787364 3.4717264
000170 48 55 19 40 e4 02 5f 3f d1 a5 5d 3e 43 54 12 3f
       2.3958302 0.87113786 0.21645285 0.57159823
000180 74 61 5e 3f 81 2d 75 3f f7 0b 88 3f 04 00 00 00
       0.8686745 0.9577256 1.0628651 6e-45

layers.4.running_var f4 [100]
000000 aa 89 05 3f 26 d1 4a 3e 04 00 00 00 61 75 90 3f
       0.52163184 0.19806346 6e-45 1.1285821
000010 c4 dc f0 3e d2 5c 64 3f 73 0e 83 3f 2b 3d 59 3e
       0.4704343 0.8920413 1.0238785 0.2121474
000020 2b e4 32 3f 89 af 81 3e 23 07 e7 3d 00 f5 a4 3e
       0.69879407 0.25329235 0.11280658 0.3221817
000030 c3 2f da 3f d2 a5 da 3f 66 9b 12 3f 38 45 31 3f
       1.7045826 1.7081854 0.5726837 0.69246244
000040 76 24 1e 3f a9 b4 83 3f a6 d9 fa 3e 05 cf 5f 3f
       0.61774385 1.0289508 0.48994178 0.8742526
000050 04 00 00 00 68 62 61 3e bf df ff 3e c4 0e 8b 3f
       6e-45 0.22010195 0.49975392 1.0863881
000060 b4 59 82 3e db db 53 3f 23 41 63 3e 3e 07 d0 3f
       0.25459063 0.8275735 0.22192816 1.625221
000070 0f 2f ec 3f e3 6b 3f 3f 4e fa 9a 3f ab 7a 4e 3f
       1.8451861 0.74774 1.2107637 0.80655926
000080 02 24 3b 3f 79 46 16 3e 72 78 0e 3f db a5 31 3f
       0.7310182 0.1467532 0.55652535 0.693937
000090 17 fa 06 40 c2 ca 6c 3f 11 51 da 3e 96 72 46 3f
       2.1090143 0.92496884 0.42639974 0.77518594
0000a0 4b 43 5a 3f 1d 0c 9e 3f 25 e8 43 3f 13 56 2d 3f
       0.8525893 1.2347447 0.765261 0.67709464
0000b0 58 b1 aa 3f a6 da 3b 3e 76 cd 62 3f 3c 0d 85 3e
       1.3335371 0.18345127 0.8859476 0.2598666
0000c0 75 7b dd 3e 44 88 ad 3e b4 fa 48 3e df 79 5c 3f
       0.43258253 0.33893025 0.19626886 0.8612346
0000d0 45 f5 00 40 f5 9e cd 3e 90 c5 bc 3e 25 c8 8d 3f
       2.01497 0.40160337 0.36869478 1.1076704
0000e0 27 28 3b 3f c0 83 98 3e cb 34 6b 3f 5d d7 29 3f
       0.7310814 0.29788017 0.9187743 0.66344243
0000f0 f5 04 24 3f f0 34 8d 3e 04 00 00 00 8b 81 2f 3f
       0.64070064 0.2757945 6e-45 0.6855704
000100 b3 0c 67 3f 73 ae be 3f 84 68 31 3f a0 c9 4c 3f
       0.9025375 1.4896988 0.69300103 0.79995155
000110 0b f4 74 3f 82 ee 64 3f fb ee e0 3e cd 13 29 3f
       0.9568488 0.89426434 0.43932328 0.6604584
000120 07 1c 61 3f 2b 38 12 3f 24 67 78 3f 14 25 90 3f
       0.8793339 0.57116956 0.9703238 1.1261315
000130 6d ef aa 3f c1 23 66 3f 5d 90 88 3e 9f 0a 99 3e
       1.3354317 0.89898306 0.2667264 0.29890916
000140 cb 6e e2 3e 96 91 88 3f 04 94 09 3f c3 6b da 3f
       0.44225153 1.0669429 0.5374148 1.7064136
000150 08 e3 a7 3f fa 55 07 3f 41 07 a1 3f bb 7f 70 3f
       1.311616 0.52865565 1.2580339 0.939449
000160 dd cf 62 3f 4e 76 96 3f 1f 1d 13 40 c8 73 5e 3f
       0.88598424 1.1754854 2.2986524 0.8689542
000170 0f 0b ac 3f a9 21 86 3f 76 52 94 3e 44 fc 54 3f
       1.3440875 1.0479022 0.28969163 0.83197427
000180 ea 30 a6 3f 15 52 93 3f d7 91 89 3f 04 00 00 00
       1.2983677 1.1509424 1.0747632 6e-45

layers.6.weight f4 [113, 100]
000000 ae db a2 3d 3a c6 bf be a6 b5 d4 be 02 20 f7 3d
       0.07952057 -0.37455922 -0.41544837 0.12066652
000010 96 eb 6a 3c fc 62 76 be 43 0c ac 3e 5e cc 81 3d
       0.014338395 -0.24061197 0.33603105 0.06337808
000020 02 53 04 be 11 31 ff bd 88 9e 89 be 54 e2 9d be
       -0.1292229 -0.124605305 -0.26878762 -0.30836737
000030 35 c6 89 be b5 9a c5 3e b5 75 9b be 78 db cc 3d
       -0.26909032 0.38594595 -0.3036324 0.10002798
000040 07 34 af be 81 95 95 be 2c 6b d0 bd 45 9e 55 be
       -0.3421938 -0.29215625 -0.101766914 -0.20861156
000050 68 34 95 be 39 94 64 be 90 ae fa bd 60 ac 79 3d
       -0.29141545 -0.22322167 -0.122403264 0.060955405
000060 94 4d 9d be be a4 81 be 63 cc 86 be de db 45 bd
       -0.3072325 -0.25321 -0.2632781 -0.048305385
000070 38 4d 9a bd a4 fb c0 be 54 a0 8a 3d 6e 53 74 3c
       -0.075342596 -0.37691987 0.067688614 0.014912469
000080 cd d2 b9 bd 4d b2 88 3c d6 11 ee be 52 7f 01 3e
       -0.0907341 0.016686583 -0.46497983 0.12646225
000090 6f d4 44 3e 8e 5c 69 3e 6f 51 c1 be a1 c1 8f 3e
       0.19221662 0.22789213 -0.3775744 0.28077415
0000a0 c3 f6 18 3e 32 e8 f8 3d 94 47 5b be c5 48 29 3e
       0.14937882 0.12153663 -0.21414024 0.16531666
0000b0 1b df 69 3e 29 9e 3d be 42 60 c8 3e 8d 58 ae be
       0.22839014 -0.18517365 0.3913594 -0.34051934
0000c0 5b 9a f7 bd 8e 77 68 be 6d 07 94 be b6 8a a7 3e
       -0.12089988 -0.22701856 -0.28911915 0.32723016
0000d0 23 2c 58 3e 11 1b af be e9 b5 ba be 78 9b f3 3d
       0.21110587 -0.34200338 -0.3646691 0.11894888
0000e0 1a ce 7b 3d eb a9 97 be b7 15 02 3e 12 85 bd bd
       0.06147585 -0.29621825 0.12703596 -0.09253897
0000f0 c6 52 a8 3c 44 c6 d7 bd e3 fe ce be 0f 88 8f 3e
       0.020547282 -0.10535863 -0.40428838 0.28033492
000100 db d2 a9 3c 32 85 6a be a8 b3 f5 bd 85 b6 2a bc
       0.020730427 -0.22902372 -0.11997157 -0.010419493
000110 bc 05 c2 3e a0 47 8c 3e 2b 12 cb 3d 27 5d a5 3c
       0.37895 0.27398396 0.09915575 0.02018602
000120 1c 87 99 3e f7 3c 0c bd a5 f0 02 be 08 67 62 bd
       0.29985893 -0.034237828 -0.12787111 -0.05527404
000130 d1 f4 30 3b 4b c4 eb 3d 43 ff 12 3e 29 4c 2a 3c
       0.002700139 0.11512049 0.14355187 0.010394135
000140 29 74 0d 3d d3 47 b4 3e e6 b5 82 3e 8e dd 43 be
       0.034534607 0.35211048 0.25529402 -0.19127485
000150 cb f1 7e bb 00 9e 2a 3d c7 bf 92 be 2e 16 96 3d
       -0.0038901444 0.041654587 -0.2866194 0.07328449
000160 bc d2 2a 3d af 78 34 be c3 72 93 be 98 7d 9c be
       0.04170488 -0.17624162 -0.28798494 -0.3056457
000170 ce f4 21 bd 23 29 b7 be ea b9 b5 be 83 05 22 bd
       -0.039540105 -0.35773572 -0.35493404 -0.039556038
000180 53 d7 12 3e e8 3e 93 3e c1 64 60 3e 9f 5a d5 3e
       0.14339952 0.2875893 0.21913435 0.416707
000190 d9 1d 8f 3e 15 38 73 be a5 ed 4d be 75 7b 72 3e
       0.2795246 -0.23751862 -0.20110185 0.23679908
0001a0 80 25 a4 be ae bf 4d be 90 7e d4 bc 6e e8 18 be
       -0.3205986 -0.20092651 -0.025939256 -0.14932415
0001b0 20 56 3c bd 6e 64 c9 be 85 d6 9a be 19 62 84 be
       -0.045980573 -0.39334434 -0.3024179 -0.25856093
0001c0 80 3c 46 be af a5 c5 3d 6e ac f1 bd 28 9c 1c 3e
       -0.19359016 0.09650742 -0.118004665 0.15293944
0001d0 aa f6 ae be 38 93 1e be f6 96 da bd ca 05 80 be
       -0.34172565 -0.15485847 -0.10673325 -0.25004417
0001e0 76 cf 9a be 23 e3 26 be 37 ba cd bd c9 2f 82 3e
       -0.30236405 -0.16297583 -0.10045283 0.25427082
0001f0 c5 5d 63 be b2 f0 83 be 99 93 a2 be 50 ec 69 bd
       -0.22203739 -0.25769573 -0.31753233 -0.05711013
000200 21 a3 95 be a1 65 e3 bd 3b 8c 61 3c 1e 77 9a be
       -0.2922602 -0.111033686 0.013766344 -0.30169004
000210 ae 37 1e be 23 a2 62 be 45 2b 3e be f5 32 ae 3d
       -0.15450928 -0.22132163 -0.18571194 0.08505813
000220 0e 9f 34 3d fd 0c 8b 3e e4 a8 83 bd 9b d3 5a 3e
       0.044097 0.27158347 -0.06428698 0.21369784
000230 94 b8 21 3e b6 b7 20 3e bd 28 6b be a6 f6 08 3e
       0.15793067 0.1569508 -0.22964759 0.13375339
000240 fa 95 db 3d d1 0f 7d be 94 f0 47 3e e1 30 74 be
       0.10721965 -0.24713065 0.19525367 -0.23846771
000250 9b a0 0d be d2 a2 c3 be d8 f1 81 be 95 ac 96 bd
       -0.13830797 -0.3821016 -0.25379825 -0.07357136
000260 01 eb 41 3e 21 25 e9 bd bf da aa bc 49 a5 4b 3e
       0.18937303 -0.11384035 -0.02085626 0.1988727
000270 5a 68 e4 3d c7 83 51 be 03 f6 de 3d 27 f6 09 be
       0.11152716 -0.20460425 0.10886767 -0.13472806
000280 57 01 89 be 90 36 58 be 7e 6c 6c be f1 83 1f 3e
       -0.26758835 -0.21114564 -0.23088261 0.15577675
000290 06 68 2d 3e 25 e1 b6 bd ae 1c a4 be de 5b 54 3e
       0.16934213 -0.08929662 -0.3205313 0.2073817
0002a0 41 d9 60 3d d9 cd fc 3d 53 27 f0 3d 82 aa a1 be
       0.05489469 0.1234395 0.117262505 -0.315754
0002b0 31 b6 13 3e 8a 0f 8f be 3c 6c 20 be 85 63 bd bc
       0.1442497 -0.27941543 -0.15666288 -0.023118744
0002c0 cc ec 20 be c4 4a a7 3e 2b 87 84 3e 3c 2f 38 be
       -0.15715331 0.3267423 0.25884375 -0.17986768
0002d0 94 68 9b 3e cb 47 0f 3e 19 82 46 3d 28 2a 4e be
       0.30353224 0.1399223 0.048463915 -0.20133269
0002e0 60 cc 2d be a8 2a 61 3d 04 e1 24 be ce 04 7f 3e
       -0.16972494 0.05497232 -0.16101462 0.24904177
0002f0 9a da 99 3d 90 7f 92 be 41 75 b3 be ee 4b 22 be
       0.07512398 -0.28612947 -0.35050395 -0.15849277
000300 03 ea ed 3d 02 67 d2 be 3d a8 6f be f0 dd 84 be
       0.116169 -0.41094214 -0.23404022 -0.25950575
000310 9a de 10 3e b8 91 d0 3d 3f b1 4a 3e 04 de ab 3e
       0.14147416 0.10184044 0.19794177 0.33567822
000320 eb fb 1b 3e 2c e5 85 be f8 2a 8f be 92 54 37 3e
       0.15232818 -0.26151407 -0.2796247 0.17903355
000330 33 f4 ca 3c 85 dc f5 bd a4 f4 81 3e 55 74 c7 be
       0.024774646 -0.120049514 0.25381958 -0.38955942
000340 10 bb 9f be 2e 77 6b be de 65 aa be 17 56 11 be
       -0.31197405 -0.22994682 -0.33280843 -0.14192997
000350 6a b8 71 bd c8 2b 89 3d aa fa 97 be 80 54 5c 3e
       -0.05901376 0.06697804 -0.2968343 0.21516609
000360 ba cd 8d be 1e 6c 1c be 1c d2 52 be c5 fa 9c be
       -0.2769602 -0.15275618 -0.20587963 -0.30660072
000370 4b 72 6a be 77 cb 2e be 74 1f d0 bd 6e 04 4d 3e
       -0.22895162 -0.17069803 -0.10162249 0.20021221
000380 54 e6 95 be 35 6b c7 bd e2 f4 5a be 96 1a aa 3d
       -0.2927729 -0.09737245 -0.21382478 0.08305852
000390 2b 88 21 be f1 c1 08 be 90 08 b1 3d 7c 1b 09 bd
       -0.157746 -0.13355233 0.08644211 -0.033473477
0003a0 63 57 a0 bd d6 ec e1 3d 11 40 6b bd 6c 5c 65 3e
       -0.07829168 0.11031501 -0.057434145 0.22398537
0003b0 ec 0f 49 3e 50 6e 25 3e 9f f0 49 be 8c f3 b6 3d
       0.1963498 0.16155362 -0.19720696 0.08933172
0003c0 7c d0 68 3e 9d 41 8d 3e 16 91 82 bb 24 f2 b1 3d
       0.2273578 0.2758912 -0.0039845807 0.08688763
0003d0 1c 68 63 3e 73 cb d3 be 35 56 50 3e da 3b 85 bd
       0.22207683 -0.41366157 0.20345385 -0.065055564
0003e0 2d 47 94 be e1 f0 28 bc 35 58 cd bd 6d ab 44 3e
       -0.28960553 -0.010311336 -0.1002659 0.19206019
0003f0 6b 0b c3 3d 65 84 a6 bd 70 f2 b6 be fe 6a b9 3d
       0.09523662 -0.08130721 -0.3573184 0.0905361

layers.6.bias f4 [113]
000000 8a e6 80 be 6d 9a ec bd 8d 36 47 be a0 ee dd bd
       -0.25175887 -0.11552892 -0.19454403 -0.1083653
000010 e5 ea 2f be 54 a9 25 be f4 1c 46 be 5f 6d 05 be
       -0.17179449 -0.16177875 -0.19346982 -0.13030003
000020 cc fb 04 be 5a fb 45 be 82 e0 d9 bd 17 86 6e be
       -0.12986678 -0.19334164 -0.106385246 -0.23293339
000030 a3 1a 35 be da e2 1f be 80 06 de bd 7a f8 4d be
       -0.17685942 -0.15613881 -0.108410835 -0.20114318
000040 5c 1b 2d be 78 e4 86 be e7 4d fb bd 36 c3 dd bd
       -0.16904968 -0.26346183 -0.12270718 -0.10828249
000050 d8 76 85 be 5d 82 84 be 64 a3 2d be 65 c1 ab bd
       -0.26067233 -0.2588071 -0.1695686 -0.083864965
000060 a6 b5 0e be bc 1d b7 bd 47 85 83 be b4 79 b1 bd
       -0.13936481 -0.08941218 -0.2568762 -0.08665791
000070 90 3d a2 bd 26 4e 87 be ca 55 10 be 40 b3 3a be
       -0.07921898 -0.2642681 -0.14095226 -0.18232441
000080 3d da 9d bd 1b 87 69 be 66 32 87 be 9e bd 6f be
       -0.07707641 -0.22805445 -0.26405638 -0.23412177
000090 ce b1 c7 bd dc 1a 05 be ad cf 81 be bc e6 70 be
       -0.097507104 -0.12998527 -0.25353757 -0.23525518
0000a0 8a 16 04 be e2 17 6f be ec 8a 6b be 72 97 65 be
       -0.12899223 -0.23348954 -0.23002213 -0.22421053
0000b0 d8 98 5e be f2 14 65 be 59 ef 11 be a2 18 31 be
       -0.21737993 -0.22371271 -0.1425146 -0.17294553
0000c0 13 54 1f be da fd 98 bd 61 03 84 be 8f 2b 43 be
       -0.15559416 -0.07470293 -0.25783828 -0.19059585
0000d0 3d 18 46 be 25 f8 5f be cb 04 01 be 34 8b 69 be
       -0.19345184 -0.21872003 -0.12599485 -0.22807008
0000e0 b2 ae 45 be a8 08 85 be 57 b6 48 be ec 13 34 be
       -0.19304922 -0.25983167 -0.19600807 -0.17585725
0000f0 ab af 5b be b0 3f 39 be cd 1b 6b be 0b 55 15 be
       -0.21453731 -0.18090701 -0.22959824 -0.14583223
000100 a1 a8 1d be 54 f6 69 be 1a c6 55 be 97 6f 30 be
       -0.15396358 -0.22847873 -0.20876351 -0.17230068
000110 f6 c7 55 be 75 ac 64 be f1 4a db bd 39 48 3d be
       -0.2087706 -0.22331412 -0.10707653 -0.18484582
000120 ba 5a e1 bd 93 b5 1e be bb 6e 50 be b9 2d 72 be
       -0.11003633 -0.15498953 -0.2035474 -0.23650254
000130 f1 64 3e be b4 91 7b bd fc 36 95 bd 43 0a cd bd
       -0.18593194 -0.06141825 -0.07285878 -0.10011723
000140 40 9c 5b be 6d db 3a be 35 ba ac bd f1 11 49 be
       -0.21446323 -0.18247767 -0.08433954 -0.1963575
000150 39 22 0e be 9a 13 27 be 19 08 cc bd 07 a4 67 be
       -0.13880242 -0.16316071 -0.09962482 -0.22621165
000160 ad 1d 18 be b2 f4 82 be cb 25 53 be 28 f0 12 be
       -0.1485507 -0.25577313 -0.20619886 -0.14349425
000170 2c 79 20 be b2 df a0 bd 61 66 6c be 5d a1 06 be
       -0.15671223 -0.078551665 -0.2308593 -0.13147493
000180 c4 2f 35 be ad 7e 90 bd 4f 3c bb bd 13 75 96 bd
       -0.17694002 -0.070554115 -0.09142362 -0.07346549
000190 7a 0e 87 be 36 16 8a bd 2d 9e 63 be 63 98 4e be
       -0.26378232 -0.06742518 -0.22228308 -0.20175318
0001a0 d0 6b d6 bd 65 b7 2b be 5a 1f 02 be 7a ff 9d bd
       -0.10469782 -0.16769178 -0.12707272 -0.07714744
0001b0 f1 db 39 be 10 5b 07 be 03 3e 33 be 89 50 c7 bd
       -0.18150307 -0.13218331 -0.17504124 -0.09732158
0001c0 c9 0f 00 be
       -0.12506022
