scripts_pom/leffingwell_models/graphnets_d2/nn_predictor.pt (torch, 132096 bytes, 10 tensors)

layers.0.weight f4 [100, 100]
00000000: e385 b3bd d435 393d be99 38bd dc0d 5f3d
00000010: f808 1f3d 09bf a3bd 0fea a1bd 9341 5d3c
00000020: feb8 1dbe 8e30 513d 050e 983d 0279 c1bd
00000030: ba2a 3fbd 687a 5dbd 5829 2e3d 44df 89bd
00000040: c8cb 4b3d 4e1b e6bd 39f3 e1bd c129 70bd
00000050: 9861 983c 2cd9 fabd 2b33 2bbd 18d0 1e3d
00000060: 182a dbbd c0c3 c2bd b9f1 c13d dd0a a13c
00000070: 32d2 8bbd a976 d13b 3553 6bbc 8b05 dbbd
00000080: 57f7 e53c cad5 b2bd 7435 f1bc d56d e1bd
00000090: 3bda 25bd e209 d9bc 74a5 38bc 7f7a c6bc
000000a0: d788 67bd bf61 fdbd 5b2f 933d d642 f0bd
000000b0: 8c1b b23c 1a53 cc3c b09d b33d e5c0 cfbd
000000c0: dbf4 e13c fe65 8f3c 21d2 903d 4200 ae3c
000000d0: 2b1d b83b d1eb a43d 96b9 cb3c c42d afbc
000000e0: 93ab 30bc b43f 07bd 1bf6 a73d 274f b43d
000000f0: 281e 9f3d d472 3fbb 81f4 083d d2bb 14bc
00000100: af4d a03d 5ea8 ab3d e692 61bd 44eb f13d
00000110: f080 0b3c e67a 13bb 3a73 3fbd bcba 533d
00000120: 34e7 c53a e0d5 8cbd 1d2c 11bd 1b3c c63d
00000130: 950e 4d3d 5299 24bd 3e24 8dbb f881 1abd
00000140: 5121 b6bd 8479 983d d39a 3d3d acf9 d6bd
00000150: 17a8 ddbc e0bc 993d 2709 133c 4e4c 003e
00000160: fd44 c73d 423b 393d b44a ec3d 09bb 8a3b
00000170: 9657 b4bc 9ce1 843d d628 aabd f9c5 503d
00000180: 0351 92bd 7e2c 93bd 012a 9ebd 94de ab3b
00000190: 76b2 89bd d1a3 883d 4f57 b4bd 8cad 0cbd
000001a0: 0ccc e33d c8c4 703d 0bd5 983d 4857 033e
000001b0: 352d db3c 6a1d f43d b52a 9c3d 93bd 93bd
000001c0: b5df 6fbd d5f5 eabc 6da0 683b 8918 8c3a
000001d0: 734d 36bc 0267 c33d 4462 f0bc 7ff8 0c3d
000001e0: 802c a63d f384 e4bc 0701 cdbc 1a20 963d
000001f0: 21aa d13d 9fe2 b1bd 9f88 cd3d 6627 193d
00000200: c569 d53c b9e5 473d 418a 503d 959a 42bb
00000210: 0794 8fbd b8ee 6c3d 0ea8 2dbd ab0c 043e
00000220: 1011 293d e063 45bd 4b57 06bc 7aa5 c2bd
00000230: e0fb 20bd c513 123c 39e7 743d 2cb5 9a3d
00000240: 0b5c 923c 4e68 293c f080 af3d a990 c1bd
00000250: f22b 8b3d e834 03be e3c0 8ebd 4217 313c
00000260: 000c ab3d d5ec 3f3d 3077 b73c d27e 3e3d
00000270: de61 9bbd 9e7c 49bd 14fd 323d 3f6d 573b
00000280: 8ee8 52bc 7b20 2d3d 84d2 01bd e2c9 b2bd
00000290: c0f5 e7bd 195d 35bb b479 e53d a1ad 88bd
000002a0: 00b5 e1bc ac45 17bc 347d d43d bba7 1dbd
000002b0: cebf 6c3d 9e59 abbd 456c ebbc bdb7 8ebd
000002c0: 6aae ad3d 37aa 03bc 3f0d 88bd 675b 9ebc
000002d0: 6b27 45bd 7fc7 abbd 7b3c 0cbd f172 8c3d
000002e0: a770 063d b179 9f3d e0ff e53d 1a20 cb3d
000002f0: f61e 293d 6087 c23d 5aeb 06be da1f 9dbd
00000300: b8b0 aa3c 3b6e a83c 8185 1b3d ad4d 353d
00000310: 4d39 5e3d 3d7b ecbd 6b7c 4d3d a4ae 6c3d
00000320: fbff 503d 3371 82bd 74f3 513d ab9e b5bc
00000330: faac 653c b849 b5bb 011e 88bd 34d8 a63d
00000340: 4706 0b3e 7c4b 48bd eb54 033e c310 953c
00000350: 4b32 993d 19ea 613d b1ad 1b3d 0c86 68bd
00000360: 6fbd 543d d45f e9bd 7e2f 72bc c36a 3b3d
00000370: 8afa 80bd 88f4 133d 69c5 3dbd 6d45 8abd
00000380: 068b 933d dd57 c83d a31e 2dbd e510 ee3d
00000390: 79ba 92bd 1c86 16bc 5a28 01bd 26c2 cf3d
000003a0: 0288 c8bc df07 6e3d b958 24bc 1220 2b3d
000003b0: 6d32 b63d b874 ccbd 72f8 17bd a7c2 0cbc
000003c0: b1e0 473d 31c0 873d b61c d3bc 6ad0 c7bd
000003d0: f5fd 9d3d 3ee0 2abd 6b2b e8bc 76f9 8ebc
000003e0: a6b3 1a3b 1d1f bbbd dad0 bebd 9e10 3b3c
000003f0: 3492 d13d 3375 d83d c623 4c3d 32c2 08be
-0.08765771 0.04521735 -0.045068495 0.054456577 0.038826913 -0.079954214 -0.07905971 0.013504404
-0.154026 0.051071696 0.07424549 -0.094469085 -0.046671607 -0.054071814 0.042519897 -0.06732038
0.049754888 -0.11235677 -0.11032719 -0.05863357 0.018601224 -0.122484535 -0.041796844 0.038772672
-0.10701388 -0.095099926 0.09469933 0.0196585 -0.06827201 0.006392319 -0.0143631 -0.106944166
0.028072042 -0.08732183 -0.029444434 -0.11007277 -0.040491324 -0.02649397 -0.011269916 -0.024228333
-0.056526985 -0.12372159 0.07186767 -0.11731498 0.021741651 0.02494197 0.08770311 -0.101442136
0.027582576 0.017504688 0.07071329 0.021240357 0.0056187115 0.08052791 0.024868768 -0.021384127
-0.010783094 -0.033019736 0.08201238 0.088041596 0.07769424 -0.002921273 0.033436302 -0.009077983
0.07827317 0.08381723 -0.055071734 0.118124515 0.008514628 -0.0022503673 -0.046740748 0.051691756
0.0015098811 -0.06876731 -0.03544246 0.09679433 0.050062735 -0.04018528 -0.004307299 -0.037721604
-0.08893073 0.07445052 0.04629023 -0.1049684 -0.02705769 0.07506728 0.00897435 0.12529108
0.09729955 0.04522253 0.11537686 0.004233722 -0.02201442 0.06488344 -0.0830857 0.05097005
-0.07144358 -0.071862206 -0.07722855 0.0052450392 -0.06723492 0.066718705 -0.08805715 -0.034345195
0.11122903 0.058781415 0.0746251 0.12826264 0.026754955 0.11919673 0.07625333 -0.07213893
-0.058562953 -0.028681675 0.0035496012 0.0010688464 -0.011126864 0.095411316 -0.029343732 0.03441667
0.081139565 -0.027895426 -0.025024904 0.07330342 0.10237528 -0.08685803 0.10035824 0.03739109
0.026051411 0.048803065 0.0509131 -0.002969419 -0.07010656 0.057844847 -0.042396598 0.12895457
0.041276038 -0.04819095 -0.008199523 -0.095042184 -0.039302707 0.008915846 0.059790824 0.07554087
0.017866155 0.01033981 0.08569515 -0.0945142 0.06795491 -0.12813151 -0.06970384 0.010808768
0.08351898 0.04685672 0.0223957 0.046507664 -0.07587026 -0.04919111 0.043698385 0.0032871512
-0.012872828 0.042267304 -0.031694904 -0.08729912 -0.1132617 -0.0027673899 0.11204854 -0.06673742
-0.027552128 -0.00923292 0.10375443 -0.03849004 0.057800107 -0.083667025 -0.02873815 -0.06968639
0.084805325 -0.008036188 -0.066431515 -0.019330693 -0.048133295 -0.0838766 -0.034237366 0.06857861
0.032822277 0.07786883 0.11230445 0.09918232 0.041289292 0.09498477 -0.13175717 -0.07672091
0.02083622 0.020560374 0.037969116 0.04426353 0.054253865 -0.11546943 0.050167482 0.057783738
0.051025372 -0.06369247 0.051257566 -0.022170385 0.014018292 -0.0055324696 -0.06646348 0.08146706
0.13576613 -0.048900113 0.12825362 0.01819647 0.07480296 0.055154894 0.038007442 -0.056768462
0.05193847 -0.11395231 -0.014781831 0.045756113 -0.062977865 0.036121875 -0.046330843 -0.06751523
0.07204251 0.097823836 -0.042265546 0.11624316 -0.07164473 -0.009187248 -0.031532623 0.10144453
-0.024478916 0.058112975 -0.010030919 0.04177863 0.08896337 -0.099832 -0.03710217 -0.008591331
0.048798267 0.066284545 -0.025770526 -0.09756549 0.07714454 -0.04171776 -0.028341016 -0.017452937
0.0023605614 -0.09136794 -0.09317179 0.011417536 0.10232964 0.10569229 0.049838804 -0.1335533

layers.0.bias f4 [100]
00000000: 6402 bfbd 270f 38bd 0187 c43d 0353 d6bd
00000010: fd10 b83d 211b f7bd deff c0bd 0a2e 28ba
00000020: 6dde 24bd 7593 0c38 7426 a8bb 2407 4fbe
00000030: 1076 5cbe d00e f3bc 58f2 f2bd e339 b5bd
00000040: 83af 1bbe 9260 38bd 00d2 803b 8628 3fbe
00000050: ee76 35bd e66e 18be b154 6b3d 7ace bcbd
00000060: 3fc5 adbb 9bd8 9d3d 2543 563d 6a59 c4bd
00000070: b5fc f8bd 92e3 b6bc 6254 44bd 0348 543d
00000080: ce8a 5abd 0be0 a93d 2c3c c1b9 52da 41be
00000090: 1f95 4dbd 5600 ae3d 54aa b6bc b161 1b3d
000000a0: 07fb 31be 110c 323c 14a5 35bc 6939 3abd
000000b0: 2b62 15be b1ee 563d 8ec5 763d 5e51 af3d
000000c0: afea 06be d7f1 1bbe 4392 2fbe fabd dcbd
000000d0: d522 f73c f324 bebd dfaa 8bbd d2ea aebc
000000e0: d02b 29be 69ec 47be d82c f3bd 0d3b dabd
000000f0: 5326 9cbd a860 d7bc 0d4f d4bd 0e6b eebd
00000100: a5ef 77bd 5ad5 47bc 8484 193d bf01 793b
00000110: faac 27bd 2538 36bc 872d 533d 59cf bcbd
00000120: 6236 1fbe 734d 643d 34f4 8c3b 6a28 b93d
00000130: d49f 77bc e614 25bd d147 28bd c5ce 3dbe
00000140: de6b 03be 9c29 1d3c a78b 283d bc87 e8bd
00000150: 5daf a3bd 949d 9bbd ff3b 6dbd ec2f 01be
00000160: f6cd e23b 0029 aabd 7624 5abd b0db a7bd
00000170: af80 313d af66 9bbd 0587 36be e26f 66bc
00000180: 59a1 f0bd eda4 bb3d 3987 ffbd 6645 183d
-0.09326628 -0.044936325 0.095960625 -0.10465052 0.08987615 -0.12065721 -0.09423803 -0.0006415552
-0.040251184 3.351593e-05 -0.005131537 -0.20217568 -0.21529412 -0.02967015 -0.1186263 -0.08848932
-0.15203671 -0.04501397 0.003931284 -0.18667802 -0.044302873 -0.14886054 0.057453815 -0.0921907
-0.0053030546 0.0770733 0.052310128 -0.09587367 -0.12157575 -0.02232531 -0.047932036 0.05182649
-0.05335503 0.08294686 -0.0003685666 -0.18930939 -0.05019104 0.08496158 -0.022298016 0.037934963
-0.17380916 0.010867135 -0.011086721 -0.045464907 -0.1458823 0.052473728 0.060246997 0.085604414
-0.13175462 -0.15228973 -0.17145638 -0.10778423 0.030167976 -0.09284391 -0.068197004 -0.021352205
-0.1652062 -0.19523777 -0.11873788 -0.10655794 -0.07624497 -0.026291206 -0.1036664 -0.11641513
-0.060531277 -0.012196863 0.037479892 0.0037995426 -0.040936448 -0.011121784 0.05155709 -0.09219236
-0.15548089 0.055737924 0.004301572 0.090409115 -0.01511379 -0.040303133 -0.041084114 -0.18535908
-0.12834117 0.00959244 0.041148808 -0.11354014 -0.07992432 -0.07598415 -0.057918545 -0.12615937
0.006921525 -0.083086014 -0.053257428 -0.08196199 0.043335613 -0.07587945 -0.17824943 -0.014064761
-0.117495246 0.091623165 -0.124769635 0.03717556

layers.2.weight f4 [100, 100]
00000000: f417 01bc bc03 e33d 1811 0ebe 6b2c 623d
00000010: cd0e 08be 0b18 953b 36f0 63bd fc22 1e3e
00000020: 664e f73d 5e28 23bd 763c d63d fd1f 2c3b
00000030: 0ba1 ed3c 7fb0 453c aac3 9f3d c7a9 c9bc
00000040: 602d 833d 34f7 e33d 4dcb 3cbc 9b55 8f3c
00000050: a2fb 63bc 35cd bcbd 9a34 b2bd 3a92 073d
00000060: 4247 acbc d615 27be 5412 88bd eed5 16bd
00000070: c5ec ec3d 1399 aebd 4bd7 503d e8f2 23be
00000080: 9f72 be3d a425 33bc b29d 7c3c ba80 ea3c
00000090: 933c 2a3d 427f e53d 3e0b 943d fc4c 94bc
000000a0: c38a 743d 9231 19bd 467f 0abd 9564 a93c
000000b0: 075e c5bb 16a7 22be cd40 1b3d 54a6 2ebd
000000c0: 3013 8f3d 3da2 83bd a02c 1cbe fae7 c4bd
000000d0: cca5 8fbd ad2d a93d 062c a13c f227 d53d
000000e0: c483 513d 0b3c 163b 5f64 fc3d 26a3 9cbd
000000f0: 6005 e8bc a6e1 0abe 8edc cabd a7c9 fbbd
00000100: d09a e1bb 85c2 4dbb dbea 183d 5794 33bd
00000110: d01e c7bc d764 43be f46f ee3d 2f22 463d
00000120: 4613 df3d 148c e7bd 9213 00be 4987 edbc
00000130: 189e 183c bf91 b23b 46dc 1e3e 3c77 be3d
00000140: 9734 10bd 7331 3abd 92a7 043d 6361 fbbc
00000150: 55d5 d63c fc8e c83c 14a6 183c 2057 66bd
00000160: 04c4 77bd 008b 903d 21e8 84bd c20c 42bd
00000170: 6387 043e 2805 df3d d690 49bd 5af5 b73c
00000180: 37de 1f3c 05af 473d 5b48 aebd f081 90bd
00000190: aa95 d4bd 90c7 2abc fe87 7abd 55a9 94bd
000001a0: 5d8b 3fbd 3da4 c2bd 6bc0 adbd 2a8d 61bd
000001b0: 268a bfbd c1b3 8ebd 4cc3 9a3d 7c12 533c
000001c0: 1965 6abc 4a27 fcbd dd81 86bd 7756 08bd
000001d0: caa8 a5bc 6a65 e9bd 0fce 7bbd f336 75bd
000001e0: 45f6 58bd e161 91bd ee3b 34bd 82cf bbbd
000001f0: ae98 c3bd afe9 b3bd ebc9 24bd 5318 d3bd
00000200: d8e0 4a3d e12b 64bd 7e75 473d af87 cb39
00000210: e0d8 f6bd 91c5 433d ae4b 09bd 0e55 68bd
00000220: f7d0 e0bd 4ef1 07be f5ed 03bc 5b63 3dbd
00000230: 429d 043d a0bb cdbd 5fc2 433d 01a1 a2bd
00000240: af7e 3bbd 66bb 81bb a5dc 3a3d 9684 333d
00000250: 6fd5 7a3d c658 d4bd da18 2fbc 7c3c 95bd
00000260: e6d4 10bd 9db4 cfbd 2c39 8a3d edbc dfbd
00000270: 47e9 5a3d 1df3 0f3d db71 56bb 141b b8bd
00000280: 23f4 853d 5c8b 1dbb 1a16 65bc 1cd9 fdbd
00000290: 6632 6f3b 33cb 75bc 833e 54bd fc8e 103d
000002a0: 96ce cbbc 8c59 a2bd 74b3 b0bd cb6e 26bd
000002b0: 1ada d43c 9a8b 7bbd cb3c 80bd 7a95 57bd
000002c0: 67a3 dfbd 64f2 2c3c 0d3f 563d 97ce c0bd
000002d0: de9a 2cba 72eb d73c 05a8 30bc 9f13 86bd
000002e0: 9ac9 553d 9dc1 e13c 7214 51bc 6500 22bd
000002f0: daec d8bc 53c9 993b 7337 2fbd 4889 87bd
00000300: c837 183d 23f9 733d 7bd7 22bd b571 6cbd
00000310: 9a43 bf3a 18dd 54bd 2095 bebb 5bb3 9ebc
00000320: c284 c9bd 6a28 17bd a443 863d 6ef9 143c
00000330: de21 2abc 4851 bdbd c7af b3bd 7048 00be
00000340: bf62 1bbd d805 19bc d9a1 ac3c a7a9 a03c
00000350: c4f4 bfbd 1618 b9bd dbac babc 80c6 843d
00000360: 1db7 c63b 1a26 d4bc b31f b43c d495 49bd
00000370: 64c4 dabd 1d7b 953d 9ad5 b4bd bc6e d5bc
00000380: 65bc cbbd 19a8 2c3d 0f29 283d 54c8 c93a
00000390: 3d2c b0bd ae18 10be a5e5 b0bd 86c8 263d
000003a0: 84e3 a63c 6161 503d dfe4 f03b 91ed f33b
000003b0: cd5a 80ba 2c24 d2bd 96a7 00be b919 cebd
000003c0: f9c2 63b9 9cb2 63bd 6d3f 51bd c620 b3bd
000003d0: 0d47 95bc eb60 b1bd 7f27 c7bd a1c2 793c
000003e0: cf0e 43bd b517 103d 3d67 03bd 3a44 bdbd
000003f0: f575 46bd d08c 5bbd 333e 92bd b887 f3bd
-0.007879246 0.11084697 -0.13873708 0.05521814 -0.13286896 0.0045499853 -0.055649005 0.15443033
0.120755 -0.03983342 0.10460751 0.0026264184 0.029007455 0.012066006 0.07800992 -0.024617089
0.06405139 0.11131135 -0.01152308 0.017496875 -0.013914974 -0.09218828 -0.08701439 0.033098437
-0.021030072 -0.16316923 -0.06644121 -0.036825113 0.11568598 -0.0852529 0.05098657 -0.1601063
0.09299206 -0.010934267 0.015418457 0.028625835 0.041561674 0.11205913 0.07228707 -0.018103115
0.059702646 -0.03740079 -0.033812784 0.020677844 -0.006023172 -0.1588405 0.037903596 -0.04263909
0.069860816 -0.06427429 -0.15251398 -0.096145585 -0.07014045 0.08260665 0.019674312 0.104080096
0.051151052 0.0022923972 0.12323832 -0.076483056 -0.028322875 -0.1356264 -0.09905349 -0.122943215
-0.00688491 -0.003139646 0.03733335 -0.04384264 -0.024306685 -0.19081436 0.11642447 0.048372444
0.10892348 -0.11306015 -0.12507465 -0.028995173 0.009315036 0.005449503 0.15513715 0.09300086
-0.035206404 -0.045457315 0.03238637 -0.030686086 0.026224772 0.024482243 0.00931694 -0.056235433
-0.06048967 0.07057762 -0.064895876 -0.047375448 0.12942271 0.10889655 -0.049210392 0.02245586
0.00975757 0.048750896 -0.085098945 -0.070560336 -0.10380109 -0.010423556 -0.06116485 -0.0725886
-0.046763767 -0.09503982 -0.084839664 -0.055066265 -0.093525216 -0.06967879 0.07556781 0.012882825
-0.01430633 -0.12312181 -0.06567738 -0.033285584 -0.020222086 -0.11396296 -0.06147581 -0.059866857
-0.052969236 -0.07098747 -0.044002466 -0.09170438 -0.09550606 -0.08784806 -0.040231626 -0.10307374
0.049530834 -0.05570591 0.048696034 0.0003882027 -0.120530844 0.047795836 -0.03351944 -0.05672174
-0.10977357 -0.13275644 -0.008052339 -0.04623733 0.032376535 -0.10045552 0.04779279 -0.07940865
-0.04577511 -0.003959107 0.04562058 0.043827616 0.061238702 -0.10368495 -0.010687077 -0.07286927
-0.035359286 -0.10141871 0.06749186 -0.109247066 0.053445127 0.03514396 -0.0032721672 -0.0898954
0.06540706 -0.0024039363 -0.01398232 -0.12394926 0.0036498546 -0.01500206 -0.05181743 0.03529261
-0.024878781 -0.07927236 -0.08627978 -0.040633004 0.025982905 -0.06141243 -0.06261595 -0.052632786
-0.109198384 0.010555837 0.052306224 -0.09414404 -0.00065843563 0.026357386 -0.0107822465 -0.06546711
0.052194215 0.027558142 -0.012761222 -0.039551158 -0.026480127 0.004693189 -0.04277749 -0.06617981
0.037162572 0.059563767 -0.03975628 -0.057725627 0.001459229 -0.051968664 -0.005816117 -0.019372633
-0.09839775 -0.036903776 0.0655587 0.009092672 -0.010384051 -0.09244019 -0.08773761 -0.12527633
-0.03793597 -0.009339772 0.021073269 0.019612147 -0.09372857 -0.09037797 -0.022787502 0.06483173
0.0060643093 -0.025897074 0.021987772 -0.049215153 -0.1068199 0.072988726 -0.08829804 -0.026053779
-0.09948043 0.042152498 0.04105478 0.0015394785 -0.08602188 -0.14071915 -0.08637551 0.040718578
0.02037216 0.050874118 0.0073515023 0.0074440916 -0.0009792686 -0.102608055 -0.12563929 -0.100635
-0.0002172104 -0.055590257 -0.05108588 -0.087464854 -0.018222356 -0.08661064 -0.0972433 0.015244157
-0.047621544 0.03517886 -0.032080878 -0.09241529 -0.048452336 -0.053601086 -0.0714077 -0.11891121

layers.2.bias f4 [100]
00000000: 6bb5 cb3d 4889 fcbd bff2 b5bd 795d 633d
00000010: d08a 823d 71c4 423d 27b7 1ebc cd95 673d
00000020: f2b3 8ebd 3fc4 de3d fe11 393d 1049 de3d
00000030: f7de 51bd b166 abbd 26a8 af3d 1c93 203d
00000040: abee 95bd 0dda b2bd 5267 9cbd 2592 773e
00000050: 1cda dbba 4a10 94bc c93b d83c 4dd4 873d
00000060: 221c c8bd 517c a1bd f1a7 28bd 9bcc ca3d
00000070: 3d0c 32bd ae65 d9bd 627f 5bbc fd12 6c3c
00000080: 728a 70bc 8c4d b3bc 3c10 e53b 3ac8 b33d
00000090: 032e bebd f776 66bc daaf 3b3d 634a 693d
000000a0: ebd6 663b d232 b73c 92e6 aabd d1cb 62bd
000000b0: b9db 1d3e 8c33 d43d 19d1 54bd 94de 99bb
000000c0: b01b 1bbe fbd9 adbc fe47 09be b2b2 763e
000000d0: f515 74bd 30d0 b4bd 9953 61bc 59b7 963b
000000e0: 0001 033e e4cf c13d 241e 9dbd d921 143e
000000f0: 3a77 ad3d 25b2 193e ec88 86bc 6523 843d
00000100: 38bb 623c d3cd 06bd fe26 44bd a693 a53e
00000110: babf aa3d aed5 f73c acab 2d3d 37f5 12be
00000120: 395f 91bd 42d0 cf3b 3733 04be a01a 1abe
00000130: 6f50 88bd 1d33 a23d bb72 d5bd d2d5 02be
00000140: 5b51 eabd 0e57 243e 4e2e d53d 3beb 47be
00000150: 64b8 bbbd 926a 02be 28e6 663d 186a 1b3d
00000160: af65 333d 0875 9b3d 5060 d3bd e74b a13c
00000170: 1788 043d 3386 e4bd 4664 753c 8469 82bd
00000180: da44 1c3d 9735 453e c03c 4e3e a630 5abd
0.09946712 -0.12330872 -0.08884191 0.055509064 0.06374133 0.047550622 -0.009687222 0.056539346
-0.069679156 0.10877275 0.045183174 0.10853779 -0.051238026 -0.08369196 0.08576994 0.039202794
-0.07320913 -0.08732996 -0.07636894 0.24176843 -0.0016773376 -0.018074173 0.026395695 0.0663229
-0.09770991 -0.078850396 -0.041175786 0.09902307 -0.043468703 -0.10615097 -0.01339707 0.014408824
-0.014681445 -0.021887563 0.0069904607 0.087784246 -0.0928612 -0.014066449 0.045822002 0.056955706
0.0035223316 0.0223631 -0.08344759 -0.055370156 0.15415849 0.10361394 -0.051957224 -0.004695723
-0.1514728 -0.021222105 -0.13406369 0.24091604 -0.059591252 -0.08828771 -0.013752841 0.0045994935
0.1279335 0.0946348 -0.076717645 0.14466037 0.08470006 0.15009363 -0.016422711 0.064520635
0.013838582 -0.032911133 -0.04788875 0.3233921 0.0833735 0.030253258 0.042400047 -0.14351355
-0.070982404 0.006341965 -0.12910162 -0.15049219 -0.066559665 0.07919905 -0.10422274 -0.12776878
-0.114412986 0.16048834 0.104092225 -0.19523327 -0.09166029 -0.12735966 0.056371838 0.037942976
0.043798145 0.07590681 -0.103211045 0.019689513 0.032356348 -0.11158409 0.01497752 -0.06367782
0.0381516 0.19258724 0.20140362 -0.05326905

layers.4.weight f4 [100]
00000000: 5dc3 5a3f 66fc 793f 22c2 7b3f bcfb 5d3f
00000010: 28eb 6e3f f01e 883f 9a24 5b3f b173 833f
00000020: 86dc 763f b3c3 453f a197 813f 2cb8 573f
00000030: ebeb 833f de70 6f3f 0187 893f 50ea 563f
00000040: f838 813f eb47 6f3f f606 783f 2052 773f
00000050: 5b12 763f 09b4 753f 07b5 6d3f ac2e 5a3f
00000060: dc52 763f b34c 813f 1c79 9c3f d859 713f
00000070: 3e82 803f 7894 763f 3459 583f 4487 733f
00000080: 5dde 6a3f 5a4c 863f 1378 813f 875c 5e3f
00000090: 7c78 7e3f d818 573f 87df 6f3f 7b89 853f
000000a0: daa7 4d3f 480a 493f 833e 833f 904a 503f
000000b0: 0ac5 5e3f 1e4b 7b3f 35c1 443f 6444 783f
000000c0: c1e5 763f a248 863f 01c2 823f 8722 493f
000000d0: 2847 3c3f 02b1 7a3f 7624 713f 7e9a 473f
000000e0: 6199 773f 923f 793f c6a3 483f 531b 573f
000000f0: 3837 673f 459c 5a3f 5eaf 6e3f 8cfc 563f
00000100: a5e0 463f 7024 8f3f 0edc 893f 456f 633f
00000110: ec0e 553f e2ff 4b3f 4b51 593f 7b05 753f
00000120: 5e4b 583f 17cb 823f d74c 703f 8e48 7e3f
00000130: 9abd 643f 5bc4 4c3f 8aaf 723f 04a6 763f
00000140: c6fb 753f 436f 633f a0d2 573f e19d 673f
00000150: 24dd 6a3f c7c5 733f 4634 773f f120 863f
00000160: 62b1 4f3f 1ea2 553f f3d5 7e3f 007f 753f
00000170: 5c3a 483f 7fc2 743f b2c4 803f 1ec6 803f
00000180: f13f 5f3f 8217 653f afb5 573f 8a2e 7a3f
0.8545435 0.97650754 0.983431 0.8671224 0.9332757 1.0634441 0.85602725 1.0269681
0.9643024 0.7725174 1.0124398 0.842654 1.0306371 0.93531597 1.0744325 0.8395128
1.009551 0.93469113 0.9688562 0.9660969 0.9612176 0.95977837 0.9285435 0.85227466
0.96220183 1.0101532 1.222446 0.94277716 1.0039747 0.96320295 0.84511113 0.95128274
0.9174555 1.0492051 1.0114769 0.86859936 0.99402595 0.84022284 0.9370045 1.0432581
0.80334246 0.7853131 1.0253452 0.81363773 0.8701941 0.98161495 0.7685731 0.96979356
0.96444327 1.0490916 1.0215455 0.7856831 0.73546076 0.9792634 0.9419626 0.7797011
0.9671841 0.97362626 0.783749 0.8402607 0.9031863 0.853947 0.9323634 0.83979106
0.7768653 1.1182995 1.077028 0.8884166 0.83225894 0.7968732 0.8488967 0.9571149
0.8449 1.0218228 0.9386725 0.9932946 0.8935181 0.79987115 0.947991 0.9634707
0.960873 0.88841647 0.84305763 0.9047528 0.91743684 0.9522366 0.9656414 1.0478803
0.8113004 0.83450496 0.9954521 0.9589691 0.7821405 0.9560928 1.0060027 1.006046
0.8720694 0.89488995 0.842616 0.9772726

layers.4.bias f4 [100]
00000000: f4ec b7be 9774 a63e 2bbc a93e b9f4 c9be
00000010: ad18 c43e e2c3 cc3e a0c8 d1be 22bc af3e
00000020: 3010 cb3e 6e8b dcbe 5642 d13e 2477 c5be
00000030: 6a33 cc3e 87a0 d03e b00d d73e 3e1e dabe
00000040: 5e3d d83e 0cb8 ca3e 37bc c73e 16ee f3be
00000050: 163b bb3e 31af cb3e 2601 c73e 26d2 c1be
00000060: 83c4 d03e 868e e23e f60a 053f e395 da3e
00000070: bfbc d53e d74f e43e 288c d0be 74a2 bb3e
00000080: 4ed3 b83e 7e4f c53e 8ebc b43e eef5 d5be
00000090: 1a04 c13e a7ab b9be 2113 cc3e 501b d23e
000000a0: 00e6 b5be 6a95 c5be 1ebc ce3e d0b8 c0be
000000b0: f7a3 c4be ac1e de3e d276 b0be df06 ce3e
000000c0: 3617 d73e a2fa d03e 6891 ce3e fd45 ddbe
000000d0: 66f4 c3be 25f9 c43e 3b87 cc3e c17c cabe
000000e0: 6d6b cabe 06c7 c43e 6073 c9be 48dc d0be
000000f0: a655 cabe 96da debe bda2 c53e 5fdf bdbe
00000100: 271d bcbe 5d16 ee3e c41d cb3e 6f01 e9be
00000110: 33e2 b9be 4a81 bdbe 9b22 c9be b56f d13e
00000120: b97e bdbe aa25 d53e a4eb cf3e fbe1 cd3e
00000130: 7a58 e23e 830d b2be 3c42 bd3e 8337 af3e
00000140: 21e9 a7be d285 d6be 8fe2 c8be c5ea c03e
00000150: 88b3 a93e f092 b5be 1724 ce3e 823c dc3e
00000160: dacb bbbe de61 c2be 2b93 cf3e 18b6 d23e
00000170: 0808 d6be 8245 be3e b15b d33e 9393 cd3e
00000180: 1dc9 a7be bc91 cbbe ec66 b4be 94b9 aebe
-0.35922968 0.32510826 0.33151373 -0.3944452 0.38300076 0.39993197 -0.40973377 0.3432322
0.39660788 -0.43075126 0.40870923 -0.3856746 0.39882976 0.40747473 0.4200263 -0.42601198
0.4223432 0.39593542 0.39010784 -0.47642583 0.36568516 0.39782098 0.38868064 -0.37855643
0.40774927 0.44249362 0.5196985 0.4269248 0.41745564 0.44592163 -0.4073193 0.3664738
0.36098713 0.3853721 0.35300106 -0.41789192 0.37698442 -0.36263773 0.39858344 0.41036463
-0.3552704 -0.38590556 0.40377897 -0.37641 -0.38406345 0.43382776 -0.34465653 0.40239617
0.42009896 0.40816218 0.4034531 -0.4321746 -0.382724 0.38471332 0.39946923 -0.39548305
-0.39535084 0.38433093 -0.39345837 -0.4079306 -0.3951847 -0.43526143 0.38600722 -0.3708448
-0.3674099 0.46501437 0.39671147 -0.45508906 -0.3630539 -0.37012702 -0.39284214 0.40905538
-0.37010744 0.41630298 0.40609467 0.40211472 0.44208127 -0.34775934 0.36964595 0.3422204
-0.3279505 -0.41898972 -0.3923535 0.37679115 0.33144784 -0.35463667 0.4026191 0.43014914
-0.36678964 -0.37965292 0.40541968 0.41154552 -0.41803002 0.37162405 0.41280892 0.40151653
-0.32770625 -0.39759624 -0.35234773 -0.3412596

layers.4.running_mean f4 [100]
00000000: ee9b aa3e 0400 0000 0400 0000 2440 203f
00000010: 151d ff3e b180 763e 7494 3a3f 4fd0 8e3e
00000020: e645 c23e c34a 5f3e 5002 aa3e a2f9 043f
00000030: 512a 343e de4f 193f 7b97 653e 593b 193f
00000040: 10b8 dd3e 5bfe 6c3f e078 933f 771e 863f
00000050: e2b5 223e 7bf0 353f 9200 023e d03f 463e
00000060: 3117 a43e 215b a13e d0ab 733e dbb5 f33e
00000070: 8197 903e c7ad 603e 4b67 353f efcd 2d3f
00000080: 1d96 713f bef5 e03e 9854 2d3e e983 083f
00000090: b030 cf3e fa28 c13e a38f 4b3f 83f5 7c3e
000000a0: 259c 873e 22fe 423f 403e 913e 73db 0c3f
000000b0: 5772 b03e 8644 0a3f 73ce df3e 0ca5 e23e
000000c0: f2c4 a93e 5b55 9b3e 0798 df3d 9e28 4c3f
000000d0: d4c3 933e d891 ce3e 4385 de3d 6568 353f
000000e0: 169d 1b3f 63a0 6e3e c956 f83e 53ea 073f
000000f0: b2e3 d43e 4948 ce3e 25f2 f23e 745d fd3e
00000100: 60de 5a3f 2289 303e 3366 8e3e 2949 613f
00000110: 53d7 033f 9244 843f cf3f 303f 5aac bf3e
00000120: 1412 423e ff74 8d3e 6c1b 963e 05a3 de3d
00000130: a90b ba3e 96a2 cc3e c338 1c05 5026 4002
00000140: 0400 0000 a4e4 6e3f 3a22 fe3e 6c43 993e
00000150: da8d df09 0400 0000 3e6d b13e 35ca 623e
00000160: 7da9 b73e 34a4 7a3f 21cf 633e 2c2b 1540
00000170: c08b 473f 7edf 203f a64f 0140 0e75 ae3e
00000180: 1c30 113f 0ec5 153f 7d1a 303f 0400 0000
0.3332209 6e-45 6e-45 0.6259787 0.49826875 0.2407253 0.7288277 0.27893302
0.37943953 0.21805863 0.3320489 0.5194341 0.17594267 0.5988749 0.22421066 0.5985618
0.4330449 0.92575616 1.1521263 1.0478047 0.15889695 0.7107007 0.1269553 0.1936028
0.32048944 0.31514838 0.2379601 0.47599682 0.28240588 0.21941291 0.7086074 0.67892355
0.9436968 0.43937486 0.16926801 0.5332628 0.40466833 0.37726575 0.7951605 0.2470303
0.26486316 0.76169026 0.28367805 0.5502235 0.34462234 0.5401081 0.43712196 0.44266546
0.3315807 0.3033856 0.10917669 0.79749477 0.28860343 0.40345645 0.108652614 0.7086242
0.6078657 0.2330337 0.48503712 0.53091925 0.41579968 0.40289524 0.47450367 0.49485362
0.8549557 0.17239812 0.27812347 0.8800226 0.51500434 1.0333426 0.68847364 0.3743618
0.18952209 0.27628323 0.29317796 0.10870937 0.3633702 0.39967793 7.34551e-36 1.4116927e-37
6e-45 0.9331763 0.49635488 0.2993425 5.3818694e-33 6e-45 0.34653658 0.22147448
0.35871497 0.97906804 0.22246982 2.33076 0.77947617 0.6284102 2.0204864 0.3407368
0.56714034 0.58503807 0.6879042 6e-45

layers.4.running_var f4 [100]
00000000: d0a6 923e 0400 0000 0400 0000 4743 d43e
00000010: f511 e33e ee82 423e 9d90 0d3f 8ef0 a83e
00000020: 3c0b a43e 93c2 363e 6240 e33e 5076 ac3e
00000030: 49d8 463e f647 093f 0b3b 383e f678 a83e
00000040: dd7d c63e 349c 5b3f 618e 0f3f 1e86 de3e
00000050: d003 ed3d 8d4a 053f 0390 e83d 272c 063e
00000060: b9be 2d3e 2109 793e 4e15 733e 67b3 d43e
00000070: 1cb4 7d3e 0b8f 173e b600 023f 1fcd f43e
00000080: 60f5 0c3f 0796 823e 7af3 f93d 8237 dd3e
00000090: 29c1 a33e 389f b23e dbf9 193f ccf0 4b3e
000000a0: 5ca9 383e 9d44 343f 9e25 803e 64b1 eb3e
000000b0: fad6 a53e a2ff d93e ea6b ac3e 9987 e03e
000000c0: a6b7 9b3e 7805 8e3e 0c16 e43d c0f7 2d3f
000000d0: c775 7c3e 45f1 be3e fb36 a83d 419e 1a3f
000000e0: 3e2e a63e 02f0 2d3e 6b75 113f 4b70 cf3e
000000f0: 5b6f b43e 3ed7 b63e ba9c cd3e 7c32 e53e
00000100: 561d 1c3f 7287 1c3e 659c 5c3e 3559 fd3e
00000110: fd31 e63e 38a6 433f 487f cf3e 04bc 833e
00000120: 9129 1c3e 001d 703e b1e6 813e d62c 9e3d
00000130: a37f a83e 8ca9 903e 1a62 3603 f95c 2100
00000140: 0400 0000 b00c 6f3f 41c4 d63e 18e3 8e3e
00000150: b0a1 1a08 0400 0000 3e34 8e3e 3de8 053e
00000160: 371c 853e 8183 083f 06b6 253e ec75 1d3f
00000170: fad6 f63e 660d 063f e64a a73e 08cf ba3e
00000180: bcf1 ff3e ee8b b73e 5387 fb3e 0400 0000
0.28642893 6e-45 6e-45 0.4145758 0.44349638 0.18995258 0.5529879 0.3299603
0.3203982 0.17847662 0.44385058 0.33684015 0.19418444 0.5362543 0.17991273 0.32904786
0.387679 0.8578522 0.5607663 0.43461698 0.11572993 0.5206688 0.11355593 0.1310278
0.16967286 0.24319889 0.23738596 0.41543123 0.24775738 0.1480066 0.50782335 0.47812745
0.5506191 0.25505087 0.122046426 0.43206412 0.31983307 0.348871 0.60146874 0.19916075
0.18033355 0.70417196 0.250287 0.46033776 0.32390577 0.42577845 0.33676082 0.43853453
0.3041355 0.27738547 0.111370176 0.6795616 0.24654303 0.3729345 0.08213612 0.60397726
0.32457155 0.16986087 0.5681979 0.4051536 0.35241207 0.35711092 0.40158635 0.4476508
0.60982263 0.15286043 0.21544035 0.49482122 0.44960013 0.76425505 0.40526795 0.25729382
0.15250231 0.23448563 0.25371316 0.077233955 0.3290988 0.28254354 5.359761e-37 3.063924e-39
6e-45 0.93378735 0.41946605 0.27907634 4.653275e-34 6e-45 0.27774233 0.13076873
0.2599809 0.5332566 0.16182718 0.6150806 0.4821089 0.52364194 0.3267433 0.36486077
0.49989116 0.35848945 0.49126682 6e-45

layers.6.weight f4 [113, 100]
00000000: 9690 093d 7df8 cfbe 7df8 c7be cf4e c33d
00000010: 676b 91be 1107 5e3d 7bbb 633e d9ac 943d
00000020: 1ab8 87be 27ad 403e 2f0e 63be d023 1e3d
00000030: 43cc e2be 7131 19be f981 82be a7aa b23b
00000040: 6553 03be 9722 15be dfbc 58bb 0eb3 b23e
00000050: 5977 a0be 8207 953d f4df 8ebd e6a3 a73d
00000060: 7653 6fbd 15a3 50be aa57 ac3d da48 76be
00000070: 5c2c 41be dd26 fbbe 35c2 573e 33f4 8bbd
00000080: 6352 49be 8113 8a3d f304 bdbe 4b7e 47bb
00000090: e64f 11be fef2 f13d 6a32 57be c209 85be
000000a0: 431a 413d cd02 eb3d 6872 75be be33 6d3c
000000b0: 3b10 ca3d 2836 06be 1c2e 203e 807d d4be
000000c0: 2e1d cabe a8bd 9fbe 608c c6b8 6d79 2d3e
000000d0: 427a b93d f1a0 05be 0259 c1be a7d2 0f3e
000000e0: c320 b43e 73d8 5d3c abf4 383e 4c13 9e3c
000000f0: ce73 313d 725a c63d f1e7 e5be 895c 913e
00000100: ef0a 993e 933f c6bd 0741 03be 7cd2 fabc
00000110: f9b5 693e c8ae 0d3e 89cf 6e3c f8c7 98be
00000120: 85fa 733d e88f 40be 0c75 1f3b 0df6 dcbe
00000130: c888 44be 451d 873d 1f99 b9be f597 a4be
00000140: c0a1 9c3e 0eb0 c63e a091 b43e 97ff 92be
00000150: 48a9 b0be b896 753e 4d2c ffbd 237e d5be
00000160: 9953 9c3d 33b4 893e 863c f3bd d613 3dbe
00000170: e24b 78bc 3ec2 a5be 4881 82be bbb7 82bd
00000180: 8ba3 a53e 4841 323e 6eff 143e 2fe7 d43e
00000190: 1554 1d3e 95da 9cbe 7925 57be 732f 373e
000001a0: 632f 32be dd64 a9be deda 0b3d ef71 5cbe
000001b0: d6ea 38be acf7 283d b435 43be ba0f f13d
000001c0: 72d3 7abd 087a 13be d0db d3be 0ec7 4e3e
000001d0: 06d5 81be e37e 8bbe 7df2 58be 73fd 173e
000001e0: db2b ffbe fa4d 77be f9e5 b3be 89a1 003e
000001f0: c97a f9bd 0dfd b4be 6ad5 74bd 494c ecbd
00000200: 15ee e3be d714 62be 05f3 e03d df7f 9dbe
00000210: 9f3e efbd ce5f eebd a143 8fbe 0ccd 013e
00000220: 8667 3fbe 0e00 143e 84bc c5b8 3d95 02be
00000230: 5bb5 6a3d 3457 0f3e 1b8c 6abd ce90 ac3e
00000240: 2701 0b3e 8c04 dcbd a67f 5f3e 33a3 73bd
00000250: b096 6fbe 3fbc b5be f91c 09be 20b7 063c
00000260: 61d2 7f3e f415 dbbe d87c dabd ed7d a53d
00000270: 5397 8d3b f54a b9be e9c7 023e 4776 b03e
00000280: 5df8 bf3c 9d2b 9e3d be61 97be 6d33 d23d
00000290: 2fbf 903e 4694 8cbd d127 84be 5efd 653d
000002a0: 314a 0f3e 719b b23d 475a bd3d 8439 b5be
000002b0: c8a7 033e 4503 4ebe 0bb7 a5be 69c1 25be
000002c0: dda2 c5bd e80d 683e 8b6d 88be 5f8d 4dbe
000002d0: e976 843e 09bd 803d 4f57 b03d 6b3d a2be
000002e0: 7aef 59be ae53 353e e970 ebbd 33f8 55bc
000002f0: c89e 8a3d dd5b e63d e9c4 4dbe eaad 99be
00000300: 9656 bcbc 919f c9be d379 3cbe caac cabe
00000310: 2726 473e 24f1 3b3d 4b7c 803d 4e0e b13e
00000320: c4e0 5cbc 8d5d b8be 5470 8dbe 6638 a93e
00000330: 3645 99be cf96 cabe 30fc 9a3e d5f0 093c
00000340: 4f93 96be 28bc ef3d b98f a5be 3d7d 2a3e
00000350: 4459 7fbd 9d7d 9ebd 3096 a9be f4e7 783e
00000360: 22ae 2bbe c803 ddbd 90db 99be 5cfa 9b3c
00000370: b9a0 5ebe f044 37bd b9a9 79be e7b4 313e
00000380: fcbc 72be 49a7 46be edf5 8a3d 106c 56be
00000390: 7ae7 0fbe 0574 93bc 0d4f a53c 9fb3 3cbe
000003a0: b137 2ebe 34c4 f2bd 4177 54be b01b 143e
000003b0: 9323 23be 93cc 113e 122d 8bbc 9b65 bcbe
000003c0: 9f47 513e 9dac 9f3e d6ed 383d 24c9 013e
000003d0: 0cd8 473e 1fc3 c3be 5491 263e c5ff e8be
000003e0: 3e26 6fbe 7d74 81be 64da 46bd f190 e73d
000003f0: 36bc 9e3d 5f51 eabd 4ec9 d0be 33de 8c3d
0.033585154 -0.4061927 -0.3905677 0.09536516 -0.28402254 0.054205958 0.22239487 0.072595306
-0.26507646 0.18816052 -0.2217338 0.038608372 -0.44296464 -0.14960267 -0.25489786 0.0054524723
-0.12824781 -0.14563976 -0.003307156 0.34902233 -0.31341055 0.072768226 -0.069763094 0.08185558
-0.058429204 -0.20374711 0.08415158 -0.24051228 -0.18864578 -0.49053088 0.21070178 -0.06833687
-0.19660334 0.06742001 -0.36917838 -0.0030440267 -0.14190635 0.11813925 -0.21015325 -0.25984007
0.047144186 0.114751436 -0.23969424 0.014477668 0.09866377 -0.13106596 0.1564259 -0.41502
-0.39475387 -0.31199384 -9.4675226e-05 0.16940852 0.09056522 -0.13049676 -0.3776322 0.14045201
0.35181245 0.013540375 0.18062083 0.01929631 0.04332333 0.0968522 -0.4490352 0.2839091
0.29891154 -0.096800946 -0.12817775 -0.030617945 0.22823323 0.13836205 0.014575847 -0.29840064
0.059565086 -0.18804896 0.002433124 -0.43156472 -0.19192803 0.065973796 -0.36249635 -0.32147184
0.30592155 0.38806194 0.35267353 -0.28710625 -0.3450415 0.23983276 -0.124596216 -0.41697797
0.076331325 0.26895294 -0.11876778 -0.18464598 -0.015154811 -0.32374758 -0.2548926 -0.063827
0.32351336 0.17407715 0.14550564 0.4158263 0.15364106 -0.30635515 -0.21010388 0.17889194
-0.17400889 -0.33084765 0.034144275 -0.21527837 -0.18058333 0.041251823 -0.19063455 0.11770578
-0.061236806 -0.1440202 -0.4137864 0.20193121 -0.25357836 -0.27245244 -0.21186252 0.14842777
-0.49838147 -0.2415084 -0.35136393 0.12561621 -0.121816225 -0.35349312 -0.05977384 -0.11537988
-0.4451758 -0.22078262 0.10983852 -0.3076162 -0.11681866 -0.11639367 -0.27981284 0.12675875
-0.18691835 0.14453146 -9.428806e-05 -0.12752242 0.05730186 0.13998109 -0.05726252 0.33704227
0.13574658 -0.10743055 0.21826038 -0.05948181 -0.23397326 -0.35495183 -0.13389958 0.008222371
0.24982597 -0.42790186 -0.10668343 0.08080659 0.004321018 -0.3619 0.12771572 0.34465238
0.023433859 0.07723162 -0.2956676 0.10263715 0.28270862 -0.068642184 -0.25811628 0.056149833
0.13993146 0.08721054 0.09245735 -0.35395443 0.12856972 -0.20118435 -0.32366213 -0.16187061
-0.09650204 0.22661555 -0.26646075 -0.2007346 0.2587197 0.062860556 0.08610403 -0.31687483
-0.2128276 0.17707703 -0.11496145 -0.013059664 0.06768566 0.1124799 -0.20094647 -0.30015498
-0.022990506 -0.39379552 -0.18405847 -0.39584953 0.19448148 0.045884266 0.06273707 0.34581226
-0.013481323 -0.36008874 -0.27624762 0.3305084 -0.29935616 -0.39568183 0.3027053 0.008419235
-0.29409263 0.1170581 -0.32336214 0.16649337 -0.06234099 -0.077388026 -0.33122396 0.24307233
-0.16765645 -0.10791737 -0.30050325 0.01904028 -0.21740998 -0.04474348 -0.2438115 0.17354165
-0.23704904 -0.19399752 0.06785188 -0.2093966 -0.14053145 -0.017999658 0.020179296 -0.18427895
-0.17013432 -0.11853829 -0.20748617 0.14463687 -0.15931539 0.14238195 -0.016989265 -0.3679627
0.20437478 0.3118638 0.045148693 0.12674385 0.19516009 -0.38234803 0.16266376 -0.45507637
-0.23354432 -0.25284186 -0.048548117 0.11306942 0.07750742 -0.114413016 -0.40778583 0.06878319

layers.6.bias f4 [113]
00000000: 54d3 84be ca85 f8bd b7f8 4bbe 2764 f7bd
00000010: b175 3cbe a8c6 32be 1ca1 49be e160 09be
00000020: f41c 08be 87ba 3cbe 4817 d2bd 3052 75be
00000030: 8b73 3cbe 729e 22be af53 ecbd 1634 4abe
00000040: 26b4 31be 248d 85be dca8 f5bd c121 02be
00000050: 7d79 87be 05e5 82be 87db 2ebe db10 bebd
00000060: 8317 1abe b37d b8bd 9155 84be cb0a babd
00000070: c592 a0bd 64d8 7fbe 0e56 16be 69dd 40be
00000080: 91d0 b7bd 1816 71be 586d 8cbe 8d3f 72be
00000090: 4203 d8bd 6e97 0ebe 8930 87be c690 73be
000000a0: 82d5 02be 5cb0 73be e80b 64be e530 66be
000000b0: 23ff 5dbe dc38 70be 9348 06be 97fe 44be
000000c0: 0b7c 33be 0133 a0bd 9fb8 82be bf53 45be
000000d0: 6b44 47be dbb1 5abe 156a 0abe ddbc 70be
000000e0: 8673 39be 51eb 87be 3848 50be ecc3 3bbe
000000f0: eeb5 5fbe 83fe 40be 88d1 68be c4e7 1abe
00000100: 6ee6 18be aabc 6cbe 7aab 59be 0e03 2cbe
00000110: fc64 58be 6fd3 55be c677 f6bd 1c15 3dbe
00000120: 5c10 f4bd 47df 2dbe 09e7 4abe d46a 79be
00000130: 94e3 45be bc76 75bd bcae 98bd 87a7 c5bd
00000140: ed92 4fbe 411b 39be 54c5 b5bd 1c5c 4abe
00000150: 5990 13be 47f1 2dbe 0056 dbbd 8b17 71be
00000160: d014 19be 27d0 87be 035a 5abe 9357 0abe
00000170: ca31 1cbe 2237 a8bd 8d47 74be 2492 0bbe
00000180: 29ea 3abe c67a acbd f172 b5bd 8652 a6bd
00000190: 7f12 87be 1cc5 8cbd b0ba 66be cd98 59be
000001a0: bb9f c9bd 28ef 34be 3c7c f3bd 3bff 94bd
000001b0: 0bf2 38be dc8f 07be dc6d 33be d051 d0bd
000001c0: 5514 01be
-0.2594248 -0.12134893 -0.19919096 -0.120796494 -0.1840427 -0.17458594 -0.19690365 -0.13415863
-0.13292295 -0.1843053 -0.10258347 -0.23957133 -0.18403451 -0.15880755 -0.11539399 -0.19746432
-0.17353877 -0.26084244 -0.11995098 -0.12708189 -0.26459876 -0.25565353 -0.1707593 -0.09280559
-0.15048032 -0.0900835 -0.25846532 -0.0908409 -0.07840494 -0.2498489 -0.14681265 -0.18834461
-0.08975328 -0.23543584 -0.27427173 -0.23657055 -0.105474964 -0.13924953 -0.26404217 -0.23785695
-0.1277676 -0.23797745 -0.22270167 -0.2247959 -0.21679358 -0.2345919 -0.13113622 -0.19237743
-0.17527787 -0.07822228 -0.2553148 -0.19270228 -0.19459693 -0.21356909 -0.1351703 -0.23509546
-0.18110475 -0.2654672 -0.2034005 -0.18336457 -0.21846744 -0.18847089 -0.2273618 -0.15127474
-0.14931652 -0.23118845 -0.2125682 -0.1679804 -0.21132272 -0.20881437 -0.12034564 -0.18465084
-0.11917183 -0.16979705 -0.19814695 -0.24357158 -0.19325095 -0.059927687 -0.07455203 -0.09651094
-0.20270891 -0.18076803 -0.08875528 -0.197617 -0.14410533 -0.16986571 -0.107097626 -0.23544137
-0.14949346 -0.26525995 -0.21323399 -0.1350997 -0.15253368 -0.08213641 -0.2385542 -0.13629967
-0.18253388 -0.08421855 -0.08859814 -0.08121209 -0.263813 -0.06873533 -0.22532153 -0.21249695
-0.09844919 -0.17669356 -0.1188893 -0.07275244 -0.18061082 -0.13238472 -0.17522377 -0.101718545
-0.12605412
