scripts_chemix/chemix_weights_pearson/best_model_dict_4.pt (torch, 113574 bytes, 33 tensors)

input_net.weight f4 [32, 196]
0.006671795 0.06256168 0.013356384 -0.041368525 0.11848957 0.0056931353 -0.043708343 0.04256591
-0.05761622 0.027647661 0.053752325 -0.027713913 0.055395063 0.06009387 0.044246443 -0.025449403
0.054098617 -0.025482077 -0.049793165 -0.003833473 0.056464873 0.17998712 0.016810799 0.030210229
0.051105533 -0.035825323 0.06756053 0.014747214 0.033760533 -0.02312875 -0.046132684 -0.09309755
-0.06057255 -0.027001448 -0.016417738 -0.025652708 -0.04018363 -0.056425452 0.050593063 0.032997593
0.00315525 -0.035716936 -0.01610553 0.06638857 -0.0391387 0.02347082 0.0017083207 -0.057131894
-0.08370971 0.08048116 -0.0141072245 -0.0313342 0.023444423 -0.10372986 0.06350965 0.018912205
-0.056702685 0.013197754 -0.02964933 -0.007575327 0.03635706 0.010561686 0.06047678 -0.03929792
-0.0632248 0.055842806 -0.026223151 -0.055525385 -0.044707093 -0.069503166 0.04890376 0.03889166
-0.08444631 0.056334797 0.07355307 0.082313 0.032585688 -0.04568652 -0.053747635 0.019864159
-0.010687518 -0.016071036 -0.046832 -0.058846742 -0.023843665 -0.06558604 0.006714186 -0.05635087
0.038066987 0.051647097 0.05858141 -0.013601691 0.036144357 -0.041380335 -0.0901927 -0.011361533
0.009831313 -0.020876758 -0.02308974 0.011920641 -0.0106672775 -0.06705084 -0.0775853 0.0787733
0.030030854 0.030289367 -0.019945981 -0.018364154 0.07286148 0.005000552 -0.05706712 -0.018715838
0.03170457 0.046822477 0.03198811 -0.0055976347 -0.030444426 -0.023231132 -0.068325154 0.05270807
-0.06815258 0.03107687 -0.00017448762 -0.014280023 -0.009017582 -0.038607314 0.0743812 0.05141834
0.013033781 -0.05247244 -0.084141165 -0.03460837 0.008385718 -0.023460377 -0.03500238 0.024188077
0.071824886 -0.0025581964 -0.03649334 -0.038535256 0.043685663 -0.0038156908 0.040745445 0.09604182
-0.045394644 -0.018174855 -0.08532557 0.03131819 -0.008156079 0.061130255 0.012264505 0.08497756
-0.045712233 -0.005655435 0.07961724 -0.039671108 0.0465019 -0.07349417 0.0033652429 -0.061672438
-0.046112914 -0.049173504 0.05197814 -0.051892992 -0.11003714 -0.056231763 -0.019310895 0.036040634
-0.027275339 -0.039375383 -0.043102816 -0.085304 0.02029039 -0.04318007 -0.049466625 -0.031290516
0.0665478 0.041437935 -0.05052831 0.05176131 -0.0110744815 0.028076502 0.028179467 -0.0046234513
0.013220311 0.04631423 -0.0072307866 -0.07863506 -0.08342798 0.061769288 -0.067145266 0.015884073
-0.026189588 0.0064187376 0.007413088 -0.08158309 0.010170889 -0.07577194 -0.012938925 0.00803879
0.054551005 0.030674929 -0.052905645 0.078073926 -0.017408973 0.053104986 -0.08383863 -0.09906807
-0.027547996 0.07846384 0.09785733 0.021076862 -0.013808165 -0.037774663 0.077375695 -0.0053467215
0.04548094 -0.010030988 0.0009107258 0.01788028 -0.03571494 0.030314846 -0.06672996 0.062168673
0.032227248 0.06418824 0.028938452 -0.0048915334 -0.009899364 0.015443401 0.04992077 -0.039721675
-0.014090199 0.066219024 -0.033659384 0.0039157188 0.026080346 -0.030827804 -0.03158912 0.034777645
0.012970154 0.07987132 0.041540857 -0.03025991 0.07086215 -0.049002822 -0.043603845 0.107936084
-0.049469378 -0.030413773 -0.011925296 0.10200506 0.050357293 0.07497939 0.02204943 0.042375937
00000000: 139f da3b 5720 803d bcd4 5a3c 0b72 29bd
00000010: a9aa f23d 7b8d ba3b 8507 33bd 9759 2e3d
00000020: fcfe 6bbd 597d e23c 662b 5c3d 4a08 e3bc
00000030: efe5 623d fd24 763d c23b 353d 447b d0bc
00000040: 8396 5d3d cabf d0bc ebf3 4bbd 013b 7bbb
00000050: b647 673d 8b4e 383e cdb6 893c 717b f73c
00000060: 0954 513d 93bd 12bd 2d5d 8a3d 4c9e 713c
00000070: 7c48 0a3d 8178 bdbc a0f5 3cbd eea9 bebd
00000080: ec1a 78bd 2432 ddbc 7e7e 86bc a125 d2bc
00000090: 9797 24bd 601e 67bd ac3a 4f3d 7c28 073d
000000a0: 50c8 4e3b ec4b 12bd bfef 83bc bbf6 873d
000000b0: e74f 20bd e145 c03c bbe9 df3a 2203 6abd
000000c0: ff6f abbd 4ed3 a43d fd21 67bc 4a58 00bd
000000d0: 850e c03c 5270 d4bd 5911 823d c5ed 9a3c
000000e0: 1341 68bd 643b 583c 27e3 f2bc 733a f8bb
000000f0: 24eb 143d ec0a 2d3c 80b6 773d dbf6 20bd
00000100: 017c 81bd 6dbb 643d efd1 d6bc 966e 63bd
00000110: c91e 37bd ad57 8ebd 4f4f 483d dc4c 1f3d
00000120: 30f2 acbd 51bf 663d fea2 963d b893 a83d
00000130: 9278 053d ca21 3bbd 7b26 5cbd 29ba a23c
00000140: b31a 2fbc 68a7 83bc e9d2 3fbd 4809 71bd
00000150: ca53 c3bc f951 86bd ad02 dc3b 2bd0 66bd
00000160: 21ec 1b3d e88b 533d 10f3 6f3d a1d9 5ebc
00000170: 1b0c 143d 6d7e 29bd f3b6 b8bd b925 3abc
00000180: 8413 213c bc05 abbc b226 bdbc cb4e 433c
00000190: cec5 2ebc f351 89bd 0be5 9ebd e553 a13d
000001a0: 4403 f63c 6821 f83c c165 a3bc 6c70 96bc
000001b0: 6638 953d acdb a33b 36bf 69bd f551 99bc
000001c0: a7dc 013d edc8 3f3d f705 033d 5d6c b7bb
000001d0: 9766 f9bc 374f bebc 0fee 8bbd 6be4 573d
000001e0: 9493 8bbd ec94 fe3c aaf6 36b9 c2f6 69bc
000001f0: 7bbe 13bc b422 1ebd 2c55 983d 0a9c 523d
00000200: a48b 553c 57ed 56bd 3452 acbd 82c1 0dbd
00000210: 4064 093c fa2f c0bc a85e 0fbd 1326 c63c
00000220: ed18 933d 6aa7 27bb 0a7a 15bd 25d7 1dbd
00000230: bdef 323d ab10 7abb b2e4 263d 93b1 c43d
00000240: bcef 39bd 6fe3 94bc 2cbf aebd 8147 003d
00000250: 13a1 05bc b863 7a3d 10f1 483c b708 ae3d
00000260: c03c 3bbd 3a51 b9bb 5d0e a33d 2c7e 22bd
00000270: c778 3e3d 1d84 96bd 688b 5c3b 3d9c 7cbd
00000280: e5e0 3cbd 286a 49bd 08e7 543d bf8d 54bd
00000290: 275b e1bd 4753 66bd e231 9ebc 589f 133d
000002a0: 8870 dfbc 1548 21bd 948c 30bd ddb3 aebd
000002b0: 0838 a63c 96dd 30bd 849d 4abd 7c2a 00bd
000002c0: 374a 883d d3ba 293d c6f6 4ebd ab03 543d
000002d0: be71 35bc b100 e63c a0d8 e63c 5280 97bb
000002e0: 019a 583c fdb3 3d3d 3cf0 ecbb 6b0b a1bd
000002f0: 4adc aabd cb01 7d3d 7583 89bd 511f 823c
00000300: 8c8b d6bc 4654 d23b 7de9 f23b 0915 a7bd
00000310: cda3 263c 522e 9bbd c9fd 53bc 21b5 033c
00000320: e070 5f3d fd49 fb3c 97b3 58bd 39e5 9f3d
00000330: 439d 8ebc 9d84 593d 96b3 abbd 33e4 cabd
00000340: 56ac e1bc a6b1 a03d 6d69 c83d 62a9 ac3c
00000350: a43b 62bc 9bb9 1abd 2677 9e3d 8d33 afbb
00000360: 394a 3a3d 0359 24bc c6bd 6e3a aa79 923c
00000370: d449 12bd d756 f83c b8a9 88bd 94a4 7e3d
00000380: b800 043d 2075 833d 5510 ed3c 2849 a0bb
00000390: f130 22bc 5206 7d3c b979 4c3d 32b3 22bd
000003a0: 94da 66bc d79d 873d 6cde 09bd 6e4f 803b
000003b0: 73a6 d53c 978a fcbc 9863 01bd 0173 0e3d
000003c0: c580 543c 9393 a33d bf26 2a3d a1e3 f7bc
000003d0: 2d20 913d 2fb7 48bd f299 32bd 980d dd3d
000003e0: 67a0 4abd 4e26 f9bc 5162 43bc 07e8 d03d
000003f0: 7343 4e3d cb8e 993d 02a1 b43c 6492 2d3d

input_net.bias f4 [32]
-0.04540921 -0.07438107 -0.023878675 -0.0024367156 0.049858596 0.033436686 -0.017918741 0.004763527
0.03802975 0.048144322 -0.039269727 -0.038868878 -0.041351184 -0.071783535 0.06511402 -0.012362081
0.008972048 -0.054647073 -0.011176499 -0.05869358 0.026135378 0.025436236 -0.003732499 0.07467781
0.005531759 -0.017241532 -0.0685965 -0.06495846 0.03751725 -0.020566603 -0.021176875 -0.0077262656
00000000: 02ff 39bd 1a55 98bd 369d c3bc 4eb1 1fbb
00000010: 8738 4c3d e8f4 083d 53ca 92bc 5c17 9c3b
00000020: 15c5 1b3d fb32 453d 4bd9 20bd f934 1fbd
00000030: dc5f 29bd 3f03 93bd 805a 853d 538a 4abc
00000040: 7fff 123c 9cd5 5fbd a21d 37bc ae68 70bd
00000050: dc19 d63c a75f d03c f19c 74bb aef0 983d
00000060: c243 b53b 1d3e 8dbc 527c 8cbd f108 85bd
00000070: b0ab 193d 4b7b a8bc 207b adbc 9d2c fdbb

mixture_net.mol_attn_layers.0.self_attn_layer.in_proj_weight f4 [96, 32]
-0.2448105 0.045477588 -0.119112134 0.06228324 0.0909597 -0.21531883 0.1072955 -0.21782711
0.18515739 -0.026345339 -0.036698446 -0.009893144 -0.30059126 -0.16812529 0.23736021 -0.21952596
0.26371592 -0.046856042 -0.14335439 0.15244003 0.23046465 -0.06619419 0.1229111 -0.1386046
0.08941713 0.15863442 0.1287803 0.01761227 0.18178275 0.15538988 -0.210438 -0.038007244
0.21854983 0.074213795 -0.26665455 -0.26342565 -0.0435628 0.22478192 0.0030270938 0.14365207
-0.11802228 0.114911616 -0.070267156 0.18314214 0.02351143 0.1817716 0.09458856 0.09829761
0.28909358 -0.279607 0.085706025 -0.22565588 -0.00019364781 -0.24590841 -0.27970994 -0.06069645
0.094486415 0.12308243 -0.24255218 -0.09932406 -0.22302933 0.1174458 0.17656048 -0.27601975
0.19808553 0.16507703 0.16978693 0.23353669 -0.14519697 -0.117346585 -0.11593089 0.12044531
-0.18115698 0.16505645 -0.004968773 -0.1930819 0.16759318 -0.15570544 -0.13238873 0.08802957
0.010269909 -0.17883131 0.0534491 0.045178145 0.17077816 0.17864148 -0.20131461 0.14363974
0.05490875 -0.20317467 0.0064234906 0.06795213 0.101415135 0.17070298 -0.10996061 -0.22197522
-0.015212478 0.052971095 -0.14318666 0.14859949 0.02163586 0.18390499 -0.04219152 0.03138167
0.19426744 -0.021986319 -0.1902435 -0.0065405364 0.1991295 -0.07449657 0.0074262638 -0.12093377
-0.03721652 -0.012937839 0.23208524 -0.11479266 -0.005365145 0.1862186 0.117520906 -0.05864815
0.12783349 0.1356904 0.14725104 -0.1916559 0.24030998 -0.082904294 -0.13055266 -0.10746006
0.14746721 0.19279741 -0.10850603 0.11436146 -0.15004939 -0.19768822 0.2559735 -0.0021722764
0.076445356 -0.07922599 -0.19210587 0.05843363 -0.05854285 -0.21615341 -0.0013635417 -0.13999578
0.07628395 -0.11912544 0.05698303 -0.12677778 0.032225218 0.034493763 0.2746925 -0.08843849
-0.117775865 0.17395464 -0.18845695 0.04467927 0.06828348 0.23047297 -0.12615056 0.13688517
0.3072211 -0.11080465 -0.17746612 0.08531977 0.16835332 -0.124906875 -0.19258197 -0.2176932
-0.13405477 -0.27329633 0.017202348 0.0691528 -0.06291079 0.08566802 0.12895182 0.15221731
-0.13524753 -0.2794386 -0.20785236 0.0119406795 -0.31104186 0.13327973 -0.03368534 0.0823225
0.23718758 0.006981776 -0.15071693 -0.03345802 -0.23526141 -0.12798628 0.2704453 -0.19881548
-0.3113055 0.058043774 0.025159104 -0.09241285 -0.32521084 0.00074034696 0.33206758 -0.08594324
0.316811 0.078676976 -0.31179968 -0.24457864 0.012924555 0.121147625 0.11589753 -0.25009316
-0.16151118 -0.09897122 0.30197504 0.24853738 -0.06577557 0.33811942 0.32560945 -0.15127127
-0.18792927 0.2344499 -0.0147132445 -0.17771766 -0.04115393 0.044918593 -0.28397948 0.17921734
0.06311616 -0.119883515 0.19285144 -0.18284163 0.04543895 0.11947705 0.03830446 0.037065435
-0.027338687 -0.07333679 0.079978615 0.12102433 0.03912917 0.055828903 -0.101410076 0.08146158
0.2731748 0.064872146 -0.05262061 -0.07645902 -0.0941733 0.08402269 -0.15706174 -0.030349208
-0.047440156 -0.1265425 0.039939817 -0.019092536 -0.074851096 -0.20469543 -0.018350761 -0.099208556
00000000: 9baf 7abe b546 3a3d 10f1 f3bd b61c 7f3d
00000010: 1449 ba3d 8a7c 5cbe bebd db3d 120e 5fbe
00000020: e699 3d3e 2ed2 d7bc 1c51 16bd da16 22bc
00000030: 19e7 99be 0929 2cbe 8e0e 733e 6acb 60be
00000040: c605 873e 1fec 3fbd 7ecb 12be 3d19 1c3e
00000050: edfe 6b3e d290 87bd d1b8 fb3d 5dee 0dbe
00000060: 5420 b73d 1071 223e fcde 033e 9b47 903c
00000070: 4225 3a3e 861e 1f3e 0f7d 57be 7cad 1bbd
00000080: 87cb 5f3e 67fd 973d f286 88be badf 86be
00000090: e86e 32bd 3b2d 663e 3562 463b 8719 133e
000000a0: aab5 f1bd c856 eb3d 3ae8 8fbd 9d89 3b3e
000000b0: 0b9b c03c 5622 3a3e a6b7 c13d 4250 c93d
000000c0: 1304 943e a628 8fbe a486 af3d 5612 67be
000000d0: f00d 4bb9 6acf 7bbe 2436 8fbe d79c 78bd
000000e0: 1882 c13d a412 fc3d 995f 78be 6a6a cbbd
000000f0: cd61 64be 6c87 f03d 45cc 343e 7652 8dbe
00000100: efd6 4a3e f409 293e a0dc 2d3e 3e24 6f3e
00000110: 84ae 14be 6853 f0bd 2d6d edbd 08ac f63d
00000120: 3781 39be 8f04 293e 17d1 a2bb 43b7 45be
00000130: 8c9d 2b3e 3f71 1fbe e990 07be d948 b43d
00000140: 1f43 283c 8e1f 37be 72ed 5a3d b80c 393d
00000150: 78e0 2e3e cbed 363e 6b25 4ebe 4c16 133e
00000160: ffe7 603d 050d 50be 257c d23b 7d2a 8b3d
00000170: bdb2 cf3d c3cc 2e3e 0733 e1bd 794d 63be
00000180: c23d 79bc 38f8 583d 869f 12be 772a 183e
00000190: b03d b13c 9751 3c3e 04d1 2cbd 118a 003d
000001a0: 0bee 463e a71c b4bc 31cf 42be ff51 d6bb
000001b0: 9be8 4b3e a891 98bd 0458 f33b 20ac f7bd
000001c0: 5a70 18bd 3bf9 53bc c1a7 6d3e 6a18 ebbd
000001d0: 19ce afbb 17b0 3e3e cdae f03d 0b39 70bd
000001e0: c8e6 023e 6df2 0a3e fac8 163e 7241 44be
000001f0: d213 763e bac9 a9bd 99af 05be 0514 dcbd
00000200: a501 173e af6c 453e 6938 debd 5736 ea3d
00000210: 8ca6 19be c86e 4abe f50e 833e c05c 0ebb
00000220: 628f 9c3d 3c41 a2bd 67b7 44be 1a58 6f3d
00000230: a1ca 6fbd 5257 5dbe deb8 b2ba 0e5b 0fbe
00000240: c23a 9c3d 0af8 f3bd 0a67 693d 09d2 01be
00000250: 97fe 033d 5549 0d3d 7fa4 8c3e 3d1f b5bd
00000260: 7934 f1bd 2a21 323e dcfa 40be 9c01 373d
00000270: 36d8 8b3d 1b01 6c3e 9d2d 01be a02b 0c3e
00000280: 164c 9d3e 8ced e2bd aeb9 35be 22bc ae3d
00000290: d064 2c3e 2dcf ffbd 3534 45be f7ea 5ebe
000002a0: a745 09be 7fed 8bbe f0eb 8c3c fc9f 8d3d
000002b0: 5fd7 80bd b772 af3d f20b 043e dbde 1b3e
000002c0: 547e 0abe 9412 8fbe 40d7 54be d7a2 433c
000002d0: e140 9fbe 7b7a 083e a4f9 09bd b398 a83d
000002e0: 4de1 723e 62c7 e43b 8a55 1abe 470b 09bd
000002f0: 5ee8 70be d60e 03be ce77 8a3e 4996 4bbe
00000300: 6f63 9fbe 4fbf 6d3d 771a ce3c f342 bdbd
00000310: 0982 a6be d813 423a c304 aa3e 0203 b0bd
00000320: 0d35 a23e 6521 a13d 35a4 9fbe d372 7abe
00000330: 83c1 533c 3f1c f83d af5b ed3d 360c 80be
00000340: 3063 25be 6cb1 cabd 799c 9a3e 9580 7e3e
00000350: 58b5 86bd fd1d ad3e 48b6 a63e dbe6 1abe
00000360: 8870 40be a213 703e d20f 71bc 9efb 35be
00000370: 0691 28bd 8ffc 373d c265 91be c084 373e
00000380: 0c43 813d 7d85 f5bd d97a 453e d63a 3bbe
00000390: 311e 3a3d 62b0 f43d 23e5 1c3d edd1 173d
000003a0: 62f5 dfbc 9931 96bd d4cb a33d 9bdb f73d
000003b0: e945 203d d9ac 643d 16b0 cfbd 54d5 a63d
000003c0: 91dd 8b3e b0db 843d b588 57bd 8c96 9cbd
000003d0: eedd c0bd 1714 ac3d cbd4 20be e79e f8bc
000003e0: 9c50 42bd 5b94 01be ef97 233d f367 9cbc
000003f0: 884b 99bd ae9b 51be 5654 96bc db2d cbbd

mixture_net.mol_attn_layers.0.self_attn_layer.in_proj_bias f4 [96]
-0.04532732 0.048034042 0.005623818 -0.0061504743 -0.020816443 0.096954174 -0.106418446 0.0056739934
-0.025258735 -0.14385542 -0.054741345 -0.038944595 0.008382158 -0.07700569 0.0320105 0.06634285
-0.054517176 -0.027125647 0.031159684 -0.025999991 0.061549462 -0.10072216 0.10960471 0.042117998
0.039911505 -0.016074965 -0.04718826 -0.19285402 -0.010343146 -0.15935463 0.012230133 0.034984265
0.00017245204 -6.462478e-05 -3.5352852e-05 -2.3639448e-05 -0.00052105787 0.0006445783 -0.0014727865 0.00041209403
-5.365984e-05 0.00014676175 -9.396633e-05 -0.00048793503 -0.00019260061 0.0015433965 -0.00038846186 -0.001502711
0.0020486445 0.0010078959 -0.0007157077 0.00051538757 -0.00039290544 0.00048343345 -0.00076318654 -0.00039832815
0.0022474932 0.0001172295 -0.0014898771 -0.005705091 0.0007142172 0.003536696 -0.00010347074 -0.0012289222
-0.00937512 -0.0072177355 0.0019916203 0.004070323 -0.010364967 -0.018664131 0.0025799905 0.00961781
0.018067477 -0.007504257 -0.004607049 -0.017374221 -0.0002963035 -0.0006537284 -0.00040388317 0.0021982463
0.0026727093 0.0028588185 -0.005011847 -0.019293537 0.0106323715 0.0007401794 -0.0019282476 -0.0066273697
-0.0023401696 -0.018923858 -0.014769864 -0.0019203479 0.019256255 0.019638881 0.008929285 -0.009104179
00000000: 24a9 39bd 58bf 443d 0148 b83b eb89 c9bb
00000010: 3f87 aabc e98f c63d eaf1 d9bd e8ec b93b
00000020: 68eb cebc d64e 13be 7638 60bd 5e84 1fbd
00000030: 5255 093c 29b5 9dbd 711d 033d c3de 873d
00000040: 674d 5fbd 9b36 debc 9842 ff3c effd d4bc
00000050: 4a1b 7c3d 6b47 cebd 6f78 e03d ec83 2c3d
00000060: 3f7a 233d a5af 83bc 7a48 41bd 867b 45be
00000070: 4c76 29bc dc2d 23be e560 483c a94b 0f3d
00000080: 3ed4 3439 2a87 87b8 d647 14b8 544d c6b7
00000090: 9a97 08ba ebf8 283a 840a c1ba 530e d839
000000a0: d110 61b8 0fe4 1939 ca0f c5b8 88d1 ffb9
000000b0: d5f4 49b9 cb4b ca3a 78aa cbb9 9df6 c4ba
000000c0: 8d42 063b 601b 843a 559e 3bba 131b 073a
000000d0: e0fe cdb9 5775 fd39 9510 48ba b3d6 d0b9
000000e0: ae4a 133b 1cd9 f538 fb47 c3ba c6f1 babb
000000f0: 4e3a 3b3a eac7 673b 6efe d8b8 c913 a1ba
00000100: 1a9a 19bc c182 ecbb d885 023b 5860 853b
00000110: d3d1 29bc 85e5 98bc 0f15 293b 0594 1d3c
00000120: 3f02 943c 45e6 f5bb baf6 96bb 6254 8ebc
00000130: 2f59 9bb9 f85e 2bba 48c0 d3b9 7410 103b
00000140: 9f28 2f3b 045b 3b3b 6b3a a4bb 7b0d 9ebc
00000150: 6633 2e3c 9908 423a 41bd fcba 682a d9bb
00000160: 885d 19bb 3506 9bbc 4dfd 71bc 2fb4 fbba
00000170: 4bbf 9d3c b8e1 a03c 234c 123c b229 15bc

mixture_net.mol_attn_layers.0.self_attn_layer.out_proj.weight f4 [32, 32]
0.008902888 0.19078693 -0.14281197 -0.10725373 0.098923005 0.07973699 -0.037810735 0.13950554
-0.019765794 -0.20379837 0.11832885 0.09480685 -0.12428995 0.11499032 0.14945255 -0.0716546
-0.096391834 -0.09473264 0.20291305 -0.118321344 -0.022351975 0.050176628 -0.11186648 0.1465033
-0.16593398 -0.12362354 0.18829189 -0.12620981 -0.08429187 0.12469104 -0.22528276 0.1491786
0.053065494 -0.07418822 -0.10273232 -0.14330365 0.12471399 -0.1743337 -0.04778997 -0.21398233
-0.11175459 0.022680042 0.05370325 -0.13565934 -0.060426977 0.09059907 -0.104128644 0.038478725
-0.0019089533 0.13104518 -0.12521866 -0.15701514 0.019050075 0.060863685 0.118255466 -0.033064894
0.111235596 0.017623773 -0.17801464 0.2080298 0.0047841175 -0.11004707 0.009417092 -0.11869165
0.08794549 -0.051179364 0.0057023405 -0.16525431 -0.087081224 -0.16539855 0.035712533 -0.13627772
-0.19912297 -0.0008344151 -0.13397874 -0.14354378 -0.12318718 0.10989513 -0.10314004 -0.032667093
-0.05820168 0.12910016 -0.14136237 -0.057273306 -0.0058177467 -0.13457276 -0.046189275 0.049284857
0.102683455 -0.116634086 -0.008739694 -0.092114724 0.024430316 -0.116823226 -0.10008244 0.17294495
0.027251419 -0.017191 -0.00016193071 -0.095960125 -0.0076014935 0.0979662 0.14806451 0.10168868
-0.17523481 -0.17811382 -0.09875079 0.12051928 -0.07331673 -0.1438628 0.14507562 -0.12674864
-0.15072651 0.023924747 0.017895175 -0.16620125 0.07524767 -0.1037245 -0.16429183 0.19455327
0.1456474 -0.11538019 0.15153301 -0.046005003 -0.029471654 -0.09707366 -0.11141598 0.16323902
-0.118189685 -0.111329734 -0.14047533 0.073263094 0.039517157 -0.18034227 -0.075279035 -0.032371044
0.10373873 0.046751652 0.13652284 -0.12219539 0.0859732 -0.1644215 -0.022899125 0.036230657
-0.05473731 0.104508534 -0.08708635 -0.08398492 0.19976278 0.12411139 0.2034742 -0.19398104
-0.09065086 -0.08111674 -0.05783276 0.19846429 -0.12962268 -0.03590071 0.23978318 -0.20890294
0.09600346 0.1594466 -0.15101354 -0.11898948 0.17153698 0.0486569 0.19537269 0.038830966
-0.030721663 -0.07126038 -0.065068044 -0.093562484 -0.008814917 0.23624726 0.023625841 -0.13046393
0.022381518 -0.015112137 0.00229452 -0.018476477 -0.0231833 -0.06127595 -0.04899075 0.21344507
0.047912046 -0.015392154 -0.105294585 -0.07771304 -0.17502575 -0.048810832 0.094496526 0.119578406
-0.09344538 -0.19263786 -0.06482953 -0.020051474 -0.14946856 -0.055731595 -0.089891985 0.06647229
0.06529169 -0.052938137 -0.059638493 -0.061318863 0.027575988 -0.07397175 0.07258265 0.034999687
-0.10384549 -0.11601661 -0.07317213 -0.107658245 0.18019825 -0.039036654 -0.14141962 -0.099227436
-0.1537776 -0.13400073 0.08718076 0.037685573 0.13502337 -0.031387597 0.18163314 -0.13950664
-0.019241096 -0.026447857 -0.010342159 -0.079819605 0.0253148 -0.095294625 0.0071462095 -0.039965883
0.021190975 0.048745453 0.084329255 0.060601942 -0.13694593 0.016291622 0.03720799 -0.0928991
0.081163704 -0.057517987 -0.11506551 -0.16640206 0.12595738 -0.13076636 -0.024049964 0.014770289
0.10144721 0.015700826 0.00576765 0.1779144 0.07549545 0.014351236 -0.044881567 -0.19243959
00000000: 6bdd 113c a65d 433e 4d3d 12be d8a7 dbbd
00000010: 2598 ca3d 264d a33d 6edf 1abd 8ada 0e3e
00000020: e0eb a1bc 85b0 50be 6556 f23d 182a c23d
00000030: bb8b febd 0b80 eb3d 170a 193e a6bf 92bd
00000040: 1569 c5bd 3003 c2bd 70c8 4f3e 7652 f2bd
00000050: 7d1b b7bc 0286 4d3d 411a e5bd f604 163e
00000060: 99ea 29be 572e fdbd 97cf 403e 253d 01be
00000070: 37a1 acbd 045e ff3d 86b0 66be 46c2 183e
00000080: 345b 593d feef 97bd 5365 d2bd 31be 12be
00000090: 0c6a ff3d 8984 32be 6abf 43bd 2f1e 5bbe
000000a0: 97df e4bd 7fcb b93c f0f7 5b3d 48ea 0abe
000000b0: 4782 77bd 018c b93d 6641 d5bd de9b 1d3d
000000c0: d835 faba b530 063e 5239 00be 94c8 20be
000000d0: e70e 9c3c 334c 793d ec2f f23d 0e6f 07bd
000000e0: 7dcf e33d bb5f 903c 7849 36be c405 553e
000000f0: 16c4 9c3b 5c60 e1bd 264a 1a3c 9c14 f3bd
00000100: c41c b43d 74a1 51bd b3da ba3b 6d38 29be
00000110: a457 b2bd 3d5e 29be 4e47 123d 638c 0bbe
00000120: e4e6 4bbe a6bc 5aba b931 09be 24fd 12be
00000130: 8f49 fcbd b310 e13d 163b d3bd eecd 05bd
00000140: e364 6ebd d532 043e 4cc1 10be 6a97 6abd
00000150: cca2 bebb 71cd 09be f730 3dbd ebde 493d
00000160: b44b d23d dadd eebd ef30 0fbc a5a6 bcbd
00000170: 1622 c83c 0441 efbd 06f8 ccbd 7b18 313e
00000180: 5e3e df3c 24d4 8cbc f2cb 29b9 be86 c4bd
00000190: f315 f9bb 81a2 c83d 399e 173e 2842 d03d
000001a0: c170 33be 7863 36be db3d cabd d0d2 f63d
000001b0: 1527 96bd c550 13be b48e 143e 65ca 01be
000001c0: 0d58 1abe d5fd c33c e798 923c a930 2abe
000001d0: 731b 9a3d 836d d4bd 1e3c 28be f938 473e
000001e0: 9824 153e 734c ecbd 782b 1b3e be6f 3cbd
000001f0: 8a6e f1bc 8ece c6bd 102e e4bd 2128 273e
00000200: 6f0d f2bd d800 e4bd c4d8 0fbe f60a 963d
00000210: bedc 213d a5ab 38be e52b 9abd 8097 04bd
00000220: f974 d43d a97e 3f3d a5cc 0b3e 9441 fabd
00000230: b812 b03d 1c5e 28be f296 bbbc 9966 143d
00000240: 3b34 60bd 9208 d63d 545a b2bd 4900 acbd
00000250: 9d8e 4c3e 1d2e fe3d 8a5b 503e f7a2 46be
00000260: 28a7 b9bd 8920 a6bd 0be2 6cbd 393a 4b3e
00000270: cfbb 04be 9f0c 13bd b989 753e a7ea 55be
00000280: 769d c43d f845 233e 4ba3 1abe c2b0 f3bd
00000290: 64a7 2f3e 754c 473d c70f 483e 380d 1f3d
000002a0: ffab fbbc f6f0 91bd 6542 85bd b09d bfbd
000002b0: 716c 10bc cdea 713e fb8a c13c 5698 05be
000002c0: 7259 b73c e698 77bc a85f 163b fb5b 97bc
000002d0: e7ea bdbc 7efc 7abd 86aa 48bd 5891 5a3e
000002e0: 6c3f 443d 602f 7cbc b0a4 d7bd 0428 9fbd
000002f0: f339 33be deed 47bd 6587 c13d 86e5 f43d
00000300: 4b60 bfbd dc42 45be 58c5 84bd fd42 a4bc
00000310: 490e 19be d046 64bd 4a19 b8bd a022 883d
00000320: a6b7 853d a9d5 58bd 7e47 74bd 7d29 7bbd
00000330: 0ae7 e13c 807e 97bd 36a6 943d d55b 0f3d
00000340: f2ac d4bd 1e9a edbd 45db 95bd ed7b dcbd
00000350: e485 383e e6e4 1fbd 4ed0 10be c137 cbbd
00000360: e077 1dbe 7d37 09be d48b b23d 305c 1a3d
00000370: 9143 0a3e 4890 00bd 0afe 393e d4da 0ebe
00000380: 819f 9dbc 2da9 d8bc 2972 29bc 7678 a3bd
00000390: fc60 cf3c d429 c3bd c02a ea3b 44b3 23bd
000003a0: b298 ad3c 50a9 473d d1b4 ac3d be39 783d
000003b0: 8e3b 0cbe 0276 853c 6867 183d e241 bebd
000003c0: 2839 a63d fb97 6bbd 77a7 ebbd 4d65 2abe
000003d0: f9fa 003e 9ee7 05be 6e04 c5bc 15ff 713c
000003e0: 8ec3 cf3d 059f 803c 8efe bc3b 312f 363e
000003f0: 5c9d 9a3d 7221 6b3c bcd5 37bd e20e 45be

mixture_net.mol_attn_layers.0.self_attn_layer.out_proj.bias f4 [32]
0.005906964 0.007019415 -0.00059903256 0.005902061 0.005555458 0.014360328 0.015261081 -0.002004641
-0.010164978 0.015664788 0.0032185724 0.012430118 -0.0057776854 0.010263489 0.01474861 0.012416028
-0.0069912346 0.014955758 6.574894e-05 -0.006509462 -0.002370125 -0.007658968 0.006527 0.0033159012
-0.011880404 -0.008816652 -0.009233603 0.0027526005 -0.004061016 0.0056737964 0.008774728 0.009384019
00000000: 358f c13b 1f03 e63b 6508 1dba 1366 c13b
00000010: 8f0a b63b 9547 6b3c 9d09 7a3c 4c60 03bb
00000020: 028b 26bc 7153 803c afee 523b b2a7 4b3c
00000030: bd52 bdbb 3128 283c 27a4 713c 996c 4b3c
00000040: ba16 e5bb ff08 753c b2e2 8938 534d d5bb
00000050: 1954 1bbb 15f8 fabb 72e0 d53b 974f 593b
00000060: 07a6 42bc b873 10bc 8a48 17bc f964 343b
00000070: 4512 85bb 41eb b93b e0c3 0f3c 6ebf 193c

mixture_net.mol_attn_layers.0.addnorm1.norm.weight f4 [32]
1.0172784 0.99953794 1.0087512 0.97500867 1.008696 0.99361676 0.9976398 1.0025648
0.99127364 1.0073366 1.0083531 1.0105636 0.9873953 0.9604643 0.9994195 0.99483556
0.9983609 0.9906809 0.98794585 1.0009763 1.0256822 1.0262343 0.98127484 0.9876796
0.90757877 1.0234599 0.9997134 1.0047071 0.99038464 0.94391906 0.9932389 1.0077171
00000000: 2e36 823f b8e1 7f3f c21e 813f 2b9a 793f
00000010: f31c 813f ab5d 7e3f 5265 7f3f 0b54 803f
00000020: 1cc4 7d3f 68f0 803f b711 813f 265a 813f
00000030: f0c5 7c3f fde0 753f f5d9 7f3f 8bad 7e3f
00000040: 9494 7f3f 439d 7d3f 05ea 7c3f fe1f 803f
00000050: 8e49 833f a55b 833f d434 7b3f 92d8 7c3f
00000060: 1557 683f bc00 833f 38ed 7f3f 3e9a 803f
00000070: d989 7d3f aea4 713f e844 7e3f e0fc 803f

mixture_net.mol_attn_layers.0.addnorm1.norm.bias f4 [32]
0.006700503 -0.002987309 -0.00707293 0.0010261778 0.004003906 -0.00088843115 0.0054704496 -0.00919448
0.011531607 0.013166409 0.005020564 0.002481675 -0.0029322444 -0.008365373 -0.0053974977 -0.0059647365
-0.008564675 0.014126231 0.0035407755 -0.004745299 -0.0036773777 -0.008456334 -0.0035380055 0.0027080458
-0.03374147 -0.0010634431 -0.005676843 4.6083787e-05 -0.0002241861 0.019796452 0.003621978 0.029915664
00000000: e58f db3b bac6 43bb 0ac4 e7bb d080 863a
00000010: 3333 833b 9be5 68ba 7541 b33b 72a4 16bc
00000020: 11ef 3c3c ecb7 573c 8b83 a43b 99a3 223b
00000030: e62a 40bb eb0e 09bc 7edd b0bb d673 c3bb
00000040: da52 0cbc b571 673c 5b0c 683b 747e 9bbb
00000050: 2900 71bb 6f8c 0abc e2dd 67bb 7879 313b
00000060: 7f34 0abd 3b63 8bba d004 babb 174a 4138
00000070: 7f13 6bb9 2b2c a23c b55e 6d3b b211 f53c

mixture_net.mol_attn_layers.0.ffn.layers.0.weight f4 [32, 32]
0.05269888 -0.16958213 0.050873652 0.12756045 -0.15129198 -0.05558188 0.049272317 0.036573954
-0.059523966 0.1399778 0.07950642 0.13278951 -0.12717901 0.0012089144 -0.12342684 -0.15072455
0.100624524 -0.06934329 -0.038402632 -0.06571271 0.0055417586 0.014389374 0.05889944 0.13751675
0.08181906 0.15777989 -0.057961278 0.17451975 -0.037779506 -0.009114178 -0.13477108 0.18606079
-0.116115615 0.07399014 0.033589628 -0.09903977 0.16511972 0.0005457212 0.12496307 -0.064557575
-0.07530262 0.1173743 0.09781424 -0.0016882312 -0.07122769 0.19323984 -0.0531988 0.014186612
-0.050340965 0.10457086 0.15336715 0.052772578 -0.18363726 -0.020267824 0.19437706 -0.08855565
0.021100318 0.0076080416 0.11003245 -0.017256485 -0.016838714 0.17371628 0.006968742 0.14338464
0.014726492 -0.08578682 0.09517905 -0.10679057 -0.16975476 0.13335545 0.040314224 -0.088909954
0.051367432 0.03207539 -0.052719887 0.056785945 -0.027023219 0.17184749 0.21908115 -0.16995853
0.13439661 0.15977502 0.002305105 -0.12219582 0.12888223 -0.13665889 0.08242024 -0.08407161
0.030383354 0.00015370047 -0.13034609 -0.11536116 -0.09478585 -0.01929438 -0.015345966 -0.029296262
-0.080287054 0.1282032 0.09674682 -0.016463263 0.07724805 0.109078206 0.090443864 0.115483046
-0.014360897 -0.102223866 -0.13348784 0.18164656 0.09638243 -0.14863913 0.042019527 -0.0027003512
-0.020423966 0.028553149 0.059967406 -0.037573352 -0.17800173 -0.100490674 -0.14903654 -0.08877404
0.15481661 -0.021398153 -0.09644462 -0.13498257 -0.10630285 -0.082856454 -0.02883296 0.16127808
0.028908005 -0.13615765 0.030515138 -0.10593642 -0.120834365 -0.0741524 0.13706204 -0.06338059
-0.054437563 0.028869944 0.101768956 -0.050274137 0.11840662 0.084024385 0.063941896 -0.026320769
-0.024240322 0.046820022 0.07633447 -0.18409148 0.08663136 0.14574057 0.08815547 0.06264196
-0.058977682 0.019357434 0.09649848 0.15761927 0.04973841 -0.08075601 0.07566984 -0.14175095
0.11490245 0.11534503 -0.056671545 0.14095218 -0.13787189 -0.1455535 0.03771448 -0.05429722
-0.0608602 -0.07955077 0.14006513 0.09980983 -0.034985315 0.00054164865 0.12795699 -0.062491287
0.12488436 -0.10521756 0.1432782 0.031353284 -0.0688727 0.15676458 0.030746276 0.16488542
0.15936346 0.15392618 0.013530425 0.083066784 0.06721133 -0.111776836 -0.08610094 0.08792014
0.019670798 0.085020885 -0.124760255 -0.15533535 0.029212035 0.013827122 0.16258538 -0.098539636
0.15717901 0.11207779 0.0679528 -0.046667974 -0.042050257 -0.15435879 -0.088340424 0.1748478
-0.123521075 -0.073776454 0.12933539 -0.08494503 0.005983535 -0.17826307 0.12384246 0.046620216
-0.111464426 -0.057871245 0.09540725 0.101351656 0.1171577 0.16602814 0.16478339 0.15558693
0.047321193 -0.15095012 -0.16155446 -0.17284703 0.14528851 -0.017940985 0.120465435 -0.08773755
-0.0930604 -0.012876241 -0.054347016 -0.064531334 0.10724912 0.111850515 -0.10881375 0.14820877
-0.017911803 0.16710183 0.031664643 -0.0039184275 -0.035959 -0.13027053 0.09161414 0.065807045
0.013919211 -0.019421015 0.18747625 0.14067024 0.13802817 -0.037899204 0.099437125 0.08525968
00000000: c8da 573d f0a6 2dbe e460 503d 359f 023e
00000010: 49ec 1abe d3a9 63bd c5d1 493d 92ce 153d
00000020: 67cf 73bd 5756 0f3e 43d4 a23d f9f9 073e
00000030: 373b 02be 7074 9e3a 36c7 fcbd 8957 1abe
00000040: 3b14 ce3d db03 8ebd 144c 1dbd 6394 86bd
00000050: a497 b53b 69c1 6b3c 8a40 713d 31d1 0c3e
00000060: c090 a73d 0d91 213e ce68 6dbd 4eb5 323e
00000070: afbe 1abd a253 15bc 6e01 0abe b886 3e3e
00000080: 06ce edbd 2488 973d 4795 093d 5dd5 cabd
00000090: 2515 293e bb0e 0f3a a3ec ff3d c336 84bd
000000a0: 4338 9abd f061 f03d d552 c83d a447 ddba
000000b0: d3df 91bd aae0 453e fce6 59bd f76e 683c
000000c0: 5432 4ebd 3f29 d63d 470c 1d3e 0f28 583d
000000d0: 680b 3cbe b508 a6bc c80a 473e aa5c b5bd
000000e0: 93da ac3c e14c f93b b158 e13d 795d 8dbc
000000f0: 58f1 89bc aee2 313e 0b5a e43b 6cd3 123e
00000100: 6247 713c 00b1 afbd 3ced c23d 04b5 dabd
00000110: 31d4 2dbe 558e 083e 8720 253d 6c16 b6bd
00000120: a866 523d 7c61 033d cff0 57bd 6198 683d
00000130: cc5f ddbc caf8 2f3e cf56 603e 9c09 2ebe
00000140: 449f 093e 109c 233e 3f11 173b cd41 fabd
00000150: b4f9 033e 4ff0 0bbe f1cb a83d bc2d acbd
00000160: 83e6 f83c a82a 2139 7279 05be 7942 ecbd
00000170: 151f c2bd 3f0f 9ebc a66d 7bbc b7fe efbc
00000180: 8a6d a4bd b347 033e 3223 c63d f7dd 86bc
00000190: 3a34 9e3d 6564 df3d a23a b93d 6082 ec3d
000001a0: f849 6bbc bf5a d1bd 09b1 08be 8e01 3a3e
000001b0: 2764 c53d db34 18be ab1c 2c3d 60f8 30bb
000001c0: 2950 a7bc 4be8 e93c 62a0 753d 84e6 19bd
000001d0: 1646 36be 0ece cdbd 099d 18be 2acf b5bd
000001e0: 3f88 1e3e 2e4b afbc c284 c5bd df38 0abe
000001f0: 4fb5 d9bd a5b0 a9bd 1a33 ecbc 1526 253e
00000200: 7bd0 ec3c e96c 0bbe e2fa f93c 32f5 d8bd
00000210: 0278 f7bd 37dd 97bd fe59 0c3e afcd 81bd
00000220: ecf9 5ebd a980 ec3c 3e6c d03d 41ec 4dbd
00000230: 2c7f f23d fa14 ac3d f8f3 823d a79e d7bc
00000240: a493 c6bc 5ac6 3f3d 3f55 9c3d 7a82 3cbe
00000250: c86b b13d 043d 153e db8a b43d 6e4a 803d
00000260: 9592 71bd 7b93 9e3c ffa0 c53d f266 213e
00000270: 81ba 4b3d 6863 a5bd caf8 9a3d 2927 11be
00000280: fa51 eb3d 043a ec3d 6c20 68bd c555 103e
00000290: 4a2e 0dbe fa0b 15be 807a 1a3d c366 5ebd
000002a0: 8c48 79bd 84eb a2bd 3c6d 0f3e 1969 cc3d
000002b0: c34c 0fbd 6dfd 0d3a 2807 033e ddf6 7fbd
000002c0: 5fc3 ff3d 4e7c d7bd 85b7 123e 4d6c 003d
000002d0: 210d 8dbd e586 203e 9ddf fb3c b9d7 283e
000002e0: 2d30 233e d39e 1d3e b7ae 5d3c eb1e aa3d
000002f0: 18a6 893d 41eb e4bd b155 b0bd 790f b43d
00000300: a724 a13c 6e1f ae3d 4e82 ffbd 3b10 1fbe
00000310: 144e ef3c 278b 623c c87c 263e 26cf c9bd
00000320: 89f3 203e 0a89 e53d d62a 8b3d eb26 3fbd
00000330: e43c 2cbd 3b10 1ebe d3eb b4bd 4d0b 333e
00000340: 9ef8 fcbd 1c18 97bd 7f70 043e a9f7 adbd
00000350: 8811 c43b 988a 36be 1ea1 fd3d d7f4 3e3d
00000360: 7647 e4bd 660a 6dbd e064 c33d 7591 cf3d
00000370: 60f0 ef3d 4803 2a3e fabc 283e 2e52 1f3e
00000380: ded3 413d ab92 1abe 886e 25be d0fe 30be
00000390: 83c6 143e f9f8 92bc 95b6 f63d bfaf b3bd
000003a0: 7396 bebd def6 52bc fa9a 5ebd 0129 84bd
000003b0: 6da5 db3d e211 e53d bed9 debd 0ac4 173e
000003c0: c6bb 92bc be1c 2b3e c9b2 013d 2766 80bb
000003d0: bf49 13bd a365 05be 32a0 bb3d d8c5 863d
000003e0: 670d 643c d218 9fbc c6f9 3f3e dc0b 103e
000003f0: 4257 0d3e 323c 1bbd b1a5 cb3d a19c ae3d

mixture_net.mol_attn_layers.0.ffn.layers.0.bias f4 [32]
0.0941319 0.106598385 0.18714833 -0.00017267479 0.09946167 -0.06832789 -0.14172101 -0.0031757462
0.009287499 0.15361618 0.16737089 0.03998717 0.031939633 -0.09236159 0.04390762 -0.15790518
0.15988238 -0.0045140763 -0.15803055 -0.042925127 -0.040995825 0.14445214 0.098983735 0.15439895
-0.10392294 -0.0707081 0.07966997 0.015939683 0.10345443 0.14173305 -0.14507832 0.071520634
00000000: 3ac8 c03d 4150 da3d d0a3 3f3e 0910 35b9
00000010: 8fb2 cb3d 7eef 8bbd 501f 11be 2e20 50bb
00000020: 982a 183c 8f4d 1d3e 4663 2b3e 96c9 233d
00000030: 22d3 023d 1328 bdbd 7ad8 333d e5b1 21be
00000040: 35b8 233e d1ea 93bb c3d2 21be 42d2 2fbd
00000050: 3deb 27bd 43eb 133e fcb7 ca3d c21a 1e3e
00000060: 8dd5 d4bd 69cf 90bd 022a a33d f093 823c
00000070: ebdf d33d 7822 113e 698f 14be 6979 923d

mixture_net.mol_attn_layers.0.ffn.layers.2.weight f4 [32, 32]
0.0100290915 -0.0689224 -0.01409975 -0.19214962 -0.040580533 -0.12611215 0.06912505 0.10202059
0.120445296 -0.1303486 -0.027506754 -0.17969863 0.14439827 0.19081776 -0.1776613 -0.08896288
-0.16121554 -0.081527255 -0.14083962 -0.122492336 0.11738013 -0.00038099758 -0.07892513 0.058512382
0.1454019 0.09711726 0.019266037 -0.16624889 -0.101479456 -0.046657357 -0.070602864 -0.15150818
0.056951717 0.12076459 -0.17579632 0.16467077 -0.15820321 -0.031866416 0.055584215 -0.018936275
-0.013680355 0.19088274 0.024029741 -0.008423808 0.05745185 0.031463925 0.17373665 -0.16053714
-0.16859202 0.164345 -0.1433897 -0.11770892 -0.008446824 -0.06924731 -0.0749075 0.14211212
0.049975898 0.14583787 0.03295437 0.063883245 0.1400582 0.14151043 0.14182356 -0.074565746
-0.07437299 0.014370182 -0.014849613 -0.08699359 -0.14504716 0.1896337 -0.08081647 -0.14436796
0.059876215 -0.16395648 0.0188949 -0.07670996 -0.08681587 0.030257555 -0.09200159 0.0046532457
-0.15763947 -0.10744999 -0.06791907 0.033391062 0.032215208 -0.025439657 0.035160143 -0.14962053
0.029577741 -0.15831769 -0.06330969 0.13711458 -0.16036896 -0.1220979 -0.078696184 -0.15542056
-0.14282142 0.013635494 -0.12901999 -0.0052432297 -0.006842712 0.058153555 0.15124968 0.15035328
-0.009883554 -0.02461464 0.17306478 0.16403852 -0.07761627 -0.11080066 0.1171426 -0.11419896
0.04266811 0.05001957 0.0352243 0.12349157 0.1658467 -0.11365567 -0.0011014598 0.042992923
-0.11895946 -0.10278606 -0.019517623 0.008829943 -0.13662109 0.09904328 -0.026891243 -0.11912469
-0.0949516 0.06283454 -0.013786539 -0.073571384 -0.109849 0.05143354 0.13193099 0.15824093
-0.017717054 0.15396693 -0.14679839 -0.0156186875 0.102867045 -0.05718481 -0.09863889 -0.09729711
-0.012612829 -0.11530665 -0.003671938 -0.1305843 -0.11629708 -0.09331217 -0.11995951 0.1828561
0.14967087 -0.026347624 -0.16134815 0.056661222 -0.111219846 0.1759649 -0.031124266 0.13524744
-0.024171384 0.038540695 -0.1127127 0.051474914 -0.11449693 0.08250096 0.049754675 -0.18850632
0.16982217 0.044794388 0.101516254 0.14354604 -0.14170921 0.090115465 0.11799776 -0.1439611
-0.06560632 0.00030703194 0.15657577 0.10816154 0.17161904 0.1533221 -0.16423152 0.12992702
-0.14334056 0.1744845 0.05006497 -0.0377642 -0.052530654 0.112683155 -0.16305879 0.013002436
-0.14153297 0.0799999 -0.027642574 -0.16720101 0.039564755 -0.10237644 -0.052762 -0.06298712
0.06832945 -0.105493285 -0.12592012 0.1424587 -0.0014278669 0.067222714 0.13042766 -0.116499715
-0.04387692 0.103293434 -0.05431118 0.122905254 -0.06930362 -0.14353986 -0.1257134 0.04673446
0.05151382 -0.05438795 -0.17293137 -0.0899528 -0.05088915 0.15578458 0.1438301 0.10090218
-0.047892854 0.17490678 -0.063356414 -0.06127373 -0.12882417 0.09520781 -0.09650507 0.14855355
0.15708627 0.19088425 -0.18905358 -0.1416767 -0.14470966 -0.10931273 0.044921525 -0.18490922
-0.11067666 -0.07806053 -0.11798246 0.032798313 -0.025152013 0.10127655 -0.04732891 0.12521109
0.13638729 -0.09206746 0.08326736 0.14819308 -0.06741979 -0.035495028 -0.16957065 -0.14196861
00000000: 0f51 243c 3027 8dbd a302 67bc dfc2 44be
00000010: c637 26bd 8b23 01be 6f91 8d3d 2cf0 d03d
00000020: 06ac f63d 1a7a 05be d855 e1bc eb02 38be
00000030: 24dd 133e bb65 433e d8ec 35be 2c32 b6bd
00000040: b015 25be c3f7 a6bd 4338 10be 43dd fabd
00000050: fe64 f03d a1c0 c7b9 80a3 a1bd aeaa 6f3d
00000060: 3ce4 143e 6ae5 c63d cfd3 9d3c 263d 2abe
00000070: 76d4 cfbd c91b 3fbd 3c98 90bd f624 1bbe
00000080: 3446 693d 6d53 f73d f303 34be 749f 283e
00000090: 0600 22be 5c86 02bd 46ac 633d 3f20 9bbc
000000a0: 9123 60bc c476 433e 05da c43c 0304 0abc
000000b0: a252 6b3d 51e0 003d 05e8 313e d963 24be
000000c0: 63a3 2cbe 0e4a 283e c0d4 12be 6011 f1bd
000000d0: 8c64 0abc 89d1 8dbd 1a69 99bd d785 113e
000000e0: 87b3 4c3d 8656 153e 29fb 063d 38d5 823d
000000f0: 6b6b 0f3e 1ce8 103e 323a 113e edb5 98bd
00000100: de50 98bd e970 6b3c cb4b 73bc b229 b2bd
00000110: 3e87 14be 562f 423e 1b83 a5bd 32d5 13be
00000120: c340 753d 35e4 27be 7ac9 9a3c 1d1a 9dbd
00000130: 85cc b1bd b1de f73c 546b bcbd 417a 983b
00000140: 3e6c 21be be0e dcbd 2719 8bbd 11c5 083d
00000150: 18f4 033d d466 d0bc 1504 103d 2036 19be
00000160: 054d f23c 081e 22be 83a8 81bd c467 0c3e
00000170: c337 24be 770e fabd 772b a1bd 9126 1fbe
00000180: c73f 12be 6867 5f3c d11d 04be 66cf abbb
00000190: d438 e0bb 6c32 6e3d 32e1 1a3e 36f6 193e
000001a0: a1ee 21bc a4a4 c9bc e537 313e b7f9 273e
000001b0: 47f5 9ebd 75eb e2bd 76e8 ef3d 25e1 e9bd
000001c0: c2c4 2e3d 52e1 4c3d 5b47 103d 26e9 fc3d
000001d0: b8d3 293e 4ec4 e8bd dc5e 90ba 5919 303d
000001e0: 04a1 f3bd 7f81 d2bd 6ce3 9fbc 77ab 103c
000001f0: 66e6 0bbe 34d7 ca3d 064b dcbc a5f7 f3bd
00000200: fc75 c2bd 65af 803d f0e0 61bc 98ac 96bd
00000210: 83f8 e0bd faab 523d eb18 073e e909 223e
00000220: 5b23 91bc 82a9 1d3e 5152 16be 86e5 7fbc
00000230: f5ab d23d 9f3a 6abd 3003 cabd b543 c7bd
00000240: 0aa6 4ebc e525 ecbd e6a4 70bb e4b7 05be
00000250: 2a2d eebd 731a bfbd 55ad f5bd a13e 3b3e
00000260: 5243 193e f9d6 d7bc 7338 25be 9915 683d
00000270: 3bc7 e3bd 2530 343e 51f8 febc 4e7e 0a3e
00000280: 1103 c6bc d9dc 1d3d ebd5 e6bd 5cd7 523d
00000290: 5e7d eabd 43f6 a83d 8fcb 4b3d cd07 41be
000002a0: dde5 2d3e 527a 373d c1e7 cf3d bcfd 123e
000002b0: 381c 11be 758e b83d cfa8 f13d 8a6a 13be
000002c0: 9b5c 86bd 21f9 a039 6655 203e cc83 dd3d
000002d0: e7bc 2f3e 7800 1d3e 4f2c 28be 970b 053e
000002e0: dec7 12be 11ac 323e ed10 4d3d a2ae 1abd
000002f0: 622a 57bd 6dc6 e63d e2f8 26be 2b08 553c
00000300: 05ee 10be fdd6 a33d ae72 e2bc be36 2bbe
00000310: a70e 223d bdaa d1bd f81c 58bd 64ff 80bd
00000320: 50f0 8b3d dd0c d8bd 34f1 00be b2e0 113e
00000330: 4327 bbba 10ac 893d d48e 053e 6797 eebd
00000340: 49b8 33bd 828b d33d 6675 5ebd c0b5 fb3d
00000350: 0eef 8dbd 1dfc 12be 03bb 00be a26c 3f3d
00000360: 2800 533d e6c5 5ebd ec14 31be 2c39 b8bd
00000370: 2471 50bd fe85 1f3e 3348 133e cda5 ce3d
00000380: 4c2b 44bd c31a 333e 02c1 81bd 2afa 7abd
00000390: 7cea 03be 50fc c23d 73a4 c5bd 6c1e 183e
000003a0: 39db 203e 2977 433e 4397 41be b213 11be
000003b0: c52e 14be 5adf dfbd a2ff 373d d858 3dbe
000003c0: 72aa e2bd 33de 9fbd caa0 f1bd 8657 063d
000003d0: 980b cebc 146a cf3d f6db 41bd 5637 003e
000003e0: 1ca9 0b3e dd8d bcbd 1488 aa3d edbf 173e
000003f0: 6313 8abd 3c63 11bd eea3 2dbe 3860 11be

mixture_net.mol_attn_layers.0.ffn.layers.2.bias f4 [32]
0.13134593 -0.022771176 0.10851935 0.15088354 0.042249873 0.15200827 0.10082587 0.1536388
0.17561595 -0.1522005 -0.09428044 -0.035606865 0.080305636 -0.033047944 -0.17198032 -0.15582323
0.16715345 0.09938774 0.039454803 0.069585755 -0.111719176 0.03232314 -0.14615956 0.053510107
0.045496177 0.1372229 -0.030995684 -0.13067274 0.012269464 -0.041810278 -0.0033816013 -0.121408775
00000000: 8c7f 063e 9e8a babc 653f de3d 3781 1a3e
00000010: 340e 2d3d 0ea8 1b3e cb7d ce3d 7d53 1d3e
00000020: abd4 333e 73da 1bbe 1a16 c1bd 81d8 11bd
00000030: 4877 a43d 485d 07bd 9c1b 30be 2090 1fbe
00000040: 462a 2b3e cd8b cb3d 5c9b 213d fa82 8e3d
00000050: 06cd e4bd 4565 043d daaa 15be 6a2d 5b3d
00000060: 335a 3a3d 2984 0c3e a9ea fdbc 13cf 05be
00000070: dd05 493c 4141 2bbd db9d 5dbb 2aa5 f8bd

mixture_net.mol_attn_layers.0.addnorm2.norm.weight f4 [32]
1.018676 1.0086795 1.0129261 0.9775249 1.0078613 1.0049199 0.98216593 1.0168203
1.0052965 1.0106115 1.011595 1.0035417 0.9936932 0.95810044 0.98870486 0.98579353
1.0145046 1.0175983 0.9939814 0.99533266 1.0199565 1.0237967 0.9997164 0.9990874
0.9333842 1.015003 0.99943954 0.99875766 0.9858625 0.97113603 0.9924862 1.0063215
00000000: fa63 823f 691c 813f 90a7 813f 123f 7a3f
00000010: 9901 813f 37a1 803f 3a6f 7b3f 2b27 823f
00000020: 8ead 803f b85b 813f f27b 813f 0e74 803f
00000030: ad62 7e3f 1246 753f c31b 7d3f f75c 7c3f
00000040: 49db 813f a940 823f 9175 7e3f 1fce 7e3f
00000050: ef8d 823f c50b 833f 6aed 7f3f 31c4 7f3f
00000060: 44f2 6e3f 9eeb 813f 45db 7f3f 95ae 7f3f
00000070: 7c61 7c3f 5f9c 783f 9313 7e3f 25cf 803f

mixture_net.mol_attn_layers.0.addnorm2.norm.bias f4 [32]
0.008466708 -0.0050155697 -0.012293988 0.0036913538 0.0039016288 0.0008585546 -0.01019319 -0.0024625685
0.0070429556 0.0073056407 0.008280452 0.0027313444 0.002523224 -0.0016043116 -0.0059206453 -0.0118186
-0.0053552627 -0.0057467013 -0.0024837828 -0.0016854831 -0.006465204 -0.008707821 -0.012101124 0.008352425
-0.014637621 -3.6228947e-05 -0.006766664 0.0032575398 0.006061962 0.014214477 0.0026457908 0.024813646
00000000: f2b7 0a3c a659 a4bb b96c 49bc a4ea 713b
00000010: 78b2 7f3b a010 613a 5601 27bc 0b63 21bb
00000020: 98c8 e63b 2864 ef3b bcaa 073c 5b00 333b
00000030: ad5c 253b c447 d2ba f901 c2bb cda2 41bc
00000040: 337b afbb d34e bcbb f6c6 22bb 6eeb dcba
00000050: 10da d3bb 40ab 0ebc cb43 46bc 9cd8 083c
00000060: a2d2 6fbc 89f4 17b8 e4ba ddbb 737c 553b
00000070: 6ca3 c63b d6e3 683c 0165 2d3b fd45 cb3c

mixture_net.mol_attn_layers.1.self_attn_layer.in_proj_weight f4 [96, 32]
0.07574459 0.16407168 -0.015193796 -0.1924001 0.18618347 -0.18848024 -0.06555684 -0.12709399
0.06074044 -0.21774343 0.05674134 -0.107193 -0.15569235 -0.18410274 0.07784717 0.17106885
0.075628266 0.024218284 0.10963511 -0.010145669 -0.12213986 0.14270183 -0.25085843 -0.16112024
-0.19978547 -0.029343741 0.17534469 0.13952558 0.07940086 -0.14437522 -0.18076842 -0.17892392
0.04331076 0.088533156 0.16100278 -0.12729946 -0.05440231 -0.030079667 -0.21991926 -0.14470749
0.07743965 -0.012614896 0.10558558 -0.07779819 -0.17206259 0.035061266 -0.03235513 0.17998259
-0.14825264 0.11735132 0.00037749673 -0.12316468 0.13189794 -0.018282358 0.13852082 0.18321176
-0.09262221 0.16576408 -0.1969206 0.13224368 -0.025318846 0.17310682 0.07329526 -0.1879593
-0.01987861 0.04937783 0.007168257 -0.05153565 -0.0056518144 0.169492 0.18672168 0.02260468
-0.19235153 0.032661125 0.16192986 0.060456894 0.08374645 -0.033341374 0.08214471 0.097404465
0.13746415 0.06075345 0.21114443 -0.17623076 -0.1815079 0.12913612 0.10707027 -0.13252814
-0.06510428 0.04948587 0.019035336 -0.039804224 -0.07116958 -0.1482315 0.091869175 -0.012130915
0.1594449 -0.16983368 0.095912285 -0.02766508 0.15350941 -0.055649035 -0.07671252 -0.079939924
-0.23195244 0.11676895 0.10036577 -0.18631263 -0.026776355 0.0013487544 -0.073676616 -0.048090376
0.275787 0.06826279 -0.09836594 -0.016887732 0.06695457 0.21641232 -0.16246548 -0.0593382
-0.038982335 -0.1959796 0.11972084 -0.0025175079 -0.16184518 0.1866957 -0.09903639 -0.013999629
-0.096134275 0.016255194 0.15154544 -0.21348453 0.01181023 0.08549797 -0.016188921 -0.12291367
-0.0991936 -0.08158894 0.06756776 0.22660099 0.17148103 0.010728369 0.059002835 0.14841951
0.12551802 -0.061522383 -0.2500512 0.08649869 -0.007094953 -0.16253562 -0.12299803 0.20050354
0.057306565 0.041108035 -0.22341493 0.22287418 0.118150175 -0.08732421 -0.018824799 0.18125564
-0.031057611 -0.19972165 -0.07824293 0.09225069 -0.16145085 0.17536086 0.17846397 -0.03196815
0.27916536 0.10094014 0.16461188 -0.11639719 -0.2293822 -0.07121294 -0.0727393 -0.14081784
-0.30676094 -0.15966398 0.09174955 0.08710333 -0.08593835 0.15891029 0.10044836 -0.04552828
0.032819644 -0.13702117 0.007653109 -0.17570686 0.05715386 -0.012261541 0.17085196 -0.22663903
-0.05702757 -0.028624276 0.0028539395 0.14934042 0.08338171 0.034606166 0.031828593 -0.09277939
0.13514459 0.002617583 -0.0022779633 0.124922305 -0.10251715 -0.21892868 0.21815848 -0.106619395
-0.29613456 0.056550413 0.06393799 -0.087808944 -0.013713089 0.25325736 0.1265657 0.032356348
-0.047798548 0.19536243 -0.018768258 -0.195306 -0.050196745 -0.032932688 -0.07266942 -0.016473012
-0.12109004 -0.055445433 0.17309763 0.0364728 -0.1464514 -0.047719475 0.01624606 -0.11238392
-0.10709554 -0.109753564 -0.2136979 -0.12515649 0.015990831 0.19311412 -0.11004305 -0.118718915
0.12723495 -0.039073505 0.01076782 0.014892207 0.15597075 0.14987862 0.080192 0.13424331
-0.17558274 -0.099142954 0.03540848 -0.17649828 -0.056768782 -0.14296812 0.07240042 0.107406616
00000000: fb1f 9b3d 6802 283e 66ef 78bc 8804 45be
00000010: e1a6 3e3e f700 41be aa42 86bd ed24 02be
00000020: f8ca 783d 22f8 5ebe 9b69 683d 0188 dbbd
00000030: d16d 1fbe 6e85 3cbe 566e 9f3d ac2c 2f3e
00000040: fee2 9a3d 6c65 c63c 5f88 e03d 053a 26bc
00000050: 7724 fabd 6e20 123e 8470 80be b4fc 24be
00000060: 9094 4cbe 4962 f0bc 8f8d 333e cbdf 0e3e
00000070: eb9c a23d 19d7 13be 5b1b 39be d537 37be
00000080: a066 313d df50 b53d eadd 243e ca5a 02be
00000090: f5d4 5ebd a269 f6bc 8432 61be 332e 14be
000000a0: ae98 9e3d b5ae 4ebc 413d d83d a854 9fbd
000000b0: 2d31 30be 679c 0f3d d086 04bd 5b4d 383e
000000c0: 8acf 17be e455 f03d c1ea c539 c43d fcbd
000000d0: 4110 073e e2c4 95bc 67d8 0d3e dd9b 3b3e
000000e0: b7b0 bdbd 0fbe 293e 8ea5 49be e36a 073e
000000f0: 7869 cfbc ea42 313e d31b 963d 6778 40be
00000100: 77d8 a2bc 6840 4a3d b3e3 ea3b 0c17 53bd
00000110: db32 b9bb 508f 2d3e f833 3f3e 732d b93c
00000120: cdf7 44be acc7 053d f1d0 253e a6a1 773d
00000130: 4283 ab3d f790 08bd 7c3b a83d fe7b c73d
00000140: 67c3 0c3e 9cd8 783d 3f36 583e d675 34be
00000150: 35dd 39be 423c 043e a847 db3d 75b5 07be
00000160: 6555 85bd b2b1 4a3d feef 9b3c c109 23bd
00000170: 5bc1 91bd 00ca 17be e825 bc3d bfc0 46bc
00000180: 8645 233e e1e8 2dbe a96d c43d e1a1 e2bc
00000190: 9231 1d3e 3ef0 63bd 741b 9dbd 8bb7 a3bd
000001a0: f184 6dbe 8f24 ef3d 928c cd3d bdc8 3ebe
000001b0: 165a dbbc b0c8 b03a c4e3 96bd 6afa 44bd
000001c0: f433 8d3e 5dcd 8b3d 1574 c9bd 2458 8abc
000001d0: 7a1f 893d 319b 5d3e 5a5d 26be 9d0c 73bd
000001e0: f1ab 1fbd e0ae 48be 3330 f53d c6fc 24bb
000001f0: beba 25be 282d 3f3e 97d3 cabd b35e 65bc
00000200: 0ce2 c4bd 9d29 853c ba2e 1b3e b09b 5abe
00000210: b27f 413c 8f19 af3d a19e 84bc 2aba fbbd
00000220: 0426 cbbd 1a18 a7bd f760 8a3d 170a 683e
00000230: b998 2f3e 0ac6 2f3c f5ac 713d 49fb 173e
00000240: cc87 003e e5fe 7bbd b606 80be 3a26 b13d
00000250: c87c e8bb bd6f 26be 64e6 fbbd cd50 4d3e
00000260: 4aba 6a3d e660 283d e2c6 64be 2139 643e
00000270: b8f8 f13d 09d7 b2bd 7736 9abc 149b 393e
00000280: 886c febc d583 4cbe d43d a0bd eeed bc3d
00000290: 5f53 25be cc91 333e 42bf 363e 09f1 02bd
000002a0: c3ee 8e3e b4b9 ce3d 0490 283e a661 eebd
000002b0: 2be3 6abe 17d8 91bd 58f8 94bd 8d32 10be
000002c0: c50f 9dbe f47e 23be 30e7 bb3d 3b63 b23d
000002d0: 7200 b0bd 61b9 223e dfb7 cd3d dd7b 3abd
000002e0: e46d 063d 474f 0cbe eec6 fa3b 80ec 33be
000002f0: 2a1a 6a3d a1e4 48bc d1f3 2e3e 1014 68be
00000300: be95 69bd 757d eabc 2909 3b3b b2ec 183e
00000310: 08c4 aa3d 32bf 0d3d b35e 023d 1f03 bebd
00000320: 5863 0a3e c18b 2b3b e249 15bb 44d7 ff3d
00000330: 83f4 d1bd d72e 60be f064 5f3e 455b dabd
00000340: f39e 97be 68a1 673d ecf1 823d 2dd5 b3bd
00000350: ddac 60bc f3aa 813e 709a 013e 1788 043d
00000360: 69c8 43bd 170d 483e e4bf 99bc 4cfe 47be
00000370: 1a9b 4dbd 6de4 06bd b4d3 94bd 69f2 86bc
00000380: 0efe f7bd c01a 63bd 8140 313e 8164 153d
00000390: 5bf7 15be 7f75 43bd 7516 853c 8a29 e6bd
000003a0: e854 dbbd 7ac6 e0bd 9fd3 5abe 0629 00be
000003b0: 34ff 823c b5bf 453e 405e e1bd e722 f3bd
000003c0: e149 023e 8a0b 20bd 836b 303c 72fe 733c
000003d0: ccb6 1f3e c879 193e b43b a43d 1477 093e
000003e0: f6cb 33be 760b cbbd 7b08 113d f7bb 34be
000003f0: 6286 68bd 3c66 12be ac46 943d 00f8 db3d

mixture_net.mol_attn_layers.1.self_attn_layer.in_proj_bias f4 [96]
0.010780913 -0.0143487435 0.03537858 -0.010819038 0.04891098 -0.004671242 -0.048936475 -0.016684689
-0.07688374 -0.072150454 -0.05175305 -0.028753983 -0.0279847 0.003322937 -0.0047667613 -0.0014864202
-0.030560238 0.0051806644 0.019122055 -0.01230923 0.031162564 0.007465318 0.029137054 0.009344862
0.10572537 0.025517076 0.058343083 -0.06314137 0.046439767 -0.014945739 -0.016911697 0.023932928
-4.5119164e-06 2.2646813e-05 -4.7459343e-05 -3.937761e-05 3.1310352e-05 -1.5845773e-05 1.9261972e-05 -6.5632794e-06
3.94244e-05 -5.9535676e-05 8.4031286e-05 4.5747714e-05 2.7393844e-05 -2.3604583e-05 5.9481106e-05 -5.320685e-05
1.9472971e-05 2.4501993e-05 1.2703905e-05 -1.0582146e-05 3.350173e-06 -3.4638146e-05 -1.7211629e-05 -1.1026358e-05
3.5305059e-06 -4.2727593e-06 4.3295448e-05 1.3578319e-05 9.925344e-06 3.3338136e-05 -4.4852204e-06 -1.7845152e-05
0.012797659 0.0030479273 0.003873931 0.0009208248 -0.0025860032 0.010943878 -0.00920908 0.0006610649
-0.021119758 0.0023229062 -0.009204734 0.01695174 -0.0031096626 0.00581656 0.00858276 0.0032665362
-0.000580964 0.015299269 -0.00054469245 0.003800607 0.0032631005 0.012504369 -0.012112852 -0.0025595648
-0.012588464 -0.008518282 -0.00045393195 -0.0083131995 0.0036063173 -0.012901935 -0.0058782278 0.0077653066
00000000: 6da2 303c fe16 6bbc 21e9 103d 5642 31bc
00000010: e156 483d 3811 99bb 9d71 48bd 54ae 88bc
00000020: 3975 9dbd 9ec3 93bd 02fb 53bd 798d ebbc
00000030: 2b40 e5bc a2c5 593b 7e32 9cbb fcd3 c2ba
00000040: 7759 fabc 90c2 a93b dba5 9c3c a7ac 49bc
00000050: a248 ff3c a09f f43b d5b0 ee3c 311b 193c
00000060: 8b86 d83d 3009 d13c 28f9 6e3d 4350 81bd
00000070: a037 3e3d f9de 74bc 668a 8abc fd0e c43c
00000080: 1165 97b6 a9f9 bd37 150f 47b8 6329 25b8
00000090: 3c53 0338 8aec 84b7 c594 a137 243a dcb6
000000a0: a15b 2538 f2b5 79b8 f439 b038 3ce1 3f38
000000b0: d5cb e537 7502 c6b7 5a7b 7938 6c2a 5fb8
000000c0: e359 a337 a189 cd37 db22 5537 f989 31b7
000000d0: 89d3 6036 6d48 11b8 b161 90b7 d9fd 38b7
000000e0: a1ed 6c36 b95e 8fb6 2298 3538 70ce 6337
000000f0: 0785 2637 8dd4 0b38 c07f 96b6 2cb2 95b7
00000100: 46ad 513c bcbf 473b c7e1 7d3b 8263 713a
00000110: ef79 29bb f44d 333c aee1 16bc 514b 2d3a
00000120: 5803 adbc e63b 183b 74cf 16bc 60de 8a3c
00000130: 7bcb 4bbb d798 be3b b49e 0c3c 6213 563b
00000140: d64b 18ba c9a9 7a3c b1c9 0eba 9b13 793b
00000150: bed9 553b 20df 4c3c fc74 46bc 5fbe 27bb
00000160: d83f 4ebc 4490 0bbc b7fd edb9 1634 08bc
00000170: f757 6c3b a362 53bc 269e c0bb 1d74 fe3b
