scripts_chemix/chemix_weights_pearson/best_model_dict_8.pt (torch, 438266 bytes, 41 tensors)

input_net.weight f4 [64, 196]
00000000: 497a f93c ea62 7ebd 6d89 95bb 9e6e b7bd
00000010: a805 5e3b 7a06 3f3d 3ea1 52bd 3e46 ddb9
00000020: 574d 4fbd 664f 07bc 29f8 823d b00a 66bd
00000030: 6bbb 8b3d 0a76 92bc 1e42 633d 6af0 563d
00000040: 8c52 293c c713 403d 8d67 4c3c 4974 a93c
00000050: 39f7 8abd aa6a a83c c0b7 013d 312f 6fbd
00000060: 5d3a 84bd 1e7d a8bc 7cc4 7e3d 26f2 a93c
00000070: f930 8e3d 7c80 4b3d b4de a63d ce42 823d
00000080: 279c fe3c ad5b 65ba b3ce 97bc f7d9 d43c
00000090: 777a eebd 13c7 88bd c1c3 b83c 70b0 9b3b
000000a0: 79a1 11bd 110e e0bc 37a6 3d3d 8e9b 5cbd
000000b0: e0c0 1abd 4549 7e3d 5c16 28bd db65 6abd
000000c0: 5a10 78bd 32fb a6bd d20c 343c a9c4 5d3d
000000d0: 8537 46bd 1c62 05be ad81 e33d f424 d13b
000000e0: 4e60 a33d b054 ab3d 231e 94bc 9e01 393d
000000f0: 3a2e 773d 7e34 bcbc a2d8 34bd 395d 553d
00000100: ffb6 3dbd ee73 a9bc 0525 483c 5776 443c
00000110: 0ba8 dd3c b037 613d 2138 683d b442 b13c
00000120: 9e4e 8cbd 9343 463d 598b f0bc 4d9a e4bc
00000130: baa7 abbd 1c6f 65bd 231c 2b3c 1be6 6c3d
00000140: 1b10 593d b4e6 263d 0ab4 c9bc 8807 d6bc
00000150: 73c7 483d 95f6 84bd 45b3 863c d97c a13c
00000160: fa7a a63c c215 913d e53e 47bc 4c15 a1bd
00000170: c6c2 5d3c a8a4 c7bc 33ec 9c3d df27 333d
00000180: 5abf 37bd 261d 0f3d 73c2 d6bc c377 52bd
00000190: 091e 2e3c aaa3 e43c d807 1abd e0c5 ee3c
000001a0: 7924 edbb 6f25 863d 608d fe3b 78a8 5a3c
000001b0: 6475 f53d f8f9 fa3d 245a 84bd b438 aabc
000001c0: 90d1 ae3d 00a1 89bd aca0 0c3b beeb ec3d
000001d0: 0fd8 7f3d 2cff 70bd 94cb 5e3d e3b7 723c
000001e0: 5b7a 6d3d c2c0 bdbc d008 5c3d 758e 803d
000001f0: c978 0d3d 1b28 113c a683 103d eec1 b03c
00000200: dce2 373d 903d 7b3b 0fc3 083c 3da4 813d
00000210: e743 d0bc 020d 27bd dfc0 42ba f172 103d
00000220: 7b73 4ebd 78f3 0d3c e2de 32bd e5df 283d
00000230: cb93 253d 311e 15bd 8fbb 5fbb be83 a4bd
00000240: 2fe7 213d 9fdc ae3c d3f9 3dbd 15e0 fbbb
00000250: 004c 5ebd c978 953c 18c0 523d ef8b 5ebd
00000260: a9f6 113c 8bc2 13bd 3e09 793c aa73 983d
00000270: d176 723d ed0f a23d 47f3 c2bc 971e 49bd
00000280: 4370 8cbd 5d77 3abd 1326 11bc 83d3 b6bb
00000290: 37d9 81bc 1bf1 8a3b 34b5 6dbd 5edf 3b3d
000002a0: 20e5 1e3d 23c8 eabc c37f 543d ad03 64bd
000002b0: f341 94bd 8a28 6abd 1b48 95bd fac5 073c
000002c0: c750 96bb 11aa b8ba af1b 563c 7188 583c
000002d0: 2ce4 99bc a887 2cbd c667 fa3b 8435 0ebc
000002e0: 3db4 0d3d f52f 70bd 20fe 09be eb85 54bd
000002f0: c11e 90bc 6df0 a7bc 5820 183c ebfa a1bb
00000300: 6ed3 193b ef6e b83b 5955 98bd a7f6 1e3d
00000310: 8b11 6a3c 311c 193c 5f91 39bb 5022 86bd
00000320: 9be1 76bd a703 5b3c 5388 8c3d 9b49 b0bc
00000330: 8857 3bbd 71ea 0bbc 05cb 913d 143e 8a3d
00000340: 4105 933a f052 073d 2429 403d 2893 81bd
00000350: 3201 313c ecf0 2ebd 16da a53c 3a9c 4f3b
00000360: a35e 6e3d 33d5 5d3d 619f e8bc 2218 a4bd
00000370: a46b 8dbd f811 06bd 1bea 173d ecb3 a0bd
00000380: 06d9 afbc 49b6 8d3d ab5a 9c3d c53c 75bd
00000390: 93f8 61bc f86c dabc 87e4 c5bc eda4 303d
000003a0: 5a36 03bd 340c dbba 82f3 82bd ce3b 81bd
000003b0: 392b b1bc 9b45 823d 66f7 09bd 8fb0 e8bb
000003c0: 7b92 43bd 3d01 843d 305d e73c 920f bd3b
000003d0: 30f3 98bd f04e 9cbd b8d4 2abd dd4e 2bbd
000003e0: 01bf a03d 97ab 6cbd dc11 623d 0f69 15bc
000003f0: d59f 48bd abed dabc 9fac 793d e15d 763b
0.030453818 -0.06210605 -0.0045635016 -0.089566454 0.0033877883 0.046637036 -0.051423304 -0.0004220474
-0.050610866 -0.008258676 0.06394989 -0.056162536 0.068228565 -0.017878551 0.055482976 0.05247537
0.010334622 0.04689386 0.01247586 0.020685332 -0.06785435 0.020558674 0.03166938 -0.058394615
-0.064564444 -0.020567473 0.0621991 0.020745348 0.069429345 0.04968308 0.08147946 0.06360398
0.031080319 -0.00087493175 -0.018531179 0.02598284 -0.11644452 -0.066785954 0.02255428 0.0047512576
-0.035554383 -0.027350457 0.046301093 -0.053859286 -0.037781596 0.062081594 -0.04103695 -0.057226043
-0.06056247 -0.081533805 0.010989385 0.054142628 -0.04839279 -0.13025707 0.11108718 0.006382579
0.07977353 0.08365762 -0.018080777 0.045167558 0.06034682 -0.022974249 -0.04415191 0.052090857
-0.046317097 -0.020685162 0.012215857 0.011991105 0.027057668 0.05498475 0.056694154 0.021638252
-0.068509325 0.048404288 -0.029363321 -0.027905608 -0.08381601 -0.056014165 0.01044372 0.057836633
0.052993875 0.04074736 -0.024621982 -0.026126638 0.049018335 -0.06492344 0.016442904 0.019712852
0.020322312 0.07084228 -0.012160991 -0.0786539 0.013535207 -0.024370506 0.07662239 0.043739196
-0.04486022 0.034939907 -0.026215767 -0.051383745 0.010627278 0.027910072 -0.037605137 0.029147089
-0.007237014 0.06550109 0.007768318 0.01334583 0.11985281 0.12254709 -0.064625055 -0.020778991
0.085360646 -0.067201614 0.0021458073 0.11568402 0.06246191 -0.0588371 0.054393366 0.01481435
0.057978015 -0.023163203 0.05371934 0.062771715 0.034539018 0.00885966 0.0352818 0.021576848
0.044894084 0.0038336255 0.008347287 0.06330154 -0.025423003 -0.04078389 -0.0007429253 0.035265867
-0.0504031 0.0086640045 -0.04366959 0.041229147 0.04042415 -0.036405746 -0.0034138893 -0.0803294
0.039527114 0.021345435 -0.04638083 -0.007686625 -0.054271698 0.018246071 0.051452726 -0.05433267
0.008908906 -0.036074203 0.015199957 0.07443936 0.059195343 0.07913194 -0.023797644 -0.04910144
-0.0685735 -0.04552399 -0.008859175 -0.0055794134 -0.015850646 0.004240168 -0.058034137 0.045867316
0.03879273 -0.028659886 0.051879656 -0.055667568 -0.07239141 -0.057167567 -0.07289144 0.008286947
-0.004587266 -0.001408877 0.013068124 0.013216124 -0.018785559 -0.04212156 0.0076417653 -0.008679751
0.034595717 -0.058639485 -0.13475847 -0.051885527 -0.01759279 -0.020500386 0.009285055 -0.004943242
0.002347197 0.0056284587 -0.07438154 0.038809445 0.014286409 0.0093451 -0.0028315408 -0.06549513
-0.060273748 0.01336757 0.06861939 -0.021519473 -0.045737773 -0.008539782 0.07118801 0.06750122
0.0011216776 0.03303808 0.046914235 -0.06326896 0.010803508 -0.04271023 0.020245593 0.0031678812
0.05819572 0.0541584 -0.02839631 -0.080124155 -0.069052964 -0.03273198 0.037088495 -0.078468174
-0.02146579 0.06919534 0.07634481 -0.059872407 -0.013792175 -0.026663288 -0.024156822 0.043126035
-0.032034256 -0.0016712011 -0.06394102 -0.06310235 -0.021627055 0.063609324 -0.033683203 -0.0071011255
-0.047747117 0.06445549 0.028242677 0.0057696784 -0.07468259 -0.07632244 -0.04170677 -0.041823257
0.07848931 -0.05778083 0.055192813 -0.009119286 -0.048980553 -0.026724657 0.06095564 0.0037592577

input_net.bias f4 [64]
00000000: 5da0 0dbc ef3c 03bd cf41 933d 22b8 9bbc
00000010: d671 32bd d563 32bd de04 dbbc 9561 313d
00000020: 7d90 023d 50d5 7cbb 3efb 293d d66f 553d
00000030: da8a 81bc 7647 1f3d a795 40bd 9f59 3bbc
00000040: e52d 253d bdc3 0ebd 9386 72bd c395 4bbd
00000050: 9e0e c9bc 8f58 6a3d dedb 91bc a742 83bc
00000060: 078f c43c a048 91bb a71b 213d 0bd4 80bd
00000070: 60a4 2abd 44b0 a73c 87ad bbbb 488d a7bb
00000080: 23e6 823d 3ec0 1fbd 0871 313d 45ba 623c
00000090: 45dc c83b 7e5a 453d 3325 b03c d7de c03c
000000a0: 3f65 313c 0052 a0ba cb24 f8bc 96cb 65bb
000000b0: 4545 133d df5c 933b d77c 893d 4156 74bd
000000c0: 79b3 833d e5fa 27bd 9d89 16bd 459b e73c
000000d0: 9b84 12bc 7383 003d 59cc 02bd 90e5 243d
000000e0: 5dfb 9fbc 67e7 22bd ba51 1fbc 62f9 4e3d
000000f0: 71dc 98bc ca3b 1fbd 646a 2bbd bb12 003d
-0.008644191 -0.032040533 0.07190286 -0.0190087 -0.043565594 -0.04355224 -0.02673572 0.043305952
0.031876076 -0.0038579293 0.04149937 0.05210861 -0.01581328 0.03888651 -0.04701772 -0.011434942
0.04032697 -0.03485464 -0.05921037 -0.04970337 -0.024543103 0.057213362 -0.017805036 -0.016022993
0.023993982 -0.0044337064 0.039333012 -0.06290444 -0.041660666 0.020469792 -0.005727473 -0.0051132776
0.06391551 -0.039001696 0.043320686 0.013838355 0.006129774 0.048182003 0.021502113 0.023543758
0.010827362 -0.0012231469 -0.030290982 -0.0035063974 0.035954732 0.004497155 0.067132644 -0.05965257
0.06430716 -0.041010756 -0.036752332 0.02827228 -0.008942748 0.03137536 -0.031933162 0.04025799
-0.019529039 -0.039771464 -0.009724075 0.0505308 -0.018659802 -0.03887538 -0.04184951 0.031267863

mixture_net.mol_attn_layers.0.self_attn_layer.in_proj_weight f4 [192, 64]
00000000: fc5d 1e3c c9c4 df3d c11a d9bd 5090 573d
00000010: 71a8 c7bd c92d f2bd 1b4c 23be 7939 66bd
00000020: c07b 8f3d f681 f0bb a903 f13d 8a56 02bd
00000030: b554 8a3d 8590 8dbc d3b6 c3bd 2360 633e
00000040: 1b18 6bbd fe1e 5dbd 4353 fa3c 9d76 4d3c
00000050: d1cc b73d 572c 863d 8435 b2bd d87e 56bc
00000060: 760d 213e 3b7a b5bc 7beb e9bd 9d5f ea3d
00000070: 15d9 f43d da59 fdbd a1d5 04bc e215 7a3d
00000080: c43b e8bb 90de 9f3d 6ae0 eabb 8ef0 bebd
00000090: d4cd 243e b648 b83d f2de be3c f762 c5bd
000000a0: 0c7f 06be 73e8 723d 771a b8bd 47c6 d8bd
000000b0: 891b a7bc 8b20 c43d e86e 4a3e b443 2dbd
000000c0: 9fdc 6fbd e33a 5c3d a8c4 ee3d b73a 10be
000000d0: afec 3c3d ecba 083e 1308 86bc f9bc 893d
000000e0: db63 b13d 60ed 0e3c 3fad 00bd 23a6 b23d
000000f0: 9728 3e3e ca11 f63c 27cd a4bd 2d9b 213e
00000100: 1605 a93d cfa7 f63c 4ee2 143e fe5d 0fbd
00000110: 1bb8 2a3d c2c1 7cbd 78cc b7bd c3df 083e
00000120: ae64 073e 990a 0c3e c9a7 ddbd 479d ddba
00000130: f0f2 4b3e 64cd 943c 2baf cc3b 5b84 83bd
00000140: 5dad 163e 7a81 353e d8e7 76bd a101 27be
00000150: 1419 db3d fbc2 7d3d 9888 94bd 91fb 123e
00000160: 6269 e7bd cc07 75be 3790 19bb 53c1 a3bd
00000170: af48 ba3d 0d9f 9d3c 43fa ad3d ce43 babd
00000180: a3ea fabd 26c7 9d3d 6850 4b3e 7578 b6bd
00000190: af01 aabd 96a7 543d e52c 39bd 9690 563e
000001a0: 0966 363d 6b7b ecbd 6ad2 843b aecd 44be
000001b0: 1d08 40bd dbc3 e4bc f3fc 1e3e 3701 5e3d
000001c0: bf88 e1bd fc55 2c3d 0e52 be3b 6e5b a5bd
000001d0: c79b 583d 2e1c 3bbd 5472 07bd c598 94bc
000001e0: 8b5d e5bd ee63 1abe f734 9bbd 8e81 96bc
000001f0: 35f8 09be ab87 17bd 617d 5cbd 095a d73d
00000200: b90b 903d eb16 723d 0f1d 1c3d 1e8a 06bb
00000210: d3eb 2cbe 602f 23bd c908 273d 42f7 203e
00000220: 1db7 f839 5260 163d 1fd8 16be adee 0cbe
00000230: 6cef ff3d 4381 77bd 5768 d73d b9c4 d63c
00000240: 3848 653d 3307 b23d 3dce 153e 298c 15be
00000250: 6e57 1fbd a18c 4d3d c832 ab3c 57a9 3d3d
00000260: d6b5 e43d 653c 43be 4358 883c a0cc 0a3e
00000270: bdaf fdbd 127e cfbc 4571 083e ab84 45bc
00000280: d75f 56bd a273 6c3c d513 143d 00c8 d7bd
00000290: b3b7 b43d dd45 14be 8a81 c0bb 41b8 673e
000002a0: 6586 8dbd 829b 533b 2a05 ed3c 2df1 c2bd
000002b0: 3c1b 193e facf 90bc 5fb4 fa3c 71b2 cf3d
000002c0: ebf1 d4bd d663 c6bd 34df 113e 3ee1 e53c
000002d0: 395b 28be 8f34 883c 0240 e6bc 7f8d 333c
000002e0: 85af 113e 8447 353e fb5c 48bd 105f 0c3e
000002f0: c853 37bd fa87 9e3d e9b0 16be 36c1 95bd
00000300: c16b 163e 0ea2 a8bd 8a17 89bd 2c78 fc3c
00000310: 2572 2f3c 41d2 fc3c 2c66 423d ef53 4f3d
00000320: a857 0fbd b65f 7f3d 1f2a dc3d 69f2 d2bc
00000330: 92fb 9d3d d2aa febd c0c5 e23c 20de b1bb
00000340: 9d6a f0bd 3480 903d c24d 153c e147 b13d
00000350: 35c0 29bd 2865 fdbd 5a34 a33d 0a34 0fbd
00000360: 2606 9dbc c2e4 97bc c182 fa3d e5b1 2c3e
00000370: ddeb 78bd 9a4c a13d 7c11 e2bd 6afb aebd
00000380: 3471 373d 8f9f 03bd a698 64bd 3fad 46be
00000390: a70f 41bd 5b2f 92bd ba90 94bd 0c06 0c3e
000003a0: 70bf 413d 61cc c03d 107a 3b3d 640b 2dbd
000003b0: bc91 ed3d 3d1a b2bc 0039 33be aa78 b1bd
000003c0: d7fe 34be d257 0c3e 5882 93bd 3b08 f7bd
000003d0: 469a 92bc b8de c43d cfe1 13be 0cef 323d
000003e0: a9b9 37bd f3e6 0bbc 52f0 393d 71cd a83c
000003f0: c2d2 00be 741c 833d 9a30 99bd 043e 15be
0.009665962 0.10926206 -0.10600806 0.05262786 -0.097489245 -0.11825139 -0.15947 -0.056207154
0.07006025 -0.0073397113 0.11768276 -0.03182081 0.06754438 -0.017280826 -0.09556355 0.22204642
-0.057396036 -0.053984635 0.03055728 0.012540487 0.089746125 0.06551426 -0.087016135 -0.013091765
0.15727791 -0.02215301 -0.114218675 0.11444018 0.119554676 -0.123706535 -0.008107574 0.061056025
-0.0070872027 0.07806122 -0.0071678655 -0.09323226 0.16094142 0.089982435 0.023299668 -0.09638017
-0.13134402 0.059303712 -0.08989423 -0.105846934 -0.020398872 0.095765196 0.1976887 -0.042300895
-0.05856001 0.053767096 0.11658603 -0.14084898 0.046124157 0.13352555 -0.016361272 0.06725497
0.08661624 0.008723587 -0.03141522 0.08723094 0.18570171 0.03003778 -0.08046942 0.15781851
0.08252923 0.030109314 0.14539453 -0.035001747 0.041679483 -0.06170822 -0.08974546 0.13366608
0.13222 0.13675918 -0.10823018 -0.0016907834 0.19916892 0.018164344 0.0062464676 -0.06421729
0.1471457 0.17725173 -0.060279697 -0.16309215 0.10698143 0.061953526 -0.07252616 0.14353777
-0.11299397 -0.23928756 -0.0023431906 -0.07995858 0.090958945 0.01924088 0.08494999 -0.09094964
-0.12251785 0.07704 0.19854891 -0.08909694 -0.08301102 0.051917635 -0.04520883 0.20953593
0.044530902 -0.115469776 0.0040534036 -0.19219086 -0.046882737 -0.027925422 0.1552618 0.054200377
-0.1101241 0.04207419 0.0058081215 -0.080740795 0.052882936 -0.04568117 -0.033068016 -0.018139252
-0.111994825 -0.15077183 -0.075784616 -0.018372323 -0.1347359 -0.036994617 -0.05383051 0.1051522
0.07033486 0.059103888 0.03811365 -0.0020529102 -0.16886835 -0.039840102 0.040779863 0.15719321
0.00047438676 0.036712952 -0.14730881 -0.13762923 0.12496838 -0.060426008 0.10517948 0.026216852
0.055977076 0.086927794 0.14629455 -0.14604248 -0.03890174 0.050182942 0.020898238 0.046304073
0.11167495 -0.19066007 0.016643649 0.1355462 -0.12387035 -0.02532867 0.13324459 -0.012055556
-0.052337494 0.014431866 0.036151726 -0.10536194 0.088241 -0.14479776 -0.0058748173 0.22628881
-0.06910399 0.0032288735 0.028933126 -0.09518657 0.14951795 -0.017677296 0.030603586 0.10141457
-0.10397705 -0.09687011 0.14245301 0.028061505 -0.16441049 0.016626624 -0.028106693 0.010959028
0.14227112 0.17703062 -0.048916798 0.13708138 -0.044757634 0.07740779 -0.14715923 -0.07312243
0.14689542 -0.082340345 -0.06693943 0.030819021 0.0107083665 0.030861976 0.04746072 0.050617155
-0.034995705 0.062347136 0.107502215 -0.025750356 0.07713999 -0.12434925 0.027682185 -0.0054280907
-0.11739085 0.07055703 0.009112777 0.08656288 -0.04144307 -0.1237281 0.0796897 -0.034961738
-0.01916797 -0.018541697 0.122319706 0.16864736 -0.06077181 0.07875939 -0.11038491 -0.08544047
0.044785693 -0.03213459 -0.05580964 -0.19402026 -0.047134068 -0.071379386 -0.07254167 0.13674182
0.04730171 0.09413982 0.045770705 -0.04224719 0.11600062 -0.021741027 -0.17502213 -0.08665593
-0.17675339 0.13705376 -0.072025955 -0.12062117 -0.017895829 0.09612793 -0.14441608 0.043685004
-0.044854794 -0.008538949 0.045395203 0.020605775 -0.12580398 0.064019114 -0.07479973 -0.14574438

mixture_net.mol_attn_layers.0.self_attn_layer.in_proj_bias f4 [192]
00000000: 8721 d43c cea7 803b 4ddc 6a3c 39e6 7abc
00000010: f0b6 6e3c cc81 9b3d cd55 4c3c decd 0e3a
00000020: e5f1 05bd 144e 853c 703a 4b3c 8cfa 94bd
00000030: 162b 3d3d 8c0c ddbc ccaf 763d d7ff e33c
00000040: f248 3c3d ce2d 263c 375d d8bc b27d bb3c
00000050: c07f f7bc fba6 97bb ea5a 3a3a f1d7 373c
00000060: 59f3 833c e637 0a3c cfdd c6bc 30ed b53c
00000070: 065e 333c 4628 67bc 2c00 063d 5556 b23c
00000080: 8320 763b f6ac 6cb9 6ca7 113b 5bcd 2d3c
00000090: 782e fabb 4308 2cba 92b4 213b cbbf 5e3c
000000a0: e7b5 71bc c511 cdbc 71a4 18bd ea9a 5a3c
000000b0: 9fb7 09bb 87b8 87bc 03bb 533c a95f 193c
000000c0: 07c3 86bc b243 d0bb e05b 53bc e0b6 1f3d
000000d0: 7d48 66bc 763a 083b 3cc5 df3b 791e d4bb
000000e0: ca19 cdbd f179 573c d635 cabc 2a69 b53c
000000f0: fbd0 2abd 5857 a03c 1dd9 5cbd 7543 09bc
00000100: 387c de36 fba7 f736 cc4b 3238 6792 0d36
00000110: d25d 96b7 783f 8638 09d5 4237 2221 f637
00000120: dce7 16b8 37b3 a436 e749 36b7 79fa 88b8
00000130: 96ab 8238 0273 53b8 6966 9138 6325 2038
00000140: 3dd8 3cb8 dbb2 c736 ec28 7438 2d46 d536
00000150: 2474 8638 8799 08b6 c99b ae37 dfdf 1eb8
00000160: ba1a b035 83fa a5b6 6619 de37 10fa 18b8
00000170: cd9b 80b7 d5d3 0fb3 2ec1 82b7 520b 19b8
00000180: 89cf 25b7 5373 9235 4d94 d136 cb22 1cb6
00000190: fa95 6db6 2b7a f035 8b8e d7b6 399d 4837
000001a0: d544 26b7 8312 dab6 c199 e6b6 c8a4 4937
000001b0: 9307 3e36 ea5e 91b6 e877 9737 538c ca36
000001c0: a4e2 4937 c6ed 3bb7 dac3 c137 9a3b e1b7
000001d0: 1841 81b5 7fd1 0038 87d9 2d37 cfe2 9c36
000001e0: 94bc edb6 4484 2536 0621 e737 0008 80b7
000001f0: 7e9e 0db6 c82f c237 a5cc 13b7 f1da 24b7
00000200: baa7 7d3a a01b 7a3b ccde 65bc b24b 98b9
00000210: e107 c03b 0887 b1b8 5c87 e33b bba8 00bc
00000220: 7f7e d73b 0cfe ab3b f6de 38bc ccb6 7dbc
00000230: 77f2 0abc a115 fd3b f9b0 973b 0ac1 e0ba
00000240: 2494 4abb a46c e2ba 48e0 afbb e05d 283c
00000250: d257 143c 49c6 eabb eb67 2bbc 9673 213b
00000260: 9efb 7c3b 123d 20bc 7f2f 473b 34b0 fdbb
00000270: 888f f2bb 2a36 8a3b 0b86 383c 0011 8039
00000280: 1ad2 333c 716a cd3b 4d7a d4bb 17b4 813c
00000290: d4ff 663b 1bb1 863b 17a8 2dba 275e 263b
000002a0: 0a9a c5bb 7c94 d6bb 72dc d5bb 9cbd f5bb
000002b0: 6cad 2bbc 368c 6b3b 5b2c fbba aa61 15bb
000002c0: d0a6 003a 261a 62bc 0aa6 cfbb 03e7 bc3b
000002d0: 65fa 053b 94ad 95bb 3eac 613b 926b e43a
000002e0: 191b 48bb 896c 243b 214d 86bc 3283 59bb
000002f0: 3947 1b3b 3737 35bc 4b99 983b 528c 133c
0.025894893 0.003926254 0.01433475 -0.015313678 0.014569983 0.07593116 0.012471628 0.0005447547
-0.03270139 0.016272582 0.012404069 -0.072743505 0.046183668 -0.026983522 0.060226247 0.027831955
0.045968004 0.010142757 -0.026411636 0.022887085 -0.030212283 -0.00462806 0.0007108884 0.011220918
0.016107248 0.008436179 -0.024275688 0.022207826 0.01094771 -0.014108723 0.032715008 0.021769682
0.0037556 -0.00022571147 0.0022225035 0.010608043 -0.007634934 -0.00065625104 0.0024674279 0.013595532
-0.014752842 -0.025032887 -0.0372662 0.013342598 -0.0021013988 -0.016567482 0.012923005 0.009361186
-0.016450418 -0.006355726 -0.012900323 0.038992763 -0.0140553685 0.0020786799 0.006828932 -0.006473359
-0.100146845 0.013151632 -0.024683874 0.022144873 -0.041703206 0.019572899 -0.053917993 -0.008377899
6.6305765e-06 7.380729e-06 4.25091e-05 2.1095855e-06 -1.7925082e-05 6.40144e-05 1.1612902e-05 2.9340914e-05
-3.5978723e-05 4.908444e-06 -1.0865252e-05 -6.5316395e-05 6.2308434e-05 -5.041343e-05 6.933214e-05 3.818179e-05
-4.502408e-05 5.9514837e-06 5.8212245e-05 6.356064e-06 6.411251e-05 -2.0354944e-06 2.081496e-05 -3.787863e-05
1.31208e-06 -4.9465466e-06 2.647629e-05 -3.6472513e-05 -1.533134e-05 -3.3487442e-08 -1.5587164e-05 -3.6488585e-05
-9.883087e-06 1.0911411e-06 6.24595e-06 -2.3266064e-06 -3.540305e-06 1.7916949e-06 -6.4240935e-06 1.1957535e-05
-9.910397e-06 -6.4990613e-06 -6.8724335e-06 1.20189e-05 2.8316615e-06 -4.332386e-06 1.8056438e-05 6.036405e-06
1.20333025e-05 -1.12014295e-05 2.3098593e-05 -2.6849844e-05 -9.630194e-07 3.0712687e-05 1.0362251e-05 4.6755663e-06
-7.085104e-06 2.4663905e-06 2.7552724e-05 -1.5262514e-05 -2.1102892e-06 2.3148852e-05 -8.80953e-06 -9.826138e-06
0.0009676177 0.0038163438 -0.01403017 -0.00029048097 0.0058603142 -8.465169e-05 0.0069436263 -0.0078527285
0.006576359 0.0052487906 -0.011283627 -0.015485477 -0.00848066 0.0077235256 0.004629251 -0.0017147374
-0.0030911053 -0.0017274809 -0.0053673126 0.010276288 0.009054141 -0.0071647507 -0.010461788 0.0024635545
0.0038602124 -0.009780185 0.00303933 -0.0077419523 -0.007402364 0.0042178826 0.011262427 0.00024426728
0.010975385 0.0062687923 -0.006484306 0.015832944 0.00352477 0.004110468 -0.00066244736 0.002538571
-0.006030326 -0.0065484624 -0.0065265233 -0.00749941 -0.010478359 0.0035941727 -0.0019162999 -0.0022793808
0.00049076695 -0.01380018 -0.006336932 0.0057648434 0.0020443436 -0.0045678113 0.003443494 0.0017427078
-0.003053373 0.0025089106 -0.0163942 -0.003318977 0.0023693575 -0.0110605275 0.004656946 0.009005623

mixture_net.mol_attn_layers.0.self_attn_layer.out_proj.weight f4 [64, 64]
00000000: fd1c 03bd 97f8 8abd 310b b63c a5c2 4e3d
00000010: 2092 eb3c 06d8 103a 90ca cbbd 1eb8 453d
00000020: ab24 aabd a36f 9abc 0251 a3bd 4285 dcbd
00000030: 5000 733d 1901 4abd 0e9b b1bc 43fb 56bc
00000040: 988d 86bd a7e5 b1bd 31b7 ef3c 8313 223c
00000050: ca6f 133d b6bc 8e3d a18d 96bd b57e b03d
00000060: 9737 63bd a92a 93bd 1b5b 1abd c0c9 c73d
00000070: 691d bcbd 91bc d7bd bdfb 60bd 1ea8 7abd
00000080: aafa 913c 0be3 82bc b383 dd3d 2818 693d
00000090: 8c10 dbbd 85b5 1cbb 3745 8d3d 1e59 79bd
000000a0: b81a c6bd a381 8dbd 63b0 bcbd f362 afbd
000000b0: 858c 843b e00d 00bd e0aa b93d 6c13 09bd
000000c0: a796 5e3d e6e1 74bc 49dd 19bd 0dba 3fbc
000000d0: 7c03 97bc a1bb c2bd 8966 85bd 4327 e3bd
000000e0: aa3f ed3d d79b 343b 14a7 d73c 383d 993d
000000f0: 0626 273d 5d20 9bbd 9741 cfbd ad20 72bd
00000100: 3fb6 d6bd b672 0f3c 1637 fcbc 2e21 cdbc
00000110: 8b67 303e 5c19 33bd 6417 673a 20d3 d9bd
00000120: d5f8 9a3d 2c47 af3b 9cdd c23d 1da9 f93c
00000130: b19e 273d 2de8 7fbd 55ce 9a3d c5bc 4d3c
00000140: 8dd8 bc3d dd18 403d 1934 9fbb 1d47 843d
00000150: b671 413d 0caf 9bbc bdfe 573d 3a2e c0bc
00000160: 6942 c8bd ffd7 3f3d dec5 8a3d 1d9c 8cbd
00000170: 8495 9cbd 5d77 153e c632 443c c9fe 5e3d
00000180: 247f 5fbb 4bd3 8abc d9c0 91bc 952d 1b3d
00000190: 8e54 953d 1210 4d3d ac60 4ebd 8d7f 93bd
000001a0: ab1b 5a3d 8e8d 8bbd 715b 3b3d fb28 d3bd
000001b0: 92bf 923c 0b69 a83d da74 24bc e36f 09be
000001c0: 9247 fbbd d40f e5bd b788 afbd a003 ecbd
000001d0: 6826 cfbc 05ab c53d ea10 98bd 377d 813d
000001e0: 0202 82bd 046d 623d 4dcb 50bd b2e5 9b3d
000001f0: 1314 d7bb 6014 1fbe ca3a ea3d 6578 a13d
00000200: 6789 c83d f146 acbc 73dc 3ebd 075d 5b3d
00000210: 12a7 a7bd e119 013e 396c 2b3d 29a6 8e3d
00000220: 2f19 353d eb6e 0b3d be2f 933c 537c c73d
00000230: db4a 003d 52be 623d f268 d93c dce6 773c
00000240: 835a d93d dfff 103b 4581 5e3d 621d dabc
00000250: 2282 ac3b a406 7dbd 8c20 14bd f1b9 d23d
00000260: 8e51 a6bd 5f08 1bbd c891 e03d 92be c4bd
00000270: 4183 9abd 397c 8ebd 1c7d f83c b308 d13d
00000280: 8bdf 95bd 8290 f43c a035 b93d f033 1e3d
00000290: 033a 4f3c 2da2 5b3d 6be5 4c3d 3938 773d
000002a0: d0fb 513d 869b 96bd 108d c13d 5791 91bd
000002b0: fad2 64bc 530d d6bd 4db2 bebc 3c15 c63d
000002c0: 5835 a9bd ee19 f2bd 9838 853d 4f58 973c
000002d0: 3f24 423d bbdc 8d3b 83f9 8ebc 83bf af3d
000002e0: a816 f6bc 63d2 9c3c 2e03 633d c7f6 8dbd
000002f0: 4200 8cbd 5060 4b3d 5824 6bbd f049 b53d
00000300: 6433 ed3d e1ea 82bd 9529 853d cf64 9c3d
00000310: 3be6 e73c 7e30 cdbc c2f8 333d dd4e 543d
00000320: 01d8 c53d 3c5c 6f3d 372a 443d 4cab d2bd
00000330: ddff 45bd 6479 6fbd 564d 03be 4075 a83c
00000340: 368a c6bc 0b91 57bb 2c73 873d de50 74bd
00000350: f92b f93d af6e 86bc 191d d43d 771e 023e
00000360: c4b5 74bd 1f15 58bd 2448 87bc b244 a13c
00000370: ce3b d6bc 35b2 ed3c 1908 afbd 16e3 c2bc
00000380: c860 bebd eeb2 cd3d b68e 6abd 4607 88bd
00000390: fe9a ba3d 69e8 203d 0d8d c63d 03b9 f43c
000003a0: dbd2 cf3c ba12 49bd 24ef 923d d60f 103c
000003b0: d0b5 6b3c 7862 c3bd 8f75 8fbd e5b3 823c
000003c0: 1d60 113d 3327 aabd d8e1 333c e2f0 d8bd
000003d0: b8d0 22be 0bfc c6bd f981 92bb 5a26 8fbd
000003e0: 6ce5 18be 1e84 d2bc bedc dc3d 063c 6c3d
000003f0: fedc 57bd b305 88bc 929a 66bd 260d ab3d
-0.032010067 -0.06785696 0.022222133 0.050478596 0.028756201 0.0005525354 -0.09950745 0.04827129
-0.08307775 -0.01885206 -0.079744354 -0.107676044 0.05932647 -0.049317453 -0.021680381 -0.013121429
-0.065699756 -0.08686381 0.029262157 0.009892347 0.035995282 0.069695875 -0.07351232 0.086179174
-0.055472936 -0.07185871 -0.03768454 0.09755278 -0.09185297 -0.10534013 -0.054927576 -0.061195485
0.017819721 -0.015977403 0.10816135 0.056907803 -0.106965154 -0.0023911905 0.06897967 -0.060876004
-0.09673065 -0.06909492 -0.092133306 -0.08563795 0.0040450715 -0.031263232 0.09065795 -0.033465788
0.054342892 -0.0149464365 -0.03756455 -0.011702073 -0.018434279 -0.095084436 -0.06513698 -0.11091473
0.115844086 0.0027558708 0.026324786 0.0748238 0.040807746 -0.07574532 -0.10119932 -0.059113193
-0.104839794 0.008755377 -0.030787986 -0.025040235 0.17226999 -0.043725356 0.0008815436 -0.10635972
0.07566992 0.0053490605 0.09514925 0.030476147 0.040922824 -0.06247728 0.07558886 0.012557213
0.09220991 0.04689871 -0.0048585054 0.06458876 0.047227584 -0.019004367 0.05273317 -0.023459543
-0.09778292 0.04683685 0.067760214 -0.06865714 -0.07645705 0.14596315 0.011974996 0.0544422
-0.0034102881 -0.016946455 -0.017792152 0.037885267 0.07291518 0.050064154 -0.050385162 -0.07202063
0.053249042 -0.06814109 0.045741502 -0.10310551 0.017913613 0.0822316 -0.010037625 -0.13421588
-0.1226951 -0.111846596 -0.08570998 -0.11524129 -0.025286868 0.0965176 -0.07425101 0.06322711
-0.06348039 0.055279747 -0.050975133 0.0761217 -0.0065636723 -0.15535116 0.114369944 0.078842916
0.097918324 -0.021029921 -0.046596956 0.053555515 -0.08186163 0.12607528 0.041851256 0.06965286
0.04421347 0.034041326 0.017967101 0.0974051 0.031321388 0.055357285 0.0265393 0.015130725
0.10612967 0.0022125167 0.0543225 -0.026625339 0.0052645365 -0.06177391 -0.03616385 0.10289372
-0.08121024 -0.03784978 0.109653056 -0.09606661 -0.07544566 -0.06957287 0.030333094 0.10206737
-0.07318028 0.029854063 0.09043431 0.03862375 0.012648108 0.05362146 0.050023478 0.060356352
0.051265538 -0.073538825 0.09450734 -0.071077995 -0.013966316 -0.1045176 -0.02327838 0.09672019
-0.08262128 -0.11821352 0.06504935 0.018474726 0.04739785 0.0043292916 -0.01745296 0.0858145
-0.0300401 0.019143289 0.055422954 -0.06931835 -0.06835987 0.049652398 -0.057407707 0.08851993
0.115820676 -0.06392456 0.06502072 0.07636415 0.028308025 -0.025047537 0.043938406 0.051833022
0.0966034 0.05843757 0.04789182 -0.102865785 -0.048339713 -0.058465376 -0.1282247 0.020563722
-0.024235826 -0.0032892849 0.06613764 -0.059647433 0.1216659 -0.0164102 0.103571124 0.12706934
-0.059743658 -0.052754518 -0.016513892 0.019686077 -0.026151564 0.02901564 -0.085464664 -0.023789924
-0.09295803 0.10043894 -0.057265006 -0.06642012 0.09111594 0.039284144 0.09694872 0.029873377
0.025369098 -0.049090125 0.07174519 0.008792838 0.014386609 -0.09540266 -0.070048444 0.015954921
0.03549205 -0.08308258 0.010979138 -0.1059282 -0.15899932 -0.09716042 -0.0044710604 -0.06989737
-0.14931267 -0.025697764 0.10784291 0.05767443 -0.05270099 -0.01660428 -0.056299753 0.08352117

mixture_net.mol_attn_layers.0.self_attn_layer.out_proj.bias f4 [64]
00000000: d279 793b 4657 113c 8aef 553c c32c f9ba
00000010: 93aa adbb e187 f9bb 221d 17bb 9d65 c1b9
00000020: a65b 683b e942 643c da31 de3b 622e c8bb
00000030: 90a7 17bc 8d65 0cbb 62c4 ecbb d0a3 cfba
00000040: 636c 6ebc 36a2 fc3b 8092 e6bb 49e4 56bb
00000050: 0bae fa39 c69e a13b bcdd 5f3b af84 95bb
00000060: 0b35 69bb b144 36bb af96 ccbb d33b 03bb
00000070: 591b b5bb 1f8c 07bc 98cd 05bb d8b0 f1bb
00000080: 947d 483b 4b81 0fbb 3eee 753b 5dd4 c2ba
00000090: 9c1f 663a 4c7b 01bc 2ebf 5fbb 1466 1cbb
000000a0: 0c90 c6ba 9c23 87bb 0fde 1fbc ce6c bb3a
000000b0: fdcb 1d3c b2d1 0339 defa 833c d3a0 963a
000000c0: 82c0 323a 51e7 89bc 93ac 1b3c 8e14 ae3b
000000d0: 63cd 643a eb4b 8a3b 210d 413b 73b8 2f3c
000000e0: 21be 2bbb 59dc 853b e71e 70bb dcf2 4739
000000f0: ab18 9eba d50b 2fba a856 073c 424c aa3a
0.0038066995 0.008870905 0.013057599 -0.0019010532 -0.005299875 -0.007615075 -0.0023058136 -0.00036887536
0.0035455017 0.013931968 0.006780845 -0.006109045 -0.009256259 -0.0021422834 -0.007225559 -0.0015841667
-0.014552209 0.0077097667 -0.007036507 -0.0032789877 0.00047813388 0.0049322573 0.0034159264 -0.0045629363
-0.0035584595 -0.002781194 -0.006243549 -0.0020024672 -0.0055269417 -0.008273154 -0.0020416733 -0.0073758177
0.0030592429 -0.0021897133 0.0037526037 -0.0014864315 0.0008778514 -0.007902931 -0.0034141052 -0.0023864554
-0.001514913 -0.004124118 -0.009757533 0.0014299394 0.009631154 0.00012571251 0.016110834 0.0011492021
0.0006818847 -0.016833933 0.009501594 0.005312509 0.0008728115 0.004220476 0.0029457288 0.010725128
-0.0026205855 0.0040851054 -0.0036639513 0.00019068591 -0.0012061795 -0.00066774833 0.008260407 0.0012992697

mixture_net.mol_attn_layers.0.addnorm1.norm.weight f4 [64]
00000000: 2b2c 833f e476 7f3f 543a 803f 8194 7f3f
00000010: ad2f 793f e9d8 813f eba8 7e3f e69c 7e3f
00000020: 3365 813f 18a5 823f 2f39 803f 3b72 803f
00000030: 50df 7e3f 1763 7f3f ab20 823f 82b4 7c3f
00000040: 502b 793f 7e18 803f 245a 833f 5dd3 783f
00000050: 7462 7d3f 08c7 7e3f 971e 783f 3f69 7d3f
00000060: 3beb 7d3f dad5 7f3f 2e72 803f 08de 7f3f
00000070: 6b3c 7f3f 5ccd 7e3f 5100 803f 63d5 7f3f
00000080: 5c4c 803f 85c7 7e3f c4fb 7e3f f209 7f3f
00000090: c0d1 7c3f 14fa 7e3f c2d1 813f 630b 823f
000000a0: 197a 793f f659 833f e63d 803f 001e 7e3f
000000b0: f4fa 7c3f 020d 803f 0619 7f3f 5ba9 833f
000000c0: 8037 823f f8be 7f3f 698e 803f 6d8b 803f
000000d0: 0baa 7c3f d57b 803f 464c 7d3f 9735 813f
000000e0: f68c 803f 015c 823f 0e63 813f 7495 7f3f
000000f0: 8d16 7f3f 8174 803f 5424 7f3f 8473 813f
1.0247854 0.9979079 1.00178 0.99835974 0.9733837 1.0144321 0.994765 0.9945816
1.0109009 1.0206633 1.0017451 1.003486 0.995595 0.99760574 1.016622 0.98712933
0.97331715 1.0007474 1.0261884 0.97197515 0.9897835 0.9952245 0.96921676 0.9898872
0.9918706 0.99935687 1.0034845 0.9994817 0.99701566 0.99532104 1.0000097 0.9993498
1.0023303 0.9952319 0.99602914 0.9962455 0.98757553 0.9960034 1.0142138 1.0159725
0.9745193 1.0261829 1.001889 0.99264526 0.98820424 1.000397 0.9964756 1.0286058
1.0173187 0.9990077 1.004346 1.0042549 0.98696965 1.003779 0.9894451 1.0094479
1.0043018 1.0184327 1.0108354 0.9983742 0.99643785 1.0035554 0.9966481 1.0113378

mixture_net.mol_attn_layers.0.addnorm1.norm.bias f4 [64]
00000000: 11b7 3339 4d1c cb3b d2e0 843b d03b e33b
00000010: 46ad 9d3b dd5f 33bb 30ab 10bb b918 1bbb
00000020: 289b fa3a 3eba 203c e77d 3a3a 08f9 0c3c
00000030: e9a5 0b3b 7e4b 993b b81f c0bb 662d 66bb
00000040: 5142 beba 2ef2 0f3c a63f 5bbc 80d3 18bb
00000050: 5d29 c53b dda3 203c 51b3 163a 8900 15bc
00000060: e7a7 f33a 2e50 deba c9d0 1fbc cba3 19bb
00000070: dd41 17bc 5ca2 d8bb 1c82 e3bb 0ccd 8fba
00000080: a454 1bbb 2617 e339 61af 8a3a 8423 50b9
00000090: 251b 433b 90fd 9ab9 2b69 fd39 365b ccbb
000000a0: e322 b7ba 54c2 86bb 4522 4a3c 4542 a639
000000b0: 74f1 3e3c 9b9d 65bb d712 043b 571e 853b
000000c0: ab4f 8fbb decc c2bb 4f7e 2cbc dcf7 a1ba
000000d0: a446 dcb9 da5e ddb9 b31f 1eba 4b13 dc3b
000000e0: 34ae 473c 79d4 37bc b97a 893c 0e3d 76bb
000000f0: 7c49 023c 0f7b 8c39 0265 0b3c 2e0f 52bb
0.00017138968 0.006198442 0.004055121 0.0069346204 0.0048119156 -0.0027370371 -0.0022074692 -0.002366586
0.0019119726 0.009810029 0.0007114098 0.008604296 0.0021308607 0.004678189 -0.005863156 -0.0035122274
-0.0014515613 0.0087857675 -0.013381874 -0.0023319423 0.006016894 0.009804693 0.0005748766 -0.009094366
0.0018589468 -0.0016961151 -0.009754368 -0.0023443575 -0.009232012 -0.0066111516 -0.0069430005 -0.0010971143
-0.0023701573 0.0004331406 0.0010580831 -0.00019849656 0.0029770818 -0.00029562088 0.00048334277 -0.006236459
-0.0013972189 -0.004112521 0.012337272 0.00031711362 0.011654247 -0.0035036567 0.002015283 0.0040624547
-0.004373511 -0.005944832 -0.010528161 -0.0012357193 -0.000420143 -0.00042223075 -0.0006031945 0.006716167
0.012187529 -0.011220091 0.016782152 -0.0037573013 0.00795209 0.00026794567 0.008507969 -0.0032052505

mixture_net.mol_attn_layers.0.ffn.layers.0.weight f4 [64, 64]
00000000: 174a 323b 1829 3b3d 4c1c d23d 8214 4f3d
00000010: 4703 d43c 03f6 91bc 3599 133d fef8 9d3d
00000020: 9bb8 be3c b8a5 0abe c771 9dbd 9bb6 9fbd
00000030: a851 7a3d e391 fb3c 8c1c a7bd 5665 143a
00000040: 51c9 15bd d982 683c 7565 843d 56b9 913d
00000050: 6c26 75bd 99f7 373c ab42 5c3d 1d14 bcbd
00000060: 4e1b 873d ecc7 d53d 00e0 8a3c 12e3 3a3c
00000070: ae06 cf3c 9ff7 2a3b c375 ddbd 534a 2fbd
00000080: 1293 8fbd a5bc 14bd bae7 123e 0d24 873c
00000090: 6637 233d a736 af3d c38f f5bb ff04 4dbd
000000a0: 274d a6bd 6250 02be b1ac a9bb 82fd 3d3d
000000b0: f2fb b03c a737 963d 01a5 953b 02c3 3abc
000000c0: 9e8d 4a3d 697a 223d 52d3 053d 8b6e 8cbd
000000d0: 1ec9 bb3d ca3a a4bd 5325 833d 68eb 123d
000000e0: 321e c9bd b3f7 4fbd 3dba 80bd b2f9 d43d
000000f0: d66b 5ebd eade a7bd 0260 df3d 39b2 04bd
00000100: 4c34 3fbd f289 9c3a d6d1 503b 8d74 703d
00000110: dfb8 063c 7064 273e a518 2cbd a555 96bc
00000120: f8d2 ca3d a9c8 ad3d e3be 5d3d eb1c a73c
00000130: 0119 fcbd 639a ce3c 8443 333d 0dc9 4f3b
00000140: 3a1e 863c 7521 823d 4a00 873c 9276 d4bd
00000150: 2dcf ce3d 86f0 99bd 99da ffbd d0c0 cbbd
00000160: 52ab b0bc 8847 59bd af08 17bc 0d6b e33d
00000170: 2aff 0a3e a970 1b3d 6ebc 273d a5ea f43b
00000180: 0a56 92bd 6b9c e5bd 0190 a43c a4a4 c93d
00000190: 9a3d c93d 874f 00be 1f6b 773d 09d3 97bd
000001a0: 2d4b 763d 4518 8b3d 870e bb3d 5f80 81bd
000001b0: c64e 43bd 1aab 813d 3e2e 0fbe 1bb6 bbbd
000001c0: 4c00 e33d 70ce cabc 0fe3 b2bd 46c4 de3c
000001d0: e5ba 36bd ed2b c33d 9768 f03c dc78 2abd
000001e0: f6bd 46bb e217 5bbd 19e4 fdbd 8c5a 963d
000001f0: db17 523c 3fc0 8f3d 0f7f 503c ae26 a3bd
00000200: 6c42 a53d 6f58 85bc 440c 423d 7c3f b43d
00000210: e33c 3d3d 8f3d e0bd f6c9 ae3d d2f4 ff3d
00000220: a12f 83bd b8ed cfbc 9b3f 21bc 1a4c 393d
00000230: a8a0 55bb 1d73 b63d 3403 6bbd ea6b 0a3d
00000240: 264b a33c 8734 86bd 22b2 b8bc 6476 76bd
00000250: 4b60 0fbe 18f4 d93c da03 e9bd cd26 d53d
00000260: f145 17be 6b90 a0bd 96f0 9f3d a92c 0fbd
00000270: 89b4 79bd 2651 2e3c b84a fbbc b245 45bd
00000280: 9eb9 703d 1c08 113b 89c0 41bb 1120 c83b
00000290: 04a1 98bd 9333 8dbd 163d 82bd 1ee6 4f3d
000002a0: dabf 843d cb15 e03d eb60 edbd 793b 9abd
000002b0: d209 973d 06c2 c43d 6804 1abd b443 8e3d
000002c0: 46af 3cbd 6f54 933d d9d6 8b3d 7105 5abc
000002d0: 86d1 6bbd 1dfd a13d e7f7 6e3d 72f8 c7bc
000002e0: 52aa d9bd 79cc 1b3e 12cb a2bd e46d e2bc
000002f0: 3182 af3d 67ba acbd 9b17 0ebd 92ba 583d
00000300: 00db 5f3d f78f c9bd 65c8 f1bd c3c1 88bd
00000310: 7531 fdbd 23cc 493d 2da0 323c e4d2 683d
00000320: b716 71bd 34e8 7abd 21d5 053c 9681 c13d
00000330: 5b29 56bc b539 c3bd 6d79 c63d 1c7d f13d
00000340: 2638 e5b9 3100 b53d d71e a73c 8d55 b9bd
00000350: 2b5d 0fbe 49f6 f9bc 1154 9c3d dc22 87bd
00000360: c0a3 05be 30aa e2bc cb58 3a3d 706a 6abd
00000370: 5ed9 37bd 9540 323d f390 7f3d d140 5b3d
00000380: 8784 19bd b18d 61bd 8424 8cbd dad5 b6bd
00000390: fd8f f8bd 0e98 a63d 7fa0 1b3d 8b4a 1fbd
000003a0: b06f 7d3d 08e9 f5bc a919 993d a4d8 3bbd
000003b0: e2b7 8fbd 60bb 81bd a678 2a3d cee8 34bc
000003c0: 14ed a5bb 296b 323d 222b b13d 15ef 0abd
000003d0: 1190 ba3d e9c6 dd3d 2b34 923d 7448 9c3c
000003e0: 74a3 c7bc d454 c2bc c5f0 a13a 8154 723d
000003f0: df59 06bd 7e3e cabd 60ac f53d 8dfb 603d
0.0027204806 0.045693487 0.102593035 0.050556667 0.025880469 -0.017817503 0.03603478 0.07713507
0.023281386 -0.13539779 -0.07687717 -0.07798501 0.06111303 0.030709213 -0.08159742 0.0005660852
-0.036568943 0.014191353 0.06464664 0.07115428 -0.059851095 0.0112284655 0.053774517 -0.09183524
0.06597005 0.10438523 0.016952515 0.011406677 0.02527174 0.0026087535 -0.10813477 -0.04279549
-0.07010473 -0.036312718 0.14346209 0.016496683 0.039847754 0.08555346 -0.0074939444 -0.050053593
-0.081201844 -0.12725976 -0.005178057 0.046384342 0.021604512 0.073348336 0.004566789 -0.011399033
0.049451463 0.03966752 0.032672234 -0.06857022 0.091692194 -0.080190256 0.064036034 0.035869032
-0.098202124 -0.050773334 -0.06285522 0.10399188 -0.05430206 -0.08196814 0.10906984 -0.03239653
-0.046680734 0.0011942966 0.0031863353 0.0587049 0.008222788 0.16346908 -0.04201569 -0.018351385
0.0990352 0.084855385 0.054137122 0.020399531 -0.123094566 0.025220102 0.04376556 0.003170553
0.016371835 0.06354038 0.01647963 -0.10374178 0.100981094 -0.07516579 -0.12492866 -0.099488854
-0.021566067 -0.053046733 -0.009218379 0.11104403 0.135739 0.037949238 0.040951185 0.007474261
-0.07145317 -0.11211475 0.020088198 0.09845856 0.09826203 -0.12530337 0.060404893 -0.07413299
0.060130287 0.067917384 0.0913363 -0.06323313 -0.047682546 0.06331463 -0.13982484 -0.09165593
0.11084041 -0.02475664 -0.08734714 0.0271932 -0.04461183 0.095298626 0.029346747 -0.041619167
-0.0030325628 -0.053489573 -0.12397022 0.07341489 0.01282307 0.0701909 0.012725606 -0.07966362
0.080693096 -0.01627752 0.04737498 0.08801171 0.046200644 -0.10949241 0.08534615 0.12497868
-0.06405569 -0.025381908 -0.009841825 0.04523859 -0.003259698 0.08908675 -0.0573761 0.03379432
0.019933295 -0.065529875 -0.022545878 -0.0601715 -0.14001577 0.02660565 -0.11377688 0.10407791
-0.14772774 -0.078400455 0.0780956 -0.0349547 -0.060963187 0.0106394645 -0.030675277 -0.04816217
0.05877077 0.0022130078 -0.0029564223 0.0061073382 -0.07452586 -0.068946026 -0.063593075 0.050756566
0.06481905 0.10941657 -0.11590751 -0.07530875 0.0737492 0.096073195 -0.03760186 0.06946507
-0.04606559 0.07193839 0.06828088 -0.013306961 -0.057572864 0.07909606 0.058341887 -0.02441046
-0.10628189 0.15214719 -0.07948889 -0.02764029 0.08569754 -0.08433991 -0.03469048 0.052912302
0.054652214 -0.09841912 -0.118058 -0.06677582 -0.12362949 0.049266946 0.010902447 0.056841746
-0.058859553 -0.061256602 0.00816849 0.09448545 -0.013071383 -0.09532491 0.09691129 0.11791441
-0.00043720118 0.08837927 0.020400448 -0.09049521 -0.14000385 -0.030512946 0.07633222 -0.06598446
-0.13050747 -0.027669042 0.045494836 -0.057230413 -0.044885032 0.04351862 0.062394094 0.05352861
-0.037479904 -0.055066768 -0.06842902 -0.08927508 -0.121368386 0.08134471 0.037994858 -0.03888945
0.06187409 -0.030018345 0.074755974 -0.0458609 -0.07017495 -0.06334567 0.041618966 -0.011041833
-0.0050636623 0.043559227 0.08650805 -0.033919413 0.0910951 0.10828955 0.071388565 0.019077517
-0.024369933 -0.02372209 0.001235508 0.05916262 -0.03280055 -0.09875201 0.119957685 0.054927398

mixture_net.mol_attn_layers.0.ffn.layers.0.bias f4 [64]
00000000: e189 873d 87ff 91ba 43d6 0b3d c385 d43c
00000010: 7d75 b3bd 807c 8f3d a514 d93c 18fb a83c
00000020: a78c 163b edda 40bd f1c3 bfbc a825 35bc
00000030: 1c85 c83d a7fa 2d3d a744 233d 7eb2 8b3d
00000040: 96ab af3d c184 fb3c 3a62 0bbe 50cf fabd
00000050: cd15 eb3d c1e7 763d d6e5 a4bd a2b9 a2bd
00000060: b5f4 833d 15f8 6fbc 138b a4bd 8fc1 a63d
00000070: 7943 913d 58cc 3a3c 447c c43c 450a 953a
00000080: 365a 5ebd 2e17 8fbd 5e78 dabd e058 f6bb
00000090: 5b70 f2bc d00b c4bc d7c7 743d 4f15 673d
000000a0: c180 0d3d 6dd6 01be e00c eabd 3e7e ab3d
000000b0: 477f 4ebd 4f88 f2bd 281b 01be d2a8 b9bd
000000c0: 482c c13d 9f16 f53c 9895 b03d 8bdc cabc
000000d0: e9c6 8d3b b31e ca3d 9470 153c 7ef0 a9bd
000000e0: 751b e8bd a23b 543d ca61 673d 121b 56bd
000000f0: cf53 91bc 8b40 1d3d b9d7 eb3d e504 2cbd
0.06618095 -0.0011138775 0.034139883 0.025942689 -0.087626435 0.07006168 0.026499102 0.020627543
0.002297202 -0.047083784 -0.023408862 -0.011056341 0.097910136 0.04247537 0.039860394 0.06821154
0.08577649 0.03070295 -0.13611689 -0.12246573 0.114787675 0.06027961 -0.0805165 -0.07945563
0.064431585 -0.01464655 -0.08034339 0.08142387 0.070929475 0.011401258 0.023985036 0.0011370858
-0.05428525 -0.06986843 -0.106674895 -0.007517919 -0.02959459 -0.023931414 0.059760895 0.056416806
0.034546617 -0.12679453 -0.11428237 0.08373688 -0.05041435 -0.11842405 -0.12608016 -0.09065403
0.09432274 0.029918013 0.08622283 -0.024763366 0.0043266905 0.09869137 0.009121079 -0.08297823
-0.11333362 0.051814683 0.056489743 -0.05227191 -0.017740158 0.03839163 0.11515755 -0.041996855

mixture_net.mol_attn_layers.0.ffn.layers.2.weight f4 [64, 64]
00000000: 4f58 fc3d a221 4bbd 1251 83bd 169c d63d
00000010: 8933 c93d 7e3e b1bd 68c8 c1bd 5bda d93d
00000020: 77e6 303d 6c9b 9e3d d316 c63d 4857 5c3d
00000030: c2ba 8b3d 01c5 d4bd 6365 db3d 29a3 2f38
00000040: 77dc 3cbd 8eda ac3d 0418 8b3d ed97 a43d
00000050: d003 c83d 435f e63d aed9 8dbd c5e5 a0bd
00000060: 3fba 48bd df5d a83d 1719 2dbd f574 c8bd
00000070: 7665 58bd 5a20 2f3b aeb6 bd3d 53f0 ec3d
00000080: 70b1 a9bc 9c9e a5bd c1c6 853d 7518 be3d
00000090: ae40 d93b 7f38 193e ddf2 96bd af9d 363c
000000a0: d995 e43c 8c90 93bd 73ae f53c 8a46 8d3b
000000b0: 296f 3fbd 6b16 813c e38a 1fbd 1aee f83d
000000c0: dc33 a13d 9260 893c f120 b9bd 076f 453d
000000d0: 219a 2dbc 24fa 25bd 88bd 073e c5be cc3c
000000e0: da51 ccbb ba73 8fbd ad03 f63d fec7 e8bd
000000f0: dbdc 72bd d460 d93d 1b2b ba3d 63bd 803d
00000100: 8b69 893d 0a86 b73d 8bdd 83bd a83b 7f3d
00000110: 2667 9b3d ea2d da3d a95a b7bd 807d c1bd
00000120: 83b3 28bd 44b4 44bc 7cc6 f53d 8a0f 1e3d
00000130: 857b cbbd be97 bfbd 2503 62bd ac6b e3bd
00000140: 6370 f9bc e6f4 6dbd e809 fb3b 31a9 58bd
00000150: ea9a 26bd 2e48 49bc 8f5f a4bd e2a9 7dbc
00000160: 5868 843c c2de 323d 9638 8f3d 5c6f a4bd
00000170: e702 adbd dcf5 34bc 2c00 b9bd f813 abbd
00000180: 101c 3c3d 4efb 943c 3992 68bd 258b 0a3d
00000190: 840b 333d 6542 d83d 8752 833b 84e0 e5bd
000001a0: 784d 433d 49f7 d2bb 2b01 bfbd dd7a 40bd
000001b0: f5e0 f13d d0f1 993d 6a0b 1cbd 7f2a f23d
000001c0: 9cea 0cbe 8b30 9e3d ba51 843c b65e 473d
000001d0: 6308 2f3c 65c5 653d 91a6 a63d 8977 0e3d
000001e0: 9b56 473d 2725 a9bd d65a e6bc e043 693d
000001f0: c544 af3d f4d7 8f3c 84d4 983d e956 153c
00000200: 3294 0dbd d66e 7dbc 8708 d43d e0b9 c73d
00000210: bd59 c83d 298a 553d f022 a73c 46d4 52bd
00000220: d3c9 59bd 9b6e 4ebb eb7c e73b 6357 27bc
00000230: 8b02 adbc f4a8 b2bd 1ab3 59bd 5a3c 123d
00000240: c140 d83d 6caf 063e 44e3 22bd a9ca c03d
00000250: 5cf8 92bb 48f6 4abd 8337 e13d cd2b 78bd
00000260: eeff 44bd cb4a 873c 3a3f 033e 90f8 3fbd
00000270: 3ab3 003e de36 cf3d 2de1 afbd 6d41 583d
00000280: 73ae acbd ed73 cebd 9779 ffbd d048 473c
00000290: ef1c 1bbe af60 c5bd 8aea 80bc 8cae d53b
000002a0: 0674 43bd f795 b43d 1c96 a33c d1fd 4f3d
000002b0: b660 c7bc 380e f83d 547b 213b 9d35 43bd
000002c0: 9990 adbd 00b9 843d 17d2 a93c 3130 b03d
000002d0: 480c aabd bd5e bc3d dc85 5dbd ebc9 2dbd
000002e0: da09 cfbd 893f 8e3d 96f3 c5bd 655c d4bd
000002f0: 8f8d 95bd 08ff 5dbd 7ba7 d4bd ccd8 a73d
00000300: 4542 81bc 9d00 ac3d 35fd 753d 1305 933d
00000310: f65d 9dbd 60c2 b1bd 104c d8bc c7db 21bd
00000320: 4955 6a3d da13 59bd 59c6 f53d 3c93 88bd
00000330: 4bc4 c7bd 1b20 533c 90da e63c 638b dcbd
00000340: f7ac 183d 4d48 483b 2fa8 e6bd 754e a9bd
00000350: e1c2 f33b 802e 793d e0fa f13c 3556 7cbc
00000360: 7c98 103d 6889 6e3d 7dc8 b03d d35f ae3b
00000370: 2680 e83d ad63 68bb 8142 d1bd 6d78 be3b
00000380: 8dcc cebd 387b a03d c1b8 66bc 0e3a 9ebb
00000390: 4b4a be3d e80f d93d 2e29 e63d ee89 3dbd
000003a0: b438 053d caaf 0639 30cd 01be 645e 38bc
000003b0: 6dcd 87bd 2f08 9abd c132 723d 5ad4 563d
000003c0: c216 02be a026 9c3d db7b febd 027f 8ebd
000003d0: fb9f 08bd 4de5 653d 1e8c ab3d 1aab bf3d
000003e0: 7377 b63b 1194 09bd 5e01 b4bd 7437 e83d
000003f0: bb46 43bd 3477 193d 01c9 c7bd 4590 92bd
0.12321531 -0.04959262 -0.06411947 0.1047899 0.09824283 -0.086544976 -0.094620526 0.10637351
0.04318854 0.07744488 0.09672322 0.053794175 0.068227306 -0.10389138 0.10712697 4.1875206e-05
-0.04610869 0.084401235 0.0679169 0.0803679 0.09766352 0.112486385 -0.06926285 -0.07856325
-0.049005743 0.082210295 -0.042260256 -0.09787933 -0.052831136 0.0026722164 0.09263359 0.11569276
-0.020714492 -0.08086893 0.0653205 0.092820086 0.006630025 0.14962958 -0.07370541 0.011145993
0.027903484 -0.072053045 0.02999041 0.0043113874 -0.04673687 0.01575776 -0.038950812 0.12154789
0.078712195 0.016769681 -0.09039486 0.048201587 -0.010595829 -0.040521756 0.13255894 0.02499331
-0.0062353434 -0.07004495 0.1201242 -0.113662705 -0.059292655 0.106141716 0.09090253 0.06286123
0.06709584 0.08961113 -0.0643874 0.062312752 0.075880334 0.10653289 -0.08952839 -0.09447765
-0.04118682 -0.012005869 0.120007485 0.038589038 -0.09935669 -0.093551144 -0.05517878 -0.11104521
-0.030449098 -0.05809488 0.007661093 -0.05289573 -0.04067508 -0.012285275 -0.08026039 -0.015482398
0.016163036 0.04366947 0.06993215 -0.080290526 -0.08447819 -0.011044946 -0.09033236 -0.08353418
0.0459252 0.018186238 -0.056780074 0.033824105 0.043712154 0.10559539 0.0040076408 -0.112244636
0.0476813 -0.00643817 -0.09326395 -0.04699217 0.11810485 0.07516825 -0.038096823 0.11824512
-0.13761371 0.077241026 0.016152252 0.048674308 0.010683152 0.056096453 0.08137239 0.034781966
0.048666578 -0.08259039 -0.028119486 0.056949496 0.085580386 0.01755903 0.07462409 0.009114959
-0.03456516 -0.01546832 0.10353189 0.0975225 0.09782741 0.052133713 0.020402402 -0.05147197
-0.05317099 -0.0031499031 0.007064452 -0.010213706 -0.021119377 -0.087236315 -0.05314932 0.035702087
0.10559226 0.13152856 -0.03976752 0.09413654 -0.004485173 -0.04955128 0.10996916 -0.060588647
-0.048095636 0.016515156 0.12817088 -0.046867907 0.1256837 0.10117887 -0.08587871 0.05279677
-0.08431711 -0.10080705 -0.12474363 0.012163356 -0.15147756 -0.096375816 -0.015736837 0.0065210517
-0.04771807 0.08817666 0.019969039 0.050779168 -0.024338108 0.12112087 0.002464016 -0.04765855
-0.084748454 0.064805984 0.020730061 0.08602942 -0.08303124 0.091977574 -0.054082736 -0.042428892
-0.10109301 0.06945712 -0.09665601 -0.10369185 -0.07302391 -0.054198295 -0.10383507 0.081956476
-0.01577867 0.083985545 0.06005593 0.07178702 -0.07683937 -0.08679652 -0.026403457 -0.039516237
0.05721024 -0.052997448 0.120007224 -0.06668708 -0.09754237 0.0128860725 0.02818039 -0.107687734
0.037274327 0.0030560673 -0.11262547 -0.082669176 0.007439003 0.06083536 0.029538572 -0.015401413
0.03530167 0.05823651 0.0863199 0.0053214817 0.113525674 -0.0035459802 -0.10217763 0.0058126957
-0.10097609 0.07836002 -0.014082135 -0.004828698 0.09291514 0.10598737 0.11238323 -0.046274118
0.03252478 0.00012844722 -0.12675929 -0.011252973 -0.06630979 -0.07521092 0.059130434 0.052448608
-0.12703994 0.07624555 -0.12425967 -0.069578186 -0.033355694 0.05612688 0.083763346 0.09358807
0.0055684387 -0.033588473 -0.08789323 0.11338702 -0.047674876 0.037467197 -0.09755135 -0.071564235

mixture_net.mol_attn_layers.0.ffn.layers.2.bias f4 [64]
00000000: 497a fc3c 843d edbc 849b 9bbc ede3 b3bd
00000010: ed61 e83c 01d4 e5bd 3b12 b6bb 00fa e83c
00000020: 1560 073e 1158 cc3d 41ad 483c 8f22 27bc
00000030: 33e6 e0bd cc4c 37bc 759e 5dbb 0d60 673d
00000040: ab07 e83a db5d b53c f15e c93d 3dee bbbd
00000050: 8eab e73d 491a 8dbd fb93 9c3c 9d5a 19bd
00000060: 1684 a83d 7260 b6bc f4b1 83bd fc1d 0f3d
00000070: 5a2a 6cbc cd8b 88bd ed24 83bd 8349 bb3d
00000080: 9772 963d 06bf b13d b3cc c63c aca6 31bd
00000090: dde8 18bc 5e6a 02bd 335b c8bd 4f4b debd
000000a0: c34b 4dbc 36a1 a43d 418c 413c f7c9 66bd
000000b0: f974 5fbb fb9c 33b9 466f d33a e91b bfbc
000000c0: 70eb 1b3c 9637 babd 1d22 bf3b 3b88 36bd
000000d0: 27a7 38bc c508 0bbc a1d4 563c 0514 f43d
000000e0: 233e b2bd 7325 57bd a94f 75bd 00b1 a7bd
000000f0: 2e30 c53d be52 71bd 98b6 f13d 8afe ffbd
0.030820029 -0.028959997 -0.018995054 -0.08783708 0.028367007 -0.11222077 -0.0055563725 0.028439522
0.13220246 0.09977735 0.012248338 -0.0102011105 -0.10981407 -0.011187743 -0.0033816372 0.056488086
0.001770248 0.02213948 0.09832562 -0.091763 0.11312018 -0.06889779 0.019113531 -0.03743993
0.082283184 -0.022262786 -0.06430426 0.034940705 -0.014414394 -0.0666729 -0.064035274 0.091448806
0.07346075 0.08679013 0.02426753 -0.04337184 -0.009332863 -0.03183972 -0.0978302 -0.10854208
-0.01253027 0.08038561 0.011813224 -0.056344952 -0.003409682 -0.0001712925 0.0016131185 -0.023328738
0.009516582 -0.090926334 0.005832924 -0.044563513 -0.011270321 -0.008485978 0.013112218 0.11917881
-0.08703258 -0.05252595 -0.059890423 -0.08188057 0.0962833 -0.0589168 0.11802405 -0.12499721

mixture_net.mol_attn_layers.0.addnorm2.norm.weight f4 [64]
00000000: b2df 823f 87e9 7e3f 61b8 7f3f 51f0 7d3f
00000010: f8aa 793f a6a9 813f d267 803f 3d46 7e3f
00000020: 6e07 813f 87f5 823f db61 803f eaab 803f
00000030: efe5 7e3f c6b9 7f3f f6ed 823f b3ca 7e3f
00000040: 8274 783f 010b 813f c98a 823f d6fa 783f
00000050: 5ae1 7c3f ca9e 7e3f 2116 783f c11f 7f3f
00000060: 874f 7f3f 4a2f 803f c3a3 803f 44ce 7f3f
00000070: 96a8 7f3f 5c7f 803f b42a 7f3f 184a 7f3f
00000080: 8845 803f bf2e 803f 93c0 7c3f 190a 7c3f
00000090: 5f83 7b3f 3740 7f3f 57e1 813f 086c 813f
000000a0: 1fc6 763f 8926 833f 848f 7e3f f397 7e3f
000000b0: 5990 7c3f 1903 813f afae 7f3f 02d7 833f
000000c0: d2df 813f 6f6b 7f3f 50d7 803f d22a 803f
000000d0: bef0 7a3f 6420 813f 4cbf 7b3f 9a4f 823f
000000e0: aeae 803f a384 823f 0c27 823f d1d0 7f3f
000000f0: e364 7f3f 2d39 803f 879e 7f3f cc23 813f
1.0224516 0.99575084 0.99890715 0.9919482 0.975265 1.0129898 1.0031683 0.99325925
1.0080392 1.0231179 1.0029863 1.0052464 0.995696 0.9989284 1.022887 0.99528044
0.97052777 1.0081483 1.0198604 0.97257745 0.9878136 0.9946104 0.96908766 0.9965783
0.99730724 1.0014431 1.0049976 0.9992411 0.99866617 1.0038867 0.99674535 0.99722433
1.0021219 1.0014266 0.98731345 0.9845291 0.9824733 0.9970736 1.0146893 1.0111094
0.9639606 1.0246135 0.9943774 0.99450606 0.9865776 1.007907 0.9987592 1.029999
1.014643 0.99773306 1.0065708 1.0013068 0.98023593 1.008801 0.9833877 1.0180542
1.0053308 1.0196728 1.0168166 0.99928004 0.99763316 1.0017449 0.9985127 1.0089049

mixture_net.mol_attn_layers.0.addnorm2.norm.bias f4 [64]
00000000: e39c 55ba 4485 283b 7253 893b 2938 d63b
00000010: 86dd d03b e0ae 9bbb e31e 10bb 16b5 b5ba
00000020: 8cb5 633b 58e4 1b3c 0441 82b9 c43b 633b
00000030: a818 c039 83aa c53b 1f1a 0ebc d7e1 8ebb
00000040: 877c c939 3ce6 023c 82c3 53bc 2cd5 ecba
00000050: 3b5b e53b a84b 683c 1e04 e2ba 6a25 00bc
00000060: 8ad3 6b3b 297f c9ba 6d06 5abc 7a2f 39bb
00000070: c50b 3ebc f564 26bc 5d24 c2bb 5d57 9bbb
00000080: 9d13 44bb 07e3 e4b9 319e e438 22d8 593a
00000090: 5d0c 943b 22e3 023b ab4d 533a 9da0 e0bb
000000a0: ee92 00ba f8ee c6bb dc0e e93b 40cc 53bb
000000b0: afa5 c93b 89d7 96b7 3f07 533a dd15 6d3b
000000c0: 9aa7 8ebb cab4 fdbb a8d7 1cbc 84e5 d0ba
000000d0: bf06 5dba 4254 c23a 0874 a4b9 e1bc cb3b
000000e0: bf61 593c 3c6e 36bc ff87 7a3c 398c 25bb
000000f0: c8ff 883c 2df6 9439 e05d ff3b 4f41 22bb
-0.0008148683 0.0025714198 0.0041908557 0.0065374565 0.006374064 -0.0047510713 -0.0021991066 -0.0013863172
0.0034745662 0.009514891 -0.00024843973 0.0034673074 0.00036639464 0.0060322895 -0.00867322 -0.0043604183
0.00038430488 0.007989462 -0.012925031 -0.0018068901 0.006999401 0.014178194 -0.0017243659 -0.00782142
0.0035984241 -0.001537298 -0.013307196 -0.0028257058 -0.011599486 -0.010155906 -0.005924745 -0.004740639
-0.0029918917 -0.00043656697 0.00010901353 0.00083100994 0.0045180754 0.0019971807 0.00080605847 -0.006855084
-0.0004904707 -0.0060709678 0.007112367 -0.0032317787 0.006153784 -1.798176e-05 0.0008050091 0.0036176362
-0.0043534758 -0.007742499 -0.009572901 -0.0015937542 -0.0008431486 0.0014826136 -0.00031366968 0.0062175845
0.013267933 -0.01113468 0.015291213 -0.0025260581 0.016723529 0.00028412175 0.007793173 -0.0024758165
