scripts_chemix/chemix_weights_pearson/best_model_dict_7.pt (torch, 438312 bytes, 41 tensors)

input_net.weight f4 [64, 196]
0.024596835 -0.06108893 0.0048715374 -0.06379072 0.01949066 0.038702782 -0.08134956 0.008078561
-0.051361457 -0.014420859 0.061214715 -0.06062444 0.06337776 -0.015162325 0.0492314 0.05478212
0.017455233 0.045125738 -0.0043055224 0.027937068 -0.074434154 0.03285492 0.034414403 -0.061123837
-0.06376358 -0.03035273 0.0850198 0.026674338 0.07666967 0.04289672 0.073747 0.057252023
0.03316023 -0.004217876 -0.023351805 0.033084843 -0.07885602 -0.06280187 0.036584657 0.0049180673
-0.04155641 -0.045943223 0.04574352 -0.055175297 -0.041562945 0.06624309 -0.03770259 -0.05737657
-0.05536368 -0.06821429 0.009819894 0.06232076 -0.05747222 -0.071319565 0.05227098 0.016704997
0.08590259 0.06688489 0.005444408 0.04932203 0.05251677 -0.015981084 -0.0472829 0.047832794
-0.045193493 -0.019692132 0.0099923415 0.010150972 0.024876492 0.05232396 0.05527794 0.020421537
-0.08938491 0.04750705 -0.03081694 -0.049537644 -0.07678765 -0.0560533 0.027980486 0.057148356
0.054331154 0.07197683 -0.018667698 -0.028529983 0.051418323 -0.06127721 -0.0075873397 0.046336003
0.012704223 0.07278478 -0.011931937 -0.06109618 0.024101226 -0.029987244 0.0826457 0.017405918
-0.044744235 0.03596669 -0.016579065 -0.050712716 0.021543361 0.02799756 -0.008426625 -0.006132699
-0.00319406 0.059851483 0.0022087547 0.010685441 0.098189935 0.11434574 -0.06621065 -0.023179773
0.105028465 -0.0626049 0.0051062396 0.07331151 0.059984647 -0.057444625 0.066153 0.011209811
0.036394183 -0.0018569024 0.052368123 0.07032629 0.012822905 0.012361464 0.03556183 0.023259044
0.041723654 0.026673751 0.0072961175 0.049576703 -0.02563148 -0.04838687 0.007770225 0.03585164
-0.043114167 -0.0016643897 -0.049236078 0.040797666 0.030363902 -0.040692683 -0.012620291 -0.04044115
0.026303794 0.013142171 -0.068893574 -0.02891325 -0.051940963 0.004278577 0.048137195 -0.057798084
0.008329925 -0.03998586 0.02129975 0.03669559 0.0638807 0.06824837 -0.02770644 -0.022505272
-0.06946202 -0.04042935 -0.008075717 -0.008406136 -0.029764269 0.012225612 -0.033206552 0.04694742
0.044668842 -0.029597195 0.050404314 -0.051414363 -0.064434655 -0.08040874 -0.07023876 -0.016045716
-0.005234335 0.0008755159 0.010994157 -0.0007615397 -0.022362733 -0.02435434 0.0011092809 -0.0038938671
0.03315615 -0.039304312 -0.112128206 -0.01610992 -0.010117441 -0.025024284 0.01265677 -0.012065159
0.017107954 0.0020551346 -0.0648236 0.040971044 0.03579484 0.018982237 0.001271408 -0.043277793
-0.030705178 0.02650349 0.081419386 -0.06523025 -0.04376618 -0.0052827313 0.07150077 0.050256494
-0.009696181 0.047762338 0.050183423 -0.044239495 0.009520874 -0.04288744 -0.015793612 -0.030170826
0.059389826 0.052949257 -0.028804967 -0.063359536 -0.020456826 -0.040030237 0.022705926 -0.076437734
-0.037206493 0.069888435 0.06724643 -0.03718073 -0.018811347 -0.019412678 -0.045173954 0.04759268
-0.07306924 -0.0006100878 -0.068728425 -0.061073024 -0.021689747 0.025322326 -0.020492774 0.047967006
-0.05224161 0.07354329 -0.026399972 -0.0010362342 -0.06394077 -0.07867033 -0.0506618 -0.04012083
0.087384686 -0.03531367 0.062746726 -0.002936703 -0.10024405 0.007162251 0.06843041 0.009265754
00000000: 4d7f c93c 6338 7abd 6ba1 9f3b b6a4 82bd
00000010: e0aa 9f3c cf86 1e3d 999a a6bd f15b 043c
00000020: 6460 52bd 7745 6cbc 48bc 7a3d 5551 78bd
00000030: 33cc 813d 676b 78bc dda6 493d 3763 603d
00000040: 47fe 8e3c c4d5 383d 5715 8dbb 47dc e43c
00000050: ef70 98bd e192 063d 1ef6 0c3d fd5c 7abd
00000060: 7b96 82bd 4aa6 f8bc dc1e ae3d 2484 da3c
00000070: fd04 9d3d 79b4 2f3d ab08 973d 1981 6a3d
00000080: 05d3 073d 1c36 8abb 494c bfbc f983 073d
00000090: 447f a1bd 449e 80bd cbd9 153d bd27 a13b
000000a0: 0e37 2abd f62e 3cbd 8f5d 3b3d 7eff 61bd
000000b0: e83d 2abd 75aa 873d 086e 1abd b203 6bbd
000000c0: 07c5 62bd efb3 8bbd 9fe3 203c 0e44 7f3d
000000d0: fe67 6bbd fe0f 92bd 181a 563d ebd8 883c
000000e0: b2ed af3d f2fa 883d 0167 b23b e605 4a3d
000000f0: d31b 573d c3ea 82bc b7ab 41bd 52ec 433d
00000100: d01c 39bd 6551 a1bc ebb6 233c 4350 263c
00000110: c9c9 cb3c a651 563d 1f6b 623d 114b a73c
00000120: 700f b7bd c196 423d cf73 fcbc fce7 4abd
00000130: d842 9dbd 2598 65bd 5537 e53c 6514 6a3d
00000140: 588a 5e3d 9768 933d 00ed 98bc b6b7 e9bc
00000150: 059c 523d d0fd 7abd 389f f8bb d2ca 3d3d
00000160: 6025 503c 3010 953d 2c7e 43bc fd3f 7abd
00000170: ef6f c53c cfa7 f5bc 2642 a93d db96 8e3c
00000180: bb45 37bd cf51 133d d2d0 87bc 23b8 4fbd
00000190: b47b b03c 245b e53c d40f 0abc cff4 c8bb
000001a0: 6f53 51bb d426 753d c1c0 103b fd11 2f3c
000001b0: ce17 c93d 192e ea3d 7399 87bd 82e3 bdbc
000001c0: 2a19 d73d ff36 80bd 3e52 a73b 5824 963d
000001d0: 76b2 753d 0e4b 6bbd 397b 873d 5ba9 373c
000001e0: 1112 153d 4e63 f3ba f57f 563d 3b07 903d
000001f0: 2917 523c bd87 4a3c 48a9 113d c089 be3c
00000200: 6ce6 2a3d e982 da3c 4514 ef3b f110 4b3d
00000210: 1cf9 d1bc 5031 46bd 5f9d fe3b 2bd9 123d
00000220: 7b98 30bd a727 daba c5ab 49bd 741b 273d
00000230: b8bd f83c 5fad 26bd 56c5 4ebc 9fa5 25bd
00000240: 0e7b d73c 4352 573c 1318 8dbd 7bdb ecbc
00000250: 0cc0 54bd 4e33 8c3b 822b 453d afbd 6cbd
00000260: 3d7a 083c 37c8 23bd d07c ae3c 1d4e 163d
00000270: e2d3 823d cdc5 8b3d 9ef8 e2bc fa5c b8bc
00000280: 1b42 8ebd 3f99 25bd 0350 04bc e4b9 09bc
00000290: 32d4 f3bc ef4d 483c 9803 08bd f04b 403d
000002a0: adf6 363d d175 f2bc c174 4e3d de97 52bd
000002b0: 51f6 83bd 56ad a4bd 57d9 8fbd 4e72 83bc
000002c0: c984 abbb e182 653a d620 343c 10a2 47ba
000002d0: 0d32 b7bc c182 c7bc 4a65 913a 4030 7fbb
000002e0: bece 073d 8ffd 20bd 79a3 e5bd f3f8 83bc
000002f0: a0c3 25bc baff ccbc 575e 4f3c f2ac 45bc
00000300: fb25 8c3c 70af 063b 3cc2 84bd 41d1 273d
00000310: 9c9d 123d a380 9b3c 60a5 a63a 0e44 31bd
00000320: 6d89 fbbc d91d d93c 35bf a63d 7097 85bd
00000330: 2a44 33bd c31a adbb ff6e 923d c1d9 4d3d
00000340: bbdc 1ebc 71a2 433d 228d 4d3d 7934 35bd
00000350: 71fd 1b3c beaa 2fbd 9b61 81bc cf28 f7bc
00000360: bf42 733d 52e1 583d 65f8 ebbc a5c2 81bd
00000370: 1395 a7bc bff6 23bd c701 ba3c 638b 9cbd
00000380: d665 18bd ab21 8f3d 7fb8 893d d24a 18bd
00000390: 411a 9abc 5607 9fbc 5308 39bd 8bf0 423d
000003a0: 53a5 95bd 4dee 1fba 7dc1 8cbd b527 7abd
000003b0: b2ae b1bc c470 cf3c 76e0 a7bc 0d79 443d
000003c0: 4cfb 55bd dd9d 963d c144 d8bc 40d2 87ba
000003d0: 61f3 82bd e91d a1bd bf82 4fbd bd55 24bd
000003e0: bef6 b23d 11a5 10bd 5b81 803d b375 40bb
000003f0: c14c cdbd 51b1 ea3b 3e25 8c3d 64cf 173c

input_net.bias f4 [64]
-0.007783082 -0.036285996 0.070627764 -0.020430263 -0.044481535 -0.04044693 -0.023165064 0.045824055
0.030315466 -0.0058515905 0.043435685 0.05172688 -0.015083707 0.037669927 -0.046364058 -0.010350483
0.04275311 -0.035563134 -0.062458806 -0.052323785 -0.023866195 0.06296442 -0.017577201 -0.023791626
0.025577903 -0.0009134304 0.045661606 -0.062310405 -0.041982334 0.02202924 -0.007950754 -0.0058054603
0.06903797 -0.04168455 0.03975286 0.012636633 0.0065439506 0.04464751 0.020492088 0.028756185
0.014508066 -0.0038724586 -0.027589675 -0.00047304537 0.03613533 -0.0001459838 0.06630061 -0.0603633
0.062446993 -0.03459322 -0.037542082 0.032934073 -0.01621998 0.02974707 -0.03302206 0.041000698
-0.01800846 -0.035692394 -0.009563393 0.049161244 -0.025622016 -0.034017067 -0.045138717 0.025980543
00000000: 3909 ffbb a0a0 14bd 4aa5 903d 5e5d a7bc
00000010: 4532 36bd aeab 25bd a9c4 bdbc 01b2 3b3d
00000020: 2458 f83c b3be bfbb 9ee9 313d 91df 533d
00000030: a721 77bc c84b 1a3d 3de8 3dbd 1295 29bc
00000040: e31d 2f3d a6aa 11bd ced4 7fbd 7751 56bd
00000050: 0a83 c3bc 7df3 803d 10fe 8fbc a8e6 c2bc
00000060: c088 d13c 4773 6fba aa07 3b3d 3239 7fbd
00000070: abf5 2bbd aa76 b43c e143 02bc bb3b bebb
00000080: c763 8d3d 6bbd 2abd e5d3 223d e109 4f3c
00000090: a36e d63b 4fe0 363d 06df a73c 1792 eb3c
000000a0: 3db3 6d3c 13c9 7dbb be03 e2bc 1303 f8b9
000000b0: a402 143d 3a13 19b9 9dc8 873d 823f 77bd
000000c0: 6bc8 7f3d 9fb1 0dbd bac5 19bd e1e5 063d
000000d0: c3df 84bc 21b0 f33c 2442 07bd 59f0 273d
000000e0: 7a86 93bc 3032 12bd c7af 1cbc 4d5d 493d
000000f0: 43e5 d1bc 7b55 0bbd 60e3 38bd 26d5 d43c

mixture_net.mol_attn_layers.0.self_attn_layer.in_proj_weight f4 [192, 64]
0.08685288 0.10232112 -0.06924123 0.044540487 -0.023854358 -0.08407634 -0.25277722 -0.06806835
0.039190624 -0.07697505 0.15155143 -0.03537848 0.05015063 -0.088914715 -0.051918443 0.29809004
-0.026683116 -0.111535594 0.046368044 -0.006154386 0.09943917 0.14315708 -0.15278748 -0.044215493
0.100664526 0.084936336 -0.11520463 0.16321556 0.13342057 -0.037635803 -0.023871465 0.04622697
0.005783701 0.1358073 0.10335516 -0.12815732 0.1192406 0.046702944 -0.029277893 -0.010622402
-0.12816185 0.035199188 -0.16403462 -0.06411654 -0.030138476 0.07030551 0.1406722 -0.046586476
-0.052608363 0.11921351 0.13355708 -0.1835986 0.07835048 0.074904166 -0.04747349 0.031937778
0.044080418 0.037437648 -0.047900893 0.028149385 0.11467936 0.031753466 -0.052138742 0.16805285
0.020678917 0.115633465 0.12324958 -0.033652823 0.08847731 -0.10141516 -0.06955959 0.15815642
0.14290561 0.14067188 -0.049824525 0.050016697 0.1341089 0.07529413 -0.029001663 -0.068472266
0.11384502 0.1706236 -0.0702528 -0.0723984 0.16729851 0.09190415 -0.045745127 0.120920435
-0.10146783 -0.11256317 -0.0334738 -0.09705799 0.09988363 0.0023473685 0.12042856 -0.040541064
-0.16781287 0.038647905 0.11364185 -0.03375867 -0.12162595 0.067444734 -0.035041507 0.17544158
0.017582199 -0.061329488 -0.049101293 -0.20245782 -0.043859433 -0.026895525 0.13455696 0.038273826
-0.13888906 0.038625505 0.031095209 -0.06462925 0.039146338 -0.0070439586 -0.0688368 -0.020182818
-0.08417934 -0.15701482 -0.057628486 -0.0073403586 -0.15375443 -0.008493396 -0.052477032 0.062191285
0.008100864 0.0048337365 0.00710306 0.017783768 -0.1804935 -0.053638853 0.13099137 0.1476708
-0.07532452 0.061569776 -0.15165706 -0.119509324 0.06448238 -0.034946345 0.16941103 0.018782988
0.04380307 0.0021009962 0.17813489 -0.113457516 0.0011008147 0.03078411 0.013052684 -0.011326461
0.14489181 -0.22712794 -0.041699454 0.112926774 -0.13923489 -0.045484904 0.11344249 -0.1751995
-0.011274231 -0.044915307 -0.015529598 -0.18330003 0.04520031 -0.16332084 0.011843184 0.15786488
-0.12771295 -0.032613747 0.10059933 -0.031924125 0.16021396 -0.026841559 -0.008861974 0.068490416
-0.079713196 -0.22100651 0.14628617 0.042936724 -0.15490164 -0.041111063 -0.0913825 -0.02799708
0.10807334 0.076305136 -0.16044727 0.1611983 0.021159459 0.060717043 -0.09859185 -0.16092832
0.14576368 -0.092715956 -0.06576452 0.017333746 -0.014573706 0.027534682 0.046942204 0.09032671
-0.012381349 0.07444685 0.08920368 -0.094905615 0.09779317 -0.18745324 0.027517026 0.025495574
-0.11955254 0.06283983 -0.034042835 0.055346265 -0.10723555 -0.14843315 0.13003519 0.031004898
0.0080436105 -0.053829297 0.14428854 0.12151735 -0.11406127 0.07221931 -0.12049993 -0.12323074
0.06911715 -0.016183801 -0.06244457 -0.21863386 -0.03683379 -0.0328738 -0.03981393 0.17785972
0.111308895 0.10047978 0.07043357 -0.049770504 0.10588408 0.028070193 -0.14058666 -0.05657803
-0.13761656 0.117928185 -0.038673095 -0.09839937 -0.055425234 0.08352554 -0.14701572 0.035578366
-0.034537077 0.032424327 0.035816606 0.02881841 -0.087782875 0.09907774 -0.070072696 -0.095027246
00000000: ecdf b13d bc8d d13d 59ce 8dbd 1670 363d
00000010: 376a c3bc 3730 acbd 046c 81be 6b67 8bbd
00000020: 5986 203d 18a5 9dbd 4c30 1b3e 06e9 10bd
00000030: bf6a 4d3d eb18 b6bd 6fa8 54bd 429f 983e
00000040: 8d96 dabc c66c e4bd 6bec 3d3d bbaa c9bb
00000050: c3a6 cb3d c597 123e 5274 1cbe 4e1b 35bd
00000060: 3429 ce3d 1af3 ad3d 68f0 ebbd fb21 273e
00000070: 679f 083e 0028 1abd 178e c3bc 7e58 3d3d
00000080: 3385 bd3b 1211 0b3e dfab d33d ac3b 03be
00000090: 6a34 f43d 964b 3f3d 31d8 efbc 9509 2ebc
000000a0: dc3c 03be 062d 103d b1f8 27be 884f 83bd
000000b0: f7e4 f6bc 56fc 8f3d 600c 103e 76d1 3ebd
000000c0: de7b 57bd 3626 f43d 30c3 083e 4501 3cbe
000000d0: 3776 a03d 5b67 993d 9073 42bd 30d1 023d
000000e0: ab8d 343d 3858 193d ba33 44bd 8a99 e63c
000000f0: 03dd ea3d ec0f 023d 6f8f 55bd 0c16 2c3e
00000100: d566 a93c 3dd1 ec3d 476a fc3d 8bd7 09bd
00000110: 9833 b53d c0b2 cfbd 4275 8ebd c2f3 213e
00000120: d955 123e 4a0c 103e cd14 4cbd 4fde 4c3d
00000130: d853 093e cf33 9a3d e594 edbc 303b 8cbd
00000140: 9427 e93d f4b7 2e3e b3e0 8fbd 9d45 94bd
00000150: 4d50 2b3e 3e38 bc3d 3e5f 3bbd 22a5 f73d
00000160: 5ece cfbd 8587 e6bd d31b 09bd 57c6 c6bd
00000170: ca8f cc3d 4fd6 193b 40a3 f63d 630e 26bd
00000180: 23d7 2bbe 444d 1e3d 0fbd e83d 8846 0abd
00000190: 0717 f9bd 7720 8a3d af87 0fbd f5a6 333e
000001a0: 8b08 903c a134 7bbd 701e 49bd 1a51 4fbe
000001b0: f3a5 33bd 0154 dcbc 4dc9 093e 04c5 1c3d
000001c0: ef38 0ebe c735 1e3d 61bb fe3c 575c 84bd
000001d0: e957 203d 02d1 e6bb 4ffa 8cbd 7056 a5bc
000001e0: 3866 acbd 7ec8 20be d90b 6cbd 6487 f0bb
000001f0: cd71 1dbe e327 0bbc 28f2 56bd 4abc 7e3d
00000200: 7cb9 043c 5264 9e3b c9c0 e83b 44af 913c
00000210: 4ad3 38be 6ab4 5bbd 9a22 063e 0437 173e
00000220: be43 9abd 9730 7c3d fd4b 1bbe 4ec1 f4bd
00000230: 570f 843d e623 0fbd 167a 2d3e c8de 993c
00000240: d96a 333d deb0 093b fe68 363e 6a5c e8bd
00000250: 3649 903a f52e fc3c edda 553c 9f92 39bc
00000260: 855e 143e 3a94 68be 0ccd 2abd 2746 e73d
00000270: 9793 0ebe 614e 3abd 8954 e83d 7f67 33be
00000280: 8db7 38bc 1df9 37bd db6f 7ebc 01b3 3bbe
00000290: f623 393d 943d 27be ea09 423c 55a7 213e
000002a0: 2fc7 02be fe95 05bd 0607 ce3d dfc2 02bd
000002b0: 210f 243e d4e2 dbbc d031 11bc b444 8c3d
000002c0: ac40 a3bd 884f 62be 0bcc 153e 6bde 2f3d
000002d0: 899e 1ebe 1364 28bd c026 bbbd 225a e5bc
000002e0: 8e55 dd3d de45 9c3d 4a4c 24be 2b11 253e
000002f0: 9a56 ad3c 6fb2 783d 86ea c9bd 65ca 24be
00000300: 1343 153e dde1 bdbd 8caf 86bd 80ff 8d3c
00000310: 8ec6 6ebc 6a90 e13c 7846 403d 36fd b83d
00000320: 24db 4abc 9777 983d 6bb0 b63d e05d c2bd
00000330: c947 c83d bef3 3fbe 636b e13c 18dc d03c
00000340: f6d7 f4bd 2bb2 803d 8070 0bbd c4b2 623d
00000350: 509e dbbd dcfe 17be f227 053e fcfd fd3c
00000360: 59c9 033c 1c7c 5cbd 60c0 133e 17de f83d
00000370: f598 e9bd b8e7 933d abc8 f6bd 6660 fcbd
00000380: 4b8d 8d3d e493 84bc e1c5 7fbd 8ee1 5fbe
00000390: 07df 16bd ada6 06bd ee13 23bd dc20 363e
000003a0: ebf5 e33d 58c8 cd3d 7a3f 903d 28dc 4bbd
000003b0: c1d9 d83d 76f3 e53c f3f5 0fbe 5dbe 67bd
000003c0: 5beb 0cbe 5584 f13d ae67 1ebd 9c85 c9bd
000003d0: 9205 63bd 700f ab3d 4a8b 16be 9fba 113d
000003e0: c076 0dbd 5fcf 043d 6fb4 123d 9614 ec3c
000003f0: 82c7 b3bd 45e9 ca3d 4682 8fbd a59d c2bd

mixture_net.mol_attn_layers.0.self_attn_layer.in_proj_bias f4 [192]
-0.0077397283 0.0069854767 0.011445229 0.018255642 -0.00647235 0.042083733 0.0063499035 0.06523297
-0.03524059 0.068461336 0.035424206 -0.035179075 0.047212213 0.0072513064 0.02169887 0.041300297
0.034962475 -0.00076330325 -0.028270384 0.018135546 -0.006795699 -0.0067472435 -0.0026788781 0.018258033
0.039095227 0.006513842 -0.01389459 0.0184213 0.0056050634 -0.021359438 0.010193386 0.029465921
-0.0051321047 -0.024276698 -0.019615332 0.013950856 -0.0050163446 -0.010352484 0.00047113185 0.01053307
0.0074200835 -0.023834752 0.013630667 0.022894267 -0.015802868 -0.01029397 0.019532993 0.00053706125
-0.010974865 -0.0147923725 0.011411972 0.025477348 -0.001969285 0.0020040288 0.0075666164 -0.0029764113
-0.11403409 0.02028395 -0.0071891313 0.018764585 -0.047414232 0.019293606 -0.014398793 0.00016322384
1.5749318e-05 5.0959347e-06 -2.0170899e-06 1.43023035e-05 -2.2936451e-06 -1.3078113e-06 1.1219836e-05 6.310638e-06
-2.6095227e-05 3.1448735e-07 -1.2563621e-06 7.898092e-06 -3.911672e-09 -1.2128158e-06 -5.468152e-06 -3.5167625e-07
2.056008e-05 -1.9778521e-05 -9.8463215e-06 -1.2760717e-05 3.9342312e-06 -7.3132423e-06 1.1029676e-06 -1.0590486e-05
3.6446884e-06 9.7791135e-06 -2.486517e-05 -1.0132859e-05 1.974911e-06 1.0585323e-05 1.0577521e-05 -1.9623314e-05
-2.201175e-05 5.0636495e-06 3.1331336e-07 1.4922977e-05 -1.579145e-05 -7.6763945e-06 9.484623e-06 1.4690584e-05
-4.084261e-07 -1.2780162e-06 -3.6182614e-06 5.5041605e-06 1.1732365e-06 -1.085794e-05 1.1060446e-05 5.4057846e-06
5.150274e-06 8.354303e-06 -1.2964646e-06 -1.0259903e-05 -1.1078415e-05 -1.8335058e-05 3.3616586e-06 1.343415e-06
-1.3360748e-06 -2.9200019e-05 -8.655248e-06 -6.5577115e-06 -2.5704363e-05 5.536859e-07 1.4429214e-05 2.345092e-05
0.00485619 0.019261781 -0.006560447 -0.0073150033 -0.009376345 -0.0049472447 0.012837748 -0.018391842
-0.0050142813 0.013015562 -0.009788362 -0.0045688576 0.003899105 0.0045144744 0.0046982327 -0.011675123
0.004404562 -0.005249228 -0.011349014 0.010852577 0.014374852 -0.0078024887 -0.0062972633 0.0016328564
0.011609498 -0.0062289024 0.0048052305 0.0015980373 -0.008123141 0.005634286 0.014313002 0.007856217
0.0148909995 -0.010251826 -0.018266227 0.013366489 0.0046397503 0.0056368266 0.009314336 0.005599497
-0.004498474 -0.0013956493 0.0016215964 -0.0051914393 0.0027521418 -0.001865702 -0.0027308092 -0.0057535493
0.0015210536 -0.009998484 -0.004261625 0.01251037 -0.00040312513 -0.001298265 0.0071019474 -0.0016257988
-0.008711492 -0.0015474997 0.001572617 -0.0027842256 0.0051237023 -0.014606064 0.0015606424 0.012669287
00000000: 8c9d fdbb 6de6 e43b c584 3b3c db8c 953c
00000010: 0216 d4bb fe5f 2c3d da12 d03b dd98 853d
00000020: 7058 10bd 7535 8c3d f918 113d ef17 10bd
00000030: 9861 413d 5e9c ed3b d4c1 b13c 802a 293d
00000040: d034 0f3d 6a18 48ba 4b97 e7bc ff90 943c
00000050: 74ae debb fb17 ddbb 1e90 2fbb df91 953c
00000060: 5122 203d 1172 d53b 22a6 63bc 44e8 963c
00000070: aeaa b73b fdf9 aebc 2902 273c 8462 f13c
00000080: 372b a8bb eddf c6bc 55b0 a0bc 2292 643c
00000090: 2660 a4bb 779d 29bc 3f02 f739 e692 2c3c
000000a0: 2c24 f33b 1941 c3bc 2953 5f3c c28c bb3c
000000b0: 0475 81bc 0aa8 28bc a803 a03c 92c9 0c3a
000000c0: eccf 33bc b55b 72bc 48f9 3a3c dfb5 d03c
000000d0: 1f0f 01bb 0656 033b 61f1 f73b e50f 43bb
000000e0: b48a e9bd 872a a63c ce92 ebbb 30b8 993c
000000f0: 6d35 42bd a00d 9e3c eae8 6bbc 1127 2b39
00000100: 671d 8437 bffd aa36 575d 07b6 edf3 6f37
00000110: 86ec 19b6 0e88 afb5 d43c 3c37 f8bf d336
00000120: 13e7 dab7 d0d6 a834 46a0 a8b5 0c82 0437
00000130: 6e67 86b1 09c8 a2b5 117b b7b6 04ce bcb4
00000140: 7078 ac37 0dea a5b7 a131 25b7 dd16 56b7
00000150: ca02 8436 4664 f5b6 ae09 9435 cbad 31b7
00000160: 4597 7436 f910 2437 8c95 d0b7 4c00 2ab7
00000170: b688 0436 9e97 3137 1b76 3137 bf9c a4b7
00000180: e0a5 b8b7 6be8 a936 7635 a834 b35d 7a37
00000190: e177 84b7 ddc9 00b7 2520 1f37 9477 7637
000001a0: a845 dbb4 4d88 abb5 42d1 72b6 61b0 b836
000001b0: 1978 9d35 7f2a 36b7 4190 3937 5663 b536
000001c0: 84d0 ac36 7529 0c37 2f02 aeb5 f321 2cb7
000001d0: 6edd 39b7 3dce 99b7 db98 6136 634f b435
000001e0: 2e53 b3b5 90f2 f4b7 0236 11b7 500a dcb6
000001f0: b39f d7b7 01a1 1435 0115 7237 78b8 c437
00000200: ad20 9f3b e2ca 9d3c 05f9 d6bb b2b2 efbb
00000210: 3e9f 19bc 7f1c a2bb 6b55 523c 7daa 96bc
00000220: d74e a4bb 393f 553c 5e5f 20bc 5bb6 95bb
00000230: 2088 7f3b 28ee 933b a2f3 993b 0449 3fbc
00000240: 2554 903b b701 acbb 37f1 39bc 02cf 313c
00000250: 8084 6b3c 05ac ffbb 4659 cebb 9205 d63a
00000260: c435 3e3c d21b ccbb 3275 9d3b 3c75 d13a
00000270: ec16 05bc d19f b83b 1581 6a3c 5db7 003c
00000280: 61f9 733c 46f7 27bc 0ea3 95bc 1eff 5a3c
00000290: 0c09 983b 21b5 b83b 289b 183c fc7b b73b
000002a0: ef67 93bb 38ee b6ba bf8b d43a f31c aabb
000002b0: 475d 343b 928a f4ba 60f7 32bb 4588 bcbb
000002c0: 175e c73a aed0 23bc 1aa5 8bbb 4cf8 4c3c
000002d0: 8a5a d3b9 8b2a aaba 74b7 e83b c118 d5ba
000002e0: a5ba 0ebc 79d5 caba 4520 ce3a 8e77 36bb
000002f0: bbe4 a73b 464e 6fbc 788e cc3a d792 4f3c

mixture_net.mol_attn_layers.0.self_attn_layer.out_proj.weight f4 [64, 64]
-0.0481253 -0.07119386 0.054200336 0.0289585 0.022299021 0.07150215 -0.07716913 0.038201172
-0.1025186 -0.1085515 -0.0787012 -0.09189871 0.08952496 -0.09007524 -0.009421242 -0.03842779
-0.061186258 -0.07552014 0.028006604 0.015715301 0.008893407 0.08008474 -0.06262111 0.058512334
-0.05518544 -0.080968924 -0.0047992445 0.060743757 -0.092046104 -0.10604871 -0.07347235 -0.0435203
0.0007199357 -0.012084181 0.10512875 0.077916734 -0.13350084 0.0012468845 0.06073182 -0.13607351
-0.098856464 -0.06413976 -0.12803505 -0.08997789 0.009151323 -0.02332008 0.07982051 -0.01948641
0.06805423 0.009048329 -0.033874758 -0.011384826 -0.003685477 -0.09574699 -0.06099424 -0.11971591
0.122449294 0.0022579832 0.023952276 0.06553031 0.043395128 -0.059808042 -0.09980452 -0.05642285
-0.11041566 0.019571904 -0.046366952 -0.017559003 0.12982088 -0.010239963 0.010227083 -0.08699792
0.061302982 0.05748597 0.09326747 0.009964908 0.006745818 -0.062202036 0.055241104 0.007957754
0.03847619 0.009761952 -0.019041723 0.04993927 0.034549624 -0.01432098 0.07008981 0.01719298
-0.11439442 0.049047485 -0.012398586 -0.08751085 -0.058964282 0.12012046 -0.015959425 0.05312441
0.0037596254 0.01037641 0.003188203 0.042933315 0.06551364 0.047913685 -0.05991349 -0.0680352
0.05912951 -0.042825337 0.010503528 -0.11878163 0.029261257 0.0754539 -0.002783332 -0.10885749
-0.10141676 -0.12715615 -0.088809915 -0.113419876 -0.021794287 0.06323149 -0.0341124 0.05718637
-0.06783321 0.06000693 -0.059191585 0.062552646 -0.0049839146 -0.11275789 0.10136798 0.06863314
0.07397129 -0.04066134 -0.058848932 0.08735325 -0.11752519 0.1406315 0.015234168 0.04112087
0.06612676 -0.0070095723 0.025858039 0.1211129 0.02253979 0.043784317 0.0132939825 0.041430645
0.046455536 -0.03035044 0.041306343 -0.0046830503 -0.025869738 -0.05803632 -0.06041252 0.10291285
-0.070567064 -0.059366565 0.08859525 -0.09536179 -0.07457097 -0.050227996 0.0040489975 0.114168786
-0.018361727 0.084121644 0.023859836 0.07611829 0.02786994 0.08732487 0.026484804 0.05819334
0.031591825 -0.07201007 0.062112555 -0.09068123 -0.013370375 -0.081511565 -0.03054483 0.05914722
-0.067612156 -0.15466106 0.057260297 0.019189524 0.09007099 0.028728403 -0.008580929 0.09305831
-0.03609057 0.012761376 0.08189241 -0.07201969 -0.055942327 0.11224725 -0.053292554 0.10216511
0.08973234 -0.017251162 0.10995439 0.044265408 -0.00014673745 0.012518122 0.06728514 0.0048720674
0.08738176 0.04811293 0.031773567 -0.061960768 -0.05647286 -0.03141361 -0.11937098 -0.0008303787
-0.021385394 0.01391162 0.08183469 -0.035313074 0.094096005 0.01234561 0.12524468 0.08155686
-0.070778154 -0.06383811 -0.03410655 -0.060511574 -0.039848827 0.0030379402 -0.12351852 0.03287998
-0.09068915 0.038582332 -0.058390316 -0.07832023 0.043643374 0.07710652 0.06306187 0.03165448
0.024948193 -0.027185662 0.07833232 0.029339043 0.05353162 -0.1047413 -0.036364354 -0.046398196
-0.047734257 -0.13312517 0.008360539 -0.10573053 -0.1083126 -0.0601327 -0.028840408 -0.0659737
-0.09619326 -0.025395017 0.112760134 0.07634217 -0.041982867 -0.009309499 -0.04325116 0.09753039
00000000: 091f 45bd 16ce 91bd 2c01 5e3d 603a ed3c
00000010: 70ac b63c b86f 923d d90a 9ebd d578 1c3d
00000020: 46f5 d1bd 4050 debd 182e a1bd 6435 bcbd
00000030: dd58 b73d 5e79 b8bd 8e5b 1abc 7566 1dbd
00000040: 719e 7abd 4eaa 9abd 1b6e e53c 60bd 803c
00000050: a7b5 113c 7803 a43d 7f3f 80bd a1aa 6f3d
00000060: 210a 62bd 09d3 a5bd fb42 9dbb 72ce 783d
00000070: ab82 bcbd 1130 d9bd ac78 96bd 5842 32bd
00000080: 11ba 3c3a bbfc 45bc be4d d73d cf92 9f3d
00000090: 72b4 08be 806e a33a eec1 783d db56 0bbe
000000a0: 4275 cabd b55b 83bd 9f1b 03be 5446 b8bd
000000b0: 6eef 153c c109 bfbc f078 a33d f7a1 9fbc
000000c0: 0460 8b3d 713f 143c 42c0 0abd 6c87 3abc
000000d0: 0b88 71bb ff16 c4bd 19d5 79bd 9d2d f5bd
000000e0: b2c6 fa3d acfa 133b 9037 c43c c134 863d
000000f0: 17bf 313d 47f9 74bd 5066 ccbd a51b 67bd
00000100: 9b21 e2bd 4255 a03c 46eb 3dbd e6d7 8fbc
00000110: c4ef 043e 85c5 27bc 7f8f 273c f72b b2bd
00000120: d618 7b3d 6976 6b3d 0403 bf3d da43 233c
00000130: 060c dd3b 90c7 7ebd 7f44 623d 3d61 023c
00000140: 3699 1d3d 98f0 1f3c 63fd 9bbc 1f8d 4c3d
00000150: e883 0d3d 8ba2 6abc 3f8b 8f3d 4bd8 8c3c
00000160: 9f47 eabd 04e6 483d 7023 4bbc e338 b3bd
00000170: 8884 71bd b701 f63d 57bd 82bc fb98 593d
00000180: 0c64 763b d101 2a3c 2cf1 503b d8da 2f3d
00000190: 042c 863d 2441 443d d967 75bd 0a56 8bbd
000001a0: c931 723d 9f69 2fbd fd16 2c3c c943 f3bd
000001b0: 4eb5 ef3c 9387 9a3d 9068 36bb adf0 debd
000001c0: 97b3 cfbd 3935 02be f9e1 b5bd ae48 e8bd
000001d0: ef89 b2bc 837f 813d 72b9 0bbd 413c 6a3d
000001e0: 23ec 8abd d4c9 753d e072 72bd 9a1b 803d
000001f0: 1b50 a3bb 9ced e6bd 049a cf3d 888f 8c3d
00000200: 427e 973d 818c 26bd 940b 71bd 43e6 b23d
00000210: 0cb1 f0bd b401 103e bb98 793c 5b6e 283d
00000220: 776d 873d 8eb0 e5bb 3dd4 d33c 0a0a f83d
00000230: 5ea5 b83c 2f57 333d 01cf 593c 2eb3 293d
00000240: 2948 3e3d 7ca1 f8bc d730 293d 4674 99bb
00000250: c6ec d3bc 7eb7 6dbd 1e73 77bd f9c3 d23d
00000260: 7785 90bd 5b2a 73bd 6d71 b53d 0b4d c3bd
00000270: aab8 98bd dfbb 4dbd 74ad 843b 53d1 e93d
00000280: 556b 96bc f847 ac3d b475 c33c e8e3 9b3d
00000290: 804f e43c 62d7 b23d a9f6 d83c 245c 6e3d
000002a0: 6e66 013d 047a 93bd bc69 7e3d 15b7 b9bd
000002b0: 6b0f 5bbc 89ef a6bd 2739 fabc 5b44 723d
000002c0: 3e78 8abd 785f 1ebe c689 6a3d 5933 9d3c
000002d0: 2477 b83d d457 eb3c 0697 0cbc 5b95 be3d
000002e0: b5d3 13bd 1715 513c 35b7 a73d 0f7f 93bd
000002f0: c823 65bd e3e1 e53d 4b49 5abd f13b d13d
00000300: 97c5 b73d 4f52 8dbc c42f e13d a54f 353d
00000310: 89dd 19b9 cf18 4d3c cbcc 893d dda5 9f3b
00000320: 35f5 b23d 1012 453d 0025 023d 93ca 7dbd
00000330: 1650 67bd 8fab 00bd c678 f4bd c5ad 59ba
00000340: 6c30 afbc 90ed 633c f298 a73d 71a4 10bd
00000350: 68b5 c03d 3e45 4a3c 2440 003e 4807 a73d
00000360: 23f4 90bd 8ebd 82bd 4fb3 0bbd fcda 77bd
00000370: 8638 23bd 2e18 473b 47f7 fcbd 28ad 063d
00000380: 3cbb b9bd 8208 1e3d af2a 6fbd 5b66 a0bd
00000390: 65c3 323d 06ea 9d3d 9526 813d 21a8 013d
000003a0: 2760 cc3c 77b4 debc b26c a03d 6f58 f03c
000003b0: f943 5b3d 9b82 d6bd caf2 14bd 090c 3ebd
000003c0: ff84 43bd f751 08be a4fa 083c 4089 d8bd
000003d0: ffd2 ddbd b54d 76bd b842 ecbc 381d 87bd
000003e0: f900 c5bd 3609 d0bc c9ee e63d 4959 9c3d
000003f0: 3af6 2bbd de86 18bc 2128 31bd 03be c73d

mixture_net.mol_attn_layers.0.self_attn_layer.out_proj.bias f4 [64]
-0.001047167 0.011667583 -0.00025223283 8.865619e-05 0.0052824756 0.0003857019 0.0065962435 0.0012918239
0.0024221486 0.0041669263 -0.0011154771 -0.010045453 -0.015095196 0.0045523476 -0.01150437 -0.009242903
-0.0042305244 0.01265026 -0.009497579 -0.004546368 -0.0044510863 0.0019813052 0.015362803 -0.0036639005
0.0064434935 0.00234105 -0.009389927 0.0057721836 0.0009310932 -0.0043738424 -0.008782099 -0.0045734723
0.0009377123 -0.0030597358 -0.0008181992 -0.00033465843 -0.0002825797 0.0014561713 0.0012446579 -0.014678242
-0.00017636278 -0.007198958 -0.0031908876 0.0061851274 0.0031527588 -0.00058802887 0.0056156865 -0.0027008236
0.010618669 -0.020493062 0.013868729 0.0011067616 -0.0041410835 0.0036454538 0.008735741 0.01292808
-0.0011257031 0.0025772993 0.0041858223 0.0013871201 0.003043376 -0.0051985835 0.004959899 -0.012965204
00000000: 1841 89ba 6429 3f3c 1e3e 84b9 eeec b938
00000010: 9e18 ad3b 0838 ca39 4d25 d83b 6b52 a93a
00000020: e9bc 1e3b b68a 883b 3335 92ba af95 24bc
00000030: d751 77bc dc2b 953b d37c 3cbc 8c6f 17bc
00000040: 36a0 8abb 0943 4f3c bc9b 1bbc b3f9 94bb
00000050: 6bda 91bb c9d8 013b 44b4 7b3c 0d1e 70bb
00000060: f123 d33b 4d6c 193b 35d8 19bc 9624 bd3b
00000070: 9b14 743a 7352 8fbb cbe2 0fbc 11dd 95bb
00000080: cfd0 753a d985 48bb 6b7c 56ba 1875 afb9
00000090: 3527 94b9 00dd be3a ca23 a33a 027d 70bc
000000a0: 06ee 38b9 3de5 ebbb 361e 51bb 9cac ca3b
000000b0: 849e 4e3b f325 1aba cb03 b83b 4d00 31bb
000000c0: edf9 2d3c 11e1 a7bc aa39 633c c210 913a
000000d0: edb1 87bb 91e8 6e3b 5a20 0f3c 4cd0 533c
000000e0: 548c 93ba e8e7 283b 3929 893b 07d0 b53a
000000f0: 6073 473b e158 aabb a686 a23b 026c 54bc

mixture_net.mol_attn_layers.0.addnorm1.norm.weight f4 [64]
1.0101184 0.9994135 1.0097275 0.9937005 0.98508483 0.9953075 0.9874465 0.99867886
0.998332 1.018354 1.0076047 1.0015405 1.0009794 0.9970379 1.0226264 1.0000038
0.97958076 0.99173075 1.0272962 0.96994936 1.0040187 0.9983145 0.97302794 1.0010506
1.0067558 1.0010556 1.0040553 0.99533457 0.98215836 0.9923121 1.0002972 0.9741643
0.99502873 1.0112137 0.9999097 0.9972489 0.9847086 1.0109735 0.99344087 1.0267161
0.9829515 1.0127561 1.011787 1.0006175 1.0049586 0.99103427 0.9883087 1.0219957
1.0225766 0.99616504 0.99811924 0.9905751 0.9896186 0.9859366 0.98904383 1.0062805
1.0011966 1.0453362 0.9807951 1.0062867 0.9927826 1.0095129 0.9903089 1.0029054
00000000: 8f4b 813f 90d9 7f3f c03e 813f 2863 7e3f
00000010: 852e 7c3f 79cc 7e3f 4bc9 7c3f 6ba9 7f3f
00000020: b092 7f3f 6d59 823f 31f9 803f 7b32 803f
00000030: 1820 803f e03d 7f3f 6ce5 823f 2000 803f
00000040: cec5 7a3f 11e2 7d3f 717e 833f 9a4e 783f
00000050: af83 803f 8a91 7f3f 5c18 793f 6d22 803f
00000060: 60dd 803f 9722 803f e284 803f 3fce 7e3f
00000070: bb6e 7b3f 2a08 7e3f bd09 803f d562 793f
00000080: 34ba 7e3f 736f 813f 15fa 7f3f b44b 7f3f
00000090: dd15 7c3f 9467 813f 2452 7e3f 6f6b 833f
000000a0: b6a2 7b3f fea1 813f 3d82 813f 3c14 803f
000000b0: 7ca2 803f 6cb4 7d3f cd01 7d3f c1d0 823f
000000c0: cae3 823f ac04 7f3f be84 7f3f 5496 7d3f
000000d0: a557 7d3f 5766 7c3f fa31 7d3f cdcd 803f
000000e0: 3627 803f 94cd 853f 6315 7b3f 01ce 803f
000000f0: 0027 7e3f b837 813f e284 7d3f 345f 803f

mixture_net.mol_attn_layers.0.addnorm1.norm.bias f4 [64]
-0.00065803755 0.0052348296 0.0054518804 0.0151418755 0.0039339256 -0.0037790404 -0.0007862422 0.0022124068
0.0053428155 0.008974411 6.6294975e-05 0.01691541 -0.00027406626 0.00831116 -0.011881759 -0.0043552234
-0.00015510233 0.011993059 -0.009957274 -0.0029046563 0.003559825 0.009693019 0.0050739655 -0.0072247284
0.0063842135 -0.0037251045 -0.0062494953 0.0010887923 -0.012350401 -0.005450343 -0.0058550728 0.004956365
-0.0027921458 -0.004351754 -0.00071898126 0.006152769 -0.0010662173 0.004261711 -0.0018893036 -0.0073846513
-0.007425507 -0.0055359476 0.011371099 0.0033040002 0.010000132 -0.0049003568 0.0071020317 0.0066550025
-5.305143e-05 -0.015663523 -0.029676102 -0.0031465595 0.0027450714 0.0070525766 0.0020565894 0.011312617
0.010602097 -0.007372718 0.012001085 -0.0012187895 0.002004855 -0.0030534938 0.007760968 -0.00648561
00000000: 2780 2cba ef88 ab3b b0a5 b23b a115 783c
00000010: 29e8 803b c7a9 77bb d21b 4eba 07fe 103b
00000020: c912 af3b 6809 133c d807 8b38 3092 8a3c
00000030: 8db0 8fb9 882b 083c b6ab 42bc 43b6 8ebb
00000040: f7a2 22b9 897e 443c d623 23bc 0c5c 3ebb
00000050: f44b 693b 78cf 1e3c 8243 a63b 6abd ecbb
00000060: aa32 d13b e220 74bb 91c8 ccbb cfb5 8e3a
00000070: 5659 4abc ca98 b2bb e9db bfbb 0169 a23b
00000080: 6ffc 36bb 2999 8ebb 047a 3cba 2b9d c93b
00000090: 51c0 8bba d3a5 8b3b 82a2 f7ba f2fa f1bb
000000a0: ab51 f3bb e566 b5bb d94d 3a3c ed87 583b
000000b0: 98d7 233c 2c93 a0bb 29b8 e83b 3512 da3b
000000c0: 8a83 5eb8 ca50 80bc 4c1b f3bc 8236 4ebb
000000d0: a8e6 333b 4d19 e73b d8c7 063b 8e58 393c
000000e0: 6bb4 2d3c d796 f1bb 33a0 443c cabf 9fba
000000f0: e363 033b 201d 48bb b84f fe3b 3d85 d4bb

mixture_net.mol_attn_layers.0.ffn.layers.0.weight f4 [64, 64]
0.007494676 0.036118746 0.07217699 0.08632454 0.0136171505 -0.02037373 0.02635563 0.07719393
0.029775739 -0.13746749 -0.06483743 -0.112043224 0.06966895 0.051954977 -0.08312248 0.019873219
-0.049543224 0.0064925924 0.06388628 0.07833228 -0.06126128 0.003686071 0.08030548 -0.087288246
0.05524665 0.1159386 0.031817704 0.008411762 0.036460005 0.009061927 -0.08906914 -0.047650713
-0.09342414 -0.03655657 0.14268157 0.021733632 0.043744117 0.081199154 -0.0012062056 -0.083536595
-0.09516199 -0.105603606 -0.009430059 0.03897908 0.010735412 0.089949176 0.024379233 -0.022673037
0.013889996 0.08070831 0.015088407 -0.06545929 0.0974208 -0.099916756 0.07264711 0.044254646
-0.08715982 -0.034772832 -0.07310808 0.09302121 -0.013216025 -0.07055257 0.10483379 -0.0376188
-0.05424748 0.003864853 -0.009298108 0.05264681 0.0050332197 0.111150436 -0.06972915 -0.05472625
0.08868821 0.09677751 0.057972413 -0.036613185 -0.15175794 0.06480575 0.03303392 0.012020609
0.020001717 0.1039118 0.015335415 -0.07819991 0.11690429 -0.058376506 -0.12081492 -0.080815405
-0.014609133 -0.0674904 0.007496183 0.10454709 0.12826896 0.044183984 0.06724461 0.022938186
-0.08590945 -0.10737358 -0.02269909 0.08152579 0.112155266 -0.10248717 0.06031566 -0.090211995
0.047682304 0.060607698 0.08430904 -0.025139892 -0.07541119 0.07781097 -0.11161182 -0.077159524
0.102359325 0.0017188943 -0.10459146 0.03730361 -0.060663614 0.08915148 0.049274225 -0.045809466
-0.008267917 -0.06553819 -0.10301433 0.090282865 0.027202526 0.06980797 0.009485793 -0.056451373
0.11659646 -0.020612003 0.05066691 0.10895184 0.057914432 -0.1002193 0.086835586 0.12321022
-0.07436491 -0.046661384 -0.018577153 0.051384445 0.026706481 0.0682384 -0.036642622 0.04413294
0.028447019 -0.10570478 -0.014921955 -0.085600294 -0.12109385 -9.75256e-06 -0.12833185 0.063237414
-0.16916904 -0.075791724 0.088869944 -0.020217612 -0.02138493 -0.008492296 -0.054327175 -0.031643268
0.04910304 0.016947187 -0.009625012 -0.028876988 -0.08573364 -0.06301041 -0.0922275 0.041781943
0.06455316 0.0737831 -0.100753166 -0.09753711 0.10898144 0.08588671 -0.072195545 0.121501416
-0.03769848 0.091053054 0.047527228 -0.0015651311 -0.0094899 0.07974746 0.081555255 -0.017000508
-0.121634714 0.11883448 -0.09760056 -0.025366783 0.09497578 -0.059948646 -0.03613062 0.030476976
0.0686455 -0.12649345 -0.13503033 -0.06370761 -0.12213744 0.04467256 0.037329167 0.065926515
-0.053912822 -0.037068125 0.005468152 0.112704195 0.0027138072 -0.08226448 0.086868465 0.105125725
-0.021344056 0.10933877 0.021705095 -0.07208079 -0.10685401 -0.021170197 0.10469925 -0.07552666
-0.13294412 -0.01686957 0.030841244 -0.052905966 -0.06398431 0.042522047 0.083860524 0.045764193
-0.038485106 -0.0677151 -0.063278265 -0.08010324 -0.10779571 0.08630755 0.039599266 -0.043246433
0.025510734 -0.041751817 0.072948076 -0.036753636 -0.07978944 -0.05063269 0.027388372 -0.026793882
-0.019406086 -0.017502809 0.07590975 -0.022274543 0.08504653 0.09895139 0.052548915 0.02408474
-0.020425826 -0.0021518054 0.026406044 0.05477292 -0.014336754 -0.097352386 0.12854746 0.059025098
00000000: e695 f53b 40f1 133d 88d1 933d ecca b03d
00000010: 781a 5f3c cfe6 a6bc c3e7 d73c da17 9e3d
00000020: 40ec f33c 47c4 0cbe 7dc9 84bd eb76 e5bd
00000030: 98ae 8e3d bece 543d 1e3c aabd 29cd a23c
00000040: d6ed 4abd d0bf d43b cfd6 823d ad6c a03d
00000050: 1ced 7abd 0292 713b 3377 a43d 2ec4 b2bd
00000060: 504a 623d 3771 ed3d 4853 023d 7dd1 093c
00000070: 1657 153d 7a78 143c e269 b6bd 652d 43bd
00000080: 2855 bfbd 58bc 15bd 1e1b 123e bb0a b23c
00000090: 082d 333d be4b a63d 8b19 9eba 3c15 abbd
000000a0: 4ae4 c2bd b446 d8bd 8980 1abc 87a8 1f3d
000000b0: 95e3 2f3c 4637 b83d f5b6 c73c cebc b9bc
000000c0: de92 633c 664a a53d 5e35 773c 850f 86bd
000000d0: 8e84 c73d 28a1 ccbd 02c8 943d 5c44 353d
000000e0: d980 b2bd f56d 0ebd b0b9 95bd e781 be3d
000000f0: 0788 58bc de7d 90bd 19b3 d63d 2c16 1abd
00000100: 9b32 5ebd 7949 7d3b 1757 18bc 2ea4 573d
00000110: b5ed a43b d7a2 e33d 28ce 8ebd a228 60bd
00000120: 2aa2 b53d 4a33 c63d 7b74 6d3d b5f7 15bd
00000130: 6f66 1bbe e1b8 843d 934e 073d 17f2 443c
00000140: a4da a33c b6cf d43d 6441 7b3c 4627 a0bd
00000150: 846b ef3d 341c 6fbd d06d f7bd 8c82 a5bd
00000160: 255b 6fbc 6838 8abd 8aa2 f53b c91c d63d
00000170: f058 033e 44fa 343d 8bb7 893d dde8 bb3c
00000180: 4bf1 afbd aee6 dbbd 71f3 b9bc fef6 a63d
00000190: a9b1 e53d cbe4 d1bd 8e0d 773d 11c1 b8bd
000001a0: 854e 433d c73f 783d 38aa ac3d 2df2 cdbc
000001b0: 2f71 9abd 5c5b 9f3d bd94 e4bd d005 9ebd
000001c0: c4a1 d13d 864c e13a 0c34 d6bd accb 183d
000001d0: 697a 78bd 0d95 b63d c5d3 493d b5a2 3bbd
000001e0: 2876 07bc e338 86bd 2df9 d2bd 39e6 b83d
000001f0: d5d7 de3c 7bf7 8e3d 4d6a 1b3c 8e39 67bd
00000200: 20ca ee3d 81da a8bc 1b88 4f3d 2422 df3d
00000210: af37 6d3d c73f cdbd dbd6 b13d a455 fc3d
00000220: a14c 98bd 0220 3fbd 1d2f 98bc 7f78 523d
00000230: 8dc7 da3c 93c0 8b3d 9316 16bd bec4 343d
00000240: b909 e93c bf7b d8bd 377b 74bc 354f afbd
00000250: 0d00 f8bd ed9e 23b7 6d69 03be 9e82 813d
00000260: a63a 2dbe b138 9bbd 7201 b63d 689f a5bc
00000270: 732f afbc 4523 0bbc 2c86 5ebd 5f9c 01bd
00000280: 4520 493d d4d4 8a3c 3ab2 1dbc 6f8f ecbc
00000290: 1e95 afbd 9a0b 81bd c6e1 bcbd 8b23 2b3d
000002a0: 7234 843d 981b 973d ad57 cebd 89c1 c7bd
000002b0: a931 df3d 5fe5 af3d 42db 93bd bcd5 f83d
000002c0: b969 1abd 067a ba3d e9ab 423d 1625 cdba
000002d0: 877b 1bbc a352 a33d 7106 a73d a644 8bbc
000002e0: 9f1b f9bd 7e5f f33d cde2 c7bd 00ce cfbc
000002f0: a982 c23d b68c 75bd b3fd 13bd daaa f93c
00000300: 0396 8c3d 8087 01be 6445 0abe 2379 82bd
00000310: 3223 fabd 93fa 363d 78e6 183d 7b04 873d
00000320: b1d3 5cbd bfd4 17bd 2f2e b33b 75d1 e63d
00000330: 21da 313b 487a a8bd 18e8 b13d 284c d73d
00000340: bbd9 aebc 01ed df3d e2ce b13c 189f 93bd
00000350: 46d6 dabd 1f6d adbc 8f6c d63d b9ad 9abd
00000360: 8122 08be 0d32 8abc c7a6 fc3c edb3 58bd
00000370: 350a 83bd 992b 2e3d 11bf ab3d 3c73 3b3d
00000380: 8fa2 1dbd 37ae 8abd 0998 81bd 2b0d a4bd
00000390: ffc3 dcbd 03c2 b03d d732 223d 2c23 31bd
000003a0: e3fb d03c f403 2bbd cd65 953d fb8a 16bd
000003b0: a568 a3bd 3964 4fbd 945d e03c d87e dbbc
000003c0: 83f9 9ebc 0d62 8fbc 9276 9b3d 1a79 b6bc
000003d0: e02c ae3d 07a7 ca3d 883d 573d 5c4d c53c
000003e0: 1054 a7bc 4e05 0dbb 7d51 d83c 9259 603d
000003f0: b4e4 6abc b060 c7bd f2a1 033e 4dc4 713d

mixture_net.mol_attn_layers.0.ffn.layers.0.bias f4 [64]
0.08161187 0.012466662 0.022028057 0.030092252 -0.093451425 0.06381987 0.021781117 0.0024401438
-2.7238011e-05 -0.034007438 -0.019036572 -0.028574612 0.10482717 0.042545706 0.03069134 0.06810019
0.084089145 0.022797642 -0.1372285 -0.12829933 0.08495891 0.06384959 -0.05724499 -0.07989746
0.066567235 -0.012318106 -0.08062054 0.07909372 0.076244175 0.012666936 0.022954863 -0.0034969505
-0.047854863 -0.07652452 -0.10415831 -0.0044972734 -0.03374127 -0.027497875 0.057022505 0.061939675
0.02632263 -0.12744412 -0.12786311 0.07647339 -0.041960947 -0.11010133 -0.12133861 -0.09890403
0.1037292 0.018483344 0.08190796 -0.04927336 0.005076552 0.098081075 0.016999682 -0.06186304
-0.1103112 0.050922878 0.05762706 -0.050053403 -0.018924473 0.039831243 0.10510674 -0.055099525
00000000: 2024 a73d f840 4c3c 2f74 b43c 0784 f63c
00000010: 7663 bfbd feb3 823d 506e b23c d2ea 1f3b
00000020: 2f7d e4b7 624b 0bbd 96f2 9bbc 4e15 eabc
00000030: a1af d63d 6844 2e3d 686c fb3c 1d78 8b3d
00000040: ee36 ac3d 1fc2 ba3c a185 0cbe e660 03be
00000050: f0fe ad3d 93c3 823d b979 6abd 48a1 a3bd
00000060: 6754 883d e2d1 49bc 621c a5bd e3fb a13d
00000070: e825 9c3d fb88 4f3c d60b bc3c 182d 65bb
00000080: 7603 44bd e3b8 9cbd f450 d5bd dd5d 93bb
00000090: 4934 0abd 3943 e1bc 6e90 693d 75b4 7d3d
000000a0: 8ea2 d73c b680 02be 8cee 02be 159e 9c3d
000000b0: 3edf 2bbd ce7c e1bd 6180 f8bd 328e cabd
000000c0: fa6f d43d 626a 973c 5cbf a73d ddd2 49bd
000000d0: 3459 a63b bbde c83d eb42 8b3c 1964 7dbd
000000e0: d7ea e1bd 8294 503d 5a0a 6c3d cc04 4dbd
000000f0: 7f07 9bbc 1626 233d 3442 d73d 0ab0 61bd

mixture_net.mol_attn_layers.0.ffn.layers.2.weight f4 [64, 64]
0.13147831 -0.061917048 -0.06376467 0.10725942 0.09792917 -0.0651468 -0.09300637 0.108083725
0.044882216 0.0865846 0.115173735 0.080316834 0.066741094 -0.09383518 0.11657883 -0.011432178
-0.033627726 0.07617919 0.086662866 0.07588677 0.096961334 0.07273436 -0.05334516 -0.057096135
-0.054415535 0.0791584 -0.05385827 -0.09542042 -0.092767484 -0.0058080894 0.08377337 0.10682464
-0.029778799 -0.059202317 0.0796744 0.10753814 0.0117555605 0.13863827 -0.07601696 0.015779665
0.04740177 -0.06286822 0.012194015 0.016376315 -0.050110396 0.006069674 -0.04655132 0.08485285
0.07800722 -0.007410131 -0.100216344 0.04614663 0.037804157 -0.03665723 0.117405035 0.011464306
0.03467356 -0.06765672 0.11663698 -0.117969096 -0.04711741 0.105069354 0.097334616 0.06718679
0.06837912 0.10017213 -0.05993761 0.07747188 0.062689796 0.11566002 -0.08581941 -0.09176036
-0.032939494 -0.011854885 0.12697628 0.020457413 -0.107212864 -0.066829264 -0.04603202 -0.11820508
-0.0025469107 -0.07891406 -0.007344436 -0.069043554 -0.018456196 -0.037364762 -0.081206195 -0.002264432
-0.0033631641 0.035700195 0.072174326 -0.06321098 -0.08958973 0.015265724 -0.11106308 -0.08492848
0.031072473 -0.005079811 -0.051078342 0.03073414 0.040092815 0.10244443 0.0028129527 -0.10496034
0.019098714 -0.02887538 -0.09111993 -0.021935388 0.11110994 0.055173583 -0.030146329 0.107695505
-0.14600438 0.08355585 -0.054169554 0.05299704 0.01725538 0.076227315 0.104141384 0.045124374
0.05284943 -0.08708396 -0.04141728 0.06863723 0.089217894 0.013386932 0.056113202 0.01643006
-0.039025605 -0.003609177 0.11207004 0.12000092 0.09260864 0.07231251 0.02383843 -0.0767818
-0.023534833 -0.050862905 -0.026367983 -0.027680453 -0.041849017 -0.046305288 -0.051274836 0.02411398
0.07223773 0.11888997 -0.012266271 0.094871 -0.031684175 -0.06663346 0.10133606 -0.031829633
-0.025305973 -0.023566652 0.1038181 -0.052354068 0.12098078 0.034045976 -0.117606744 0.06318987
-0.09725872 -0.089831114 -0.09412049 0.05603379 -0.16218773 -0.1264405 -0.0317057 0.022562692
-0.07019082 0.10180847 0.027659342 0.045609135 -0.017993089 0.12386419 -0.026878692 -0.04195303
-0.035548598 0.07704523 0.0024799448 0.100049645 -0.09215132 0.09593115 -0.069155656 -0.025186006
-0.09542376 0.090794526 -0.11828003 -0.10494387 -0.096317686 -0.040474385 -0.099177085 0.096575394
-0.016237007 0.109224014 0.0313672 0.037824277 -0.08375275 -0.06754813 -0.012446001 -0.0692087
0.07317191 -0.063214086 0.08428546 -0.057312094 -0.11875795 -0.027726514 0.04177079 -0.081141606
0.03973137 0.008285179 -0.10516795 -0.058229018 -0.022468671 0.06834867 0.014247466 0.032809526
0.03996524 0.054203976 0.06949354 0.0012822461 0.11529529 -0.032051574 -0.101123855 -0.0007008213
-0.09873119 0.040714514 -0.02159188 -0.010447591 0.105060875 0.11829724 0.111764975 -0.051823426
0.032984935 0.03586112 -0.10558404 -0.016384963 -0.09989087 -0.08681171 0.09723484 0.058263794
-0.1246722 0.070358425 -0.031179622 -0.075022615 -0.027893493 0.043284155 0.12210291 0.08266842
0.0059242127 -0.045484867 -0.08191519 0.073836386 -0.046032157 0.0482175 -0.09464955 -0.10582701
00000000: 40a2 063e bb9c 7dbd 0d97 82bd d4aa db3d
00000010: 178f c83d af6b 85bd 207a bebd 005b dd3d
00000020: 6ad6 373d 4453 b13d 35e0 eb3d 277d a43d
00000030: 8eaf 883d a92c c0bd e2c0 ee3d 084e 3bbc
00000040: 3abd 09bd d603 9c3d 4d7c b13d 866a 9b3d
00000050: aa93 c63d c1f5 943d 7480 5abd a3dd 69bd
00000060: d3e2 5ebd cd1d a23d 7d9a 5cbd c86b c3bd
00000070: e1fc bdbd c951 bebb 5f91 ab3d e0c6 da3d
00000080: abf2 f3bc 217e 72bd 552c a33d f53c dc3d
00000090: 659a 403c 31f7 0d3e c8ae 9bbd 5b44 813c
000000a0: 5c28 423d 0ec1 80bd 68c9 473c 9f27 863c
000000b0: 8f40 4dbd 1ee4 c63b 99ac 3ebd 55c7 ad3d
000000c0: 40c2 9f3d afd0 f2bb 3a3e cdbd 4004 3d3d
000000d0: 88d8 1a3d e425 16bd 0d72 f03d c9d4 3b3c
000000e0: dd05 0e3d 9b8f 8abd 5edf ee3d c899 f1bd
000000f0: 2ffe 40bd 9a2e d73d 5f57 c73d 3a99 893d
00000100: 5a0a 8c3d 0c27 cd3d 2481 75bd 94a9 9e3d
00000110: 8263 803d 29df ec3d 16c2 afbd dbec bbbd
00000120: 90eb 06bd fe3a 42bc 1206 023e 4e96 a73c
00000130: 6b92 dbbd c8dd 88bd 128c 3cbd 8115 f2bd
00000140: 12ea 26bb b29d a1bd 98a9 f0bb b566 8dbd
00000150: 7331 97bc cb0b 19bd 6f4f a6bd dd66 14bb
00000160: 8868 5cbb 5e3a 123d 22d0 933d c274 81bd
00000170: d27a b7bd 161d 7a3c 0a75 e3bd fcee adbd
00000180: b38b fe3c 8b74 a6bb 8637 51bd 2ac6 fb3c
00000190: 5d38 243d 63ce d13d 8459 383b 72f5 d6bd
000001a0: e874 9c3c 108c ecbc 169d babd d8b1 b3bc
000001b0: 9c8d e33d b2fd 613d 6ff5 f6bc 768f dc3d
000001c0: 2c82 15be 541f ab3d e5e0 5dbd 6d13 593d
000001d0: 285b 8d3c 111d 9c3d 1448 d53d 56d4 383d
000001e0: a578 583d 1359 b2bd 2aa5 29bd ad91 8c3d
000001f0: dfb7 b63d dd54 5b3c f5d6 653d 5598 863c
00000200: 50d9 1fbd f187 6cbb fa84 e53d 0bc3 f53d
00000210: 99a9 bd3d 9518 943d d048 c33c c73f 9dbd
00000220: 1fcc c0bc 9f55 50bd ab01 d8bc 1ec2 e2bc
00000230: e069 2bbd 9daa 3dbd 9005 52bd ae8a c53c
00000240: 60f1 933d 967c f33d 78f8 48bc ba4b c23d
00000250: 44c7 01bd 2077 88bd 4889 cf3d ca5f 02bd
00000260: 794e cfbc da0e c1bc 969e d43d 3871 56bd
00000270: c5c4 f73d cb73 0b3d cedb f0bd b169 813d
00000280: 942f c7bd 60f9 b7bd 3ec2 c0bd b083 653d
00000290: 8a14 26be 9e79 01be d6dd 01bd 65d5 b83c
000002a0: 34c0 8fbd f680 d03d d895 e23c a5d0 3a3d
000002b0: 3e66 93bc 82ac fd3d b430 dcbc f1d6 2bbd
000002c0: 689b 11bd e4c9 9d3d 9286 223b d4e6 cc3d
000002d0: d5b9 bcbd 8d77 c43d 7ba1 8dbd e252 cebc
000002e0: 886d c3bd 7bf2 b93d cd3c f2bd d0ec d6bd
000002f0: 3542 c5bd 78c8 25bd 5b1d cbbd 52c9 c53d
00000300: 7903 85bc d7b0 df3d e57a 003d a1ed 1a3d
00000310: 9086 abbd ad56 8abd 50ea 4bbc 4abd 8dbd
00000320: 28db 953d 6376 81bd db9d ac3d 16c0 6abd
00000330: 5e37 f3bd b722 e3bc d917 2b3d 922d a6bd
00000340: 5cbd 223d 8fbe 073c 4b62 d7bd 8d81 6ebd
00000350: 3810 b8bc 63fa 8b3d 346e 693c 4863 063d
00000360: 97b2 233d fd04 5e3d a152 8e3d 0a11 a83a
00000370: f01f ec3d 8348 03bd 061a cfbd 52b7 37ba
00000380: 9433 cabd 43c4 263d 74e1 b0bc 5f2c 2bbc
00000390: 282a d73d d345 f23d 09e5 e43d cd44 54bd
000003a0: 361b 073d 1ce3 123d 723c d8bd c239 86bc
000003b0: 9693 ccbd 56ca b1bd 0f23 c73d 04a6 6e3d
000003c0: 2354 ffbd 1418 903d 686c ffbc 75a5 99bd
000003d0: e580 e4bc ba4a 313d 1711 fa3d 104e a93d
000003e0: e61f c23b 574e 3abd 27c3 a7bd 8837 973d
000003f0: 378c 3cbd b77f 453d a0d7 c1bd d5bb d8bd

mixture_net.mol_attn_layers.0.ffn.layers.2.bias f4 [64]
0.024987694 -0.031165639 -0.030325526 -0.084128015 0.016140478 -0.113739185 -0.008208651 0.030473247
0.12695493 0.10735604 0.008527684 -0.005758394 -0.10598812 -0.009083614 -0.008536825 0.057108093
0.0058283573 0.029453855 0.091360144 -0.097529225 0.11053496 -0.070328034 0.016356142 -0.034062944
0.08854786 -0.027652578 -0.06022319 0.0416478 -0.025836663 -0.0656053 -0.06394922 0.09602065
0.08114987 0.08329338 0.01844736 -0.037716623 -0.014941134 -0.024405977 -0.10194079 -0.1128565
-0.014919055 0.08316671 0.012229536 -0.058745373 0.0012062612 -0.0012595962 0.01946439 -0.027073817
0.011405306 -0.109130315 0.0019818384 -0.052777283 -0.013366257 -0.0012734551 0.022591943 0.11828827
-0.092730805 -0.04712749 -0.06860681 -0.08289895 0.09104515 -0.07482156 0.114865564 -0.1316161
00000000: feb2 cc3c 154f ffbc 3d6d f8bc 4f4b acbd
00000010: 0939 843c 17f0 e8bd 947d 06bc 08a3 f93c
00000020: 7900 023e 7cdd db3d b3b7 0b3c e9b0 bcbb
00000030: 4d10 d9bd 70d3 14bc 0ade 0bbc 2dea 693d
00000040: cefb be3b 3649 f13c 071b bb3d 67bd c7bd
00000050: 2760 e23d 2508 90bd 51fd 853c 9685 0bbd
00000060: 9558 b53d a987 e2bc 97ac 76bd e296 2a3d
00000070: 69a7 d3bc 125c 86bd cff7 82bd 79a6 c43d
00000080: e731 a63d b895 aa3d eb1e 973c bf7c 1abd
00000090: a8cb 74bc 0bef c7bc 55c6 d0bd 4f21 e7bd
000000a0: 0d6f 74bc 4f53 aa3d 645e 483c fd9e 70bd
000000b0: 691b 9e3a 0919 a5ba c973 9f3c e9c9 ddbc
000000c0: 52dd 3a3c b77f dfbd bbe1 013b fe2c 58bd
000000d0: 25fe 5abc 10ea a6ba bd12 b93c 1f41 f23d
000000e0: a6e9 bdbd c108 41bd ba81 8cbd edc6 a9bd
000000f0: e175 ba3d 0c3c 99bd a33e eb3d 5fc6 06be

mixture_net.mol_attn_layers.0.addnorm2.norm.weight f4 [64]
1.0077257 1.0016655 1.0100201 0.99146456 0.99138045 1.0072956 0.9948066 0.9973938
1.0000952 1.0211742 1.010048 0.99993855 0.9999626 0.9967556 1.0248514 1.0092046
0.9779693 1.0063155 1.0245391 0.9691063 0.999069 1.0026846 0.97643167 1.0039717
1.0102408 1.0041994 1.00606 0.9964094 0.9860216 0.9929326 0.999873 0.98736906
0.99336433 1.0214819 1.0022727 0.99180317 0.98166263 1.0120068 0.9913462 1.0102828
0.9789359 1.0201508 1.0029389 1.0000254 1.0035614 0.995896 0.9922115 1.0247673
1.0231444 1.0005052 1.0021394 0.9923358 0.9881899 0.9864229 0.9845533 1.0071476
1.0039855 1.0480908 0.9810607 1.0076 0.99688727 1.0083536 0.9929627 1.0036833
00000000: 28fd 803f 9336 803f 5748 813f 9fd0 7d3f
00000010: 1ccb 7d3f 10ef 803f a5ab 7e3f 3355 7f3f
00000020: 1f03 803f d6b5 823f 4149 813f f9fb 7f3f
00000030: 8dfd 7f3f 602b 7f3f 552e 833f 9e2d 813f
00000040: 325c 7a3f f2ce 803f 1924 833f 5a17 783f
00000050: fcc2 7f3f f857 803f 6df7 793f 2582 803f
00000060: 924f 813f 9b89 803f 93c6 803f b014 7f3f
00000070: e96b 7c3f d530 7e3f adf7 7f3f 38c4 7c3f
00000080: 204d 7e3f ebbf 823f 794a 803f d0e6 7d3f
00000090: 3e4e 7b3f 7089 813f ddc8 7d3f f250 813f
000000a0: 8b9b 7a3f 4d94 823f 4d60 803f d500 803f
000000b0: b374 803f 0af3 7e3f 9301 7e3f 932b 833f
000000c0: 65f6 823f 8e10 803f 1b46 803f b809 7e3f
000000d0: 03fa 7c3f 3686 7c3f af0b 7c3f 36ea 803f
000000e0: 9982 803f d727 863f cb26 7b3f 09f9 803f
000000f0: 0134 7f3f bb11 813f ce32 7e3f b278 803f

mixture_net.mol_attn_layers.0.addnorm2.norm.bias f4 [64]
-0.00082847074 0.003203897 0.0052636154 0.01467162 0.00084366684 -0.0059344424 -0.0011035935 0.0029794842
0.008276393 0.010280876 -0.00297954 0.012899267 -0.00067568524 0.008698521 -0.014386672 -0.0048989085
-0.0011053451 0.010211994 -0.0153266955 -0.0012359921 0.00755018 0.015284646 -0.00079710654 -0.0058326083
0.0057991743 -0.0026353938 -0.0051313746 -0.001069333 -0.014625408 -0.009012184 -0.0051458096 -0.00091838907
-0.0006228947 -0.0046139555 -0.0010642187 0.0075304327 0.00030908315 0.0077285524 -0.0048634997 -0.0065967157
-0.0047022915 -0.0065643108 0.0053867395 -0.0016644446 0.0082263285 -0.0008418601 0.008535521 0.005124745
-0.00076285773 -0.014711371 -0.029472396 -0.0014395642 0.0025269915 0.004449545 0.0038454237 0.010808239
0.012773311 -0.008161904 0.01070365 0.0010761459 0.010222324 -0.001963512 0.0062202797 -0.0064128586
00000000: bb2d 59ba 79f8 513b 687a ac3b 3c61 703c
00000010: 8629 5d3a b675 c2bb 74a6 90ba 7343 433b
00000020: b599 073c 1f71 283c 6344 43bb 7257 533c
00000030: 7820 31ba 3e84 0e3c 13b6 6bbc 0687 a0bb
00000040: 3ae1 90ba 3550 273c d21c 7bbc 0301 a2ba
00000050: 8067 f73b 746c 7a3c eaf4 50ba 771f bfbb
00000060: 0007 be3b 92b6 2cbb 1725 a8bb dd28 8cba
00000070: 689f 6fbc d7a7 13bc 2e9e a8bb 0cc0 70ba
00000080: c149 23ba aa30 97bb 417d 8bba d9c1 f63b
00000090: 700c a239 cc3f fd3b fe5d 9fbb 4329 d8bb
000000a0: ae15 9abb 6e19 d7bb 3f83 b03b 7e29 daba
000000b0: b9c7 063c 46b0 5cba 92d8 0b3c 7aed a73b
000000c0: 84fa 47ba f607 71bc 1870 f1bc c2af bcba
000000d0: e29b 253b 7dcd 913b 8103 7c3b 0a15 313c
000000e0: 2647 513c 82b9 05bc 5d5e 2f3c 770d 8d3a
000000f0: 897b 273c 44ae 00bb 7dd3 cb3b f522 d2bb
