scripts_chemix/chemix_weights_pearson/best_model_dict_5.pt (torch, 332174 bytes, 29 tensors)

input_net.weight f4 [64, 196]
000000 4f d6 84 3d 4a 79 a7 3c f5 0d 84 3d c7 67 8b bb
       0.064861886 0.020443577 0.064479746 -0.0042543146
000010 32 dd 21 bc b8 1b 45 bd 43 60 7b bd 91 73 f3 3b
       -0.009879397 -0.048122138 -0.0613711 0.007429548
000020 8d ee 28 3d 2e 28 11 3d 31 18 69 bd 7a c0 ab 3d
       0.041243125 0.03543871 -0.056907836 0.08386321
000030 42 44 98 3d 58 7b 54 bd 64 d1 ab bd b8 dd 25 3c
       0.07434894 -0.051875442 -0.083895475 0.010123663
000040 9e 3f 2b bd a3 92 91 3d b3 81 5a 3d 97 28 ad bc
       -0.041808717 0.07108047 0.053346347 -0.021137519
000050 f6 50 76 bd 88 98 9f bc b8 d7 93 3d 27 08 22 bc
       -0.060135804 -0.019481912 0.072188795 -0.009889639
000060 27 d7 96 bc bc eb 68 3d 3e 19 23 3d 30 f5 22 3c
       -0.01841314 0.05686544 0.039818995 0.009946153
000070 ff 60 86 bd 1d f5 83 3b 38 46 27 bd ac 0b 6f 3d
       -0.06561469 0.0040270225 -0.04083845 0.05836074
000080 ae 3f 62 bc 32 bb 3c 3d 79 9c 43 3d c6 f1 37 bd
       -0.013809128 0.04607696 0.047756646 -0.044908307
000090 1e 66 1e bd 7c bd db bc 7e 2d 9f bb 2b 48 bf bc
       -0.038671605 -0.026823752 -0.004857718 -0.023349842
0000a0 6b 94 a9 bc 13 85 e3 bc ef ac 09 bd db 44 7d bd
       -0.020700654 -0.027773416 -0.033612188 -0.061833244
0000b0 8c dd 7b 3d 0a 18 20 bb 16 2a 07 bd c5 d2 80 3d
       0.06149058 -0.002442839 -0.03299912 0.06290201
0000c0 22 51 b9 3c cb 0c 7d bd 6a 2f 47 3c 05 19 47 3c
       0.022621695 -0.06177978 0.0121573005 0.012151961
0000d0 d0 24 ae bc 50 db 1c 3c df 0b e9 3b be c1 2c bd
       -0.021257788 0.009573773 0.007112011 -0.042176954
0000e0 03 1d 03 3d fa 90 c5 bc f2 24 3f bd 7e 51 56 3d
       0.03201009 -0.024116982 -0.046666093 0.05232381
0000f0 0c af 50 bd bc ef 5e 3d 14 7f 03 bc 10 3b 04 bc
       -0.050948188 0.054427847 -0.008025903 -0.008070722
000100 f5 8d 8c 3a 4a f4 d3 bc 51 8e a4 bd a5 39 4c 3d
       0.0010723459 -0.025873322 -0.08034957 0.04985966
000110 15 bb bd 3c ef c6 90 3b d2 c1 50 3d 2e 0b cc 3b
       0.023160497 0.004418246 0.05096609 0.0062269187
000120 68 a0 94 b7 f0 12 19 bc 3f 1a 61 bd a5 33 0e 3a
       -1.771767e-05 -0.009342894 -0.05495667 0.0005424566
000130 ce ba 2d 3d cf 4d 9d 3c af 5b 58 3d e5 fa 87 3c
       0.04241448 0.019202141 0.05282181 0.016599128
000140 c8 c8 9f bc b1 c9 6c 3d 86 d6 a1 3c da a5 51 3d
       -0.01950492 0.057809535 0.019755613 0.05118356
000150 b1 d0 20 3d 7a 31 ca 3c 09 49 87 3d 91 de 26 3d
       0.039261524 0.024681795 0.06605727 0.0407396
000160 a4 7d 19 bd 3f d9 42 3d 79 35 9d bd 85 88 eb 3b
       -0.037473336 0.047570463 -0.07676215 0.0071879053
000170 81 1b 98 3d 59 96 1a 3d c8 82 63 bd 11 97 ac bc
       0.07427121 0.03774104 -0.055544645 -0.021068128
000180 0c d6 7a bd fb f9 26 bd 0c 2b 19 bd e7 23 e7 bc
       -0.061239287 -0.040765744 -0.03739457 -0.028215362
000190 f3 dc 45 bd ab fb 89 bd c4 5f 18 3d 2b b5 a1 3d
       -0.048306417 -0.06737455 0.037200704 0.07895883
0001a0 9d ee c6 3c 60 da 95 3d 2d f1 82 3c 67 7a 50 3d
       0.024283702 0.07317042 0.015984142 0.050897982
0001b0 98 72 40 3d 95 3f dd 3d 94 44 30 bc 87 9c 87 3d
       0.046984285 0.10803143 -0.010758538 0.06621652
0001c0 71 a7 1d 3d fb 43 4b bd 6f 19 86 bd 4c 34 c8 3a
       0.038489763 -0.049625378 -0.0654782 0.0015274375
0001d0 76 e2 77 3d cc 72 87 3d 68 17 4e 3d 38 ac 0c bd
       0.060518704 0.06613693 0.05031529 -0.034343928
0001e0 c2 5d 0a bd 54 d8 0e bd 9c c0 61 3d 4e ab 1b bc
       -0.03378082 -0.034874275 0.055115327 -0.009501291
0001f0 19 1b 81 bc bf ac 3d 3d 91 b3 bf 3d 33 21 64 bd
       -0.015759991 0.04630732 0.093604214 -0.055695724
000200 b9 01 46 3d 43 e4 2f 3d 4f a0 ea 3c 57 4a 81 bd
       0.048341487 0.042942297 0.028640894 -0.06313007
000210 5a cb 20 bd c3 17 95 3c 01 c5 41 bd b7 f7 97 bd
       -0.03925643 0.018199807 -0.04730702 -0.07420295
000220 3b 8b 9c 3b 31 d1 80 bc 2b 98 93 bd 42 da 28 bd
       0.0047773398 -0.01572475 -0.07206758 -0.041223772
000230 fd 6f 93 bc 8c 87 e6 3c 11 f0 17 3d 3d 6d c9 bd
       -0.017997736 0.028140806 0.03709418 -0.09835289
000240 1a b8 d4 ba 8c ff 92 bc f1 31 66 3d 38 a9 17 ba
       -0.0016229183 -0.01794412 0.05619997 -0.00057854084
000250 7c 6e 2a bd c1 53 fa 3c 65 b9 a1 bd 8d a1 05 bb
       -0.041609272 0.030557515 -0.07896689 -0.0020390481
000260 e2 fe 78 bd 99 5a 19 bd e5 82 aa bc c1 d2 ad 3d
       -0.06078995 -0.037439916 -0.020814369 0.08487464
000270 bd b4 83 3d d5 3c c4 3d 9f 68 d9 3c 16 bb 2e bd
       0.064309575 0.09581915 0.026539145 -0.042658888
000280 cb f1 87 b9 2b ec 46 bd 03 d5 5b bd b8 fb 4c bb
       -0.00025929356 -0.04856507 -0.05366994 -0.0031277966
000290 a7 83 97 3d 85 c2 01 bd e2 a4 9b 3b c0 4e d4 bc
       0.073981576 -0.03167965 0.00474988 -0.025916457
0002a0 d2 be 13 bd 54 bf 18 bd 9d df 12 bd a1 66 48 bd
       -0.036070652 -0.03729184 -0.035857785 -0.048926
0002b0 5b ee b2 bc 18 d1 89 3c 30 ba 20 bd 2f a2 a9 bd
       -0.021842172 0.016823336 -0.039240062 -0.08282887
0002c0 a3 f1 70 3d 72 9d da 3c 46 2b 31 3d 2f dc b5 bc
       0.058824193 0.026686404 0.04325416 -0.022199718
0002d0 13 52 70 bd ed 9a 1f bd 1f e0 57 3d 42 f9 d8 bc
       -0.058672022 -0.038966108 0.052703973 -0.026486043
0002e0 32 22 b8 3c e6 64 95 bc 84 cd e6 bb 21 17 60 bd
       0.022477243 -0.018236589 -0.0070435423 -0.054709557
0002f0 c4 03 91 3d aa 8d 29 3d 90 58 8f 3d 28 97 10 bc
       0.07080796 0.041394867 0.06999314 -0.008825101
000300 5e dc 5f 3d 6e 2c 0f bd 9d 6a 38 3c 60 b7 0e bd
       0.054653518 -0.03495448 0.011255887 -0.03484285
000310 73 2e 87 bb 63 02 83 3d 5c fd 22 bc f0 6d e2 bc
       -0.00412541 0.063969396 -0.009948101 -0.027640313
000320 51 cb 87 bc 04 b9 13 3d b8 ec bf bc c7 77 8f 3d
       -0.016576441 0.036065117 -0.023428306 0.070052676
000330 f2 ce b9 bc b9 00 99 bc 8c ea 8c 3d 65 bd 9b bc
       -0.022681687 -0.018677102 0.06880674 -0.019011209
000340 0d 1f 0f 3d 49 1f 98 bc 67 dc 5e 3d f0 06 46 3d
       0.03494172 -0.018569605 0.05440941 0.04834646
000350 97 b7 3d 3d ba 96 26 3d 1f e7 b2 bd 45 0c a5 bd
       0.046317663 0.040671088 -0.08735489 -0.08058981
000360 9a c3 6d bd 72 e3 42 bd 86 f9 90 bd 6d 7c 2a 3d
       -0.05804787 -0.04758019 -0.07078843 0.041622568
000370 94 12 f4 ba 9b 00 26 3d c5 fb 4a bc 53 9d 11 bd
       -0.0018621259 0.04052792 -0.012389128 -0.035550427
000380 2f 00 23 3d ac 42 12 3d af 59 40 ba 3e 1e 3d bc
       0.039795097 0.035708115 -0.00073375826 -0.011542855
000390 e0 65 34 3c 09 d0 68 3d ae aa 50 bd de dc 4a bd
       0.011010617 0.056839023 -0.050944023 -0.04952704
0003a0 c4 ba 00 bd 06 80 1a 3d ef 0b 4e bd 03 43 9b 3d
       -0.031428114 0.03771975 -0.05030435 0.07581141
0003b0 49 1c 5c 3d f6 f3 78 bd 83 d5 68 bd cc 9e c4 3c
       0.053737912 -0.060779534 -0.056844246 0.024001502
0003c0 a1 65 32 3d 51 6b 74 3c 43 60 47 3d 10 55 a4 bc
       0.043553952 0.014918164 0.048675787 -0.020060092
0003d0 89 ab 9e 3d 1d a6 4b bd 32 03 7e bc 68 43 53 bd
       0.077475615 -0.049718965 -0.0155036915 -0.051577955
0003e0 7a 10 c1 3d 61 9e 6f 3d 10 50 71 bd 36 22 99 3d
       0.09426971 0.05850065 -0.058914244 0.07477228
0003f0 45 2c 58 bd c9 31 a1 bd be 7d 8c 3c 80 88 fa 3b
       -0.052776594 -0.07870824 0.017149802 0.0076456666

input_net.bias f4 [64]
000000 8f e4 8f bd 26 6a 6e 3d ec da bf bc d7 d2 63 bd
       -0.07026016 0.0582067 -0.02341982 -0.055620994
000010 c1 bd a1 bc 09 b7 20 3d 25 d4 8a bd d8 f2 65 3d
       -0.019743802 0.039237056 -0.067787446 0.056139797
000020 68 c6 0b bc b9 ac 6e bd f2 2c e1 bc ab a1 96 3c
       -0.00853119 -0.05827019 -0.027487252 0.018387636
000030 7c f1 5e bc 04 52 9c bc e3 2d de bc 05 6f 30 bd
       -0.013607379 -0.019082077 -0.02712149 -0.043074626
000040 c0 e1 51 3d 20 cc 26 3d 2a 17 88 bd d1 aa bb 3c
       0.051240683 0.040722013 -0.06645043 0.0229086
000050 8f 6a cc bc 75 3c 88 bd c5 50 c8 3c ad 1a 98 ba
       -0.024953155 -0.06652156 0.024452576 -0.001160463
000060 66 a8 c6 bb 76 b7 32 3c 9b 6a d1 3c a2 5e dc bb
       -0.006062555 0.010907998 0.025563529 -0.0067251483
000070 2b 1d 9f bc 59 c2 89 3c 01 d2 20 3d a4 da ba bb
       -0.019423088 0.016816305 0.039262775 -0.0057023335
000080 b4 d0 d5 bc b9 fa 89 bc b6 c6 2c bc e3 41 3b 3d
       -0.026100494 -0.016843187 -0.010545423 0.04571713
000090 e9 eb 5d 3c 9b 83 71 3d 38 b4 7c 3c 1a 70 0a 3d
       0.013545015 0.0589634 0.015423827 0.033798315
0000a0 6c 76 cd bc e7 b1 95 bb dc e5 61 bd 7f f1 3c 3d
       -0.025080882 -0.0045683268 -0.05515085 0.046128746
0000b0 64 45 78 3d 49 8c c5 bc 18 1d ae bc 04 eb 23 3d
       0.06061305 -0.024114745 -0.021254107 0.04001905
0000c0 cd e8 7e 3d 1b ea 60 3c d7 12 dc 3c 62 45 1c bd
       0.062233735 0.01372769 0.026864452 -0.038152106
0000d0 c9 d5 4c bc 19 05 02 3d 5f a4 97 3c 40 cb 89 bd
       -0.012502142 0.031743143 0.018510995 -0.0672822
0000e0 38 57 e7 3c 00 19 64 bd 53 5b 23 bd 1e 62 0d 3c
       0.028239831 -0.055687904 -0.039882015 0.00862935
0000f0 5c 8e 80 3c 62 ab 21 3d 5f 73 6e bd aa b9 ca bc
       0.015692882 0.039470084 -0.058215495 -0.024746735

mixture_net.mol_attn_layers.0.self_attn_layer.in_proj_weight f4 [192, 64]
000000 57 0c 94 bd 68 d6 b1 3c ae 2f 89 bc 7e 83 09 3e
       -0.07228916 0.021708682 -0.016746368 0.13429067
000010 9b ed f7 3c 5a 4e d9 bd 40 8e b2 3d 73 7b c1 bd
       0.030264666 -0.106106475 0.08718538 -0.09447374
000020 dc 35 e3 bc 8a d7 ec bd ef ba 86 bd 17 c5 9b bc
       -0.027735643 -0.11564548 -0.065786235 -0.019014878
000030 63 f6 82 bc 80 e9 35 3e af 97 f5 3d a3 6f 21 be
       -0.015986627 0.17764854 0.11991822 -0.15765242
000040 20 0a 89 3d 9b 66 fd 3d 51 10 53 3d 15 04 f4 bd
       0.06691384 0.12373086 0.051529232 -0.11914841
000050 24 eb 4f 3d 0d 00 cf bd 94 d5 61 be cb d0 b2 3b
       0.050761357 -0.101074316 -0.2205413 0.005457019
000060 cd 19 51 3d 93 9c 61 3d 7f ed 27 bd 98 e6 73 3d
       0.051049996 0.05508096 -0.04099798 0.059546083
000070 7d 7d 5b 3c 1d 81 dc bd 7e df b0 3d 69 04 23 3e
       0.013396618 -0.10766814 0.08636378 0.15919651
000080 f2 25 90 3d 20 ea 67 bc 80 69 83 bd 64 08 f1 3c
       0.070384875 -0.014154941 -0.06416607 0.029422946
000090 a2 ed fe bc f3 77 6e bd fe c4 35 be 41 84 17 bd
       -0.031119172 -0.05821986 -0.17750928 -0.03699136
0000a0 92 ad 2d 3d c0 06 79 3d 1b 85 26 3d c5 ae 1f 3e
       0.042401858 0.060797453 0.040654283 0.15594013
0000b0 f7 6c 99 bd b1 17 18 3d 42 2d 13 be 25 c7 87 bc
       -0.074914865 0.03713197 -0.14372733 -0.016574452
0000c0 ba ec 8a 3d 93 15 4b 3c f5 22 1c 3e ea 56 84 3d
       0.06783433 0.01239528 0.1524771 0.0646189
0000d0 ad 61 dd 3d 35 9c 16 3e 84 a6 17 bb 09 f2 2e 3e
       0.10809646 0.14708026 -0.0023140023 0.17084517
0000e0 d1 96 9a bc e4 c8 b6 3d 3d a5 24 3e 29 1f 49 3d
       -0.018870743 0.089250356 0.16078658 0.049101982
0000f0 e2 6a 86 3d 50 f7 05 be 4a 08 55 3e 2a bb 25 be
       0.06563355 -0.13082623 0.20803943 -0.16184679
000100 7e 4f 38 3d b3 d3 0a 3e 17 3d 19 3e 33 e0 16 bd
       0.044997685 0.1355732 0.1496471 -0.036834907
000110 34 77 07 3e ab d8 2f bd 92 79 1c be 54 f4 18 3d
       0.13229066 -0.04293124 -0.1528075 0.037342384
000120 85 82 ae 3d 1c be cd 3d 15 ff cc bd ee df 0f be
       0.085209884 0.10046026 -0.100095905 -0.14050266
000130 41 ae fe 3b c1 f9 a5 3d b7 9c 14 be b2 ad 89 bd
       0.0077722375 0.081042774 -0.14512907 -0.06722583
000140 cb 08 3b be 1a 8a 45 be 61 03 56 bd 3d 81 8d 3d
       -0.18265073 -0.19290963 -0.052249316 0.06909416
000150 cc 39 03 be 38 60 60 3d 46 1c 1e 3e ed a1 97 bd
       -0.12815017 0.05477926 0.15440473 -0.07403932
000160 71 bc 23 be 5c a7 c2 bd c8 16 27 3e b6 cc 87 3d
       -0.15989853 -0.095045775 0.16317284 0.066308424
000170 94 5e 31 be b3 7a 74 3d 92 24 6e be b3 25 3a be
       -0.17321235 0.059687328 -0.23256138 -0.18178444
000180 08 3f 08 3e 34 9c 96 3d ec 42 99 3d 85 e0 56 bd
       0.13305295 0.07354012 0.074834675 -0.052460212
000190 e2 dc 02 3e 9e ef 32 be d1 45 1a 3e 82 5b 0b bd
       0.12779573 -0.17474219 0.15065695 -0.034022816
0001a0 fd e0 19 3e e0 21 2f 3e c2 40 ae 3d bc 5b fe bd
       0.15027232 0.17102766 0.08508445 -0.12419841
0001b0 c0 67 1b bc 75 8f 02 3e 23 82 07 be 28 9d 34 be
       -0.009485185 0.12750037 -0.13233237 -0.17638075
0001c0 11 6d e2 bd ca 12 4b 3c 2c 1e ca bd 5f 35 91 3d
       -0.11055959 0.012394616 -0.09869036 0.07090258
0001d0 2c 32 e6 bc 37 97 93 bc 5b 1e 28 3d 5c ac da bd
       -0.028100096 -0.01801644 0.041044574 -0.10677406
0001e0 df a7 ea 3a 80 cd a4 3d 39 4c 50 be 2b 6a a9 bd
       0.0017902813 0.080470085 -0.20341577 -0.08272203
0001f0 5d 4d d7 bc 60 a8 f5 3d e6 a0 02 be 20 0a 05 3e
       -0.026282007 0.119950056 -0.1275669 0.12992144
000200 db dc ad 3d a7 86 32 3e d9 7f b5 bd 03 94 42 3d
       0.084893905 0.17434178 -0.08862276 0.047504436
000210 c3 e1 ee bd d2 f0 b0 bd 37 ad ba 3d 7f 0f 28 bd
       -0.116641544 -0.08639683 0.09115069 -0.041030403
000220 c8 4e 3e 3d 39 0d 06 3e f6 6c a6 3d 25 84 df 3c
       0.04646185 0.13090982 0.081262514 0.027284691
000230 cc a6 2b 3e 5c 06 21 3e 82 fe 9e bd 43 30 4b bb
       0.16762847 0.15725082 -0.07763387 -0.0031004108
000240 10 b2 b5 bc ad b8 0b 3e a1 da 3a 3d 3b 12 91 3d
       -0.022179633 0.13644667 0.045618657 0.07083555
000250 34 23 cf 3c d4 16 09 3d 07 05 29 bc c0 cc 4e 3d
       0.02528534 0.033469036 -0.01031614 0.050488234
000260 64 c6 39 3e da ea ad bd 8e 94 2b 3c 34 54 68 bc
       0.18142086 -0.0849206 0.01047243 -0.014180232
000270 bd 84 26 3d 81 4a 25 3d a9 80 c8 bd 5c bb d8 3d
       0.040653933 0.040354256 -0.09790165 0.10582611
000280 2d 07 e7 bd 0d 0e 18 be 29 16 73 be 1b 28 39 bd
       -0.112806655 -0.1484911 -0.23738922 -0.045204263
000290 03 75 d0 3a f1 cf e9 bc 79 7d 82 be 0a 8a 92 3d
       0.0015904013 -0.028541537 -0.25486353 0.07155235
0002a0 fb a7 75 3d bd 7a 0b be 61 10 2e be 44 15 30 bc
       0.05997465 -0.1362104 -0.16998436 -0.010747258
0002b0 96 d3 28 3d f0 b9 22 3e 99 18 98 bd 42 55 a4 bc
       0.04121741 0.15891242 -0.07426567 -0.020060185
0002c0 a1 94 bb 3d a7 e0 35 be f7 e2 03 3e 88 14 49 be
       0.09159208 -0.1776148 0.12879549 -0.19636738
0002d0 25 6d cf 3c 69 62 07 3e 55 56 b9 bd 0e 0f f2 bd
       0.025320599 0.13221134 -0.0904967 -0.11819278
0002e0 c3 db be 3d 3b ce 04 be 63 2d aa bc b9 bd eb bd
       0.0931926 -0.12969296 -0.020773595 -0.11510796
0002f0 ed 16 2d be ca 3d b9 bc 1d 6a 9a bd 6a 71 bd 3b
       -0.16903277 -0.022612471 -0.07539771 0.0057813423
000300 37 c5 7a be 16 04 dc bd 74 ec d5 bd 25 02 dd bd
       -0.24489294 -0.10742967 -0.104454905 -0.10791425
000310 7a c6 6c bc 91 9a 81 3d 48 d9 85 bd dc 43 b4 3b
       -0.014451617 0.06328309 -0.06535584 0.0055012535
000320 4e 9a 47 3e df 49 97 bc 24 b6 55 bd 29 da c1 bc
       0.19492456 -0.018467842 -0.052175656 -0.023663597
000330 f1 d4 5f be 3f 2c b5 3c be fd 01 3d 7a 2f 1a be
       -0.21858574 0.022115825 0.031736128 -0.15057173
000340 2b 67 59 bd a4 f7 24 be b3 37 6d bd d5 72 3f 3d
       -0.053076904 -0.16110092 -0.057914447 0.04674037
000350 13 3f 80 3d 54 35 de 3c bb d4 0a bd 3a 22 f1 bd
       0.062620305 0.027125038 -0.03389428 -0.11774106
000360 05 57 ac 3d d1 32 72 bc aa c4 1a bd db a8 0c be
       0.08415035 -0.014782623 -0.03778521 -0.13736288
000370 22 ea d2 3c d9 b1 4f 3e 54 12 79 3c ef 45 e1 3d
       0.025746409 0.20282687 0.015202124 0.10999667
000380 e0 0e 40 bd 8b 61 67 bd 32 ca f8 bd db 67 08 3e
       -0.046889186 -0.05648951 -0.12147941 0.13320868
000390 15 27 ed bd be da 0f 3e 6c b5 ff 3c b6 ad 22 be
       -0.1157972 0.14048287 0.031214438 -0.15886578
0003a0 62 14 79 3c 46 48 a1 3d 72 ac 0a 3e 35 af c0 3d
       0.015202614 0.07875113 0.13542345 0.09408418
0003b0 b1 79 3a be 34 3a 12 3d 95 01 91 3d 05 e8 c6 3d
       -0.18210484 0.035700038 0.0708038 0.09712223
0003c0 51 f3 11 bd f1 b5 8d bd 65 4b 59 3c c8 20 d1 bd
       -0.035632435 -0.06919468 0.013262604 -0.10211331
0003d0 c2 c5 9a 3d d7 1b eb bd 42 80 3b 3c 5f c4 f0 bd
       0.075572506 -0.114799194 0.011444153 -0.11756205
0003e0 1b 38 ea 3d bc a1 90 bd 55 54 a4 bc 39 7f 71 bc
       0.114364825 -0.070620984 -0.020059744 -0.014739805
0003f0 76 dd f7 bd 1b 55 bb 3d 30 85 b4 3d ed a7 e7 3c
       -0.12102787 0.09147092 0.08814466 0.028278315

mixture_net.mol_attn_layers.0.self_attn_layer.in_proj_bias f4 [192]
000000 fb b8 75 bc 43 2f 78 3c df a2 3c bd 0e 43 f2 3c
       -0.014997716 0.015147987 -0.046053763 0.02957299
000010 0f f2 26 bc 35 75 70 bc da c5 83 bb 75 4c dd bb
       -0.010189547 -0.014676382 -0.0040213885 -0.006753499
000020 81 e2 e8 bc 6f d4 27 bd ff 2b 21 bd 72 29 a1 3c
       -0.028428318 -0.040974077 -0.0393486 0.019673083
000030 72 77 d0 3c 53 6a 4d 3c 20 9c 9f bc 2c 87 21 3d
       0.025447581 0.012537557 -0.019483626 0.03943555
000040 1d 7e c9 3c 54 de f1 bc a4 ea 88 bc bf 11 95 bc
       0.024596268 -0.02952496 -0.016713448 -0.018196939
000050 2a 48 1f bd ed a7 86 3c cb fc 56 bd 05 bf 3f bc
       -0.03888718 0.016437495 -0.052487176 -0.011703257
000060 17 4d 88 bc 4e 10 0a 3d c2 47 64 bd 0c d2 9f 3c
       -0.016638322 0.033706956 -0.055732496 0.019509338
000070 49 dd b8 3c c5 92 3c ba 81 ae 67 3b 0a f6 ef 3c
       0.022566454 -0.0007193501 0.0035351815 0.029292125
000080 80 0b e5 3c 27 3d 8d bd 0a 5b 01 bd 70 0b cb bc
       0.027959585 -0.068964295 -0.031580962 -0.024785727
000090 fb e1 22 bd 85 7f 86 3d db 81 d2 bc 84 9c 27 bb
       -0.039766293 0.06567291 -0.025696686 -0.0025575468
0000a0 68 54 4a bc e5 9a 4d bc 3c 58 53 3c ee a3 06 3d
       -0.012349226 -0.012549137 0.012899455 0.03287118
0000b0 2b a0 62 3c 4e 7c 84 bb bc f5 0b 3d f3 08 22 bc
       0.013832132 -0.0040431386 0.034169897 -0.009889829
0000c0 52 ee 13 3d c5 9a c7 3c 8d 98 23 bc aa de 23 bd
       0.03611595 0.024365792 -0.009985101 -0.04000727
0000d0 7d f9 98 bc d3 3a 21 3d 9d 63 5a 3d e1 ec 16 bd
       -0.018673653 0.03936274 0.053317655 -0.036847
0000e0 fc 63 31 3d 64 69 50 bd 86 15 05 3d f5 ba 4c 3c
       0.043308243 -0.05088176 0.03249123 0.012495746
0000f0 d3 4a 34 bb 48 0c a8 ba 99 98 23 bd 12 5d b0 bc
       -0.002751042 -0.0012821043 -0.03994045 -0.021528754
000100 e6 8e 99 b7 c4 de bd 37 39 e2 4d b8 33 35 c1 b7
       -1.8305564e-05 2.2634289e-05 -4.9086495e-05 -2.3032166e-05
000110 39 13 e3 b7 c9 f6 0d b7 ac 33 78 b6 7f d9 09 b8
       -2.706946e-05 -8.461714e-06 -3.6984957e-06 -3.2865904e-05
000120 f0 2b 22 b8 35 9b 90 38 93 06 be 38 00 75 49 b9
       -3.866473e-05 6.895365e-05 9.0611305e-05 -0.0001921244
000130 cb 7a 90 b7 22 6b 80 37 ad e5 a2 38 10 75 8e b8
       -1.7223318e-05 1.5308677e-05 7.7675424e-05 -6.792892e-05
000140 a8 19 ea b7 32 51 fc 37 c5 16 7a 38 df 6d d3 38
       -2.790692e-05 3.007855e-05 5.962585e-05 0.00010081729
000150 ea c4 c1 38 15 d8 c3 37 ee 43 fe b6 2b 75 57 38
       9.239635e-05 2.3346432e-05 -7.577698e-06 5.1369116e-05
000160 49 1a 81 38 17 61 cd b8 75 e5 c7 35 82 b8 9b 37
       6.156095e-05 -9.793246e-05 1.4893436e-06 1.8563358e-05
000170 a6 8e 26 38 d3 85 a2 36 11 29 17 38 a8 4b b3 b8
       3.9710336e-05 4.8435554e-06 3.603945e-05 -8.549477e-05
000180 9e ff c8 b7 bc 02 44 b8 04 62 1e 36 27 c1 31 b7
       -2.3960889e-05 -4.6732588e-05 2.3600887e-06 -1.0594994e-05
000190 12 b6 4f 37 26 a7 b3 37 c5 8c d9 b7 c8 4b b0 36
       1.2380553e-05 2.1416297e-05 -2.5933967e-05 5.254031e-06
0001a0 23 6b 09 b8 25 9f 07 b8 b5 53 de b7 72 2b db 37
       -3.2763124e-05 -3.2334723e-05 -2.6503441e-05 2.6127065e-05
0001b0 72 85 15 36 d3 bd b5 b6 85 33 12 b4 d4 28 34 b7
       2.2280406e-06 -5.416319e-06 -1.3616052e-07 -1.0738342e-05
0001c0 14 b5 a5 37 11 f9 c4 37 dd 29 98 b7 9e da 2b b7
       1.9753854e-05 2.3481001e-05 -1.8139306e-05 -1.0243295e-05
0001d0 d7 09 6d b8 46 05 8b 38 f1 6d 9f 37 df c2 76 37
       -5.6514367e-05 6.629019e-05 1.9005472e-05 1.4708115e-05
0001e0 d7 44 1c b8 a7 c8 e3 b8 44 f2 e8 38 b4 11 0a b9
       -3.725741e-05 -0.00010861578 0.000111077476 -0.000131673
0001f0 da 4c b0 b8 74 e2 37 37 4d 3b ba b8 62 38 05 b7
       -8.406649e-05 1.0960375e-05 -8.880217e-05 -7.940545e-06
000200 a0 26 67 ba 4f 3f 3a 3c fd b8 23 3c 90 09 96 bb
       -0.0008817706 0.011367633 0.009992835 -0.0045787767
000210 e9 0a af bb c6 20 91 bb 93 34 bb 3a de 7c cf bb
       -0.0053418768 -0.0044289557 0.0014282636 -0.006332024
000220 5f 16 b0 3c eb ea 3a 3c 67 f4 2f 3b e1 ea dd 3b
       0.021495042 0.011408548 0.0026848556 0.0067723845
000230 e8 ce 3a 39 1f 8c 52 3c 74 a4 df 3b 18 56 c9 3b
       0.00017815421 0.01285079 0.0068250243 0.0061442964
000240 c9 21 5e ba c4 c4 d7 bc 7f 27 ec bb 56 be 08 3c
       -0.00084736623 -0.026338942 -0.0072068567 0.008346161
000250 31 5a e5 ba 7e ce 6c ba 75 45 62 bb 5b fe 9b 3b
       -0.0017498193 -0.0009033455 -0.0034526263 0.004760546
000260 0b c3 06 3c 75 63 01 3d b2 5d 97 3c 8c 96 91 3b
       0.008225213 0.03158899 0.018477295 0.0044429954
000270 47 26 14 3b 93 b2 4c bc da 28 11 3c 88 9e 45 3b
       0.0022605823 -0.012493747 0.008859837 0.0030154306
000280 36 93 4c 3c a6 77 39 bb 6f 55 75 bc 15 93 18 3b
       0.01248627 -0.0028300076 -0.014973982 0.0023281027
000290 2e ec 44 3c 6f d9 13 3c b5 9e 8d 3b 71 11 df 3b
       0.0120192 0.009024008 0.004321898 0.006807499
0002a0 22 e7 02 bb 03 d2 f0 bb 50 82 f6 ba de 69 38 3b
       -0.0019974192 -0.007349254 -0.0018807147 0.0028139274
0002b0 fe ae 6b 3b 01 64 1f bc 1d a9 21 bb ab ab 7c bc
       0.0035962458 -0.009728433 -0.002466745 -0.015421788
0002c0 d3 b1 79 3c 61 a9 33 3c 1c 79 bc ba f6 ba e2 ba
       0.0152401505 0.010965676 -0.0014379355 -0.001729815
0002d0 a0 0d 11 bc 6f 80 09 3c 63 98 cc bb 9e d3 2c b9
       -0.008853346 0.008392437 -0.006243752 -0.00016482032
0002e0 24 58 b2 ba 63 20 85 3c c2 72 3d 3c 66 85 fd bb
       -0.001360659 0.016250795 0.011563005 -0.0077368496
0002f0 f9 0d 15 ba 82 33 f0 3b 26 e6 67 bb c2 80 04 3c
       -0.0005685981 0.007330359 -0.0035384982 0.008087339

mixture_net.mol_attn_layers.0.self_attn_layer.out_proj.weight f4 [64, 64]
000000 53 ec 87 bc ce 33 8e 3d 22 0c fb 3d 61 a1 ac bd
       -0.01659218 0.06943475 0.122581735 -0.08429218
000010 be dd 8e bd 4d 28 00 bd 04 7b 27 bd f0 84 aa bc
       -0.06975888 -0.031288434 -0.0408888 -0.020815343
000020 c4 66 9b bd ce 15 c3 3d 50 99 3b 3b ad a9 0c be
       -0.0758796 0.09525643 0.0028625317 -0.13736601
000030 ee 22 b5 bd d3 39 74 3d af d0 05 3e f9 85 a3 ba
       -0.08844553 0.059625458 0.13067888 -0.001247584
000040 c0 ef 67 bd 46 13 08 3e 72 e4 a9 bd 9b 0e 14 3e
       -0.056625128 0.13288602 -0.082955256 0.14458697
000050 36 69 7e bd 25 af ab 3d 47 94 96 3c a1 8a 2c 3d
       -0.062112056 0.083830155 0.018381251 0.042124394
000060 37 08 25 3d c8 f9 63 3d 46 da e5 3d 69 27 9c 3d
       0.040291037 0.05565813 0.11223273 0.076247044
000070 75 3a 17 bd cc 95 c7 bd 9e 42 db bd e9 46 0f 3d
       -0.036920983 -0.09745368 -0.107060656 0.034979735
000080 19 f9 a7 bd 89 77 d4 3d 7d 45 fd 3d c2 c9 a3 bd
       -0.082018085 0.10374362 0.123667695 -0.079974666
000090 37 7b 18 bc af 7f 2f 3d 65 cb e3 bd 8d b2 11 bd
       -0.00930672 0.042846378 -0.11122779 -0.03557067
0000a0 26 50 0c be de 92 c5 bd 80 f0 17 bd a9 a4 f2 bd
       -0.13702449 -0.09647153 -0.037094593 -0.11847813
0000b0 00 31 d5 3d 69 ea be 3d 11 3c b6 3c 5a 57 13 3e
       0.10409737 0.09322054 0.022245439 0.1438879
0000c0 09 a8 ce bc 01 95 99 bd fa 1c c3 bd a1 cf e7 bd
       -0.02522661 -0.07499123 -0.09527011 -0.11318899
0000d0 98 6d 48 3b 3d 6a 90 3d d3 56 80 3d 6d eb aa 3d
       0.00305829 0.07051513 0.062665604 0.08345685
0000e0 a8 8c 50 be 08 ea 5a bd db 77 2e bc d8 53 b7 3d
       -0.20366156 -0.053445846 -0.010648693 0.08951539
0000f0 2a 4e 96 bd d5 fa 87 bd eb e6 05 3d b8 86 d1 bd
       -0.07339127 -0.06639639 0.032690924 -0.10230774
000100 6b dd 65 3d 2d e7 a1 3d 54 ab 27 bd 46 d2 b2 3b
       0.056119364 0.079054214 -0.040934876 0.0054571955
000110 5a 9e cd bd 24 d7 b1 3d c0 9a 32 3d 96 68 e0 3d
       -0.10039969 0.08683613 0.043604612 0.10957448
000120 e5 74 52 3d 50 d0 a3 3d 63 d5 ee 3c 80 70 9e 3d
       0.05138101 0.07998717 0.029154485 0.077363014
000130 40 19 07 3c 36 e3 ef 3d 7c 71 ac bd 22 d2 f9 bc
       0.008245766 0.11713259 -0.08420083 -0.030495707
000140 e1 4b 69 bd dd 8a 9d 3b 0e 8f 98 3d fd e8 95 bd
       -0.05695713 0.0048078136 0.074491605 -0.073198296
000150 ec 7e 87 bd 81 43 2f bd 22 00 ea bd fb 41 24 bd
       -0.06616005 -0.042788986 -0.114258066 -0.040101986
000160 a9 76 35 3d 9d d5 83 3d 01 d6 b8 3d 77 98 ff bb
       0.044302616 0.06437228 0.09025193 -0.0078001576
000170 58 e9 b3 bd bf 16 80 3d 7a c7 cc bd 31 55 91 3c
       -0.08784741 0.062543385 -0.09998985 0.017740818
000180 f7 cf c0 bd 5d 02 7e bc 81 e2 84 3d ec f7 cc 3d
       -0.09414666 -0.015503493 0.06488515 0.10008225
000190 39 94 cb 3c b1 3b b4 bd 00 a7 df 3d 60 ad 0e 3d
       0.024850952 -0.08800448 0.109205246 0.034833312
0001a0 ee 61 63 3d 3a 33 94 bd 31 94 02 3e 39 5d 32 3d
       0.055513315 -0.07236333 0.12751843 0.043545935
0001b0 95 fa 1c 3d 06 42 7f bd 6c fd d2 bd 40 a9 a6 bd
       0.03832491 -0.062318824 -0.10302243 -0.081377506
0001c0 77 be a4 3c 17 f8 f5 bd 1b 1d 3c bd 25 2e 44 bd
       0.020110352 -0.1201021 -0.045926195 -0.04789557
0001d0 84 e0 5b 3d 69 9e c7 3d 64 b9 40 bc 52 70 ed bc
       0.05368091 0.09747011 -0.011762951 -0.028984223
0001e0 62 c1 1a 3e c6 ac 2d 3d 48 d5 e9 bd 07 d9 7f bb
       0.15112832 0.042401098 -0.11417633 -0.003903927
0001f0 28 62 b4 ba 05 40 c6 3d 48 2e ae 3d 07 e7 54 b7
       -0.0013762163 0.096801795 0.08504921 -1.2689975e-05
000200 77 14 88 bd 6f 42 88 bd f8 04 03 be 44 85 78 3d
       -0.06644528 -0.06653296 -0.12794864 0.060673967
000210 81 e0 e7 3d c9 12 85 bd 4f b4 a1 bc 33 35 cc bd
       0.113221176 -0.064977236 -0.019739298 -0.099710844
000220 85 6d e5 3d ae 8a 9a bb 96 4f 3c 3b 02 ae 62 3d
       0.1120253 -0.004716239 0.002873396 0.055341728
000230 2f 4f aa 3c 49 6f a6 bd a5 df dd bd 52 a5 d6 bd
       0.02078971 -0.08126695 -0.108336724 -0.10480751
000240 fa 16 04 3d 05 dd 9c 3b f9 55 a9 3d 86 f4 1c 3d
       0.032248475 0.00478709 0.08268351 0.038319133
000250 77 3f 02 3e c6 c5 f5 bc a9 e6 13 3d 85 1c 66 bd
       0.12719522 -0.030001532 0.036108647 -0.056179542
000260 e2 ef 3e bd 21 86 79 bc 81 23 78 3d ff b8 91 3b
       -0.04661549 -0.015229733 0.060580734 0.004447102
000270 8a fe 07 bd 12 85 79 3d 2e 61 15 3d 8a 27 1d bd
       -0.03320173 0.06091792 0.03646963 -0.038367786
000280 17 fc 2a 3d 39 77 df bc c4 c7 33 3c bd 02 83 3d
       0.041744318 -0.02727853 0.010972921 0.06397007
000290 46 0b 58 3d 2a c9 b5 3d eb e3 37 bd 7f 29 f8 3d
       0.052745126 0.088762596 -0.044895094 0.1211729
0002a0 5d 4f 62 3d c7 ab 79 3d 09 43 3a bd c3 88 75 3c
       0.055251468 0.060954835 -0.045474086 0.01498622
0002b0 37 49 92 bd 62 57 80 bd ab ff 37 3d ed fc b3 bd
       -0.07142871 -0.06266667 0.04492156 -0.08788476
0002c0 55 90 fc 3d 04 a5 56 bd db 56 cf bd 09 4b 6c bb
       0.12332217 -0.052403465 -0.10123988 -0.0036055467
0002d0 aa 6f e6 bd 2f 22 10 3d 1a 8b 34 3d a0 cf 42 bd
       -0.11251767 0.03518885 0.04407797 -0.047561288
0002e0 32 aa 4f be 3a 37 a3 bd 16 da 97 bb 24 91 ec bd
       -0.20279768 -0.07969518 -0.004634152 -0.11551121
0002f0 da 75 8d 3d ca d6 88 3d a0 37 94 bd ca 64 bf 3b
       0.06907244 0.06681593 -0.07237172 0.0058408724
000300 2c 09 55 3d 66 ae 09 3d 2a 3c 38 3d 5c 60 75 3d
       0.0520107 0.033613585 0.044979252 0.05990635
000310 7e 27 bf 3d c8 08 95 3d f1 33 80 3c 73 33 c4 3b
       0.093337044 0.072770655 0.015649768 0.0059875785
000320 ba 1e 11 bc f8 36 84 bd aa 6e 16 3e 03 4d e3 3d
       -0.008857423 -0.06455797 0.14690652 0.11098673
000330 8f c6 84 bd 1d da 55 bd c8 fd f5 bc 96 4b 8d 3d
       -0.064831845 -0.052209962 -0.030028239 0.068991825
000340 90 3b b2 bc 7e f6 99 3c c8 53 e5 bc e1 ad 81 bd
       -0.021756917 0.018794294 -0.027994052 -0.06331993
000350 36 91 71 3d f2 c4 c5 bd ea 6b da bd da 20 d9 3d
       0.058976375 -0.09656705 -0.10665114 0.10601969
000360 68 bd 8e bd eb 8a 7a bd 36 25 81 3c 2f a2 12 bd
       -0.0696972 -0.06116764 0.015764814 -0.0357992
000370 31 ae d9 bd be 8e 7f 3d f7 1f e4 bd a2 d6 f9 bc
       -0.106289275 0.06239199 -0.11138909 -0.030497853
000380 23 50 d2 bc 28 34 bf 3d 01 be 0c bd 82 31 fc bd
       -0.025672978 0.0933612 -0.03436089 -0.1231413
000390 23 52 9b 3d 1b 87 c1 3d 11 73 ff bc b0 44 0d bd
       0.07584026 0.094495974 -0.031182798 -0.034489334
0003a0 8d 80 4d bd ab c7 7e bc 28 42 fd 3d 0c 52 6b 3d
       -0.050171424 -0.015550534 0.12366134 0.057451293
0003b0 a8 7f 53 3c 29 84 ee bd 4f 75 57 bd 44 37 71 bd
       0.012908854 -0.11646301 -0.05260211 -0.058890596
0003c0 1f a9 cc bc 77 52 a7 3c b6 48 a2 bd e5 ec 67 bd
       -0.024982987 0.020425064 -0.07924025 -0.056622405
0003d0 de db 4d 3d 5e 77 1f bd d7 52 81 bd 01 78 a9 bd
       0.05025851 -0.038932197 -0.063146286 -0.08274842
0003e0 7c 78 2f 3b c9 22 c6 3d e8 60 16 3c 9e fd 14 3e
       0.0026774695 0.096746035 0.009178378 0.14549872
0003f0 3d 00 d1 3d a9 81 d0 3d 42 7d 35 bd 31 51 35 3d
       0.102051236 0.10180981 -0.04430891 0.044266883

mixture_net.mol_attn_layers.0.self_attn_layer.out_proj.bias f4 [64]
000000 88 81 12 3c bf ed b1 3c 69 9e 5e 3c 8d d0 67 3c
       0.0089420155 0.021719811 0.013587573 0.0141488435
000010 ef 17 75 3a 9b ac 34 bb 11 44 a3 bb 9b 47 e8 bb
       0.00093495747 -0.0027568701 -0.0049824794 -0.007088614
000020 7c a3 8b 3a 5e 3f 03 3c e6 2d 82 bb f5 09 a9 3b
       0.001065358 0.008010713 -0.0039727567 0.0051586577
000030 81 cc 6e 3b e5 49 05 bc b3 5e a6 3b c8 b6 bb 3a
       0.0036437812 -0.008135294 0.005077207 0.0014321441
000040 99 ad d6 3b 64 99 de bb 82 40 ac 39 d8 f9 fd 3b
       0.006551456 -0.006793188 0.0003285446 0.007750731
000050 8e 8d d5 39 93 d1 8c bb 97 09 99 ba 62 78 33 3c
       0.00040731992 -0.004297444 -0.0011675832 0.0109539945
000060 7e 2a 2c bb 44 bd ea b9 98 27 61 bc 8f ab 9b bb
       -0.0026270445 -0.00044772972 -0.01374235 -0.004750676
000070 65 31 78 bc c6 dd 0d 3c ad cb d7 3b 27 3e 94 3b
       -0.015148495 0.008658832 0.0065855593 0.0045240107
000080 23 0b f1 3b 1c ca b4 3b e7 32 43 3b cc 45 4c ba
       0.007356064 0.0055172574 0.0029784979 -0.0007792383
000090 c1 43 0f bc 3d a1 4f 3b 5e e2 d9 ba 94 01 5c bb
       -0.008744181 0.00316818 -0.0016623249 -0.0033570277
0000a0 98 a5 44 39 d5 c3 19 3a b7 87 cd 3b c7 f3 69 bb
       0.00018753705 0.0005865668 0.006272282 -0.003569828
0000b0 ea d2 9e ba 50 a2 06 3b 68 0f e8 bb 96 16 b4 bb
       -0.0012117301 0.0020543523 -0.0070819147 -0.0054958565
0000c0 22 12 c7 bb eb 42 b9 3a 39 cd ca bb 58 c1 6a bc
       -0.0060751596 0.0014134323 -0.006189015 -0.014328323
0000d0 da 9e a4 bb d3 19 3b 3c cf da e2 bb 65 96 80 3b
       -0.0050238194 0.011419731 -0.0069230567 0.0039241784
0000e0 4d 6a 2f 3c ce 20 07 bc ab 06 3d bb db 18 e0 3b
       0.010706496 -0.008247567 -0.0028843086 0.0068389005
0000f0 20 c6 cc bb f1 7e 96 3b dc d0 4c 3c 86 1d 02 3c
       -0.0062492043 0.0045927693 0.012500968 0.007941609

mixture_net.mol_attn_layers.0.addnorm1.norm.weight f4 [64]
000000 d1 8b 7f 3f 25 39 7f 3f 67 ce 80 3f e6 b7 83 3f
       0.9982272 0.9969657 1.0062989 1.0290496
000010 f7 d9 7e 3f f1 58 81 3f af dd 7f 3f 7b ab 7e 3f
       0.9955134 1.0105268 0.9994764 0.9948041
000020 fb 2e 80 3f 6f ba 7b 3f dc 11 7f 3f 28 eb 7f 3f
       1.0014337 0.9833135 0.99636626 0.99968195
000030 09 14 81 3f e4 f9 81 3f 2c 40 7f 3f a4 02 81 3f
       1.0084239 1.0154386 0.99707294 1.0078931
000040 ed 16 80 3f 9e dd 7f 3f 5e c6 80 3f 5d 16 80 3f
       1.0006996 0.99947536 1.0060537 1.0006825
000050 ae 04 81 3f 55 34 7b 3f 6a 82 81 3f 31 bd 7c 3f
       1.0079553 0.9812673 1.0117924 0.98726183
000060 4b 35 7f 3f 47 eb 7b 3f 72 eb 80 3f b0 ac 83 3f
       0.99690694 0.9840588 1.0071852 1.0287075
000070 fc ad 7b 3f ac 23 80 3f 42 ab 7e 3f 8a 81 7c 3f
       0.98312354 1.0010886 0.9948007 0.9863516
000080 a8 55 82 3f 20 4b 80 3f 72 04 7d 3f 3a 2e 80 3f
       1.018239 1.0022926 0.9883491 1.0014107
000090 38 72 7f 3f 65 d3 80 3f 88 f3 7e 3f d4 ed 7d 3f
       0.9978366 1.0064512 0.9959035 0.9919102
0000a0 43 0b 80 3f ba ab 80 3f 21 52 7a 3f 64 5d 82 3f
       1.0003437 1.0052407 0.9778157 1.018475
0000b0 46 65 82 3f 4c 26 81 3f 5f ed 81 3f 0a a5 7d 3f
       1.0187156 1.0089812 1.0150565 0.99079955
0000c0 2d cc 7f 3f af 31 80 3f 63 ed 7d 3f 3c b1 7d 3f
       0.9992092 1.0015162 0.9919035 0.99098563
0000d0 7b 74 81 3f c4 a2 7d 3f 01 e8 80 3f 6f 28 80 3f
       1.0113672 0.99076486 1.0070802 1.0012339
0000e0 5c fe 7e 3f ed 80 80 3f ae 93 7e 3f d4 23 7d 3f
       0.9960687 1.0039345 0.9944409 0.98882794
0000f0 b4 51 7e 3f 6d 53 7e 3f 6c 87 81 3f 47 5b 7f 3f
       0.9934342 0.9934605 1.0119452 0.99748653

mixture_net.mol_attn_layers.0.addnorm1.norm.bias f4 [64]
000000 8d 73 b1 ba d0 68 1c 3b 25 87 0c bb e0 14 ab 3c
       -0.0013538465 0.0023866184 -0.0021442857 0.020883977
000010 52 2d c7 3a 01 d1 c2 3b b1 c5 17 bb 39 5a bf bb
       0.0015196002 0.0059453254 -0.0023158605 -0.005839613
000020 cc 16 61 bb 0f 1c 04 3c 22 12 ca 3b 74 71 5d 39
       -0.0034345863 0.00806333 0.0061667124 0.00021118467
000030 a2 fa bb bb 01 1d 5d 39 c4 81 c3 39 23 a5 a3 3a
       -0.005736665 0.00021087007 0.0003728998 0.0012485128
000040 7e c4 8a 3a 2a be 23 bc f6 11 db 3a 04 7e 0f 3b
       0.0010587124 -0.009994069 0.0016713727 0.002189518
000050 4f a0 f0 b9 ae 71 b6 bb 83 62 d5 39 fd 74 1e 3b
       -0.00045895806 -0.005567751 0.00040699923 0.0024178617
000060 84 ef 8d bb 74 8b 8c bb 79 ea e3 bb 19 dd d1 bb
       -0.004331531 -0.004289085 -0.0069554416 -0.0064045307
000070 00 13 87 bb 49 7f f0 ba 83 8a 79 3a 8e 6e 02 3c
       -0.004122138 -0.0018348481 0.0009519236 0.007960929
000080 f6 1c 0e 3c ed ce 6e 3b fb f6 b3 3a 6a ba 04 bb
       0.008673897 0.0036439255 0.0013730222 -0.0020252713
000090 dc 80 f9 3a 51 af e8 bb c5 df 2a bb 72 c9 01 ba
       0.0019035595 -0.0071009775 -0.0026073318 -0.0004950977
0000a0 7b d1 09 bc 16 e6 32 3a fd c3 70 3b 23 fb 1f 3b
       -0.00841176 0.00068244466 0.0036737912 0.0024411164
0000b0 01 1d 16 bc b1 d6 5e 3b 49 96 92 bc 7d ca 9d bb
       -0.0091621885 0.0034002478 -0.017893927 -0.0048153982
0000c0 5a f0 54 3b 6f 94 8b 3a 49 ac af ba c1 92 7f bb
       0.0032491894 0.0010649095 -0.0013402785 -0.0038997384
0000d0 9c 1a 10 bb fd 2c 7a 3a b0 dd 79 bb 12 d8 04 3a
       -0.0021988517 0.0009543447 -0.003812652 0.00050675974
0000e0 53 61 8e 3a 47 e8 50 bb 59 d6 67 bb 5c df 06 3c
       0.0010862745 -0.003187673 -0.0035375564 0.008231964
0000f0 e2 97 1b bc ce 84 5e 3c 96 cf 99 3c b8 b8 07 3c
       -0.009496661 0.013581468 0.018775743 0.0082837865

mixture_net.mol_attn_layers.0.ffn.layers.0.weight f4 [64, 64]
000000 9f 85 ff bd 6f 6f 88 bd 52 e6 7a 3b 87 fe c8 bd
       -0.12476658 -0.06661879 0.0038284254 -0.09814172
000010 6d ef 88 bd 7f aa 42 3d e5 92 e3 bc bb a6 8a 3d
       -0.06686292 0.04752588 -0.027780006 0.067700826
000020 f5 88 77 3d ac 8d f8 bd 0c c2 a2 3d 4d 0b 1c 3d
       0.060433347 -0.12136397 0.07947168 0.038096715
000030 f3 3d 01 bd e2 74 6f bd 00 bd b3 3d 26 a6 af 3c
       -0.03155322 -0.058461078 0.08776283 0.02144153
000040 fa 37 a0 bd 28 24 7b 3d e6 6c e8 3d 34 8b 82 bd
       -0.07823177 0.06131378 0.11348896 -0.06374207
000050 99 06 da 3d dd ba 0c bd a9 da 9d 3d f2 3e e9 3c
       0.1064579 -0.034357894 0.07707722 0.028472397
000060 28 8b b2 bd 51 95 a9 bd 1d a9 b3 bd 88 50 8e bd
       -0.08717948 -0.08280433 -0.0877249 -0.06948954
000070 21 dc d1 3d 7a 40 1c 3d e7 9c 22 3d b4 75 6d 3d
       0.102470644 0.038147427 0.039700415 0.05797358
000080 84 2b 8b 3d e7 fb a7 3d 48 7a 21 bc 52 4a 19 bd
       0.06795409 0.082023434 -0.009855814 -0.037424393
000090 2d ab b2 bc 7f 15 0e 3d 44 7b 0b bc 3a 49 c7 3d
       -0.021810139 0.03468847 -0.0085132755 0.09730764
0000a0 c6 5a f8 3c 66 d3 f7 bd 19 df 04 bd 4e 14 85 3d
       0.030316722 -0.12100868 -0.032439325 0.064980134
0000b0 e9 3c c7 3d 05 2c ee 3d 5a 9b a0 3d 5c d6 e4 3d
       0.097284146 0.1162949 0.07842131 0.11173698
0000c0 b0 a9 b2 3d e9 cd f0 3d 82 56 e6 3d ef 3e 91 3c
       0.087237716 0.11758024 0.11246969 0.017730204
0000d0 f7 0c c8 3b b5 a3 32 3d 47 e3 43 3d 79 fb d5 3d
       0.006105061 0.043613154 0.04782417 0.10448355
0000e0 d6 b1 06 bd 90 70 a0 3d 85 38 eb 3d e4 3a 6d bd
       -0.03288444 0.078339696 0.114853896 -0.05791749
0000f0 8c 03 0e bd 19 92 66 bd 18 91 e8 bd 21 e7 0a bd
       -0.03467135 -0.056291673 -0.113557994 -0.033911828
000100 2e 6a d8 bd 97 e5 11 3d 3d 90 dc bd 79 04 b5 bd
       -0.10567127 0.035619345 -0.10769699 -0.08838744
000110 d4 93 ad bc 16 24 b7 3d 71 be f7 bc f8 b0 b6 bc
       -0.021188654 0.0894243 -0.030242177 -0.022301182
000120 f3 e6 be bd 69 2f 88 bd 95 a7 36 bd 44 db 9f 3c
       -0.09321394 -0.06649668 -0.044593412 0.019513734
000130 01 0c 19 bd da 0b f9 bd 0c a6 c1 bc 4e 19 b0 bd
       -0.037364963 -0.12160464 -0.023638748 -0.085985765
000140 fd 5c 85 3d c5 58 83 bc cd f2 9d bd 54 a0 df bb
       0.06511877 -0.01603354 -0.07712326 -0.0068245325
000150 c9 e0 ac 3d 34 91 d8 3c 5e 0d c3 3c c3 ab 57 3d
       0.08441312 0.026436426 0.023810085 0.05265404
000160 f9 2a 0f be 4e bc af bd 31 25 6b 3d 84 3d 0f 3e
       -0.13981237 -0.08580838 0.057408515 0.1398831
000170 1c 76 86 bd 58 05 99 3d eb 55 5e 3d 54 78 dc bc
       -0.06565496 0.07471722 0.054281157 -0.026912846
000180 b8 8b 1b bb 7c d8 5f 3d 47 a3 3b bd 98 d3 64 bd
       -0.0023734402 0.054649815 -0.04581001 -0.055865854
000190 27 a0 85 3d 86 0b 3b bd 07 0e 91 bd 3c 9a c6 3d
       0.06524687 -0.045665286 -0.07082754 0.096973866
0001a0 3b ec 9f 3d 44 b9 41 bd 08 14 4c 3d b3 0f 91 3d
       0.07808729 -0.047295824 0.04982379 0.070830725
0001b0 05 5b 81 3d 71 87 af 3d fb ed 2b bd 8d 26 0a 3d
       0.06316189 0.08570755 -0.041975003 0.03372817
0001c0 f6 48 76 3d b1 98 38 3d e0 9e 9d 3d 78 93 17 3b
       0.060128175 0.045067493 0.076963186 0.002312867
0001d0 4d 81 bd bb 82 f6 cc 3d 23 c9 5d 3c 79 59 5a bd
       -0.005783236 0.10007955 0.013536724 -0.053307984
0001e0 5c 94 e3 3d 1e 78 5a bd 3c b5 83 3d cc 8a 81 3b
       0.11112282 -0.05333721 0.06431052 0.0039533135
0001f0 dd aa db bd 2c 2d aa 3c 5e 10 5d bd 07 ab 93 3b
       -0.10725949 0.020773493 -0.053970687 0.004506472
000200 76 ad 92 bc e8 b6 88 3d 58 df a5 3d 39 d9 fc bd
       -0.017904978 0.066755116 0.0809924 -0.123461194
000210 29 ef fd 3d d3 fe a2 bd 12 82 51 3c fc 4d 88 bb
       0.12399132 -0.0795876 0.012787359 -0.004159687
000220 9a 6a 16 bd ca ee 08 bd 4a 0e e9 3c 7a dc 01 bc
       -0.036722757 -0.033430852 0.028449196 -0.007926101
000230 35 3f 3f 3d 67 7f 73 bd f5 44 d1 3c 13 2a 5d bd
       0.04669114 -0.059447672 0.025545577 -0.053995203
000240 9f 53 e9 bd 79 16 a0 bd 4c eb 80 3d 8c c0 7b 3d
       -0.113929026 -0.07816786 0.06294879 0.061462924
000250 4f f8 4a bd 53 7c f2 3d 55 ad 92 bd dc 61 86 3d
       -0.04955321 0.11840119 -0.07161967 0.06561634
000260 33 8c 9d 3c 30 a2 42 3d 2b 4b 9f bc 73 10 a8 bd
       0.019231891 0.047517955 -0.019445023 -0.082062624
000270 ed 66 01 be 0d 1a dd 3d e6 68 99 bd e3 12 fa 3d
       -0.1263692 0.107959844 -0.07490711 0.122106336
000280 0b a5 9b 3d 85 47 05 3e 78 6b 60 bd 24 9c 0e bd
       0.07599839 0.13015564 -0.05478999 -0.034816876
000290 1c 89 c9 3c 15 d3 5a bd 5d 45 07 bd 09 a3 0c bb
       0.024601512 -0.05342396 -0.033025134 -0.0021459481
0002a0 ad 65 04 bd 62 e9 6c 3d d6 a6 34 bd 63 ba 4b 3d
       -0.032323528 0.05783976 -0.04410442 0.0497383
0002b0 69 48 dd bb 8e a8 0d bd 1b f2 71 3d 86 3a 1a 3d
       -0.0067530167 -0.034584574 0.05906878 0.03765347
0002c0 cd b5 a4 bd a3 e0 d1 bd f0 c7 cd bd 95 8f c7 bd
       -0.08042488 -0.10247924 -0.10047901 -0.09744183
0002d0 a4 8e 69 bc 14 aa 95 bd 04 f4 1d bd 07 a0 b3 bd
       -0.0142552 -0.073078305 -0.03856279 -0.08770757
0002e0 13 e7 fa bd 2b cc 9f 3d cd 16 01 be 88 63 d1 3d
       -0.12251105 0.07802614 -0.12606354 0.10224062
0002f0 79 1e cb bc 1b da 2d 3c c1 16 ff bc 3a 44 1c bd
       -0.024794804 0.010611082 -0.03113878 -0.038151003
000300 f8 58 8c bc 9a 45 e7 bd 85 7d ec bc 84 a8 a3 bd
       -0.017132267 -0.11292572 -0.028868446 -0.07991126
000310 83 0f 94 bd 6a 10 e1 bc 00 07 8a 3d 8a 1e 40 3d
       -0.07229521 -0.027473647 0.067396164 0.046904124
000320 96 d2 6d 3d 41 8f 63 bd 74 99 b2 3d 42 b6 14 bd
       0.05806216 -0.05555654 0.08720675 -0.036306627
000330 97 c6 37 3d 8a c4 a6 bd a0 cb b0 ba 81 24 22 bc
       0.044867124 -0.081429556 -0.0013488419 -0.0098963985
000340 08 90 37 3d 26 1e 2b bd 1f 0c a6 3d c6 15 80 3d
       0.044815093 -0.0417768 0.08107781 0.06254153
000350 74 67 3c 3d 17 5f 5d 3c fe d8 e3 bc df 81 00 bd
       0.045997098 0.013511441 -0.02781343 -0.031373855
000360 8d eb ee 3c c3 dd d6 bc 06 dc c9 bc 34 5e f1 bd
       0.029165054 -0.026228791 -0.024641048 -0.11785546
000370 cd 6e d5 bd be 32 62 3d 37 6c be bd 21 23 e7 3d
       -0.10421524 0.055224173 -0.09297984 0.11285997
000380 25 1f 8e 3d d4 e5 eb bd ac 0d de 3d 65 4c 9c bd
       0.06939534 -0.115184456 0.108424515 -0.076317586
000390 bc 96 b0 3d eb fc 9b 3d 27 45 e6 3d e2 f9 ba bc
       0.086225 0.076166 0.112436585 -0.022824232
0003a0 af 68 81 bd da e7 39 bd c6 a9 52 bd 49 ac b4 3d
       -0.06318795 -0.045387127 -0.05143144 0.08821923
0003b0 16 67 67 bd 71 cf d5 bc de ac a7 3d 55 74 91 3d
       -0.056494795 -0.026099892 0.08187269 0.07102267
0003c0 cc 67 97 3d b6 48 b7 bd 72 fc ea 3a eb 0a a8 3d
       0.073928446 -0.089494154 0.0017928018 0.082052074
0003d0 a7 a8 75 3d e4 25 4c bd 1e 6d be 3d a8 66 c2 bd
       0.059975293 -0.049840823 0.09298156 -0.094922364
0003e0 aa 85 39 bd 74 dd 8d 3d ab a3 43 bd b4 4d 63 bd
       -0.045293488 0.069270045 -0.047763508 -0.055494025
0003f0 82 4b 49 3d 56 7f a9 3d 8e a8 dc 3d e7 8b 46 3d
       0.049144275 0.082762405 0.10774337 0.048473265

mixture_net.mol_attn_layers.0.ffn.layers.0.bias f4 [64]
000000 47 30 fe bd 84 6c db 3d 56 72 71 bd a2 d8 b9 3d
       -0.12411552 0.10714057 -0.05894693 0.090745226
000010 8c d5 12 bb ce 7b 96 3d 9e d9 d3 bd 23 e4 f8 bd
       -0.0022405116 0.073478326 -0.103442416 -0.121528886
000020 18 90 40 3d 8d f3 39 bd 45 4e d6 bd b7 55 87 3d
       0.04701242 -0.045398284 -0.104641475 0.06608146
000030 55 e5 40 3c 65 a8 d7 bc bc 72 e8 3c a2 c1 b0 bc
       0.011773427 -0.026325414 0.028375022 -0.021576706
000040 0b 2d be bc 99 9c 94 3d ad 75 e3 bc 25 1e 48 3d
       -0.023214838 0.07256431 -0.027766073 0.048856873
000050 f0 b6 6b bd 55 44 b2 bd 0c 5f d4 bc c4 fd d8 3d
       -0.05754751 -0.087044396 -0.025924228 0.10595277
000060 fe 6e 52 3d 4f 0b 4d 3d d1 fb 8d bd c5 8d a8 bd
       0.05137538 0.050059613 -0.06932796 -0.082301654
000070 89 2a 6e 3c bf 64 ae bc 8a f9 65 bb 6b 51 c7 bd
       0.014536508 -0.021288274 -0.0035091364 -0.09732326
000080 75 6f 45 3c 92 5d 23 3b fb 5a bf bd 16 4a c1 3d
       0.012050499 0.0024927598 -0.09343525 0.09437959
000090 c9 86 c7 3a 6d 99 bc bd df aa 1b bd a1 4e 7c bd
       0.0015222664 -0.09208951 -0.038004752 -0.061598424
0000a0 2b c1 04 3b b9 cb a9 bd 98 1e 86 bd f9 5a 47 3d
       0.0020256739 -0.0829081 -0.06548804 0.048670743
0000b0 dd 9d d0 bd 2f a5 67 3c fb 05 a8 bd ae 9f ea bd
       -0.1018636 0.014138504 -0.08204266 -0.11456238
0000c0 2b 1a e1 3d 59 44 83 3d df b2 ae ba 38 b6 03 3e
       0.10991319 0.06409521 -0.0013328454 0.1286248
0000d0 69 df 68 3d 0a 02 4a bd 1f a7 03 bd e3 34 60 bd
       0.056853686 -0.04931835 -0.0321418 -0.054737937
0000e0 5a 96 b7 3d 9a 94 aa bd 4c 77 aa 3c 79 d6 9d bd
       0.08964224 -0.08329125 0.020808838 -0.07706923
0000f0 ff aa d5 3c 1d be 80 3d 4c fd ea 3c ea 53 11 bc
       0.026082514 0.06286261 0.028685234 -0.008870104

mixture_net.mol_attn_layers.0.ffn.layers.2.weight f4 [64, 64]
000000 bc 96 ac 3d b0 bc 92 3d cc 2b 90 3d c5 ea 50 bd
       0.08427188 0.071648955 0.070396036 -0.051005144
000010 d9 08 8c bd 55 4e 3c 3d 13 b9 47 bd e3 ff b4 3d
       -0.06837625 0.04597314 -0.048760485 0.08837869
000020 b0 2b dc 3d 58 10 6d 3d f7 e2 30 3c 97 6d ce bd
       0.1075052 0.057876915 0.0107963 -0.10079496
000030 17 89 06 3e 32 a9 9f 3d eb 65 f1 3d e3 f1 68 bd
       0.13138233 0.07795943 0.117870174 -0.056871306
000040 82 67 c3 3d 0b 93 00 be 46 f6 77 3d 09 24 2f bd
       0.09541227 -0.12556092 0.0605376 -0.042758975
000050 a3 55 59 bd 0f 67 fd bd b7 92 b7 3d fa 07 6d bb
       -0.053060185 -0.123731725 0.089635305 -0.0036168084
000060 17 ea b9 39 41 b2 d8 3d 46 bd 93 bd e2 26 10 be
       0.0003546036 0.10580874 -0.072138354 -0.14077333
000070 86 d3 ae bc f9 74 e6 3d 1a a1 95 3b ca da c2 3d
       -0.021341097 0.112527795 0.004566324 0.09514387
000080 ad 84 ab 3c a5 0f ac bd 84 37 a2 3b f8 8f c1 3d
       0.020937288 -0.084014215 0.0049504656 0.09451288
000090 9b 22 a0 bd 02 7d d7 3d 1c fc 99 bd 35 19 16 bd
       -0.078191005 0.1052189 -0.07518789 -0.036645133
0000a0 aa f6 f4 bc a4 9c a7 bd 8c 89 84 bd 1b fa dc bc
       -0.029902775 -0.08184174 -0.064715475 -0.026974728
0000b0 3f a0 cb bd 44 8d ec 3d 70 05 da 3b 7b 4e de bc
       -0.09942674 0.11550382 0.00665348 -0.027137032
0000c0 10 7c ef 3d 11 aa 7c bd 65 21 ff 3c 8c f7 47 3d
       0.11693585 -0.061685625 0.031143853 0.048820063
0000d0 aa 41 a7 3c ae 50 d5 3c 50 80 ec 3d 56 84 97 3b
       0.020417053 0.026039448 0.11547911 0.00462393
0000e0 5b 14 18 3d 0e 6f d4 3d 95 14 bf 3c 0c d5 04 bb
       0.037128787 0.103727445 0.023325244 -0.0020268587
0000f0 7e 05 55 bd e1 92 8c bd 27 b9 c7 bd ec eb ba bd
       -0.05200719 -0.068639524 -0.09752112 -0.0912703
000100 e1 93 24 bb b2 09 c4 bd 2e 5e e2 3d dd fd d0 bc
       -0.0025112557 -0.09572162 0.110531196 -0.025511676
000110 a1 5b c7 3c 77 aa 5c bd 9f a4 5a 3c 47 3d 8c 3d
       0.024335684 -0.053873505 0.013344913 0.06847625
000120 bd f6 80 3d a5 7d 04 bc e8 10 d8 bc 63 7a f8 3d
       0.062970616 -0.008086597 -0.026375249 0.121327184
000130 1d 07 0f bd 26 b6 f7 3d 25 0a e0 3b 41 09 d0 3c
       -0.034918893 0.12095289 0.006837147 0.025395038
000140 12 ec 7b bc cb 91 7c 3c 63 13 c0 bd 7d 8a b6 3d
       -0.015376108 0.015415619 -0.09378698 0.08913133
000150 5c 3b 36 3d 45 82 01 be 68 d6 5a ba 9b 49 7d bd
       0.044490203 -0.1264735 -0.0008347989 -0.061837774
000160 14 52 a8 3d 3b f4 49 be 38 04 c1 bd 77 c6 d3 3d
       0.0821878 -0.19722073 -0.09424633 0.103405885
000170 cb f8 d4 3c c2 37 87 bd 6e 0d ee 3d 71 2d 01 3e
       0.02599754 -0.06602432 0.11623655 0.12614991
000180 7d 85 18 be 2c 18 4b 3c cb e0 29 3d 9f f6 dd bd
       -0.14894672 0.0123959 0.041474145 -0.10838055
000190 4f 44 93 bc 60 a8 c0 bd 37 74 90 3d 0f 2a 43 3d
       -0.017976908 -0.09407115 0.07053416 0.047647532
0001a0 aa eb 13 3d 24 c4 80 3d d6 9f 1a 3d 42 4b ee 3c
       0.03611342 0.06287411 0.037750088 0.02908862
0001b0 5a 64 f9 3d 8c df 31 3d cf b2 38 be cd a4 cc bb
       0.12177344 0.04342608 -0.1803696 -0.0062452317
0001c0 ad 1c bc bd e4 47 8a bd f7 60 13 be 79 57 ad bd
       -0.09185157 -0.06751993 -0.14392458 -0.0846395
0001d0 8e 21 0c bb ea a7 a3 3d 41 e6 89 3d 4b 09 8d 3d
       -0.0021382305 0.079910114 0.067333706 0.06886538
0001e0 3f bd a3 bd ec ae 8e 3d 1c 92 64 3d 97 8a 89 3d
       -0.0799508 0.069669574 0.055803403 0.06715887
0001f0 76 00 8f bc fa c3 71 3d 0d f9 34 bd 9a 50 6b 3c
       -0.017456274 0.05902479 -0.044182826 0.014362479
000200 7d 39 c9 3d d1 45 fb 3d dd ac d4 bd 69 7d c8 3d
       0.09825418 0.12269176 -0.103845336 0.09789545
000210 f3 3f e7 3d 49 b1 bd bd f9 7c 6f bd 08 0a 95 bc
       0.11291494 -0.0926233 -0.058468793 -0.01819326
000220 33 0b f8 3d 9d e1 41 3d 16 83 9c 3d f4 65 00 3e
       0.12111511 0.047334302 0.0764219 0.12538892
000230 ba 54 d0 3c cb 7b 26 3c 3b 2d 7b 3d 3f 37 92 bd
       0.025431026 0.0101613505 0.061322432 -0.071394436
000240 17 1c 80 bd 53 f9 2a 3d 67 19 8d bd 4a 71 9c 3d
       -0.06255358 0.04174168 -0.06889611 0.07638796
000250 c8 c4 04 be 63 31 88 3b e9 9c 04 3c 2d 20 13 3e
       -0.12965691 0.004156278 0.008094051 0.14367743
000260 c8 12 ad bb b8 d9 bc 3d ed 34 63 bc c8 b2 e1 bd
       -0.00528178 0.09221214 -0.013867599 -0.11020428
000270 a2 1d 9c 3d 3d 7b 0e 3d f9 09 95 3d 3a e1 9b 3c
       0.076228395 0.034785498 0.07277293 0.019028295
000280 53 d9 de 3d ad 64 11 3e 99 d5 1e bd 2f 24 82 3d
       0.10881295 0.14198561 -0.03877792 0.06354558
000290 cf d2 6d 3d 68 e2 3c bd 61 e0 1c be e1 ce 58 3d
       0.05806237 -0.046114355 -0.15319969 0.05293167
0002a0 53 f3 17 bc 59 ba 89 bd 25 0e ba 3c 48 0d 67 3d
       -0.009274322 -0.06724996 0.022711823 0.05640915
0002b0 5a 1e d8 3c c0 0b 38 3d 46 7b 4b bc f7 c7 92 bb
       0.02638166 0.04493308 -0.012419527 -0.004479404
0002c0 fd 1d 11 3d ad 99 b0 bd e4 99 cb 3c 6c 29 03 3d
       0.03542899 -0.08623061 0.024853654 0.032021925
0002d0 6f 8c ac bc e3 18 78 3d 2f a1 b8 3d 83 4d 29 bd
       -0.021063058 0.06057061 0.09015118 -0.041333687
0002e0 f2 06 d7 bc 35 3c 48 3d b9 a0 a7 3c 26 1f bf 3d
       -0.026248429 0.048885543 0.02046238 0.09332113
0002f0 1e e5 c2 bc 79 30 e2 3d 4b 80 9d bd bd 6a bf bd
       -0.023790892 0.11044402 -0.076904856 -0.093465306
000300 9f 8c 6a bc 9c 08 ba 3d e0 4c 75 3d 07 c3 86 3c
       -0.014315753 0.09083673 0.059887767 0.016450418
000310 0a 6f 8e 3d 0a e2 db bc 6c e9 07 3c 4b d6 d6 3d
       0.06954773 -0.026841182 0.008295398 0.10490092
000320 22 fa 1a 3d b6 b1 1b bd 4c b5 93 3d 79 ca c8 bd
       0.0378362 -0.038011275 0.07212314 -0.098042436
000330 17 2a b4 bd 55 49 85 bd 07 8f c0 bd fa 70 8c bd
       -0.087970905 -0.065081276 -0.0940228 -0.06857486
000340 7b 20 b9 bc e8 6a 0f 3c 73 dd e8 ba 87 21 d4 3d
       -0.022598496 0.008753516 -0.0017766192 0.10357957
000350 71 1e 59 3c 35 27 bd 39 b2 21 a3 3c bc f3 3c bd
       0.013251887 0.000360781 0.019913528 -0.04613088
000360 59 48 03 be 9b ec f2 bc 17 ab ed 3d 23 db b9 3c
       -0.12820567 -0.029653838 0.116048984 0.0226875
000370 2b 1d 09 3e ff 56 c3 3d e8 74 07 3e 7d 1c d4 b9
       0.13390033 0.095380776 0.1322819 -0.00040457016
000380 5c 7a 59 3d e3 e5 d2 bd e3 ba 69 bc 6c ac 98 3d
       0.053095207 -0.10297754 -0.014265749 0.07454762
000390 14 42 b8 bd e1 c3 3b 3d bc de 71 3d 61 92 57 3d
       -0.089969784 0.0458411 0.059050307 0.052629832
0003a0 50 d3 b5 3b 97 60 15 bd 9e c9 8f bc 83 fc da bd
       0.005548872 -0.03646907 -0.017552193 -0.10692694
0003b0 1c b6 00 3e aa 68 29 3c c4 9d 63 3d f7 90 47 3d
       0.12569469 0.010339895 0.05557038 0.048722234
0003c0 9c 24 03 be 2d 6d b8 bd ee 8e 07 3e 3e 66 82 3d
       -0.12806934 -0.09005199 0.13238117 0.063671574
0003d0 cf 85 b5 bd dc 14 a2 bd 57 48 49 3d d2 3b 0b be
       -0.088634126 -0.07914135 0.049141254 -0.13597038
0003e0 af 0d 25 3d 9a b6 b9 bb 91 f4 0d 3e b4 a4 b1 3c
       0.040296253 -0.0056675198 0.13862826 0.021684982
0003f0 9f 1f 48 bd ae 8f c9 3c 6b c4 bc bd cd 74 0b 3c
       -0.04885828 0.024604645 -0.09217151 0.008511734
