scripts_chemix/chemix_weights_pearson/best_model_dict_9.pt (torch, 497860 bytes, 21 tensors)

input_net.weight f4 [96, 196]
0.0613051 -0.061320882 0.050120827 0.066099815 0.03379651 -0.086520694 -0.062225707 -0.07400123
-0.06787093 0.07315744 -0.020332275 0.010728498 -0.07142312 0.012823906 0.026698079 0.029887721
0.08151257 0.01582615 -0.083382875 0.07772865 0.011144628 -0.037947766 -0.07751231 0.050912626
0.07538176 -0.04648949 0.014097195 0.036593556 -0.03403228 -0.02176576 -0.059689954 -0.027532421
-0.06800626 -0.002592346 0.031494558 0.022806168 0.14064348 -0.08901612 0.01911405 0.06962921
0.012806802 -0.05433657 -0.047913637 -0.018939195 0.05040613 0.04979927 0.053280067 0.016850138
0.05593176 -0.040294096 0.043030288 -0.011742302 -0.01827539 -0.048965238 0.02233515 0.012587943
0.04592999 -0.04790327 -0.05591161 0.070370734 -0.038992107 -0.04458155 -0.02226531 -0.02127637
-0.042904332 0.055341512 0.020459414 0.039180566 0.0649737 -0.018184165 0.046030734 -0.040098492
0.01952584 0.053289257 0.012052774 0.04915303 0.04052589 0.06579354 -0.015512744 -0.017291436
-0.02942609 -0.05212039 0.00059063185 0.034219507 0.03889332 -0.046671953 -0.018433316 0.025589647
0.010553141 -0.028832007 -0.042193443 -0.03508714 -0.03465793 0.012390846 -0.022970399 -0.011091997
-0.040767614 -0.018642168 0.03778213 0.029202683 -0.0049144975 -0.027484076 -0.055603012 -0.07523072
-0.016397273 -0.022652544 -0.077465944 0.0095712 -0.048767745 0.011289467 -0.017200898 0.08019974
-0.08811011 -0.006182737 0.03570102 0.010920373 -0.06458951 -0.016406246 0.052545127 0.0075132228
0.021903092 -0.077521205 0.06292922 -0.023327908 -0.04295369 0.05572554 0.020863157 0.0028645701
-0.052347094 -0.019211605 -0.053778432 -0.012577735 -0.02003781 0.04003121 -0.072479576 0.09806891
0.06643545 -0.06917234 0.035581384 -0.0023082048 -0.036710344 0.06448164 -0.0055312207 -0.012832041
0.0049861055 0.04554756 -0.0056511415 -0.0060848426 0.00023176873 -0.07381966 -0.061315246 0.018716361
-0.006518982 0.023911923 -0.025942465 -0.12160898 -0.019050477 -0.05415677 0.00151313 0.013592604
0.01577621 0.064808026 0.018199747 0.07164607 0.07634051 -0.005769988 0.017058466 -0.010312118
0.09436529 0.058437362 -0.07590368 0.06439529 0.011277547 -0.036824822 -0.06983502 -0.087605394
-0.059376575 -0.05722629 -0.038764324 -0.021109842 -0.061169542 -0.061742395 -0.0068531767 -0.09237766
-0.008298389 0.019788923 0.03637954 0.120114386 0.016566645 -0.038421843 -0.02938468 0.0012737624
0.07711167 0.022394108 -0.09366721 -0.009625412 0.031507734 0.028321242 -0.025171531 -0.0805781
-0.050832715 -0.00039259362 -0.05549035 0.016783258 0.040884398 0.0041831485 0.04446876 0.06416721
0.059778858 -0.076514885 0.053445876 0.00020055546 -0.07697843 0.008641525 -0.046987213 0.06980801
0.084585644 -0.047298726 -0.051235087 0.010403781 -0.009887652 0.042580977 -0.055931445 0.043950208
0.00010571741 -0.009147987 -0.08051488 0.010258678 0.038756113 0.08637862 -0.04672081 -0.03717482
0.030738346 0.04185675 -0.06534931 -0.018460851 -0.04947839 0.08109582 -0.017505504 0.063521884
0.03687699 0.0046071378 0.008620807 0.06632792 -0.0075410577 0.0346983 -0.03253408 -0.008502691
0.02119192 -0.09140913 -0.06705622 -0.076758884 0.0046357503 -0.010525024 0.058598015 -0.05659207
00000000: 0e1b 7b3d 9b2b 7bbd 7f4b 4d3d 575f 873d
00000010: 366e 0a3d c331 b1bd 62e0 7ebd f58d 97bd
00000020: eaff 8abd 91d3 953d df8f a6bc 95c6 2f3c
00000030: 4946 92bd 5c1b 523c eeb5 da3c 18d7 f43c
00000040: 10f0 a63d d8a5 813c a4c4 aabd 3330 9f3d
00000050: f597 363c 1e6f 1bbd c6be 9ebd c289 503d
00000060: c161 9a3d c36b 3ebd ecf7 663c 20e3 153d
00000070: 6f65 0bbd 1b4e b2bc 747d 74bd ac8b e1bc
00000080: de46 8bbd 59e4 29bb 7000 013d 00d4 ba3c
00000090: d804 103e 154e b6bd 1195 9c3c c299 8e3d
000000a0: 9fd3 513c 0690 5ebd 1741 44bd 5f26 9bbc
000000b0: a876 4e3d 52fa 4b3d 333c 5a3d 4d09 8a3c
000000c0: b418 653d 6c0b 25bd 8740 303d c962 40bc
000000d0: 45b6 95bc c68f 48bd 34f8 b63c a93d 4e3c
000000e0: 1621 3c3d 3836 44bd 9303 65bd 881e 903d
000000f0: 30b6 1fbd 259b 36bd bd65 b6bc c84b aebc
00000100: 74bc 2fbd c8ad 623d 809a a73c cd7b 203d
00000110: ee10 853d f5f6 94bc b98a 3c3d 513e 24bd
00000120: a8f4 9f3c d645 5a3d 0079 453c b054 493d
00000130: 7afe 253d c3be 863d 2a29 7ebc c5a6 8dbc
00000140: fc0e f1bc 317c 55bd a2d4 1a3a c129 0c3d
00000150: 9a4e 1f3d 172b 3fbd 7701 97bc 61a1 d13c
00000160: 15e7 2c3c 1a31 ecbc 08d3 2cbd 88b7 0fbd
00000170: 79f5 0dbd fa02 4b3c 6b2c bcbc 35bb 35bc
00000180: f1fb 26bd 76b7 98bc 6fc1 1a3d 773a ef3c
00000190: cb09 a1bb 4926 e1bc fcbf 63bd 9012 9abd
000001a0: 9353 86bc d491 b9bc 77a6 9ebd 86d0 1c3c
000001b0: b0c0 47bd 75f7 383c e6e8 8cbc c33f a43d
000001c0: 1373 b4bd 8f98 cabb 3c3b 123d 5deb 323c
000001d0: 8147 84bd 6466 86bc 8f39 573d 7b31 f63b
000001e0: 1d6e b33c 70c3 9ebd 09e1 803d 2b1a bfbc
000001f0: 35f0 2fbd 7740 643d 36e9 aa3c 83bb 3b3b
00000200: e869 56bd a861 9dbc c646 5cbd d812 4ebc
00000210: 5526 a4bc c4f7 233d 2c70 94bd 5ad8 c83d
00000220: 4f0f 883d 3aaa 8dbd c9bd 113d 4045 17bb
00000230: 965d 16bd f30e 843d 3e3f b5bb 7b3d 52bc
00000240: 7c62 a33b 1490 3a3d 362d b9bb 5c63 c7bb
00000250: f206 7339 c32e 97bd b225 7bbd 0e53 993c
00000260: 2f9d d5bb f0e2 c33c 4b85 d4bc 210e f9bd
00000270: bf0f 9cbc 7dd3 5dbd 3854 c63a 83b3 5e3c
00000280: 1c3d 813c 12ba 843d a317 953c 2dbb 923d
00000290: 6a58 9c3d 2b12 bdbb 32be 8b3c 28f4 28bc
000002a0: 9742 c13d 045c 6f3d 6373 9bbd aee1 833d
000002b0: 76c5 383c a0d5 16bd aa05 8fbd 756a b3bd
000002c0: da34 73bd 1d66 6abd 57c7 1ebd 8cee acbc
000002d0: ea8c 7abd 98e5 7cbd 9d90 e0bb 8030 bdbd
000002e0: f7f5 07bc 611c a23c b602 153d 88fe f53d
000002f0: c6b6 873c 3960 1dbd 24b8 f0bc 60f4 a63a
00000300: b9ec 9d3d d973 b73c 98d4 bfbd e7b3 1dbc
00000310: 410e 013d f301 e83c 8734 cebc 2206 a5bd
00000320: f735 50bd 06d5 cdb9 d949 63bd 0b7d 893c
00000330: 6676 273d cb12 893b e024 363d 196a 833d
00000340: adda 743d d6b3 9cbd 10ea 5a3d 324c 5239
00000350: dea6 9dbd 2f95 0d3c aa75 40bd 80f7 8e3d
00000360: 3d3b ad3d 4fbc 41bd e2db 51bd 9f74 2a3c
00000370: d1ff 21bc 6469 2e3d 5f18 65bd 2205 343d
00000380: 9ab4 dd38 70e1 15bc fce4 a4bd 0414 283c
00000390: bbbe 1e3d 46e7 b03d 525e 3fbd a044 18bd
000003a0: fcce fb3c fc71 2b3d dcd5 85bd 363b 97bc
000003b0: daa9 4abd 9115 a63d b467 8fbc c317 823d
000003c0: 540c 173d 79f7 963b 493e 0d3c efd6 873d
000003d0: fa1a f7bb ce1f 0e3d 7542 05bd df4e 0bbc
000003e0: ad9a ad3c b634 bbbd c554 89bd c333 9dbd
000003f0: 7ee7 973b 2671 2cbc 7904 703d 16cd 67bd

input_net.bias f4 [96]
0.054246582 -0.0053763893 -0.019778565 -0.03167639 -0.00083419593 -0.068915635 0.040691905 0.039287202
0.06029915 0.05754598 -0.06467805 -0.01256846 0.009061286 0.029424114 -0.043415144 -0.03654759
0.003797913 0.0625347 -0.024694687 0.01800722 -0.0073250444 0.02792879 0.04899758 -0.059748456
-0.036444943 -0.030344797 0.027333336 0.024000643 0.013993531 0.020387203 0.03465541 0.05875685
0.012141152 0.058800865 0.061298903 0.018789006 0.0366219 0.029166345 -0.0017112198 -0.034437343
0.011621725 0.05515275 -0.02954306 -0.026173674 0.06379593 -0.06479207 0.053973626 -0.032347318
-0.011531094 -0.037099473 0.02965344 -0.023605976 -0.039342433 -0.020186633 -0.05635095 -0.008913917
-0.046181183 0.008804168 -0.03564894 0.038884833 -0.009159037 -0.042651616 -0.013538016 0.056601986
0.005223479 -0.028326351 0.00416652 0.032086972 0.042727776 -0.034016997 -0.059769563 -0.021040425
-0.00057232374 0.0036588206 0.07084729 0.06071854 -0.062100403 0.05284845 0.031343434 -0.01695341
0.045172177 0.0302437 0.063931815 -0.061224513 -0.005262182 0.048599374 -0.0071282783 0.0023709086
-0.07275344 0.0019352636 -0.00931457 -0.059028804 0.024173707 0.06831688 -0.07684963 -0.045140266
00000000: aa31 5e3d 6c2c b0bb a806 a2bc 1abf 01bd
00000010: f1ad 5aba a423 8dbd 8eac 263d 9eeb 203d
00000020: 3efc 763d 55b5 6b3d ed75 84bd f1eb 4dbc
00000030: ca75 143c d70a f13c 14d4 31bd edb2 15bd
00000040: 68e6 783b 3112 803d 834c cabc e183 933c
00000050: ed06 f0bb ebca e43c b0b1 483d ccba 74bd
00000060: 4b47 15bd a795 f8bc 29ea df3c ff9c c43c
00000070: 2045 653c 1003 a73c d5f2 0d3d 06ab 703d
00000080: afeb 463c 2dd9 703d 8f14 7b3d 67eb 993c
00000090: d800 163d 42ee ee3c 024b e0ba 2c0e 0dbd
000000a0: 0c69 3e3c dae7 613d 4a04 f2bc 2c6a d6bc
000000b0: 71a7 823d b4b1 84bd 7313 5d3d 9f7e 04bd
000000c0: eaec 3cbc 9ef5 17bd c5eb f23c 5261 c1bc
000000d0: 8825 21bd 705e a5bc 41d0 66bd ad0b 12bc
000000e0: 7b28 3dbd 5b3f 103c 9f04 12bd b445 1f3d
000000f0: c90f 16bc 76b3 2ebd 8ece 5dbc 7cd7 673d
00000100: b829 ab3b aa0c e8bc 4e87 883b a16d 033d
00000110: 5203 2f3d 6855 0bbd eed0 74bd f85c acbc
00000120: ff07 16ba d3c8 6f3b 6218 913d 01b4 783d
00000130: fe5c 7ebd 9e77 583d f961 003d e1e1 8abc
00000140: 7606 393d a3c1 f73c afee 823d 8ec6 7abd
00000150: 626e acbb 2310 473d 5594 e9bb 3f61 1b3b
00000160: c1ff 94bd aca8 fd3a 239c 18bc 30c8 71bd
00000170: f007 c63c b8e9 8b3d 5763 9dbd 00e5 38bd

mixture_net.mol_attn_layers.0.self_attn_layer.in_proj_weight f4 [288, 96]
0.045694217 -0.20391266 -0.00036609807 0.04303436 -0.021491656 0.012673349 0.008855967 -0.033196636
-0.20972049 -0.10537821 0.14550726 -0.14583857 -0.06741073 0.00443147 -0.100974254 -0.012829734
0.14483574 0.08260549 -0.11956925 -0.051755063 -0.026349593 0.00862452 0.04119998 0.08830079
0.14979014 -0.09215914 -0.11759169 0.08819533 -0.055273887 0.08755041 0.046664838 0.034747206
0.051183395 -0.12645575 0.06077812 0.2630246 0.07108872 0.17717496 -0.11788451 0.05611173
0.17880377 -0.057629973 0.059124094 -0.051649693 -0.030963736 -0.055466972 0.12619445 0.00759406
0.074664555 -0.119793974 0.026432136 -0.03154203 0.16918117 -0.0909624 0.027122525 -0.058170605
0.010351437 0.027499184 -0.008740692 -0.11455402 0.08300338 0.0980242 0.006920146 -0.060757816
0.047944736 -0.028949382 -0.006122875 -0.061961718 0.009745096 -0.058111373 0.11866717 0.04129407
-0.06336105 -0.16000302 0.12956177 -0.047364887 -0.033536576 0.047996823 -0.044539217 -0.089186154
0.06121662 0.08945062 0.103135034 0.13827711 -0.13801177 -0.13570666 0.16117105 0.116741754
0.0876828 0.12462098 0.054425772 -0.01440489 0.0016907229 -0.057924453 -0.09663054 0.072583914
-0.04343787 0.02802726 0.031129625 0.025592774 -0.046299994 -0.113283165 0.091597974 0.07338573
0.049463026 -0.1322032 0.011107042 0.108767375 -0.094783515 -0.023661865 -0.052837428 -0.114378035
-0.12419198 -0.07265395 0.10783272 -0.050829496 -0.10435374 -0.013047615 0.08878905 -0.016647412
0.09657227 -0.086513884 -0.04157025 -0.10420358 0.14904155 -0.006357003 -0.0049166195 -0.099913225
-0.098918445 -0.050191734 0.03327121 -0.009465631 0.14171974 -0.020234117 0.1650002 0.004481924
0.14975834 -0.017459167 -0.013988256 -0.10713473 -0.04214558 -0.10049467 0.08907014 0.010152079
-0.06684758 -0.02408772 -0.088535406 -0.12581125 0.032217607 -0.02237794 0.03492705 -0.1498765
-0.053211097 -0.075060435 0.005901875 -0.11235159 0.028089352 0.037454214 -0.08622033 0.018125294
0.023799276 -0.10161446 -0.14554252 -0.11522076 0.14037986 0.049259204 -0.09311435 -0.0022005595
0.08463498 -0.10875089 0.13360883 -0.1156884 -0.14803433 0.041955158 0.080976 0.12179242
0.018354397 0.030792972 -0.101541534 -0.08201588 -0.109666646 -0.07881634 -0.059841234 -0.07622511
0.10760298 -0.11144692 0.0534589 0.057402212 -0.10330897 -0.051030833 -0.08293619 0.08133453
0.032124814 -0.0076558325 0.0071403016 -0.008697033 -0.056167327 0.06473524 0.14914419 -0.09703272
-0.007840467 -0.000527744 0.048419796 -0.036930833 -0.08983087 -0.02093589 0.03706697 -0.07812025
0.024283363 0.13476524 0.044981204 -0.093841575 -0.04667664 -0.0906713 0.07241216 -0.05386164
0.082446754 -0.10983397 -0.073586896 -0.058140837 -0.1137117 0.11715463 -0.0065990025 -0.04670852
0.010688374 0.010815825 0.104965806 0.029246572 -0.037994295 -0.017312793 0.12667823 0.09094002
0.09196018 0.10969397 0.037135687 -0.10171975 -0.10941771 -0.04948957 0.025124725 0.020693919
0.10481055 0.119842954 -0.1424974 0.012600526 -0.047876578 -0.12338932 -0.12782678 9.6155374e-05
0.060534783 -0.15028878 0.006450349 -0.045424473 0.05113775 0.05950772 0.018198838 0.113478296
00000000: dc29 3b3d 7bce 50be daf0 bfb9 cc44 303d
00000010: 450f b0bc e1a3 4f3c 9e18 113c 32f9 07bd
00000020: f8c0 56be 88d0 d7bd dbff 143e b556 15be
00000030: a30e 8abd dd35 913b 97cb cebd ce33 52bc
00000040: d24f 143e 112d a93d b9e0 f4bd 1efd 53bd
00000050: 1adb d7bc dc4d 0d3c 4fc1 283d 0bd7 b43d
00000060: 9662 193e eebd bcbd e9d3 f0bd c19f b43d
00000070: df66 62bd a14d b33d a123 3f3d 1653 0e3d
00000080: aea5 513d 9e7d 01be 7af2 783d 29ab 863e
00000090: f696 913d 5a6d 353e 6f6d f1bd 6ad5 653d
000000a0: 5618 373e 680d 6cbd 1b2c 723d a18e 53bd
000000b0: a9a7 fdbc 5631 63bd 1e39 013e 98d7 f83b
000000c0: bbe9 983d 8b56 f5bd 3588 d83c 3732 01bd
000000d0: d43d 2d3e 7f4a babd 0f30 de3c 4d44 6ebd
000000e0: 1399 293c f845 e13c 1f35 0fbc 4c9b eabd
000000f0: adfd a93d e9c0 c83d 64c2 e23b 30dd 78bd
00000100: b361 443d 4127 edbc 66a2 c8bb 92cb 7dbd
00000110: e5a9 1f3c 3106 6ebd c607 f33d f923 293d
00000120: 70c3 81bd d5d7 23be d7ab 043e af01 42bd
00000130: a65d 09bd 5198 443d c16e 36bd 3ba7 b6bd
00000140: 47be 7a3d e331 b73d 7638 d33d 8498 0d3e
00000150: f552 0dbe b0f6 0abe 060a 253e 4d16 ef3d
00000160: 0a93 b33d 4939 ff3d 8fed 5e3d 7d02 6cbc
00000170: 3f9b dd3a 3142 6dbd 3ce6 c5bd e0a6 943d
00000180: e8eb 31bd 6d99 e53c 8e03 ff3c f0a7 d13c
00000190: 10a5 3dbd 0101 e8bd b897 bb3d 424b 963d
000001a0: be99 4a3d 4760 07be 50fa 353c 6ec1 de3d
000001b0: dc1d c2bd 87d6 c1bc 0f6c 58bd 083f eabd
000001c0: 5d58 febd 98cb 94bd 67d7 dc3d 9732 50bd
000001d0: 6ab7 d5bd aac5 55bc 09d7 b53d 2760 88bc
000001e0: afc7 c53d 312e b1bd 9145 2abd b068 d5bd
000001f0: 599e 183e 684e d0bb 981b a1bb 4e9f ccbd
00000200: c195 cabd d995 4dbd 6447 083d bc15 1bbc
00000210: fb1e 113e 05c2 a5bc d0f5 283e 1bdd 923b
00000220: 405a 193e 8706 8fbc 002f 65bc 7469 dbbd
00000230: d8a0 2cbd 26d0 cdbd 686a b63d e854 263c
00000240: 62e7 88bd 9c53 c5bc 0d52 b5bd aad4 00be
00000250: 9cf6 033d f151 b7bc ab0f 0f3d 3a79 19be
00000260: e1f3 59bd 49b9 99bd 8464 c13b 9718 e6bd
00000270: a41b e63c 9769 193d 4994 b0bd 7f7b 943c
00000280: b3f6 c23c 3e1b d0bd 1909 15be ddf8 ebbd
00000290: bdbf 0f3e 05c4 493d bdb2 bebd 4337 10bb
000002a0: 1b55 ad3d c9b8 debd c1d0 083e 0aee ecbd
000002b0: 5096 17be 2cd9 2b3d bfd6 a53d 4e6e f93d
000002c0: f65b 963c 8b41 fc3c 02f5 cfbd f1f7 a7bd
000002d0: e898 e0bd 766a a1bd 151c 75bd e91b 9cbd
000002e0: f45e dc3d 483e e4bd b8f7 5a3d 951e 6b3d
000002f0: a793 d3bd b505 51bd 73da a9bd b892 a63d
00000300: 4f95 033d c7dd fabb 31f9 e93b 007e 0ebc
00000310: b60f 66bd e993 843d 41b9 183e 17b9 c6bd
00000320: 4d75 00bc 4d58 0aba d653 463d c944 17bd
00000330: 3ff9 b7bd be81 abbc 89d3 173d 82fd 9fbd
00000340: e7ed c63c e6ff 093e 363e 383d 0330 c0bd
00000350: 0130 3fbd e0b1 b9bd d44c 943d 069e 5cbd
00000360: d8d9 a83d a2f0 e0bd bab4 96bd 1625 6ebd
00000370: aee1 e8bd c4ee ef3d 723c d8bb 6f51 3fbd
00000380: 4a1e 2f3c dc34 313c 50f8 d63d 8296 ef3c
00000390: e89f 1bbd 8fd3 8dbc f0b7 013e c33e ba3d
000003a0: 9e55 bc3d 3ba7 e03d 971b 183d 7252 d0bd
000003b0: 6416 e0bd 93b5 4abd 5ed2 cd3c 4b86 a93c
000003c0: eaa6 d63d 3970 f53d d7ea 11be 7072 4e3c
000003d0: 3b1a 44bd 8ab3 fcbd 06e5 02be 06a7 c938
000003e0: 52f3 773d 4de5 19be 735d d33b 030f 3abd
000003f0: d175 513d 5ebe 733d bb15 953c 4f67 e83d

mixture_net.mol_attn_layers.0.self_attn_layer.in_proj_bias f4 [288]
0.040173158 -0.0009988247 0.014315267 -0.033123028 -0.027781432 -0.013935244 -0.015143535 -0.0024028383
0.044240557 0.0058340374 0.02702462 0.029419402 0.027363647 0.023416638 -0.0076392144 0.003444243
-0.019418161 0.019834965 -0.018188866 -0.034216788 -0.013767006 0.020911725 0.048706107 -0.031662934
0.012790126 0.015161615 -0.0026821622 -0.05182388 -0.0069071385 -0.0026793957 0.0102398 0.0064905123
0.034760512 -0.03666214 -0.013912072 -0.011729369 0.0100716185 -0.0057995087 0.03178789 0.0175343
-0.030818095 -0.008507404 -0.02560179 -0.044799678 0.012887232 0.0066219755 0.019486248 -0.04566076
-0.021956034 0.009542697 -0.046427738 0.021063719 -0.011905636 0.08697113 -0.017294236 -0.016429055
-0.0058456566 -0.0037679665 -0.003228327 -0.018398413 -0.005222551 -0.003029891 0.029280072 -0.025166925
-0.0012311996 0.0048687444 -0.0063262954 -0.0064341817 0.030371733 -0.021109058 -0.02899441 0.00037007473
0.04824931 -0.00035931394 -0.011001187 -0.05001195 0.017084014 0.046248242 -0.0057852594 0.029187495
0.049493708 0.029232208 -0.056320786 0.078546785 -0.044439893 0.046098534 -0.04233484 -0.0034919465
0.031176582 -0.025233822 -0.02029699 0.033014227 0.00076670846 0.05946419 -0.007699964 -0.060235362
2.906642e-05 -1.13147225e-05 3.597256e-06 -2.5402126e-06 -8.5346055e-06 1.15393295e-05 2.6475705e-05 -5.188673e-06
8.590227e-06 -4.7814733e-06 1.2058095e-05 -6.0749353e-06 -4.9383307e-06 1.1884443e-05 1.6171569e-05 -4.4279116e-07
7.800162e-06 -9.648665e-06 -1.47452865e-05 4.669829e-06 1.23197415e-05 -3.55781e-05 1.7851331e-05 3.5363928e-06
1.6765161e-05 -7.629524e-06 8.003097e-06 -3.2978012e-05 2.0894402e-05 -3.5740086e-06 7.5906564e-07 -1.3267903e-06
2.279431e-06 7.1932404e-06 -3.2592457e-06 -1.3743867e-05 1.3796464e-06 -8.3280565e-06 9.107602e-06 6.482006e-06
-2.3893012e-05 4.550504e-06 -3.0572937e-05 -2.4183084e-05 6.6908956e-06 1.900954e-05 3.6170597e-05 1.8377359e-05
1.8750005e-05 -1.5390173e-05 2.0237238e-05 -3.0173553e-05 6.6703888e-06 -3.0441885e-05 7.735192e-06 2.8204763e-06
1.2072951e-05 9.1806e-06 8.392308e-06 -1.4379253e-05 8.842489e-06 4.608965e-06 -3.269376e-06 1.1101757e-05
-3.882244e-06 -1.4809462e-05 1.5282309e-05 4.634535e-06 -3.3097596e-05 3.237568e-05 1.8023937e-05 -4.3234866e-07
2.5839243e-05 -2.398535e-05 -8.560129e-08 3.099622e-06 -1.0271813e-05 9.99068e-07 -1.4402305e-05 2.6473151e-06
-1.2454617e-05 -9.472423e-06 5.858447e-06 2.6212874e-05 -1.838137e-05 -4.287726e-06 2.1214473e-06 -9.065125e-06
1.2277749e-05 -1.4564215e-05 -5.222036e-06 -3.1008794e-06 4.9500315e-08 -2.8341663e-07 -1.0752204e-05 1.27539e-05
-0.025822401 -0.000847912 0.02012808 0.0019030477 0.0021627573 -0.0077807438 -0.00770888 -0.015145093
-0.0012087865 -0.007667547 -0.016072173 0.0024152952 -0.0037316491 0.0047112317 -0.012706104 -0.01341724
0.0022045854 -0.0014737392 0.0050922036 0.0041867774 0.0059999665 -0.005579089 -0.0035875132 -0.0012068202
-0.018083064 0.008347 0.0061580064 -0.0028729548 -0.01070795 0.003870809 -0.0010578446 -0.012444275
-0.005311469 0.0015976358 -0.0052448753 -0.009388524 0.0033359248 -0.0067244037 0.015565975 -0.0034813643
0.002349691 0.01018191 0.024196476 0.025140142 -0.009915569 0.014009769 -0.011520939 -0.0026099174
-0.007643128 -0.00535215 0.008898846 -0.012184199 -0.0042087254 0.0062286286 0.006944755 0.0025460352
-0.021565469 0.008772773 -0.010460568 0.007995784 0.008065457 0.0042340513 0.010778751 0.0003231395
00000000: 9c8c 243d ffea 82ba 958a 6a3c 03ac 07bd
00000010: e395 e3bc a650 64bc 971c 78bc f078 1dbb
00000020: 9635 353d 742b bf3b bc62 dd3c f500 f13c
00000030: ba29 e03c 40d4 bf3c 6052 fabb cfb8 613b
00000040: d612 9fbc f07c a23c d100 95bc e726 0cbd
00000050: 028f 61bc 114f ab3c 0e80 473d feb0 01bd
00000060: ad8d 513c 6c68 783c 37c7 2fbb 4745 54bd
00000070: 4755 e2bb cd98 2fbb d6c4 273c 5dae d43b
00000080: 0a61 0e3d 0a2b 16bd 76ef 63bc 8a2c 40bc
00000090: 6e03 253c ce09 bebb 0534 023d 18a4 8f3c
000000a0: 3b76 fcbc a362 0bbc d8ba d1bc de7f 37bd
000000b0: f824 533c 28fd d83b a0a1 9f3c c706 3bbd
000000c0: 24dd b3bc f958 1c3c 032b 3ebd d28d ac3c
000000d0: db0f 43bc eb1d b23d a4ac 8dbc 3a96 86bc
000000e0: ec8c bfbb fdef 76bb 5792 53bb 45b8 96bc
000000f0: ef21 abbb 2391 46bb c3dc ef3c de2a cebc
00000100: 3460 a1ba fd89 9f3b d04c cfbb d4d5 d2bb
00000110: 24ce f83c e7ec acbc af85 edbc 9706 c239
00000120: 12a1 453d 4d62 bcb9 533e 34bc 55d9 4cbd
00000130: c6f3 8b3c cc6e 3d3d 4692 bdbb 9d1a ef3c
00000140: eab9 4a3d 6278 ef3c a0b0 66bd 23dd a03d
00000150: 9b06 36bd d1d1 3c3d 4c67 2dbd 24d9 64bb
00000160: 0866 ff3c 29b7 cebc e045 a6bc ed39 073d
00000170: effc 483a b990 733d fb4f fcbb 5bb9 76bd
00000180: a9d3 f337 5dd4 3db7 6368 7136 8578 2ab6
00000190: da2f 0fb7 0b99 4137 2518 de37 5d1a aeb6
000001a0: be1e 1037 8b70 a0b6 204d 4a37 4cd7 cbb6
000001b0: f0b3 a5b6 4b63 4737 2ea8 8737 c1b8 edb4
000001c0: 71dd 0237 b3e0 21b7 8662 77b7 87b1 9c36
000001d0: e3b0 4e37 b239 15b8 71bf 9537 c452 6d36
000001e0: e9a2 8c37 8e00 00b7 0a45 0637 df51 0ab8
000001f0: 6346 af37 00d9 6fb6 98c2 4b35 2b14 b2b5
00000200: 54f8 1836 775d f136 6ab9 5ab6 7695 66b7
00000210: 4a2c b935 bbb8 0bb7 dacc 1837 0280 d936
00000220: da6d c8b7 88b0 9836 713b 00b8 c7dc cab7
00000230: 5b82 e036 ad76 9f37 e2b5 1738 1429 9a37
00000240: 5449 9d37 251a 81b7 23c3 a937 361d fdb7
00000250: 34d2 df36 735d ffb7 66c6 0137 6a47 3d36
00000260: ee8c 4a37 6006 1a37 b0cc 0c37 6c3e 71b7
00000270: 335a 1437 b5a6 9a36 7467 5bb6 af41 3a37
00000280: 3944 82b6 2876 78b7 8232 8037 5a82 9b36
00000290: 46d2 0ab8 1fcb 0738 1c32 9737 8c1d e8b4
000002a0: 5ac1 d837 2634 c9b7 cfd3 b7b3 1a03 5036
000002b0: 1a55 2cb7 b717 8635 6ea1 71b7 87a8 3136
000002c0: 2cf4 50b7 bfeb 1eb7 ad93 c436 b8e3 db37
000002d0: b131 9ab7 49df 8fb6 305e 0e36 6a16 18b7
000002e0: 88fc 4d37 d458 74b7 f338 afb6 b418 50b6
000002f0: 2c9a 5433 7c28 98b4 5d64 34b7 95f9 5537
00000300: 8089 d3bc 6946 5eba a5e3 a43c af6f f93a
00000310: 0cbd 0d3b 9cf5 febb c69a fcbb 2023 78bc
00000320: 2570 9eba 0c40 fbbb caa9 83bc ee49 1e3b
00000330: af8e 74bb ad60 9a3b 432d 50bc fcd3 5bbc
00000340: ce7a 103b 7b2a c1ba 80dc a63b 3c31 893b
00000350: 5e9b c43b cad0 b6bb 7c1c 6bbb 2b2e 9eba
00000360: ef22 94bc dbc1 083c 1ac9 c93b 2f48 3cbb
00000370: 6670 2fbc 66ad 7d3b 60a7 8aba 13e3 4bbc
00000380: d50b aebb c367 d13a 34dd abbb 53d2 19bc
00000390: 889f 5a3b 6358 dcbb 6e08 7f3c 9a27 64bb
000003a0: 46fd 193b 07d2 263c b037 c63c b3f2 cd3c
000003b0: e974 22bc 3b89 653c 52c2 3cbc 260b 2bbb
000003c0: 3473 fabb 1761 afbb 77cc 113c 3ca0 47bc
000003d0: 59e9 89bb 8619 cc3b d490 e33b 62db 263b
000003e0: 11aa b0bc adbb 0f3c cd62 2bbc c000 033c
000003f0: fb24 043c ccbd 8a3b 5c99 303c 0d6b a939

mixture_net.mol_attn_layers.0.self_attn_layer.out_proj.weight f4 [96, 96]
0.008590205 0.02354228 0.0141625535 -0.066783935 0.1290619 -0.061638925 -0.003959656 -0.04596851
0.03543873 0.111141294 0.072618224 -0.049316484 0.05040847 0.03399304 0.020799363 0.029311001
-0.07220739 -0.012526579 -0.0492609 0.082291454 0.089298844 -0.0028038784 0.07870845 0.09784269
0.025049115 -0.05671198 -0.10934186 0.08420488 0.047759555 -0.13727497 -0.099173464 -0.025639823
0.01991982 0.0480902 0.027713805 -0.077885255 0.035916124 0.07101554 0.068225645 0.11601334
-0.048026145 -0.11806899 0.05508978 0.06752994 0.0469167 -0.06337228 -0.104580246 -0.042386774
-0.038747843 0.041503742 -0.006706651 -0.046385463 0.094874606 -0.044286262 -0.00066577015 0.018073024
0.041188024 -0.054898553 0.09359918 0.038064897 -0.04003113 0.11864338 -0.01799855 -0.05568798
-0.0399773 0.028736921 0.08728096 -0.036333725 -0.015516431 0.022530023 0.013777918 0.035073843
-0.05187248 0.09789097 0.0044727023 -0.03825528 -0.11600157 -0.087907135 0.112121314 0.051575836
-0.014653604 -0.005741086 0.11177684 -0.077208385 0.045078218 0.079260044 -0.052851968 -0.053236194
-0.010759992 -0.03985545 -0.09295255 0.07568902 0.029117247 0.064204395 0.00564661 -0.103071265
-0.013985585 0.07225042 0.0979357 -0.102203004 -0.03641385 0.07145409 -0.08625203 0.014402697
0.09933024 0.118494175 0.034346655 0.064695306 -0.042634897 0.06279344 -0.11287645 -0.058017377
-0.07670507 0.08261681 0.05047402 0.10002472 -0.0683483 -0.08593398 -0.002076507 -0.10141837
-0.08567633 -0.004211066 0.083194435 0.040659767 -0.070128836 0.02605168 0.08302472 -0.08144312
-0.06411877 -0.06405502 0.06865877 -0.09771913 0.040390782 0.072589636 0.008748089 0.0054677743
0.005394202 -0.038782205 0.07221774 0.0046476554 -0.094555214 0.00012511009 -0.05544841 0.052437067
0.0101176705 -0.10665626 -0.041349165 0.022806954 -0.09516298 0.027865434 0.04831164 0.0057680076
-0.09598123 -0.019620566 -0.014754134 -0.013215231 0.03565087 -0.038039673 0.039719503 -0.0739997
-0.044999063 0.036638286 0.08492473 0.062609196 0.08570532 0.07183441 0.09635886 0.09706518
0.024872668 0.09642722 -0.04560443 -0.05831751 0.0057163844 0.03104949 -0.061363727 0.03652361
-0.040576536 -0.027852755 -0.045767985 -0.10773269 0.09891113 -0.025563233 -0.068318374 0.066378996
0.008224847 -0.030381983 -0.0065039564 -0.08837112 0.078896075 -0.027915355 0.04783323 0.029114623
-0.053868562 0.06370789 -0.09687769 -0.002654532 -0.10691424 -0.046689674 -0.096658126 0.14710751
0.04297248 0.02329005 0.07041079 0.039247714 0.0052476376 0.012537775 0.096354276 -0.118489824
0.08047743 0.023302723 0.088657096 -0.109163836 -0.14835525 0.045745574 0.07379265 0.017909521
-0.020437825 -0.106517814 -0.032270227 -0.04148989 0.07953464 -0.08933495 0.060003888 -0.037912298
-0.04147226 -0.056455597 -0.024963489 -0.118789196 -0.08467325 0.0366877 0.09701029 0.052427467
-0.035526503 0.0035542028 -0.040077798 -0.07027295 -0.12111264 0.097248904 -0.11292898 -0.09874833
-0.08763614 0.030927513 0.03328905 -0.06066336 0.10215641 -0.025905492 -0.0114230085 0.04999217
0.030125802 -0.041309204 -0.1044198 0.004411289 0.0044447104 -0.11896756 -0.075653024 -0.09777832
00000000: eebd 0c3c bddb c03c 0e0a 683c 04c6 88bd
00000010: cd28 043e 1979 7cbd 01c0 81bb 7a49 3cbd
00000020: 3428 113d 0c9e e33d ddb8 943d 1500 4abd
00000030: 1d79 4e3d 493c 0b3d 6d63 aa3c a01d f03c
00000040: 78e1 93bd 483c 4dbc ccc5 49bd 6c88 a83d
00000050: 50e2 b63d 46c1 37bb e531 a13d c061 c83d
00000060: cd33 cd3c d24a 68bd a0ee dfbd 9c73 ac3d
00000070: 869f 433d cf91 0cbe 751b cbbd 9b0a d2bc
00000080: e42e a33c 3bfa 443d 1008 e33c 4e82 9fbd
00000090: c91c 133d 9870 913d e3b9 8b3d 6798 ed3d
000000a0: 10b7 44bd 28ce f1bd d2a5 613d 234d 8a3d
000000b0: ba2b 403d 53c9 81bd 2b2e d6bd c19d 2dbd
000000c0: 0fb6 1ebd d4ff 293d 77c3 dbbb affe 3dbd
000000d0: 9e4d c23d 8365 35bd 1487 2eba e10d 943c
000000e0: c6b4 283d 4edd 60bd edb0 bf3d f0e9 1b3d
000000f0: aff7 23bd 4dfb f23d b271 93bc 1419 64bd
00000100: 3dbf 23bd b169 eb3c 5cc0 b23d acd2 14bd
00000110: a138 7ebc e290 b83c c7bc 613c 97a9 0f3d
00000120: 3d78 54bd 107b c83d bf8f 923b 92b1 1cbd
00000130: 3b92 edbd a808 b4bd dc9f e53d 2f41 533d
00000140: ab15 70bc b81f bcbb 42eb e43d 6e1f 9ebd
00000150: f0a3 383d 1753 a23d 4e7b 58bd 320e 5abd
00000160: ad4a 30bc 783f 23bd e85d bebd d802 9b3d
00000170: 4b87 ee3c 987d 833d 3307 b93b 0717 d3bd
00000180: cc23 65bc 07f8 933d 8392 c83d cf4f d1bd
00000190: b026 15bd 8656 923d e8a4 b0bd 4af9 6b3c
000001a0: a76d cb3d 13ad f23d 14af 0c3d f97e 843d
000001b0: eea1 2ebd d999 803d c52b e7bd a1a3 6dbd
000001c0: 8c17 9dbd 0133 a93d d9bd 4e3d c3d9 cc3d
000001d0: 32fa 8bbd 28fe afbd 0216 08bb 6fb4 cfbd
000001e0: 1277 afbd fbfc 89bb d861 aa3d db8a 263d
000001f0: b59f 8fbd 556a d53c dd08 aa3d a7cb a6bd
00000200: b450 83bd 472f 83bd f89c 8c3d f820 c8bd
00000210: ce70 253d e0a9 943d 2554 0f3c 042b b33b
00000220: d9c1 b03b 17da 1ebd e5e6 933d 5c4b 983b
00000230: 2aa6 c1bd fc2f 0339 df1d 63bd 40c8 563d
00000240: 96c4 253c 996e dabd be5d 29bd a6d5 ba3c
00000250: cfe4 c2bd 0d46 e43c 6de2 453d 8e01 bd3b
00000260: cf91 c4bd 4fbb a0bc 53bb 71bc b284 58bc
00000270: a606 123d 7dcf 1bbd ebb0 223d 288d 97bd
00000280: f050 38bd 0712 163d 04ed ad3d 4039 803d
00000290: 4586 af3d eb1d 933d cb57 c53d 1cca c63d
000002a0: c4c1 cb3c a27b c53d b6cb 3abd 57de 6ebd
000002b0: 8250 bb3b 805b fe3c 8858 7bbd c899 153d
000002c0: 9533 26bd 762b e4bc 3677 3bbd f5a2 dcbd
000002d0: eb91 ca3d fc69 d1bc 81ea 8bbd b6f1 873d
000002e0: 82c1 063c a3e3 f8bc 241f d5bb ebfb b4bd
000002f0: 4494 a13d beae e4bc c7ec 433d ca81 ee3c
00000300: 48a5 5cbd 4879 823d cf67 c6bd a8f7 2dbb
00000310: daf5 dabd ac3d 3fbd b2f4 c5bd 5aa3 163e
00000320: e903 303d c6ca be3c 8833 903d 36c2 203d
00000330: 60f4 ab3b 3d6b 4d3c 6455 c53d cbaa f2bd
00000340: 5ad1 a43d 5ae5 be3c da91 b53d 4a91 dfbd
00000350: 70ea 17be b65f 3b3d 9a20 973d fdb6 923c
00000360: 3a6d a7bc 0326 dabd c92d 04bd 4ef1 29bd
00000370: 0fe3 a23d 3ef5 b6bd a3c6 753d ed49 1bbd
00000380: d1de 29bd fc3d 67bd 3b80 ccbc c047 f3bd
00000390: 2b69 adbd d745 163d 55ad c63d 2fbe 563d
000003a0: 3d84 11bd a1ed 683b 9e28 24bd 44eb 8fbd
000003b0: e709 f8bd 6f2a c73d 4f47 e7bd 903c cabd
000003c0: 947a b3bd b25b fd3c 195a 083d 257a 78bd
000003d0: 6137 d13d c137 d4bc 9227 3bbc 97c4 4c3d
000003e0: 63ca f63c d733 29bd 0cda d5bd 938c 903b
000003f0: efa4 913b 44a5 f3bd f9ef 9abd 0040 c8bd

mixture_net.mol_attn_layers.0.self_attn_layer.out_proj.bias f4 [96]
0.023697706 0.0009383384 -0.00143981 -0.0051520397 -0.020937638 0.008117271 0.004653419 -0.0010590673
-0.009625857 0.004057636 -0.0035537488 0.0024115425 -0.00029166776 -0.009200608 -0.01886275 0.010399652
0.008698838 0.000258684 -0.0024319505 -0.0089161955 -0.0034814323 -0.007083809 -0.00310923 0.0038810975
0.0035354965 -0.004017706 -0.002113131 0.005727857 0.006351416 -0.0039817663 -0.0025511559 0.0037895234
0.011825738 0.005242486 0.008980073 0.007970867 0.00081228575 0.00512588 -0.006930565 0.0011058043
0.003060918 -0.0033456981 -0.011236039 -0.0029758376 -0.006981626 0.008724683 -0.011598018 0.008201062
-0.0070028217 0.013278354 -0.0018415136 0.015113047 -0.0029659264 -0.005654359 -0.004442779 0.0031959561
-0.00933751 -0.027210673 -0.009996516 0.005543397 -0.00030668042 0.00570787 0.0019241199 0.00033340964
0.03574034 0.004477783 0.0072085774 -0.014707782 0.0010994914 0.006287279 -0.003650879 -0.008886584
0.010163427 0.0054223547 0.012910196 -0.007041029 -0.00036721688 -0.008735329 -0.0011446375 -0.013715982
0.007944315 0.0012029863 -0.00023704264 0.010726541 0.00095909735 0.0006649169 0.0012194796 -0.00022001921
0.009441266 0.0058640107 0.0026104385 -0.00032640112 -0.010765309 -0.0076748556 0.002680132 0.007383741
00000000: b121 c23c d3fa 753a 02b8 bcba 71d2 a8bb
00000010: 6985 abbc 4dfe 043c b57b 983b 67d0 8aba
00000020: c5b5 1dbc ebf5 843b 03e6 68bb f80a 1e3b
00000030: fcea 98b9 26be 16bc 0e86 9abc 4d63 2a3c
00000040: 9285 0e3c fb9f 8739 5c61 1fbb 3c15 12bc
00000050: be28 64bb 4c1f e8bb 39c4 4bbb 035a 7e3b
00000060: cab3 673b f6a6 83bb 757c 0abb bfb0 bb3b
00000070: 8a1f d03b 7a79 82bb 4b31 27bb a759 783b
00000080: bdc0 413c 29c9 ab3b 2821 133c 3d98 023c
00000090: 93ef 543a fff6 a73b cb19 e3bb a3f0 903a
000000a0: af99 483b 8043 5bbb 5d17 38bc 4506 43bb
000000b0: 20c6 e4bb f9f1 0e3c 9d05 3ebc bf5d 063c
000000c0: ed77 e5bb 748d 593c f15e f1ba b79c 773c
000000d0: fd5f 42bb 3348 b9bb bb94 91bb 3f73 513b
000000e0: 5bfc 18bc ebe8 debc 6dc8 23bc 62a5 b53b
000000f0: f3c9 a0b9 1509 bb3b c032 fc3a 7ccd ae39
00000100: 7664 123d 5eba 923b ee35 ec3b e9f8 70bc
00000110: cf1c 903a 8505 ce3b 9643 6fbb 0999 11bc
00000120: 8184 263c 02ae b13b 4985 533c 6fb8 e6bb
00000130: 0487 c0b9 a01e 0fbc a907 96ba 00b9 60bc
00000140: df28 023c 86ad 9d3a a68e 78b9 60be 2f3c
00000150: ef6b 7b3a d14d 2e3a f2d6 9f3a f5b4 66b9
00000160: 8aaf 1a3c e326 c03b e413 2b3b d120 abb9
00000170: fb60 30bc 5b7d fbbb 27a5 2f3b 4ff3 f13b

mixture_net.mol_attn_layers.0.addnorm1.norm.weight f4 [96]
0.995715 0.9950945 1.0115787 0.99507236 1.0382451 1.0124476 0.98800933 1.0032777
1.0006155 1.0016041 1.0277951 1.0124735 0.9913102 1.0036939 0.99603105 1.0246856
1.0085435 1.0235581 0.9674029 0.9916957 0.9983874 0.99674 1.0006007 0.9986623
0.99484164 1.0078177 0.9959124 0.99448085 0.9907778 0.9910226 0.99098814 0.9925759
1.0271437 1.0071795 1.0159827 1.0198708 1.0029 0.99259496 1.0004474 1.0006161
1.005149 1.0193162 1.0225264 1.0018846 1.0143865 0.99480665 1.0249175 0.9974919
1.0225053 1.0069563 0.9935204 0.99721813 0.98354095 1.0344403 1.0024693 1.0152133
1.0173408 1.0121315 1.0028933 1.003359 1.0275195 0.99241406 0.99583435 1.0022088
1.0126711 1.0022646 1.0036939 0.98786503 1.0177876 0.9893197 1.0204978 1.0042685
0.99974304 0.99472934 0.99810314 1.0063843 1.0148661 1.0003175 1.0237513 1.0039749
1.0056721 1.0014209 0.99274457 1.0039062 1.0007304 1.0055797 1.0277631 1.0143489
1.0045035 1.0194398 1.0053416 0.9999102 1.0137856 1.0115812 1.0131103 1.0019531
00000000: 2ee7 7e3f 83be 7e3f 697b 813f 10bd 7e3f
00000010: 37e5 843f e297 813f 2eee 7c3f 676b 803f
00000020: 2b14 803f 9034 803f ca8e 833f bb98 813f
00000030: 81c6 7d3f 0b79 803f e4fb 7e3f e628 833f
00000040: f417 813f f403 833f b7a7 773f c5df 7d3f
00000050: 5196 7f3f 5a2a 7f3f af13 803f 55a8 7f3f
00000060: f1ad 7e3f 2c00 813f 1df4 7e3f 4c96 7e3f
00000070: 9da3 7d3f a8b3 7d3f 66b1 7d3f 7419 7e3f
00000080: 7279 833f 42eb 803f b90b 823f 208b 823f
00000090: 075f 803f b41a 7e3f a90e 803f 3014 803f
000000a0: b9a8 803f f478 823f 25e2 823f c13d 803f
000000b0: 6bd7 813f a6ab 7e3f 7f30 833f a15b 7f3f
000000c0: 74e1 823f f2e3 803f 5a57 7e3f b049 7f3f
000000d0: 57c9 7b3f 8a68 843f ea50 803f 82f2 813f
000000e0: 3938 823f 868d 813f cf5e 803f 116e 803f
000000f0: c285 833f d90e 7e3f 00ef 7e3f 6148 803f
00000100: 359f 813f 354a 803f 0b79 803f b9e4 7c3f
00000110: dd46 823f 0e44 7d3f ac9f 823f df8b 803f
00000120: 29ef 7f3f 95a6 7e3f b083 7f3f 33d1 803f
00000130: 22e7 813f 670a 803f 480a 833f 4082 803f
00000140: ddb9 803f 8f2e 803f 8224 7e3f 0080 803f
00000150: ef17 803f d6b6 803f be8d 833f 2fd6 813f
00000160: 9293 803f 017d 823f 09af 803f 1dfa 7f3f
00000170: bac3 813f 7e7b 813f 99ad 813f 0040 803f

mixture_net.mol_attn_layers.0.addnorm1.norm.bias f4 [96]
0.0059281685 0.002788596 0.0076276087 -0.0028395443 -0.015647387 -0.0060062655 0.00046319043 -0.0030168986
0.0028654502 0.001562065 -0.0022199086 -3.3863776e-05 -0.0030157643 -0.0038871765 -0.0023636292 -0.0013603936
0.022990344 0.00079936645 0.0013510241 -0.017538644 -0.00046459655 0.0019312982 -0.0022449475 -0.006039478
0.0022300857 0.007645979 0.0054141926 -0.003714999 0.0053150114 0.0062826485 0.003371415 -0.002039109
0.012701824 -0.01391526 0.0008534258 0.010843284 0.002524275 0.0026419796 0.0029948873 -0.005972862
0.0025771027 0.001433215 -0.00029441965 -0.001083827 0.008282821 0.0005983526 -0.0029531766 0.0066857794
-0.0005294788 -0.008872506 0.00852552 0.020418718 0.012448149 -0.0034820403 0.0040361774 -0.005151876
0.009069218 -0.006640409 -0.011373596 0.0060619432 0.0024316753 0.007108564 0.013295461 -0.010232749
-0.003192252 0.0056570666 -0.0013035231 0.0033565424 -0.020841986 -0.0018350238 -0.008027007 0.003843818
0.010971149 -0.0051192315 0.005946573 0.0012018381 -0.00211348 0.012525347 0.0028558825 0.0007318593
-0.017249819 -0.008493786 -0.005565285 -0.0028573626 -0.0005626751 -0.004806955 -0.010814959 -0.00067089644
0.0024172268 0.0017558103 0.0030958015 -0.0035013168 -0.0021417742 -0.005225 -0.0025507577 -0.0026125198
00000000: 1541 c23b e1c0 363b 05f1 f93b a617 3abb
00000010: f32e 80bc 35d0 c4bb 5ed8 f239 29b7 45bb
00000020: 47ca 3b3b 34be cc3a e37b 11bb f408 0eb8
00000030: 21a4 45bb 00c0 7ebb 1ee7 1abb 3c4f b2ba
00000040: 3f56 bc3c 938c 513a d914 b13a 34ad 8fbc
00000050: 1895 f3b9 9d23 fd3a f81f 13bb d0e6 c5bb
00000060: a126 123b 1f8b fa3b 8a69 b13b 5777 73bb
00000070: 8c29 ae3b adde cd3b f5f2 5c3b 92a2 05bb
00000080: 501b 503c d5fc 63bc 70b8 5f3a 08a8 313c
00000090: 4f6e 253b 1025 2d3b df45 443b ffb7 c3bb
000000a0: 9ce4 283b b7da bb3a 565c 9ab9 330f 8eba
000000b0: abb4 073c c3da 1c3a 158a 41bb 6214 db3b
000000c0: b9cc 0aba fd5d 11bc 9fae 0b3c 2845 a73c
000000d0: 52f3 4b3c f132 64bb e941 843b 11d1 a8bb
000000e0: 0f97 143c ca97 d9bb 5258 3abc 44a3 c63b
000000f0: be5c 1f3b f5ee e83b 35d5 593c 43a7 27bc
00000100: 1a35 51bb ea5e b93b fada aaba 70f9 5b3b
00000110: d0bc aabc 2e85 f0ba b583 03bc 91e8 7b3b
00000120: 56c0 333c 3abf a7bb 78db c23b ff86 9d3a
00000130: 4f82 0abb 1d37 4d3c c229 3b3b 3fda 3f3a
00000140: 7e4f 8dbc 8529 0bbc ff5c b6bb 9742 3bbb
00000150: 7d80 13ba a983 9dbb 3a31 31bc 19df 2fba
00000160: 566a 1e3b 3823 e63a eee2 4a3b 5976 65bb
00000170: 025d 0cbb 7a36 abbb 9d2a 27bb cf36 2bbb

mixture_net.mol_attn_layers.0.ffn.layers.0.weight f4 [96, 96]
-0.05151056 0.17760834 0.0253894 -0.0942983 0.014458079 0.14155845 -0.0010227633 -0.07761869
0.05232239 0.05742079 -0.09962901 0.0541072 0.052467603 0.07055577 0.08813939 0.06992117
0.030760037 0.090146616 0.030249547 -0.057268832 -0.061383106 0.11800825 0.06283537 -0.024835188
-0.09051725 -0.10027758 0.042900294 0.045326814 0.0038359438 -0.10542872 -0.0027170824 0.0029902374
0.013863043 0.047991287 0.034609277 0.04330392 0.030932093 -0.106731966 -0.006701321 -0.02771785
-0.07457003 0.0070927246 0.103156306 0.05871899 -0.044981036 -0.055449303 -0.051135216 -0.005870982
0.013717453 0.11663165 -0.016346207 -0.09861914 -0.05369341 0.10019852 -6.5569475e-05 0.027463563
-0.14476822 0.080615155 -0.13393453 0.1206226 -0.03165211 -0.039111834 -0.07782752 -0.1609939
0.057368625 0.031280227 0.10488037 0.12042475 -0.035654787 -0.058627162 0.06528627 0.035642695
-0.09782432 0.07237934 0.0058693467 0.048879903 -0.03771517 -0.037243687 -0.20550562 0.14985418
-0.054788522 -0.031389154 0.046788514 -0.0062873648 -0.019667288 -0.060877983 -0.036933523 -0.03580519
-0.0628841 0.048685092 0.084618464 -0.03829853 0.077184476 0.17839362 -0.13078848 0.08940028
-0.054020215 -0.08355507 0.010205494 -0.07024884 0.11364388 0.053709403 0.072604924 0.08927706
0.085374646 0.12701172 0.056547683 -0.017899178 -0.08644491 0.072319485 -0.050224993 0.03617255
-0.09052399 -0.09237185 0.08359052 -0.016106589 -0.03717581 0.04118514 0.108666204 -0.004193159
0.050124682 -0.0097636 -0.033940252 -0.09357045 0.022568855 0.040147502 0.103140734 -0.1443708
0.0098081 -0.024564287 -0.09790718 0.029419895 -0.06543963 -0.06764529 -0.07249467 0.11063111
0.05046749 -0.05760116 0.08727737 -0.077028915 0.04120847 0.07477838 -0.053191405 0.11625312
-0.13270745 -0.019512884 -0.14442158 -0.16070661 -0.054337215 0.021084502 0.008202505 0.113607526
0.012829545 -0.0032004586 0.054696694 -0.0053854645 0.0069468096 0.081721716 -0.07776704 0.023977913
0.19261603 0.013551716 -0.009486796 -0.022201978 0.13761424 -0.019546859 0.16205084 0.07668316
0.026958 0.12771335 -0.008911729 -0.10927957 0.03698268 -0.20907915 -0.08277314 0.028968386
0.06037844 -0.07846168 0.09169532 -0.065989874 -0.018336633 -0.0019875087 -0.02181171 -0.07461508
0.02227624 -0.028340181 -0.057699397 -0.011355053 -0.08463948 0.13539548 -0.03440451 -0.080127515
-0.043840677 0.044890266 0.032717947 -0.020073727 0.12966068 0.047992244 -0.095950045 -0.07819529
0.0019437768 0.06057919 0.029114861 0.108226135 -0.11267307 0.024139397 0.044388007 -0.05643484
0.00917412 -0.09603705 0.052696202 0.024960963 -0.08733943 -0.0055263806 -0.09316895 -0.04476474
0.055963993 -0.059237286 -0.057567734 0.0532583 -0.05221444 0.084223196 -0.029284827 -0.0144650545
-0.07408638 0.07541318 0.06197657 -0.026485955 -0.13314348 -0.0015109509 0.050120592 0.20810474
-0.12457981 0.028216287 -0.07924567 -0.020769456 -0.025054503 0.012092462 -0.051153142 0.104365125
-0.10028999 0.11986972 -0.07761173 0.074887216 -0.07065142 0.09376042 0.10145293 -0.06596054
0.030850694 0.044370476 -0.08380331 -0.007612177 -0.097308576 -0.047858786 0.004959707 -0.003050844
00000000: bdfc 52bd f6de 353e 6efd cf3c 781f c1bd
00000010: 94e1 6c3c b3f4 103e 3e0e 86ba 8cf6 9ebd
00000020: 0150 563d 1032 6b3d 4b0a ccbd 839f 5d3d
00000030: 45e8 563d 8b7f 903d 6d82 b43d d532 8f3d
00000040: 79fc fb3c ca9e b83d e6cd f73c b992 6abd
00000050: da6c 7bbd 4fae f13d d5af 803d 2a73 cbbc
00000060: 1c61 b9bd 555e cdbd 38b8 2f3d 9ca8 393d
00000070: 7564 7b3b 03eb d7bd 1411 32bb dcf7 433b
00000080: d121 633c 8392 443d 75c2 0d3d 745f 313d
00000090: 4d65 fd3c 4a96 dabd c196 dbbb 8b10 e3bc
000000a0: 2cb8 98bd 166a e83b 9d43 d33d 5383 703d
000000b0: 093e 38bd cf1e 63bd 2973 51bd 5e61 c0bb
000000c0: 2bbf 603c 93dc ee3d 7be8 85bc d5f8 c9bd
000000d0: 9fed 5bbd e234 cd3d 5882 89b8 44fb e03c
000000e0: 1f3e 14be 8f19 a53d 2226 09be fb08 f73d
000000f0: a5a5 01bd bb33 20bd 0964 9fbd 96db 24be
00000100: 5dfb 6a3d b21f 003d 85cb d63d 40a1 f63d
00000110: c10a 12bd 0923 70bd cfb4 853d 13fe 113d
00000120: 1e58 c8bd 9f3b 943d a653 c03b 4b36 483d
00000130: 397b 1abd d68c 18bd 1170 52be 6073 193e
00000140: ee69 60bd ea91 00bd 50a5 3f3d 3d06 cebb
00000150: 4b1d a1bc 315b 79bd 9b47 17bd 77a8 12bd
00000160: 61c9 80bd 056a 473d 724c ad3d ebde 1cbd
00000170: e512 9e3d d1ac 363e 6aed 05be 7e17 b73d
00000180: 4d44 5dbd ec1e abbd f234 273c a0de 8fbd
00000190: 1fbe e83d 64fe 5b3d e4b1 943d e4d6 b63d
000001a0: e7d8 ae3d 5c0f 023e 8b9e 673d 4ca1 92bc
000001b0: 070a b1bd 3d1c 943d b9b8 4dbd ab29 143d
000001c0: a464 b9bd 742d bdbd 8231 ab3d f7f1 83bc
000001d0: aa45 18bd c0b1 283d 638c de3d c466 89bb
000001e0: 8a4f 4d3d 82f7 1fbc ef04 0bbd dda1 bfbd
000001f0: 52e2 b83c b571 243d 733b d33d f0d5 13be
00000200: 27b2 203c 0b3b c9bc 8f83 c8bd fe01 f13c
00000210: 3605 86bd 9d89 8abd 1678 94bd 9092 e23d
00000220: 00b7 4e3d 32ef 6bbd 7abe b23d 56c1 9dbd
00000230: 36ca 283d 6825 993d 3bdf 59bd 1e16 ee3d
00000240: 76e4 07be 7cd9 9fbc 40e3 13be 4690 24be
00000250: b390 5ebd 68b9 ac3c cd63 063c 10ab e83d
00000260: 0333 523c c9be 51bb a409 603d 8d78 b0bb
00000270: 10a2 e33b b75d a73d 5344 9fbd 546d c43c
00000280: 233d 453e 0408 5e3c 826e 1bbc ece0 b5bc
00000290: bfea 0c3e bc20 a0bc a8f0 253e 100c 9d3d
000002a0: 06d7 dc3c 4ac7 023e 8002 12bc f8cd dfbd
000002b0: 277b 173d d818 56be f784 a9bd 1c4f ed3c
000002c0: 624f 773d 84b0 a0bd c2ca bb3d b325 87bd
000002d0: b536 96bc dd40 02bb 79ae b2bc cbcf 98bd
000002e0: a97c b63c ab29 e8bc 3456 6cbd 8b0a 3abc
000002f0: 7757 adbd 1da5 0a3e beeb 0cbd e519 a4bd
00000300: 4892 33bd dbde 373d 4103 063d a871 a4bc
00000310: c5c5 043e 8493 443d 7581 c4bd da24 a0bd
00000320: 54c6 fe3a e221 783d 4a82 ee3c aaa5 dd3d
00000330: 23c1 e6bd fcbf c53c 33d0 353d 3828 67bd
00000340: 0c4f 163c 13af c4bd f9d7 573d ef7a cc3c
00000350: 04df b2bd a416 b5bb 5dcf bebd 3b5b 37bd
00000360: 803a 653d cca2 72bd 25cc 6bbd 6025 5a3d
00000370: cfde 55bd 367d ac3d bce6 efbc d6fe 6cbc
00000380: 9aba 97bd 3a72 9a3d 25db 7d3d 13f9 d8bc
00000390: c456 08be 190b c6ba 404b 4d3d 6919 553e
000003a0: b323 ffbd d825 e73c 8e4b a2bd b524 aabc
000003b0: 1a3f cdbc 761f 463c f585 51bd 62bd d53d
000003c0: d764 cdbd 417e f53d e6f2 9ebd 785e 993d
000003d0: b1b1 90bd 7705 c03d 8ec6 cf3d 5216 87bd
000003e0: 98ba fc3c d1bd 353d 12a1 abbd 926f f9bb
000003f0: b849 c7bd 9307 44bd 0a85 a23b abf0 47bb

mixture_net.mol_attn_layers.0.ffn.layers.0.bias f4 [96]
-0.11605144 0.0036080433 0.022268116 0.018938484 -0.10144621 -0.0535575 0.04987691 0.038684476
0.070093535 0.008653887 0.06090713 -0.04401762 -0.07172742 0.05678976 0.08240359 -0.05528044
0.050130438 -0.024541117 -0.06585345 -0.035394415 0.026445335 -0.0026037465 -0.015319647 0.027641155
-0.0752545 -0.07834168 -0.07824897 -0.06673199 0.08884928 0.011269833 0.06528395 -0.028041802
-0.07396253 -0.01903134 -0.029724125 0.047965027 0.006681909 -0.078035 -0.09454263 -0.02136749
0.07226096 0.08359476 -0.0024611885 0.015690744 0.078316025 0.03302428 0.00028597453 -0.07709043
0.018054591 -0.033793554 -0.043921806 -0.038712997 -0.05062766 0.004343624 -0.056632333 0.061134394
-0.08408962 0.04324779 -0.047763437 -0.07971093 -0.00416533 -0.1061902 -0.018339377 -0.08948144
0.010153149 -0.0017556549 0.040136583 -0.0042674234 -0.070641086 0.0796294 0.005708238 0.017100904
0.07712526 -0.099335834 0.04803618 -0.05831183 -0.04480905 -0.025239743 -0.0808747 0.038894456
-0.06627398 -0.032820083 -0.118719116 -0.013911065 -0.04389427 0.04314323 0.076481335 -0.073801056
0.011473061 -0.04822367 0.060509723 -0.04270761 -0.054872233 -0.028885312 -0.035900693 0.019082537
00000000: 61ac edbd ec74 6c3b a06b b63c e124 9b3c
00000010: 08c3 cfbd 1c5f 5bbd bb4b 4c3d 9d73 1e3d
00000020: 338d 8f3d 08c9 0d3c c179 793d d24b 34bd
00000030: d3e5 92bd 619c 683d 37c3 a83d be6d 62bd
00000040: 9355 4d3d 740a c9bc 2cde 86bd bcf9 10bd
00000050: e3a3 d83c 9ea3 2abb 42ff 7abc b46f e23c
00000060: 081f 9abd 9a71 a0bd ff40 a0bd c8aa 88bd
00000070: 9cf6 b53d 1ba5 383c 97b3 853d ecb7 e5bc
00000080: ab79 97bd 9de7 9bbc 0280 f3bc fa76 443d
00000090: eaf3 da3b d0d0 9fbd 919f c1bd e00a afbc
000000a0: 8efd 933d bb33 ab3d e44b 21bb e089 803c
000000b0: 2764 a03d 7844 073d daee 9539 96e1 9dbd
000000c0: 39e7 933c 1c6b 0abd 5ae7 33bd 8591 1ebd
000000d0: f35e 4fbd f654 8e3b 4ef7 67bd 0f68 7a3d
000000e0: 2e37 acbd 9824 313d 98a3 43bd 7c3f a3bd
000000f0: 527d 88bb 3f7a d9bd 763c 96bc 0c42 b7bd
00000100: 6559 263c 011e e6ba 4266 243d bed5 8bbb
00000110: 46ac 90bd bd14 a33d 2c0c bb3b 3217 8c3c
00000120: d9f3 9d3d 9670 cbbd 96c1 443d 63d8 6ebd
00000130: b289 37bd 94c3 cebc a2a1 a5bd cb4f 1f3d
00000140: a7ba 87bd 5a6e 06bd 0223 f3bd 3ceb 63bc
00000150: 7aca 33bd f5b6 303d 3fa2 9c3d 0225 97bd
00000160: 81f9 3b3c 2f86 45bd 0bd9 773d 2dee 2ebd
00000170: b5c1 60bd e4a0 ecbc 9b0c 13bd fb52 9c3c

mixture_net.mol_attn_layers.0.ffn.layers.2.weight f4 [96, 96]
0.11402053 0.118236534 -0.091416456 0.097992286 0.039463233 -0.11034807 -0.051162563 0.0054310868
-0.016844757 0.030147633 0.08630976 -0.05623867 0.014894318 -0.027067583 0.018383725 -0.11410766
-0.05795504 0.06280393 0.011923096 -0.12184145 -0.083195314 -0.14012302 0.09191794 -0.017902344
0.02765979 0.10953229 0.10197415 0.11435105 0.037613086 -0.032069087 0.08361475 -0.05686689
-0.0575248 -0.07589358 -0.0949268 -0.07623715 0.077179775 -0.094794266 -0.044150565 -0.085909866
-0.0554606 -0.023180513 -0.10708333 0.045278907 -0.07390671 0.0884486 -0.08616637 -0.097742304
0.063870415 0.07598024 -0.06990224 -0.035695646 -0.089482106 -0.010145466 0.09312381 -0.03410935
-0.094423614 0.09934605 0.089414135 -0.036721237 -0.013446526 -0.04839427 -0.004359027 0.060388617
0.046590418 -0.041752513 0.05614227 0.049064636 0.03043286 -0.06228216 -0.07255808 0.08061426
-0.062206496 0.10819431 -0.057056278 0.10239148 -0.019773772 0.09340145 -0.09835734 -0.07243992
-0.0666912 0.10339753 -0.035723206 0.0372161 -0.06184647 0.07101855 -0.07320589 -0.07155695
0.02380981 -0.07937576 0.005792894 -0.036726903 -0.10127012 -0.120793484 0.032440215 -0.04856699
0.038843147 -0.0028178887 -0.031073555 0.044984303 0.04691496 0.0147138545 0.038976617 -0.00092611206
0.054615736 -0.08346051 -0.019210143 -0.02322676 -0.014476372 -0.066814624 0.023891928 0.036593523
-0.105145864 0.015843982 -0.02523682 0.008108544 -0.07653489 0.15075575 -0.042926934 0.09387236
-0.02216768 -0.010552933 -0.11099649 0.012751927 -0.05215001 -0.034376476 -0.11188956 -0.100418285
0.08618545 -0.03793033 0.049429264 -0.0015292653 -0.07138248 0.08420691 -0.07744847 0.024647228
-0.116268165 -0.018555108 -0.014168529 0.0044426727 0.07150279 -0.041573994 0.04470609 -0.074627
-0.036246404 0.043180976 -0.07227144 -0.07838947 0.065998636 -0.0061426614 -0.02561028 -0.04512696
0.06618979 -0.034087166 0.10004164 -0.011195222 0.063489825 0.02191825 0.08261532 -0.08813092
0.055326592 0.044040184 -0.02784041 0.042986806 -0.053583156 -0.042422175 0.050344642 0.03746141
0.04324116 -0.10260869 -0.0075682383 -0.039099418 -0.042979516 -0.006624942 0.081983745 0.009749311
0.017288411 0.04053436 -0.06430984 0.04379322 -0.054553587 -0.06990248 0.08543324 -0.045102235
0.07369327 0.0018377212 0.07355228 0.013869886 -0.010807759 -0.0012734872 -0.022150474 -0.04437375
0.024137152 -0.06532205 0.050468568 -0.059199423 -0.017951882 0.02092446 0.012465168 -0.048789054
0.0053691766 -0.09463451 -0.046427 -0.0340797 -0.07872087 0.009798536 0.010791812 -0.020747086
-0.10783996 0.0118055185 0.066206105 0.096088074 -0.08189371 0.051224668 0.050432406 0.04325719
0.0933371 -0.01993554 -0.026478633 -0.025783613 0.013953729 0.057544265 0.021368528 0.0477497
0.009767627 0.06360443 0.05299932 -0.044410706 0.06894019 -0.10106648 -0.11106718 0.08354445
-0.0026639001 0.120377995 -0.00965451 0.028851954 0.07404839 -0.025782429 -0.09293087 0.008106391
0.051187083 0.0072197495 0.0133656245 0.0050746286 -0.0055231065 0.008657327 0.015954604 -0.09217567
0.0040703667 0.05964404 0.079213575 -0.037833318 0.024989255 -0.08995867 0.01682503 0.045435518
00000000: 9883 e93d ff25 f23d 8d38 bbbd 2eb0 c83d
00000010: 33a4 213d 2bfe e1bd d68f 51bd 42f7 b13b
00000020: 04fe 89bc 2bf8 f63c 2cc3 b03d 855a 66bd
00000030: 4c07 743c d6bc ddbc 7799 963c 47b1 e9bd
00000040: 4462 6dbd 599f 803d 1759 433c 0388 f9bd
00000050: 4e62 aabd 697c 0fbe 793f bc3d f0a7 92bc
00000060: c996 e23c 7752 e03d d3d7 d03d e230 ea3d
00000070: 2e10 1a3d e05a 03bd 363e ab3d 42ed 68bd
00000080: 209f 6bbd 186e 9bbd fb68 c2bd 3922 9cbd
00000090: 6e10 9e3d 7f23 c2bd 39d7 34bd 83f1 afbd
000000a0: a72a 63bd 0fe5 bdbc 814e dbbd 6076 393d
000000b0: 675c 97bd 8a24 b53d fe77 b0bd 1e2d c8bd
000000c0: 7ece 823d 879b 9b3d e828 8fbd 9935 12bd
000000d0: 6542 b7bd 2b39 26bc b2b7 be3d 3fb6 0bbd
000000e0: 2b61 c1bd f175 cb3d c21e b73d 0269 16bd
000000f0: d14e 5cbc 1239 46bd 2bd6 8ebb 0e5a 773d
00000100: 98d5 3e3d af04 2bbd 70f5 653d 00f8 483d
00000110: 554e f93c 941b 7fbd 5599 94bd 1719 a53d
00000120: 3dcc 7ebd fa94 dd3d d8b3 69bd a0b2 d13d
00000130: 9bfc a1bc 4249 bf3d 936f c9bd 615b 94bd
00000140: 6595 88bd 16c2 d33d 7f52 12bd e96f 183d
00000150: b952 7dbd 2c72 913d f8ec 95bd 738c 92bd
00000160: ca0c c33c c28f a2bd 51d2 bd3b f36e 16bd
00000170: b566 cfbd 9362 f7bd 08e0 043d 2eee 46bd
00000180: fe19 1f3d 54ac 38bb f88d febc 7641 383d
00000190: e729 403d 6112 713c f2a5 1f3d 54c6 72ba
000001a0: c0b4 5f3d 58ed aabd 975e 9dbc 0c46 bebc
000001b0: 4e2e 6dbc 1bd6 88bd 01b9 c33c 17e3 153d
000001c0: b756 d7bd 3dcb 813c 73bd cebc b3d9 043c
000001d0: 53be 9cbd b75f 1a3e 27d4 2fbd 2740 c03d
000001e0: ff98 b5bc 36e6 2cbc 2152 e3bd 75ed 503c
000001f0: 409b 55bd 59ce 0cbd 5b26 e5bd 1aa8 cdbd
00000200: ff81 b03d d55c 1bbd 5776 4a3d a171 c8ba
00000210: fa30 92bd ac74 ac3d 4e9d 9ebd fce8 c93c
00000220: 011e eebd e200 98bc 1e23 68bc d793 913b
00000230: 0e70 923d 7e49 2abd bc1d 373d 0ad6 98bd
00000240: 1c77 14bd 89de 303d 0c03 94bd a98a a0bd
00000250: 4b2a 873d 6148 c9bb a6cc d1bc 0cd7 38bd
00000260: 838e 873d fc9e 0bbd a2e2 cc3d 2a6c 37bc
00000270: f406 823d e78d b33c 3932 a93d fc7d b4bd
00000280: 239e 623d 7b63 343d 9211 e4bc ef12 303d
00000290: 037a 5bbd e0c2 2dbd 2f36 4e3d 2371 193d
000002a0: a51d 313d 8124 d2bd fcfe f7bb b626 20bd
000002b0: 4a0b 30bd 0b16 d9bb 18e7 a73d 93bb 1f3c
000002c0: 6da0 8d3c 5b07 263d e1b4 83bd 8560 333d
000002d0: 9573 5fbd 0829 8fbd 9ff7 ae3d 1fbd 38bd
000002e0: 7fec 963d b1df f03a 94a2 963d 853e 633c
000002f0: 0713 31bc 24eb a6ba e974 b5bc 40c1 35bd
00000300: 47bb c53c 91c7 85bd 21b8 4e3d 187b 72bd
00000310: d30f 93bc c669 ab3c b43a 4c3c 08d7 47bd
00000320: ebef af3b bdcf c1bd 3d2a 3ebd 2897 0bbd
00000330: 6838 a1bd 0a8a 203c 24d0 303c cbf5 a9bc
00000340: 32db dcbd ef6b 413c 1197 873d d3c9 c43d
00000350: e4b7 a7bd f5d0 513d 3692 4e3d 742e 313d
00000360: 8627 bf3d dc4f a3bc b8e9 d8bc 2838 d3bc
00000370: 2e9e 643c 89b3 6b3d 0d0d af3c 3095 433d
00000380: 6608 203c 0a43 823d d115 593d 00e8 35bd
00000390: 8430 8d3d f1fb cebd 3177 e3bd 5a19 ab3d
000003a0: d494 2ebb bd88 f63d f32d 1ebc ef5a ec3c
000003b0: afa6 973d ac35 d3bc 8a52 bebd abd0 043c
000003c0: 8ca9 513d a693 ec3b 7efb 5a3c 1249 a63b
000003d0: 2dfb b4bb 76d7 0d3c 3bb3 823c 99c6 bcbd
000003e0: b660 853b 4f4d 743d ba3a a23d 1cf7 1abd
000003f0: 44b6 cc3c 403c b8bd a5d4 893c 981a 3a3d
