scripts_chemix/results/chemix_ensemble/top2/chemix.pt (torch, 223690 bytes, 16 tensors)

input_net.weight f4 [64, 196]
000000 91 76 c3 bb df 43 c4 3c 85 16 6a bd 49 66 61 3d
       -0.005965062 0.023958145 -0.057150383 0.055029187
000010 36 1c 25 3d 92 33 c2 bc a6 3d 3c 3d 8a f7 96 3d
       0.040310107 -0.023706231 0.04595723 0.07371433
000020 01 26 4a bd 56 9d 47 3d 9c f1 4e bd e7 76 43 bd
       -0.04935265 0.04873403 -0.050523385 -0.047720816
000030 1b 76 36 bd 87 0b 5c bd f2 21 64 bd 67 9a 2e bd
       -0.044546228 -0.05372193 -0.055696435 -0.04262772
000040 aa fa 15 bd 66 82 23 bd 01 13 9d bd e6 ac 4d 3d
       -0.036616005 -0.03991928 -0.0766964 0.050213717
000050 9d f5 b0 3d 3f c2 da 3b b6 ac 32 bd e4 2f ad 3d
       0.08640597 0.006675988 -0.04362174 0.084564
000060 de ea 81 3c e1 4e 60 bc 6e b2 68 bc d8 09 38 bd
       0.015859064 -0.013690681 -0.014202697 -0.044931263
000070 4f b4 71 3c 08 fa 6e bc 86 33 44 3d 9a 36 8b 3d
       0.014752462 -0.014585979 0.0479007 0.06797524
000080 18 c3 17 bc 9d d2 3b 3c 74 27 bd bc 93 25 bf bc
       -0.009262823 0.011463788 -0.023090102 -0.023333346
000090 fb ac ab 3c fa 6f 9b bc 2d 9a 0c 3d d5 c3 6c 3c
       0.020956507 -0.018974293 0.03432672 0.014450987
0000a0 01 32 36 3d 28 91 93 bd 4d 7b 6b 3b 95 41 08 bd
       0.04448128 -0.07205421 0.0035931647 -0.03326567
0000b0 91 39 39 bd aa 8a ae 3c 99 b4 2b 3d 2e 30 8f bc
       -0.045220915 0.021306355 0.04192028 -0.017479029
0000c0 3b 74 f8 bb 49 18 5a bc 97 47 3c bc f8 79 82 bd
       -0.007582215 -0.013311454 -0.011491678 -0.0637092
0000d0 c0 d8 83 bb 48 69 2e bd d4 e2 47 3b 7c 0c 90 3d
       -0.0040236413 -0.042580873 0.003050019 0.07033631
0000e0 df 5d 0e bc c0 06 65 3d 3e 01 72 3d fb da fe 3b
       -0.008689373 0.05591464 0.059083216 0.0077775693
0000f0 42 d3 30 3d bb 02 ab bd 6f 0c 7e bd 57 1a 97 bd
       0.04317022 -0.0835013 -0.062023576 -0.07378071
000100 b1 e0 25 bd a4 c9 65 3d e9 53 94 bc 4c 13 74 bd
       -0.040497486 0.056100503 -0.018106418 -0.059588715
000110 08 a9 8d 3d 77 de 9f bc 2c 44 85 3d d3 c4 71 bc
       0.06917006 -0.01951526 0.065071434 -0.014756399
000120 d9 64 13 3d bd 1c 98 bc 0c bd c9 3c 06 5f 2e 3d
       0.035984848 -0.018568391 0.024626277 0.04257109
000130 f4 9c 43 3d 34 aa 16 3c 70 c6 6e bd 18 0a 21 bd
       0.047757104 0.009195853 -0.058294713 -0.039316267
000140 24 c5 83 bc d9 d5 24 3d 35 12 1d bc ac a2 aa bd
       -0.016085215 0.040243004 -0.00958686 -0.083318084
000150 50 9b 5c 3c f3 14 da bd b7 7c 16 3d 1e 8d c2 3c
       0.013464764 -0.10648527 0.03674003 0.02374893
000160 26 3c db 3c be 7d 1c 3d f1 35 63 bd 0c 13 80 3d
       0.02676208 0.038205855 -0.055471364 0.06253633
000170 4b 5c c7 bd 57 35 93 bc eb 2e 50 3d 90 f6 48 bd
       -0.097344 -0.01796977 0.050825994 -0.049063265
000180 78 70 85 3d 42 d9 57 bd cc ab 88 3d b1 8e fa 3b
       0.06515592 -0.052697428 0.06673393 0.0076464047
000190 84 b2 cd ba ff da 65 bd 4c 84 c5 3d b2 f5 c9 bc
       -0.0015693461 -0.056117054 0.09644374 -0.02465329
0001a0 4a 73 84 bc c7 bb 6e bd ce 87 4c 3d b6 df 46 bd
       -0.016168255 -0.058284547 0.0499342 -0.04855319
0001b0 f6 20 c2 bd c2 1a 12 bc c4 a8 e1 bd 24 04 93 3d
       -0.09478943 -0.008917512 -0.110185176 0.07178524
0001c0 e2 ae 14 bd 5f 79 1e bd 44 21 2b 3d 64 4d e7 bc
       -0.036299594 -0.038689967 0.04177977 -0.028235145
0001d0 4d 2c ea bb 0a e2 21 3d e1 96 c6 3d 14 a0 49 3d
       -0.0071463943 0.03952221 0.096967466 0.049224928
0001e0 5e 98 66 3c 43 18 09 bd 33 8e be 3a c9 38 38 bd
       0.014074413 -0.033470403 0.0014538228 -0.04497603
0001f0 a8 fa b6 bc 4f 78 12 3c 5d 3b b9 bb b2 94 02 3d
       -0.02233632 0.008939817 -0.0056528286 0.03188009
000200 f4 49 50 3d e0 4a 8c 3b c4 c3 91 bb 64 72 40 bd
       0.050851777 0.0042813867 -0.004448386 -0.04698409
000210 75 8b 60 3d 79 60 20 bd cb 2f 02 3d d3 be 8b bd
       0.054820497 -0.039154503 0.03178386 -0.06823506
000220 53 06 0d bd 0d 71 91 bd 1a e1 a0 3c 7b 50 d5 bc
       -0.03442986 -0.07101641 0.019638587 -0.026039353
000230 bc 0d a7 3d 99 cb e8 3b 80 f9 1a bd 18 71 bb 3d
       0.081569165 0.007104349 -0.037835598 0.0915243
000240 eb 4e 53 3d e4 93 99 3d 4e 92 10 3d d8 cc 81 3c
       0.051588934 0.07498911 0.035295777 0.015844747
000250 32 41 e7 3c 5d d0 76 3b ee 30 14 bd 71 e9 7d bd
       0.02822933 0.0037660815 -0.036179475 -0.061990205
000260 00 ec fc bc 5e 49 fb 3c 5c 4e 40 3d 4f 07 26 3d
       -0.030874252 0.030674633 0.04694973 0.040534314
000270 7c 1b 22 bc c5 ff 5d bd 4b 27 82 bb 98 69 22 3c
       -0.009894248 -0.054199 -0.0039719692 0.009912871
000280 4a 8d 0e 3d 18 13 cd bc ce f9 86 3d af 6d 8e 3d
       0.034802713 -0.025033519 0.06590615 0.06954514
000290 64 f8 ec bb 75 c6 ef bc a0 9b 45 bd df 56 a5 bc
       -0.007231759 -0.029269436 -0.04824412 -0.020183025
0002a0 03 61 26 3d b3 f8 51 bd ab 8f 53 bd a7 49 1c bb
       0.04061986 -0.05126257 -0.051650684 -0.002384761
0002b0 cb f6 11 bd 24 6a 55 3d 29 d1 83 3d 4b d9 93 bd
       -0.03563575 0.052103177 0.064363785 -0.0721918
0002c0 62 8d 8d 3b fd c5 11 bc c8 27 1d bd c2 a3 32 3c
       0.0043198327 -0.008897302 -0.038368016 0.010903301
0002d0 3c 0f 0e 3d f4 2b 5a 3c b5 cc 6e 3d 11 bc 61 bd
       0.034682497 0.013316143 0.058300693 -0.055110995
0002e0 ba 57 bc 3d 5d 96 05 bd b3 de 9f 3c ce c9 0e 3d
       0.0919642 -0.0326141 0.019515371 0.034860425
0002f0 9c 70 b2 bd ca 60 77 3d ba 4e 4b bd aa 40 47 bc
       -0.08712885 0.06039504 -0.049635626 -0.012161413
000300 a8 ff dc 3b 12 1d 8c 3c 73 01 16 3d df 6a c6 3c
       0.006744344 0.017103706 0.036622476 0.024220882
000310 38 4c a0 3c e9 8e 08 3d 19 4e bb bc 15 4f 93 3d
       0.019567594 0.033339415 -0.022864388 0.07192818
000320 59 34 fa 3c 90 2e 73 3c 58 e4 af 3c e7 95 96 bd
       0.03054254 0.014842644 0.021471187 -0.0735281
000330 e1 d1 7a 3d 2f 8d fa bc 27 40 15 bd d8 5a 38 3c
       0.061235312 -0.0305849 -0.036438134 0.011252128
000340 df 88 ef bc 7a c1 b8 bc 7a d5 8c 3c 03 c7 02 3c
       -0.02924007 -0.022553194 0.017191637 0.007982018
000350 03 c9 ff 3c 9f a0 a6 bd cb f3 6e 3c ae f3 8b bc
       0.03122378 -0.08136105 0.014584492 -0.017083969
000360 71 00 b6 bc ab 4d 9a bc 41 fe 17 3d e8 3f 4d bd
       -0.022217007 -0.018835863 0.03710771 -0.050109774
000370 65 bc 98 ba d9 dd a9 bc 2b 49 af 3c 22 b7 a0 3d
       -0.0011652826 -0.020735668 0.021397194 0.0784743
000380 1d f4 95 3c e1 ba 5c 3d 14 e7 19 3d dc 95 37 3d
       0.018304879 0.05388916 0.03757389 0.04482065
000390 2f 7e 85 3c 1a e5 18 3d 51 21 00 bd 68 51 60 3d
       0.01629552 0.037327863 -0.031281773 0.054765135
0003a0 db db c9 3c 19 46 60 3d 7c f0 8e 3d c9 31 70 3d
       0.024640968 0.05475435 0.069794625 0.05864123
0003b0 0c 2b 9a bd 5d c1 29 bd 09 12 75 bd aa a4 1f bd
       -0.07527742 -0.04144417 -0.059831653 -0.038975395
0003c0 12 b3 3b 3d aa 2f 4f bb 57 dd de 3c c4 cd bb bc
       0.04582507 -0.0031614103 0.027205152 -0.022925265
0003d0 32 68 38 3d 53 06 4c 3d 1c 6d 69 bd 46 1e b6 bd
       0.045021243 0.04981072 -0.05698882 -0.08892493
0003e0 f0 7c d4 3c 2c 57 fe 3c 35 45 1e 3d 63 09 3e 3d
       0.025938481 0.031047426 0.03864022 0.04639567
0003f0 96 66 1d bd ca 1b 74 bd 71 58 ae bd c5 53 66 3d
       -0.03842791 -0.059596814 -0.085129626 0.056232233

input_net.bias f4 [64]
000000 c9 3f 18 3b 93 d8 1c 3d 6d c9 84 3d 0d 60 30 3d
       0.0023231378 0.03829248 0.064837314 0.04306035
000010 92 40 db 3c e9 72 89 bd 50 9a 0c 3d 7e 86 21 3d
       0.026764188 -0.067113705 0.03432685 0.039434902
000020 01 d6 0b bc d2 e4 e4 3b f3 83 6c bd d2 11 8a bd
       -0.008534909 0.0069852853 -0.057743024 -0.0674168
000030 95 8d de 3a 02 29 41 bd bd 0f 4e bd ba ba 47 bc
       0.0016979451 -0.04715825 -0.050307978 -0.012190515
000040 9d ef 61 bd cd 57 85 bd 7f d4 89 bc e5 1d 8f bc
       -0.055160154 -0.06510887 -0.016824959 -0.01747031
000050 f1 33 52 bd e3 6c 92 3c 82 76 15 3d 3f 22 92 bd
       -0.051319066 0.017874187 0.03648997 -0.07135438
000060 c3 8c cb bc 25 da 03 bc c3 99 7c bc 06 7f 6b 3b
       -0.024847394 -0.008047615 -0.015417519 0.0035933866
000070 00 c4 0f 3d 62 93 8f 3d 64 5e b2 bc 1e d9 87 3d
       0.03509903 0.07010533 -0.021773525 0.06633209
000080 a9 5b 35 bd eb 17 7c 3d 09 aa 83 bd 2a 97 52 bd
       -0.044276867 0.061546247 -0.06428916 -0.051413693
000090 d3 7b 4a bc 2b ee 03 3d 33 c5 6a bd 7a 74 37 3c
       -0.012358624 0.032209557 -0.05731697 0.011197204
0000a0 1f bf 36 3d 90 83 fc 3c 45 2d 6c 3d af fa 3e bd
       0.04461586 0.030824453 0.05766036 -0.04662579
0000b0 6b 8e 06 3c 0e 59 82 bc 77 5e 38 bd 4e 2c 70 bc
       0.008212666 -0.015911605 -0.045011964 -0.014659001
0000c0 ad 35 7a bd 01 16 f0 3c 8c 9a 97 3d 28 76 ca 3c
       -0.061086345 0.029307367 0.07402524 0.024714544
0000d0 3b 4a 8f 3d 2d f3 c9 bc e9 fa 51 3d 5a 60 7f 3d
       0.0699658 -0.024652088 0.051264677 0.062347747
0000e0 d2 5f 3f 3d e5 72 13 3d 26 2d 31 bd 2f 0c 76 bd
       0.04672224 0.035998244 -0.043255948 -0.060070213
0000f0 b5 37 ce bc 9d 8a dd bc d4 45 18 3c 85 08 05 3d
       -0.025173048 -0.027043635 0.009293992 0.032478828

mixture_net.mol_attn_layers.0.self_attn_layer.in_proj_weight f4 [192, 64]
000000 a2 98 cb bd cb 92 94 bd 4d 7d 88 3c f9 3b ad bd
       -0.09941222 -0.07254561 0.01666131 -0.084587045
000010 c0 17 15 3e e3 1c 35 3d 68 e0 22 be 0a b8 df 3d
       0.14559841 0.044217 -0.15905917 0.109237745
000020 3c 06 df bd 3e c1 94 bd 5b c1 1a be 0d e3 0d bd
       -0.10889861 -0.072634205 -0.15112822 -0.03464036
000030 6a f6 a9 bc a6 6c ca bd 96 bf c7 bd 1b c9 07 3e
       -0.020747382 -0.09884004 -0.09753339 0.1326031
000040 47 b7 d7 bd 0c a4 0c 3d bf 30 63 3d b4 ef 0c 3d
       -0.10533004 0.034336135 0.05546641 0.034408286
000050 c8 f0 24 be 0c 47 19 bd b1 f6 a8 3d 51 6f dc bd
       -0.16107476 -0.03742127 0.08250178 -0.107634194
000060 62 76 c8 bc b6 db 51 3d 7f 68 a4 bd 1a 4e 3b bc
       -0.024470512 0.051234923 -0.080277435 -0.011432195
000070 d9 f5 85 bd 1e b6 34 be 97 f8 12 bd 86 b6 1f 3e
       -0.06541032 -0.17647597 -0.035881605 0.15596971
000080 31 db 3c 3e f6 4f 4d 3d b1 c7 6d bd 59 04 2a 3d
       0.1844299 0.050125085 -0.05805177 0.041508052
000090 20 ce b8 3c 05 ef 18 3e e4 7f 28 3e ab 89 3b 3e
       0.022559226 0.14934929 0.16455036 0.18314235
0000a0 86 d7 91 3d 3a 10 44 3d 49 b5 81 bc 0e 75 79 3c
       0.07121186 0.047867037 -0.015833514 0.015225662
0000b0 15 e3 24 3d a8 31 b8 3d 98 cc 3b 3c b5 12 ed bd
       0.040255625 0.08993846 0.011462353 -0.11575834
0000c0 3a 93 22 bc 23 5e 18 3d b1 ab c6 3d 96 eb 21 3e
       -0.009922797 0.03719915 0.09700716 0.15812525
0000d0 34 60 8c 3d 46 83 ed 3d ff bf 7a 3d 02 4c b7 bb
       0.06854287 0.11597304 0.061218258 -0.0055937776
0000e0 5c da c6 3c c9 26 2b bd cf 3d 2b bd 21 52 b1 3d
       0.024274044 -0.041785035 -0.041806992 0.08658243
0000f0 f3 c2 63 3c 7e c7 29 3e ae ae 21 3d d4 57 00 3e
       0.01390146 0.16580006 0.03947323 0.12533504
000100 3d 80 8e 3d 8b f0 c4 3d a1 90 8a 3c e3 f6 0c be
       0.06958053 0.096161924 0.016914668 -0.13766055
000110 13 38 98 3c d5 08 38 bd ae 83 68 bd 42 31 73 3c
       0.018581426 -0.044930298 -0.056766205 0.014843287
000120 d0 3d 48 3c da e7 dc 3d f0 e4 b7 bd 1e 33 e1 bd
       0.0122217685 0.1078641 -0.08979213 -0.10996078
000130 fd 5b 23 3e 3e f4 14 3e 38 85 bc bd e4 6f 12 bd
       0.1595306 0.14546296 -0.09205097 -0.03575124
000140 7b 68 a9 3d 2f db a4 bd 4e 09 0d be f2 ae 11 3d
       0.08271881 -0.080496185 -0.1377308 0.03556723
000150 4f 36 ca 3d 23 f0 82 bd 8e e3 68 bd 9a 4b dd 3d
       0.0987364 -0.06393459 -0.056857638 0.108054355
000160 c9 85 fc bd c4 87 2d be dc c1 b0 3d 2e ef 11 bd
       -0.12330205 -0.16946322 0.08630726 -0.03562849
000170 11 28 9d bd 87 db 26 be 21 dd 74 bd db 01 01 bd
       -0.07673658 -0.1629468 -0.059781197 -0.03149591
000180 b1 b3 d0 bd 0e ff 07 3d 24 ab c1 3d 70 f5 30 be
       -0.101905234 0.033202223 0.094564706 -0.17281127
000190 68 3a 15 3e b0 1d cf 3d ec 08 10 be 67 a0 b0 bd
       0.14573061 0.10113084 -0.14065903 -0.08624344
0001a0 50 83 5a bc e1 db 69 bc 00 5f a5 3c 9f d4 6b be
       -0.013336971 -0.014273615 0.020186901 -0.23030327
0001b0 14 3e 56 bd b4 d2 ef 3c a8 ba 75 bb 8e 38 12 3e
       -0.052305296 0.029275276 -0.003749529 0.14279386
0001c0 28 88 b6 3b 71 c8 14 be ad df d8 bb e2 e8 ab 3d
       0.0055704303 -0.14529587 -0.006618461 0.08394028
0001d0 62 bc 4f be 8f 95 55 bd 1d 02 fc bd 40 e7 96 3d
       -0.20286706 -0.052144583 -0.123050906 0.07368326
0001e0 fc 6c d4 bd f3 73 db bd 00 1b 2a b8 78 90 fc 3d
       -0.103723496 -0.10715475 -4.0556304e-05 0.12332243
0001f0 be 04 c1 bd 13 76 ce bb 8e 86 05 be 5b 2d 4a be
       -0.094247326 -0.0063006966 -0.1303961 -0.19743864
000200 5a b9 32 bd 2f 3e 06 3e ce bd b2 3d 0f 81 34 bd
       -0.043633796 0.13109659 0.087276086 -0.044068392
000210 e5 46 06 3e 68 1d 0b bd af 9d 2e bb d6 4f 86 bd
       0.13112982 -0.03396359 -0.002664428 -0.06558196
000220 45 1d 8c bc 6c c2 e9 3d c1 59 3e 3e f8 40 24 3e
       -0.0171038 0.11414036 0.18588926 0.16040409
000230 dc e1 e1 3d 5e f5 23 be 93 4d 8b bd 08 bb 40 3d
       0.110294074 -0.16011569 -0.068019055 0.047053367
000240 1d c5 99 bd 32 47 99 ba 92 5f 24 3e a5 40 aa bc
       -0.075082995 -0.0011694191 0.16052082 -0.020782778
000250 c4 09 89 3d 92 85 f8 bd ed ec 3f 3d ab 9c 1b 3d
       0.06691316 -0.121348515 0.04685681 0.037991207
000260 09 31 8e 3d e0 6a 91 3d b1 55 3b bd f5 99 c9 bc
       0.069429465 0.07100463 -0.04573602 -0.024609545
000270 7f d1 82 bd b6 19 27 bd 22 66 30 3d 6e 6b fa bd
       -0.063876145 -0.040796004 0.04306615 -0.12227522
000280 b6 0a 64 bd 4a c0 cd bd 4b de bc 3c e8 07 e8 bd
       -0.055674277 -0.10046442 0.023055216 -0.11329633
000290 57 42 da 3c 3e 7a 60 bd 99 a0 41 be af 4d 35 3d
       0.026642961 -0.05480408 -0.1890892 0.044263538
0002a0 24 6d 1d be 1b 03 dd bd 07 96 bf bd 07 ec b9 bd
       -0.15373665 -0.10791608 -0.09354787 -0.09078222
0002b0 30 30 8b 3d 8b 7b d6 bd 3a db 30 3e bd 8a af 3c
       0.067963004 -0.10472783 0.17271128 0.02142846
0002c0 2e 87 16 bd 0b 98 87 3d 15 e1 ad 3d 4c 06 59 3d
       -0.03675001 0.06620797 0.084901966 0.05298452
0002d0 ee ee 97 3d 78 6c 08 be 5e 4f 11 3e 64 45 3e 3d
       0.07418619 -0.13322628 0.14190432 0.046452895
0002e0 49 10 48 3c 6d f8 f7 bc d1 67 90 bd f1 bd 23 3d
       0.012210914 -0.030269826 -0.070510514 0.039976064
0002f0 b6 e3 54 3c c3 c9 b2 bd fb 30 fc 3d a5 c9 e1 bd
       0.012993744 -0.08729889 0.1231403 -0.11024789
000300 32 5b 49 be bf 95 33 be 38 22 9e 3c a4 08 aa 3c
       -0.19663695 -0.17537592 0.019303426 0.020756073
000310 8c 08 d8 3d c5 7f d6 bd 2f 1a a1 3d e4 1e a6 bd
       0.10548505 -0.10473589 0.07866322 -0.08111361
000320 86 b6 94 3c b6 11 ba 3d 57 1a e1 bd a0 43 a2 3c
       0.01815344 0.09085409 -0.10991352 0.019807637
000330 fe fb e4 bd 9e 95 ce 3d e3 a4 d4 bd 69 75 a9 3d
       -0.11180876 0.10087131 -0.10383012 0.08274347
000340 12 e3 43 bd b0 cd a0 3d 53 ea e6 3d 22 36 16 3d
       -0.047823973 0.07851732 0.112751625 0.03667272
000350 3c 8f f8 bd 29 8b 21 be 88 34 f4 3d ce 2d 75 bd
       -0.12136695 -0.15775742 0.11924082 -0.059858136
000360 32 13 15 be 87 ad 1f 3b d4 44 1a be 16 60 5a bd
       -0.14558104 0.0024364905 -0.15065318 -0.05331429
000370 63 b0 89 3d c9 92 15 3b 63 b8 6e bc fd af 62 3d
       0.06723096 0.0022823086 -0.014570328 0.055343617
000380 21 ba d2 3d 16 88 b1 bd 19 ee 9d 3d 58 3d 1e 3e
       0.102894075 -0.086685345 0.07711429 0.15453088
000390 d6 da 9d 3d 90 8c 12 bc ee 52 5b 3b 7a 7b c3 bd
       0.07707755 -0.0089446455 0.0033466178 -0.09545036
0003a0 c7 c3 b1 bd 3f af c0 3d cf 45 48 3d 6a b6 21 bd
       -0.0867992 0.094084255 0.0488947 -0.039480604
0003b0 03 f7 a6 3d 7f ba a7 3c 10 e7 a3 3c e5 22 a7 3c
       0.081525825 0.02047467 0.02000764 0.020402381
0003c0 90 f8 04 be 2c 1b 58 bd a6 30 20 be 97 01 2c be
       -0.12985444 -0.052760288 -0.15643558 -0.16797481
0003d0 34 6d ea bd bf 8c e9 bd 62 f2 10 be 09 43 c7 3d
       -0.1144661 -0.11403798 -0.14154962 0.09729583
0003e0 b9 e7 32 bc e7 66 25 3d 1d fb e7 3d ac d7 56 3d
       -0.010919505 0.04038134 0.11327193 0.052451774
0003f0 25 3e 55 3d d2 a3 63 3d 9d 39 03 3e dc 21 1f 3e
       0.05206122 0.055576153 0.12814946 0.1554026

mixture_net.mol_attn_layers.0.self_attn_layer.in_proj_bias f4 [192]
000000 13 59 39 bc 4c 4e 4e bc a8 d0 a7 3c 24 ef b3 3c
       -0.011312741 -0.01259191 0.020485237 0.021964617
000010 79 4a a5 bc e0 3d 39 3d c0 81 cb 3b 88 66 94 3a
       -0.020177113 0.045225024 0.0062105358 0.0011322061
000020 9b 97 76 ba 8d 46 29 3d 9f 3a 6b bc 84 e7 3f 3c
       -0.0009406746 0.041327048 -0.014357238 0.0117129125
000030 76 67 a0 bc 6c 92 af 3b 9f 90 3b bc 73 63 82 3c
       -0.019580584 0.005358031 -0.011448055 0.015916562
000040 4f b0 55 3c d1 da f0 3c f9 e5 f5 39 b6 93 e5 3b
       0.0130425235 0.029401215 0.00046901384 0.007006134
000050 b8 d2 31 3d 95 28 2f 3b 4e 70 8e bc 5d a5 8d 3c
       0.043413848 0.002672707 -0.017387535 0.017290765
000060 6c cd 2e bd e2 9f 2a bd 8f 0b e5 bb 4a 4b 3c 3c
       -0.042676374 -0.041656382 -0.0069899033 0.01149256
000070 d8 12 82 bb a7 83 20 bd 65 95 57 bc 02 2f 98 3d
       -0.0039695315 -0.039188053 -0.013158177 0.07430841
000080 1e 1c 54 3a 8c 1e 92 bc ff e4 c9 bc b7 f0 9f 3b
       0.0008091348 -0.017836832 -0.024645327 0.0048809904
000090 59 e7 7c 3d bc ae 0d 3c 12 b0 08 3d 1f 13 5c bd
       0.061744068 0.008647617 0.03337104 -0.053729173
0000a0 3a 2c a7 3c 94 1e c3 bc 43 03 b2 3b 24 d7 63 bc
       0.020406831 -0.023818292 0.0054325177 -0.013906274
0000b0 5a 04 25 bd 96 6a 9c bc d0 4f ee 3c 31 99 1a 3c
       -0.040287353 -0.019093793 0.029090792 0.009435938
0000c0 78 5f 12 3c 2a 6a 4a bb ec 8f e6 3c 24 5c 34 3c
       0.008933894 -0.0030886033 0.0281448 0.011008296
0000d0 d1 17 9f bb eb 2e 03 3c 9c ef 26 bd 25 f0 0d bd
       -0.004855134 0.008006792 -0.040755853 -0.034652848
0000e0 0c 17 4b bd d6 da f4 3b f6 27 cf bc 21 63 2a 3d
       -0.049582526 0.0074723763 -0.02528761 0.041598443
0000f0 1c 57 8c 3c 67 ee 34 bc 90 05 3d 3c 66 e4 02 3d
       0.01713138 -0.011043168 0.011536971 0.0319561
000100 5c 1a c9 b4 89 51 fc 35 23 d5 fd b5 b8 7e 1f 37
       -3.7458346e-07 1.8799193e-06 -1.8912e-06 9.5066425e-06
000110 eb ce 9b 35 f0 d9 63 37 4e 5f 3f b7 7f 6c ba 35
       1.1608621e-06 1.3580997e-05 -1.1406677e-05 1.3889656e-06
000120 66 2a 39 36 e1 38 03 b7 e7 52 09 35 53 f0 1c b5
       2.7591827e-06 -7.821452e-06 5.1157116e-07 -5.8464246e-07
000130 bc 8a a4 b5 ff b2 be 36 26 b2 fe 34 f4 71 80 b6
       -1.2259329e-06 5.683279e-06 4.7440807e-07 -3.827963e-06
000140 6a e0 ab b5 35 43 cc b6 0b 6d 1b 36 f5 83 58 b5
       -1.2805806e-06 -6.0874977e-06 2.3160271e-06 -8.0658293e-07
000150 29 2d 67 b6 bd 68 b2 36 ae 4b 80 35 83 0e 9e b6
       -3.444797e-06 5.3170065e-06 9.558769e-07 -4.7104563e-06
000160 02 0f 31 b6 73 6a f7 34 50 1a 61 35 ff 57 37 b6
       -2.638379e-06 4.6084787e-07 8.385732e-07 -2.7320345e-06
000170 a8 a4 e8 b6 bb e2 d8 36 84 d7 34 34 38 0c 7f b6
       -6.9333073e-06 6.4636965e-06 1.684221e-07 -3.8005073e-06
000180 ed 4c 8a 36 ee 18 3c 33 f7 cb a5 36 6a a0 9f b6
       4.121676e-06 4.3794834e-08 4.941128e-06 -4.757244e-06
000190 2b aa b8 b6 e8 71 27 b7 ff 9d f3 b6 c9 ef 2f 37
       -5.5034375e-06 -9.9804965e-06 -7.2603575e-06 1.0486642e-05
0001a0 4c da e1 b6 35 fd 90 36 07 6f d8 b6 7e 5b d2 b5
       -6.7309356e-06 4.3210116e-06 -6.450227e-06 -1.5672847e-06
0001b0 80 cf d6 b6 8f ad c3 b5 1a 9d 69 36 1b 37 56 b5
       -6.401853e-06 -1.4579144e-06 3.481115e-06 -7.98014e-07
0001c0 a3 5d 2c b5 02 62 c1 b6 d3 bd a4 35 37 97 19 36
       -6.421125e-07 -5.763258e-06 1.2274198e-06 2.2886795e-06
0001d0 0b 3b 25 36 ec 48 de 33 51 33 97 b6 df 7f a3 35
       2.4621284e-06 1.0350945e-07 -4.5061247e-06 1.2181662e-06
0001e0 e7 5c 13 37 c6 a4 fe b4 69 11 2a 35 9e 27 40 b7
       8.783513e-06 -4.7431075e-07 6.335527e-07 -1.1453316e-05
0001f0 da a0 31 b7 6e 27 7a 35 32 0f dd b6 39 03 81 b6
       -1.0587473e-05 9.3189635e-07 -6.588082e-06 -3.8448748e-06
000200 21 52 50 3c 27 64 2b 3b 8e dd db 3b 9b 61 ea 3b
       0.012714894 0.0026152225 0.006709761 0.0071527488
000210 2a e3 3b 3b cd 8d d0 3a 54 b8 a9 bb e7 c0 15 3b
       0.0028669336 0.00159114 -0.0051794443 0.0022850574
000220 8c ac 5d ba 01 03 3b 3a dd d0 1d 3b 54 fe 14 bb
       -0.00084561924 0.00071339315 0.002408079 -0.00227346
000230 d3 49 c1 3b 43 d4 80 3b 61 a8 0d bc de 31 09 3c
       0.005898693 0.0039315536 -0.008646102 0.008373706
000240 37 8b 34 3c f2 68 67 3c 64 97 2b 3b 35 a9 0d 3b
       0.0110195195 0.014124142 0.0026182765 0.0021615748
000250 8d 8f 1a bb cd 63 cb bb 61 a6 da 3b ff bb 18 3c
       -0.0023584098 -0.0062069655 0.006672666 0.0093221655
000260 6c 7f a1 3b 38 bc fe 3a a7 b6 9d bb 7d b9 b9 bb
       0.00492852 0.0019434756 -0.0048130336 -0.005667864
000270 a3 8e 4b 3b cb 7f 0a 3c 91 1f e2 3b 2d 8a 98 3b
       0.003106036 0.00845332 0.0069007357 0.0046551437
000280 7c 9a a4 3b 7b 36 0d ba 0b ea 20 3b be 75 15 bc
       0.005023299 -0.00053868414 0.0024553563 -0.00912231
000290 1a 0d fb bb 69 01 89 3b c4 fe f2 ba 9f 3d 80 3c
       -0.007661474 0.0041810763 -0.0018539061 0.015654383
0002a0 f6 0a b4 bb 42 14 04 bc ff e8 df 3a e7 f1 26 3b
       -0.0054944707 -0.00806147 0.0017082988 0.0025473775
0002b0 00 28 54 3b a4 d2 b3 bb 50 d9 1a bc 90 07 12 3b
       0.0032372475 -0.005487757 -0.009451225 0.002228234
0002c0 d2 ae d0 ba 34 dc f0 bb ca 49 25 bb fc 0e 04 3c
       -0.0015921241 -0.007350469 -0.0025220984 0.008060213
0002d0 52 92 0f 3c 00 f3 f1 3b 28 f8 25 3b b2 f9 57 bb
       0.008762913 0.007383704 0.0025324915 -0.0032955226
0002e0 67 40 ca 3b bb 0c bd bb 0b c7 8c bb 35 e7 ba 3b
       0.006172228 -0.00576934 -0.0042961887 0.0057038316
0002f0 a5 4c 5c bb a5 af 03 bb 32 7d 91 3b 6c 24 55 bb
       -0.003361502 -0.0020093706 0.0044399733 -0.003252293

mixture_net.mol_attn_layers.0.self_attn_layer.out_proj.weight f4 [64, 64]
000000 d9 8d 17 bd 50 07 53 bd aa 63 dd 3d cd e7 89 3d
       -0.03700051 -0.051520646 0.10810025 0.067336656
000010 20 42 30 3d 7a 0a a2 3c 87 75 cc 3d 4f 93 f4 bd
       0.04303181 0.019780386 0.09983354 -0.119421594
000020 ce ca de bd 42 6d dd bc 2b 34 1b 3b f6 4c c0 bd
       -0.10878526 -0.027029637 0.0023682218 -0.09389679
000030 af 3e bb bc c7 8d 0d 3e 6f 16 06 bc fc d7 0f 3e
       -0.022857038 0.13823615 -0.0081840595 0.14047235
000040 e3 55 87 bd d4 b4 69 3d 91 06 c3 3d a6 17 16 3e
       -0.066081785 0.057057217 0.09522737 0.14657459
000050 27 7d 5b 3d da 16 0b be d1 c2 f1 bd 46 f5 dd bd
       0.05358615 -0.13582936 -0.118047364 -0.10837798
000060 03 cd 93 3d 47 bd 9e 3d 87 69 cd 3d f1 49 66 3d
       0.07216837 0.077509455 0.10029893 0.05622286
000070 6d 31 41 bd 3d d8 23 bd a2 f6 60 bc 6d 4e 96 bd
       -0.047166277 -0.040001143 -0.013730677 -0.07339177
000080 5e 2b 27 bd 71 0a 1b 3d 21 c9 00 3e 3a 97 ec 3d
       -0.040812843 0.037851755 0.12576725 0.11552282
000090 41 81 92 bd 9b 12 9e bd b5 86 88 3d 28 b8 b3 bd
       -0.071535595 -0.077183925 0.06666318 -0.087753594
0000a0 1c 8a 55 bd f9 60 0b be 1c 97 8c bd e5 16 88 3d
       -0.052133664 -0.13611211 -0.06864759 0.06644992
0000b0 2e 1e 57 3d 64 2e 90 bd df 20 5b bd a4 26 9b bb
       0.052519016 -0.07040098 -0.053498145 -0.004734831
0000c0 69 40 c0 bd 5e 04 61 bd d0 fe 02 bc 27 04 bb 3d
       -0.09387285 -0.054935805 -0.007995322 0.09131651
0000d0 87 40 02 bc e4 a3 6d bd 6f ff cf bd 62 9b 32 bd
       -0.007949955 -0.058017626 -0.10156142 -0.043605216
0000e0 1d 01 f5 bc 17 c0 f5 3d 49 e9 67 3b ed 69 ab bb
       -0.029907757 0.11999529 0.0035386852 -0.005231133
0000f0 5d d2 3e 3d 0d 85 04 be 7e d9 74 bd 40 01 0e be
       0.046587337 -0.1294138 -0.05977773 -0.13867664
000100 84 ac eb 3d 13 24 b8 3d d3 35 6c bd 52 bd 1c bd
       0.11507514 0.089912556 -0.05766852 -0.038266487
000110 99 29 32 3d 39 7d dd bb f3 49 24 3d dc da af 3d
       0.043496702 -0.0067593125 0.040109586 0.08586666
000120 2b 8e c5 3d f4 76 ea bd d8 cb c3 3d d4 02 25 bc
       0.09646257 -0.1144847 0.095603645 -0.010071475
000130 b2 3e 9f 3d 60 e0 e4 3d df 10 b1 3d fa 28 14 be
       0.0777563 0.11175609 0.08645796 -0.14468756
000140 32 5c fb bc 07 f7 0a 3e f1 6c 0d 3e 27 60 9d 3d
       -0.03068361 0.13570796 0.13811089 0.07684355
000150 22 67 3d 3c 06 49 c2 3d 12 bf c1 bd 2d ef 17 bb
       0.011560233 0.09486584 -0.09460272 -0.0023183331
000160 0e c9 95 3d 0f a9 1b bd 3b 03 ef 3b b5 ad 32 bd
       0.07313739 -0.038003024 0.0072940863 -0.04362269
000170 ab 30 58 3d 82 97 91 3d 23 36 b4 3d 0c d6 02 be
       0.05278079 0.07108976 0.08799388 -0.12776965
000180 c5 2b 1c bc b9 a1 bc bd e1 4f f7 bc fe e7 3d bd
       -0.00953192 -0.09210534 -0.030189456 -0.046363823
000190 f0 00 6f bd c0 81 61 3d 79 e5 a4 3c 8f c8 b4 3d
       -0.058350503 0.05505538 0.020128952 0.08827316
0001a0 87 24 b3 bd 8f 17 ec bb 14 cd d9 3d 4a 7c 0d bd
       -0.087472014 -0.007204957 0.10634819 -0.03454236
0001b0 50 53 8f bc 52 5e b7 bd 1b 59 3f 3d c4 f1 df bd
       -0.017495781 -0.08953537 0.046715837 -0.10934785
0001c0 55 3c 92 bd d8 ee aa 3c bb 96 6e bd 08 70 c3 bd
       -0.07140414 0.020865843 -0.058249217 -0.09542853
0001d0 86 54 5c bd 2d b6 c7 bd 44 aa 13 3e a0 c7 47 bd
       -0.053791545 -0.09751544 0.1442042 -0.04877436
0001e0 3f 4d dd bc f8 42 aa bd aa a8 6e bb f4 f0 2f bd
       -0.027014373 -0.083135545 -0.003641645 -0.0429544
0001f0 c4 9a c3 3d 02 ce e0 bd a9 d3 d0 3d d6 aa 87 3d
       0.095510036 -0.10976793 0.10196621 0.06624381
000200 01 f2 d4 3b d1 af ac bc dd f8 19 3d 23 bb a6 3d
       0.0064985757 -0.02107993 0.03759085 0.08141162
000210 00 3c 95 3d 15 da a6 bd e9 dd c6 bb f3 6f b2 3c
       0.07286835 -0.081470646 -0.006068934 0.021781897
000220 6a 92 b4 3d 78 c3 49 bd 35 fe a2 3d 0f 74 2c 3d
       0.08816989 -0.04925868 0.079586424 0.04210287
000230 32 b7 c7 3d e8 c0 89 bd a7 c6 c2 bd 2f 79 1c 3e
       0.097517386 -0.06726247 -0.09510546 0.15280603
000240 7b 97 db bd aa d4 b9 3c ae b6 85 3d eb 2e 2f 3d
       -0.10722252 0.022684414 0.06528984 0.042769354
000250 5f 19 22 bd f4 72 0c be f4 86 b8 bd 4f 55 dc 3d
       -0.039574977 -0.13715726 -0.09010115 0.10758459
000260 1a cc 11 bd ce ad 06 be 57 63 45 3d e9 94 02 3c
       -0.035595037 -0.13152239 0.04819044 0.007970073
000270 a7 57 49 bc 54 72 88 3c 32 24 07 3d 79 56 06 3e
       -0.012288964 0.016656078 0.032993503 0.13118924
000280 ce 75 f8 bd a5 a4 fc bd 09 c3 e3 3d 09 fb c1 bd
       -0.121318445 -0.12336091 0.111211844 -0.09471709
000290 e5 9f 92 bd 7a 57 a1 bd 06 a2 e9 3d aa 51 28 bd
       -0.07159404 -0.07878013 0.11407857 -0.041093506
0002a0 e7 9e c1 3d 5d 0e e6 bd 4c f2 7b bb 86 64 2b bb
       0.09454136 -0.11233208 -0.003844398 -0.0026152446
0002b0 08 e9 91 bd 9e 99 12 3c e0 1b 3a 3d 9f c4 99 3d
       -0.07124525 0.008947758 0.04543674 0.075082056
0002c0 81 f5 89 bd 63 38 a2 3d 2e 71 5a 3d 85 9d b0 3d
       -0.06736279 0.07920911 0.053330593 0.086237945
0002d0 04 9a 15 3e be 78 21 3d e7 4e 93 bd 3e dc 8b bd
       0.14609534 0.03942179 -0.07192784 -0.06829117
0002e0 2a 31 01 bb 82 09 a0 bd 2c 40 ed 3d bc ce c3 3c
       -0.0019713142 -0.078143135 0.115845054 0.02390229
0002f0 94 0f 27 be 90 71 b9 3d 9b 81 1e bd 09 3f f4 39
       -0.16314536 0.090548635 -0.03869782 0.00046586271
000300 34 2d 2c bd 3b 94 f9 3d fc 6e 05 3e 4b 6c 04 3e
       -0.042035297 0.12186476 0.13030618 0.12931935
000310 c0 e6 eb 3b 56 56 03 be a0 0d a4 bd 4c 63 72 bb
       0.0071991384 -0.12825903 -0.08010411 -0.0036985455
000320 fc 6d c3 bb 00 db c6 3c 0d 8e f1 bc b0 d4 47 bd
       -0.005964039 0.02427435 -0.02948668 -0.04878682
000330 0b 26 df bc 73 6e b6 bd b0 51 36 bc 3b 38 2a 3d
       -0.02723982 -0.08907785 -0.011127874 0.04155753
000340 48 32 b8 3d 5d fb 61 bc 11 b6 c1 3c 47 dd cd bc
       0.089939654 -0.01379284 0.023646386 -0.025129927
000350 f3 52 9c 3d ff a5 fc bd 62 e1 95 3d fe 44 6c 3d
       0.07633009 -0.12336349 0.07318379 0.057682984
000360 84 d4 09 3e 27 72 4f 3d 06 f6 8a bd ed a5 83 bc
       0.13459975 0.050645974 -0.067852065 -0.01607033
000370 19 b6 98 ba 52 5c c5 3c 50 65 30 3d 71 38 9a bd
       -0.0011650949 0.024091873 0.04306537 -0.075302966
000380 f6 c7 2d bd f9 0a fb 3c 7d 56 19 3d 0b 55 0a be
       -0.042427026 0.03064488 0.037435997 -0.13509004
000390 2b c1 b4 bd 15 e5 e1 bd 48 d1 af 3b 55 76 8c 3c
       -0.08825906 -0.11030022 0.0053655244 0.017146269
0003a0 56 8b f2 3d 50 c4 ab 3c 6c b4 72 bd 4e 18 b3 3d
       0.118429825 0.020967633 -0.059254095 0.0874487
0003b0 5c c3 d1 3c bc 0a 15 3e d5 17 69 bd 26 69 27 3c
       0.02560585 0.14554876 -0.056907494 0.01021794
0003c0 d3 db 63 bd c3 49 ea bb 85 c5 ee 3d 29 9c 2e 3d
       -0.055629563 -0.0071499064 0.116587676 0.042629395
0003d0 f7 a5 97 3d 4b b1 ba bc b2 bc 35 3d e8 7e 25 bd
       0.07404702 -0.022789618 0.044369407 -0.04040423
0003e0 6c 59 e5 bb 45 4b 28 3e c4 ed c7 bd 9c 88 da 3c
       -0.0069991853 0.16434963 -0.09762147 0.026676469
0003f0 70 17 05 be 67 05 bd 3c 34 97 0a 3d fb 9a 69 3c
       -0.12997222 0.023073865 0.033835605 0.014258142

mixture_net.mol_attn_layers.0.self_attn_layer.out_proj.bias f4 [64]
000000 7f a5 22 ba 84 c4 99 3b 99 fe 4b bb 1c 00 24 3c
       -0.00062044704 0.004692616 -0.0031127094 0.010009792
000010 c7 44 0d bb f2 92 2a bc 71 34 ac ba 53 06 95 3a
       -0.0021555887 -0.010411011 -0.0013138187 0.0011369683
000020 81 92 99 3b 60 ae c7 3a e6 82 a7 bc b4 1a 3d 3b
       0.004686654 0.0015234463 -0.02044816 0.0028855028
000030 55 41 86 3a c1 79 e6 bb 06 26 0b 3a 4a 5e 5b bb
       0.0010242859 -0.007033557 0.0005308095 -0.0033472949
000040 13 7c fe bb 6f 02 c7 bb fc 00 af ba aa 8d e8 ba
       -0.0077662556 -0.006073288 -0.0013351734 -0.0017742414
000050 41 0f 02 3a 1d 5f a0 3c 46 92 18 b9 44 05 57 bc
       0.00049613795 0.019576604 -0.0001455034 -0.013123814
000060 a5 9d d8 bb 55 7d b5 bb b1 b6 03 3c 7d 3c 97 bb
       -0.0066105896 -0.0055386224 0.0080391625 -0.004615365
000070 a2 e6 8a 3a 39 5f 2b 3b b2 f4 4c bb de 62 02 3c
       0.0010597298 0.0026149286 -0.003127378 0.007958142
000080 2d 17 9b ba 07 b3 cf 3b cf 7d b0 ba da 00 f2 3a
       -0.0011832468 0.0063384804 -0.0013465228 0.0018463389
000090 46 1a 72 bc 34 ea 73 3b 45 d4 0a 3c 2d 7b be bb
       -0.014776772 0.0037218453 0.008473461 -0.0058130235
0000a0 2c b4 a8 3b b0 45 19 bc 37 97 5b bb 7f 61 b0 3b
       0.0051484313 -0.009354994 -0.003350688 0.005382716
0000b0 99 a1 73 3b 7a 22 d3 bb 5c 6e 88 bc ea 0d 67 3a
       0.0037175177 -0.006443319 -0.016654186 0.0008814024
0000c0 40 47 ef b9 f5 26 cf b9 3d 71 f0 3b 80 03 40 3c
       -0.00045638718 -0.00039511142 0.007337718 0.011719584
0000d0 80 51 ea ba 49 88 40 3b 00 74 ec bb 16 7d b4 3b
       -0.0017877072 0.0029378107 -0.0072159767 0.0055080755
0000e0 ee d8 9c 3b 58 73 cc 3b 3f 3a 0e bc f1 5a 5e bb
       0.004786602 0.006239336 -0.008680879 -0.0033928717
0000f0 63 e1 8e bb bf 09 b5 ba af 72 b5 3b ae ee 03 3c
       -0.0043603643 -0.0013812109 0.005537353 0.008052511

mixture_net.mol_attn_layers.0.addnorm1.norm.weight f4 [64]
000000 2e 91 7e 3f 3f 61 7e 3f d8 5b 81 3f 26 e5 83 3f
       0.99440277 0.99367136 1.0106153 1.0304306
000010 32 78 81 3f c8 70 7e 3f 33 b0 81 3f 2e 3e 81 3f
       1.0114806 0.9939084 1.0131897 1.0097101
000020 69 1d 7f 3f ca 1a 83 3f 5b 27 80 3f 43 c2 7f 3f
       0.9965425 1.024255 1.001201 0.99905795
000030 2c 9f 82 3f 63 0f 83 3f b9 ff 81 3f ea 22 83 3f
       1.0204825 1.0239071 1.0156165 1.024503
000040 a0 f2 81 3f 97 a9 7d 3f 4c 3e 7e 3f 94 79 82 3f
       1.0152168 0.990869 0.9931381 1.0193353
000050 33 6e 7c 3f 3e 4d 7b 3f 27 d0 81 3f f2 75 7d 3f
       0.9860565 0.9816474 1.0141648 0.99008095
000060 c4 f6 82 3f 35 c8 7a 3f e7 dc 7c 3f 8e 93 7d 3f
       1.0231557 0.9796174 0.9877457 0.99053276
000070 65 84 7f 3f ca d5 80 3f 87 5a 80 3f 04 1b 7c 3f
       0.99811393 1.0065243 1.0027627 0.9847872
000080 e1 c0 80 3f 89 27 82 3f cb 33 82 3f b4 54 80 3f
       1.0058862 1.0168315 1.0172056 1.0025849
000090 32 ae 7d 3f 69 0b 82 3f 7d 09 7f 3f 67 2f 80 3f
       0.99093926 1.0159732 0.9962385 1.0014466
0000a0 88 f8 7c 3f a9 94 80 3f cd 30 7f 3f cd 64 81 3f
       0.9881673 1.0045367 0.9968384 1.0108887
0000b0 8c 0c 83 3f ca 54 7f 3f ad 1a 80 3f bc b7 7c 3f
       1.0238204 0.9973875 1.0008141 0.98717856
0000c0 6a 28 84 3f e6 94 7d 3f 67 15 79 3f d7 98 7c 3f
       1.0324833 0.99055326 0.9729828 0.98670715
0000d0 91 83 80 3f 20 da 83 3f dd 5c 80 3f 12 86 7c 3f
       1.0040151 1.0300941 1.002834 0.98642075
0000e0 e2 a8 81 3f 9a d9 80 3f e9 a2 80 3f 42 0c 80 3f
       1.0129664 1.0066407 1.0049716 1.0003741
0000f0 08 e0 7e 3f fc 08 7c 3f 62 12 80 3f f9 00 82 3f
       0.99560595 0.9845121 1.000561 1.0156547

mixture_net.mol_attn_layers.0.addnorm1.norm.bias f4 [64]
000000 89 83 de ba 97 17 67 3b 9b db 30 39 41 0e 9a 3b
       -0.0016976456 0.0035261863 0.00016866477 0.004701406
000010 58 b2 e9 39 8e 88 38 bc 58 7c 62 3b 69 90 82 3b
       0.000445741 -0.011263026 0.0034558978 0.0039845
000020 3c 6c 66 3b 09 7c 1a 3c 2b 6c aa bc ae 22 b3 3b
       0.0035159728 0.009428986 -0.020803532 0.0054667806
000030 43 05 be 3b e7 7b 05 bc 6e dd d8 3b 63 8f 1d bb
       0.005798967 -0.008147216 0.0066181934 -0.0024041764
000040 3e 54 b2 bb 6f 14 a1 bb 98 f2 31 3a 82 b0 1e bc
       -0.0054421714 -0.004915766 0.00067881634 -0.009685637
000050 9b aa 01 3a 42 96 9f 3c 45 dd c0 3a a2 5d c0 bb
       0.00049463817 0.019480828 0.0014714381 -0.005870537
000060 e6 3f 9e bb 42 9e 5f 3a 33 da 1b 3c bc 0e 8b ba
       -0.0048293946 0.0008530357 0.009512472 -0.001060925
000070 98 40 85 3b ca 4c 03 b9 bf 2f 5e 3a 28 1b e3 3a
       0.004066538 -0.0001252174 0.00084757427 0.0017326819
000080 20 95 1a bc 98 02 0e 3c f1 d4 89 ba c8 e4 04 3c
       -0.009434968 0.008667611 -0.0010515732 0.008111186
000090 4c 1d 83 bc f4 46 47 3a 80 cc ce 3b 66 40 bc bb
       -0.01600518 0.00076018204 0.0063109994 -0.0057449816
0000a0 d1 b6 dc 3b b7 69 3c bc 56 c3 85 bb 7a 59 88 3b
       0.0067356606 -0.011499814 -0.0040821237 0.004161057
0000b0 37 98 23 bc 7f 29 bf bb 84 8f 81 bc 12 ee 11 bb
       -0.009985021 -0.005833804 -0.015815504 -0.0022267145
0000c0 bd 71 aa bb 98 42 18 3b b7 a5 35 3c 43 68 4f 3c
       -0.005201547 0.0023233052 0.011086873 0.012659135
0000d0 a4 57 e1 ba 17 fe 82 3b 27 89 b4 bb 52 80 6a 39
       -0.0017192257 0.003997575 -0.005509514 0.00022363782
0000e0 f7 df 58 ba 37 69 9f 3b a7 c8 1e bb a0 42 bb b9
       -0.00082731195 0.0048648375 -0.0024228485 -0.0003571706
0000f0 f5 52 cf 3b fc e0 49 ba 76 fd 3b 3c 1b 95 7d 3b
       0.006327028 -0.0007701067 0.011474004 0.003869361

mixture_net.mol_attn_layers.0.ffn.layers.0.weight f4 [64, 64]
000000 32 1d f6 3d 27 d6 b9 bd db e7 08 be 6a 3c 8c bd
       0.12017287 -0.090740494 -0.13369696 -0.068474606
000010 71 83 97 bb 6e 8e a2 bd 27 9f 89 bd ea 09 8f bd
       -0.0046238233 -0.079373226 -0.06719809 -0.06984313
000020 db ee dd 3d 91 b8 ff 3d 44 24 5f bd 4a aa bb bc
       0.10836574 0.12486375 -0.054477945 -0.022908349
000030 8a 0e be 3d e7 df 00 be 46 09 30 3e d2 4e d2 bd
       0.09280117 -0.12585412 0.17191038 -0.1026894
000040 11 97 0f be 78 c5 5b bc 9a b9 8f 3d 91 c5 53 3d
       -0.14022471 -0.013413779 0.070178226 0.051702086
000050 7a 6e 16 be 2f e6 10 bd 3a 6c c8 3d 34 30 a9 3d
       -0.14690581 -0.03537577 0.097862676 0.08261147
000060 73 5e 6d 3d a2 05 09 bd bd 5e 49 bc 83 9b b2 bc
       0.057951402 -0.033452637 -0.012290654 -0.02180267
000070 18 4e 54 3c 21 25 8b 3d 62 d8 ed 3d 2f 11 8a 3c
       0.012958072 0.06794191 0.11613537 0.016853897
000080 ae e2 50 3d 64 99 16 3d 18 6e 66 bd c4 3e 21 bd
       0.05099743 0.03676738 -0.056257337 -0.0393665
000090 7d ad cf 3d 18 81 2d bd ec e4 15 3c e0 32 ab bd
       0.10140512 -0.04235944 0.0091488175 -0.08359313
0000a0 37 1e 25 3d 8d 0b f6 3a c6 1f 44 3d 03 3d 7d bd
       0.04031202 0.0018771753 0.047881864 -0.061825763
0000b0 3d b0 0f be 02 b2 ed bd 64 a3 0c be a1 66 b1 bd
       -0.14032073 -0.11606218 -0.13734204 -0.08662153
0000c0 88 37 16 3e d8 7a 34 bd ff dd b9 bd 1b 73 c9 3d
       0.14669621 -0.044062465 -0.090755455 0.09836408
0000d0 52 74 9c 3d ea 56 6a 3d b1 92 36 3d 87 1d f9 3c
       0.07639374 0.057211794 0.04457349 0.030409588
0000e0 1e 20 fa 3d 4f 26 37 3d 4a 75 e9 bd 60 68 65 bd
       0.12213157 0.04471427 -0.11399324 -0.056007743
0000f0 50 83 54 3c 51 16 d1 bd 60 fa 02 3a 50 95 65 bd
       0.01297076 -0.10209335 0.0004996415 -0.0560506
000100 e7 a5 f7 bd ff b8 e1 3c b7 0d f4 3d 29 18 8b 3d
       -0.1209219 0.027554033 0.119166784 0.067917176
000110 bd 70 05 3e 4d 79 19 be 04 75 cb bd 3f 43 73 3d
       0.13031287 -0.14987679 -0.09934428 0.059390303
000120 4f b7 db bd f1 9e 7f 3d 48 59 e3 bd b5 09 04 3d
       -0.10728323 0.062407438 -0.111010134 0.03223582
000130 73 17 2d bd 94 a7 bc bd 70 6c c5 bd b9 04 cc 3d
       -0.04225869 -0.092116505 -0.096398234 0.09961838
000140 79 1e a9 bd 5d 15 d6 3c 29 cf c1 bd 6b a9 c0 bd
       -0.08257765 0.026133234 -0.09463341 -0.09407314
000150 cc eb c6 3c b3 d5 94 bc b5 dc 03 be 3e a0 c8 3d
       0.024282359 -0.018168306 -0.12877162 0.09796189
000160 49 d1 f2 3d d9 43 14 3e a7 75 52 bd 20 bf d8 3d
       0.11856324 0.14479007 -0.051381733 0.10583329
000170 14 d5 a4 3c 36 b2 2d 3e 0f a5 50 3d d0 1f 6e bd
       0.020121135 0.16962513 0.050938662 -0.058135808
000180 45 93 62 bc 39 9c 44 bb 32 b1 8d bd 42 50 f7 bc
       -0.013829057 -0.0030000343 -0.06918563 -0.030189637
000190 ea 23 ec bd a4 4a c4 bd 1a 6e a6 bd 00 d4 ef 3b
       -0.115302876 -0.09584549 -0.08126469 0.0073189735
0001a0 83 e8 cf bd 2c 84 c1 3d c5 96 76 3d 3b 98 99 bd
       -0.1015177 0.09449038 0.06020238 -0.07499739
0001b0 f5 13 c1 bd 4b a8 4e bd a1 2d 30 3d 79 ca bc bd
       -0.094276346 -0.050453465 0.043012265 -0.09218306
0001c0 5c d4 ac bc 94 21 16 3d 69 84 c5 3d 97 92 d5 3d
       -0.021097355 0.036653116 0.09644396 0.104283504
0001d0 44 8a 11 3d 05 0a 80 bd a8 c5 6a 3d b0 eb 87 bb
       0.03553225 -0.06251911 0.057317406 -0.004147969
0001e0 60 19 63 3d 55 b1 9b 3d fd b3 ca 3d 8e d8 74 bd
       0.05544412 0.07602183 0.09897611 -0.059776835
0001f0 5c c6 b6 3d b9 cb f0 bc 06 63 c1 bd 97 31 17 3e
       0.08924553 -0.029394018 -0.09442715 0.14765011
000200 9b 90 ed 3c b8 c0 c2 3d f3 3d 8f bd d0 32 21 3e
       0.028999617 0.095094144 -0.06994238 0.1574204
000210 69 51 90 bd c9 04 de bd f2 72 f3 3d d9 de 9d 3d
       -0.07046778 -0.108407564 0.118871585 0.077085204
000220 a3 01 07 bd f0 d3 95 3c d7 70 a3 3c 63 d1 ad 3d
       -0.032960545 0.018289536 0.019951267 0.08487203
000230 8f b4 d0 3d 97 92 58 3d 2c 8f 90 bd b5 cc 88 bd
       0.10190689 0.052874174 -0.07058558 -0.0667967
000240 2b cb 68 bd d1 94 20 be c7 85 08 3d 94 04 e1 bc
       -0.05683438 -0.15681769 0.033330705 -0.027468003
000250 4a 03 8f 3c 2e 76 7a 3c 8c 7a 8d 3d 32 d1 19 3e
       0.017457623 0.015286965 0.069081396 0.15021208
000260 3e 7c 1b bd f3 ce a9 bd f4 f1 c3 3d 01 1c bf bd
       -0.037960283 -0.082914256 0.09567633 -0.09331513
000270 da 2a fe 3d 5e 65 1b bd 46 8d 28 3d dd 5b e3 bb
       0.12410517 -0.03793847 0.041150354 -0.006938441
000280 e8 1a 92 3d a1 e2 6b bb 81 8d 64 3b db d5 60 39
       0.07134038 -0.0035993236 0.0034874382 0.00021441972
000290 d6 ba 6b bd 84 13 83 3c 86 b8 27 3d 73 62 64 3b
       -0.057551228 0.016000517 0.04094746 0.003484872
0002a0 e5 f2 a0 3b 46 5d 1c 3e d2 d6 0f bd 67 6c b4 3c
       0.004911768 0.15269956 -0.035116978 0.022024347
0002b0 e7 e1 a8 3d 56 cf 09 be c0 08 74 bd 53 ea 86 bd
       0.082462125 -0.13457999 -0.059578657 -0.065876625
0002c0 e0 31 f0 bc 70 c3 84 bd 6f 90 b7 3d fe fb 82 bd
       -0.029320657 -0.06482589 0.089630954 -0.0639572
0002d0 42 7c a0 3d 82 5d c7 bd ca af 21 3b 72 cb d1 3d
       0.078362 -0.09734632 0.002467143 0.10243882
0002e0 ba 41 a7 3c 89 f4 d0 bd d8 64 2b 3d 39 c6 91 bb
       0.020417083 -0.102028914 0.04184422 -0.004448679
0002f0 69 7e 07 3e e4 55 cd 3d 63 97 57 bd 59 6e 69 3d
       0.13231815 0.10026148 -0.052634608 0.05699
000300 bc 4b 41 3b 46 00 58 bd 33 39 9e 3d ab 5f 5c 3d
       0.0029494604 -0.052734636 0.07725754 0.053802174
000310 38 50 94 bd 30 04 52 3c f3 e6 c0 bd 26 ba 06 be
       -0.07241863 0.012818381 -0.0941905 -0.13156947
000320 32 1a 3e 3c c4 fe c4 3d 03 f7 ab 3d 83 28 dc bd
       0.011602925 0.09618905 0.08396723 -0.107499145
000330 5f c5 18 bd d6 7d f4 3c 19 95 43 3d 36 d7 da bd
       -0.037297603 0.02984516 0.047749612 -0.106855795
000340 d7 42 13 3d a7 9d f4 bd 5e 83 ac bc 11 a3 b5 bc
       0.035952415 -0.11944132 -0.021058735 -0.022172483
000350 4c 2a 61 bd 7e a2 bc bd 0e bf 87 3d d9 51 08 3e
       -0.054971978 -0.092106804 0.06628238 0.13312472
000360 f9 4e 19 bb f8 46 ba 3d d2 a2 bb 3d 39 1c f6 bc
       -0.0023393019 0.090955675 0.09161915 -0.030042754
000370 64 44 52 bd 1b 7d 03 3d 87 35 77 3d fd 2e 5b bd
       -0.051334754 0.03210173 0.060353782 -0.05351161
000380 f1 97 00 be a4 69 03 3c 31 d5 a6 bc 14 8e 85 3d
       -0.12557961 0.008020792 -0.02036533 0.0652124
000390 1e 67 b8 bd 0d 46 03 3d 31 9c f1 39 d5 ec 76 bd
       -0.09004043 0.032049228 0.00046083474 -0.060284454
0003a0 4a 31 dd bd f7 1a fa bc 2a 11 50 3d 1c 06 d3 3c
       -0.10800417 -0.030530436 0.05079762 0.02575975
0003b0 4c 66 df bd 14 41 00 bc b1 c3 bc 3d 81 5b 9d bd
       -0.109081835 -0.007828016 0.09217013 -0.076834686
0003c0 b1 4f 92 3d c4 47 fb 3d a8 2c a3 bd 7c ca 94 3c
       0.07144106 0.122695476 -0.07967502 0.018162958
0003d0 80 f0 bc 3d ca 7a fb 3d d7 1b bf bd e2 52 a8 bc
       0.09225559 0.122792795 -0.09331482 -0.020547334
0003e0 30 25 01 be 1b c1 94 bd 3c ac ec 3d e6 66 56 3d
       -0.12611842 -0.072633944 0.115562886 0.052344225
0003f0 d0 62 c8 3d 7e 4d 4f bd a9 d7 b6 bd c0 6c e4 3d
       0.09784472 -0.05061101 -0.08927853 0.11153555

mixture_net.mol_attn_layers.0.ffn.layers.0.bias f4 [64]
000000 03 86 dc bc a1 65 f2 bc fd 2f 0f 3b 57 b7 66 3d
       -0.02691937 -0.029589476 0.0021848672 0.05632719
000010 2d 19 ac 3d 8e 48 ef 3d 3d 32 52 3d 62 b4 9d 3d
       0.084032394 0.116837606 0.051317442 0.07700421
000020 02 be 76 bd 42 6b 93 3c ba bd b3 3d 13 02 0f bc
       -0.0602398 0.01799548 0.08776422 -0.008728522
000030 62 93 b7 bd 02 37 c8 3d a2 df 3c bd 09 3b 70 bc
       -0.08963658 0.09776117 -0.04611171 -0.014662513
000040 f0 97 8a bc da 21 a1 bd 99 84 d0 bc 64 8c 11 3d
       -0.016918153 -0.07867785 -0.025453852 0.035534278
000050 db 41 e2 bd 55 19 0e be b3 f2 d8 bd b6 21 d5 3d
       -0.11047717 -0.13876851 -0.10593166 0.104068205
000060 6b 2a 8d bc 23 59 9d bd 11 72 4a bd 92 fc 5b bd
       -0.01723214 -0.07683017 -0.04942519 -0.053707667
000070 88 aa ae bd 2a 68 1b bc c1 85 b1 3d 2b 06 22 bd
       -0.0852862 -0.009485284 0.0866809 -0.039556663
000080 ff db 20 bd 28 f7 f1 3d e4 14 81 3d 2e b2 dc 3c
       -0.039272305 0.118147194 0.06302813 0.026940431
000090 5b 46 13 3d 56 bf 40 3c 24 93 37 bd 07 8f 3c 3d
       0.035955768 0.011764368 -0.04481806 0.04603484
0000a0 b8 00 86 bd d3 36 8a 3d 59 1c a5 3d f2 2c d7 bc
       -0.06543106 0.06748738 0.080620475 -0.026266549
0000b0 87 7d 40 bd a4 dd c0 3d 4d 39 e1 3d fc 1e de bd
       -0.046994712 0.094172746 0.109972574 -0.108457536
0000c0 b0 30 ce bc 53 e4 48 bd e1 d0 04 be 65 2f 5b 3c
       -0.0251697 -0.049045872 -0.12970306 0.013377999
0000d0 14 fa 2f 3d 11 49 da 3d 2f d4 a5 bd 9a 55 74 bd
       0.042963102 0.106584676 -0.080971114 -0.05965195
0000e0 76 a9 1c bd 0a bd 04 3d 88 34 c0 bd e4 dd e4 3d
       -0.038247548 0.032406844 -0.093850195 0.11175135
0000f0 84 b2 ac bd d6 10 e1 bd a8 e0 f6 3d 09 74 21 3d
       -0.08432487 -0.10989539 0.120545685 0.0394173

mixture_net.mol_attn_layers.0.ffn.layers.2.weight f4 [64, 64]
000000 c5 62 2a bd 16 5e 66 bc 7a fa a5 3d 2a 2d c2 3d
       -0.0415981 -0.014060518 0.08104415 0.094812706
000010 33 e6 54 bd 74 71 b0 bd df 01 25 3d 13 a8 36 3d
       -0.051977348 -0.086153895 0.040284988 0.04459388
000020 bf b9 12 be 52 71 60 3c 94 a1 a1 bd a9 ae b6 bd
       -0.14328669 0.013698893 -0.07892147 -0.089200325
000030 6a c7 4f bd 28 b8 ee bd 9d 1b 17 be 20 07 9d 3c
       -0.050727285 -0.11656219 -0.14756627 0.019168437
000040 2c 0c 56 3d 3e d4 d3 3d d4 9a e3 3c 72 a8 6b 3d
       0.0522577 0.10343216 0.027783789 0.05753369
000050 04 bd 99 bd 91 ad b7 3d fc be 3f bb d3 1c 17 3c
       -0.07506755 0.08968652 -0.0029258123 0.009223181
000060 04 64 70 3c 56 67 ec bd c1 42 d0 3b 22 26 28 bd
       0.014672283 -0.11543147 0.006355614 -0.04105199
000070 32 29 2a be be d8 a3 bd 4d 90 7b bd 57 c3 aa bd
       -0.16617277 -0.08000325 -0.061416913 -0.08338039
000080 41 ab 90 bd fc fd 0b be cc 6e e4 3d b9 b9 5c bc
       -0.07063914 -0.13671106 0.11153945 -0.013472014
000090 69 ce 4d bd 03 34 79 bc 6c 24 92 b9 81 bc e0 3c
       -0.050245676 -0.0152101545 -0.00027874426 0.027433636
0000a0 a5 20 cc bd bc 63 d7 bd 13 c2 85 bc 16 95 d5 bd
       -0.09967164 -0.1051707 -0.016327893 -0.104288265
0000b0 ff d9 19 3e 86 3c 2f 3d 73 f3 bd bd dd 5b 6d 3d
       0.15024565 0.04278233 -0.0927495 0.057948936
0000c0 13 2e 1a 3e 8b 12 61 bd e3 ff 02 3e 7f 8e 99 bd
       0.15056638 -0.054949325 0.12792926 -0.07497882
0000d0 60 48 bb bd 1f b9 dc 3c f2 8c 36 3d ce ce 65 bd
       -0.09144664 0.026943741 0.04456801 -0.056105427
0000e0 7c 29 b9 3c fa 92 14 3d 3f bb 46 3d e6 61 ab bc
       0.02260279 0.03627298 0.048518416 -0.020920705
0000f0 30 c0 a5 bd 77 e1 9c bd 81 d8 73 3d 59 fa b8 3d
       -0.080932975 -0.076601915 0.059532646 0.09032125
000100 c3 60 ac 3d d4 1b 01 be e6 16 08 3e 6f 5a c7 bd
       0.08416893 -0.12608272 0.13289985 -0.09734046
000110 c5 08 c3 bd 40 73 52 bc 93 97 18 3d ed 60 7d bd
       -0.09523157 -0.012844861 0.037253927 -0.061860014
000120 16 d9 5a 3d ea 43 c9 bc f2 e4 f1 bd de 5f b7 3d
       0.053429686 -0.024568517 -0.11811246 0.08953832
000130 62 3f ee bd c3 86 b9 bd 37 04 25 be 18 1d 80 3c
       -0.11633183 -0.09058907 -0.16114889 0.015638873
000140 8a e3 8e 3a d8 61 48 bd 65 05 bc bd cc af fb bc
       0.0010901552 -0.048921436 -0.091807164 -0.030723475
000150 7e f1 a7 3c 28 71 18 bc d7 25 5a bb 7d 88 58 3d
       0.020500895 -0.009304322 -0.0033286714 0.05286454
000160 f8 a3 c5 bd ff c9 30 3d 8e 3c ec bd b6 98 8a bd
       -0.09650415 0.04316139 -0.115349874 -0.067674085
000170 b5 30 e1 3d 77 5c ab 3c 8a 8b 38 3c 9e 80 86 bd
       0.10995618 0.020918114 0.011263737 -0.065675005
000180 ab 24 b4 bc 81 c5 c3 3d 49 0d 9a bc 84 fa 2b 3d
       -0.02199014 0.09559155 -0.018805163 0.041986957
000190 c0 2b a0 3d fa e6 fe bd 61 22 db bd 0a e6 17 be
       0.07820845 -0.12446399 -0.10699917 -0.14833847
0001a0 18 ea 92 bd 0a 1a a8 3d e4 b4 13 3e ce 07 df bd
       -0.07173556 0.082080916 0.14424473 -0.108901605
0001b0 f0 6d b4 3c 5b d0 57 3d 8d 4b 45 bc c8 36 71 3d
       0.022025079 0.052688938 -0.0120419385 0.058890134
0001c0 0e 2c 96 3b d1 1a 7d bd 03 d4 92 3d d2 84 a4 3d
       0.0045828884 -0.061793152 0.07169344 0.08033146
0001d0 c0 d2 f3 bd e1 20 76 3d a0 56 01 be 57 ed db bd
       -0.11905432 0.06008995 -0.12630701 -0.10738628
0001e0 c4 72 98 3d 79 23 05 bc e8 89 f4 bd be 2a 07 be
       0.07443765 -0.008126133 -0.11940366 -0.13199899
0001f0 f1 94 d6 3d d5 a8 8e bd 4a 80 9d 3c b2 a4 e8 3d
       0.10477627 -0.06965796 0.019226212 0.11359538
000200 19 d8 9c 3c dc 2d dc bd 51 8b 01 bc 24 89 af bd
       0.019146012 -0.107509345 -0.007906751 -0.085710794
000210 06 89 cf bd 59 8a eb bd 2e 3f 01 bc a7 6d a1 bd
       -0.10133557 -0.11500997 -0.007888598 -0.07882243
000220 70 44 d6 3d be c8 d2 3d 1e fd b7 bd d2 68 97 3d
       0.10462272 0.10292195 -0.08983825 0.0739304
000230 ca f4 89 bd f2 53 14 3d 77 8b 05 3e 50 99 af bd
       -0.06736143 0.03621287 0.13041483 -0.08574164
000240 b6 46 d7 3d f4 47 df 3d ab 7f 11 3d 05 19 68 3c
       0.10511534 0.10902396 0.035522144 0.014166121
000250 af c0 2d 3d 84 77 85 bc 71 59 83 3c 80 62 dc bb
       0.042420086 -0.016292341 0.01603386 -0.0067256093
000260 7c c4 0c 3d 01 83 96 bd 40 42 ba bd 3e 60 04 3d
       0.03436707 -0.07349206 -0.090946674 0.032318346
000270 26 e4 21 3d 36 8c 50 3d 2b 35 0a bd 19 6d ae 3d
       0.03952422 0.050914966 -0.03374211 0.085169025
000280 a4 34 0e be 06 d4 8b bd 96 bf e3 bd fc 9f ab bc
       -0.13887268 -0.0682755 -0.111205265 -0.02095031
000290 66 7e b5 3b 7b d4 52 bd 41 e6 5c bc fd cc be 39
       0.0055387495 -0.05147217 -0.013482631 0.00036392352
0002a0 ac 44 e1 bd cc 39 57 3c 56 ce 82 bc 36 fd 18 be
       -0.10999426 0.013136338 -0.01596753 -0.14940342
0002b0 48 d5 9b bd dc ea a4 bb 32 bc a8 3c 4a b4 55 3d
       -0.076090395 -0.00503288 0.020597551 0.05217389
0002c0 d8 25 01 3d 5e a7 b5 3a 40 de 87 bc 21 64 d8 bd
       0.03153023 0.0013859083 -0.01658547 -0.10565973
0002d0 13 ca ad bd e0 62 b3 bc 32 e6 ad 3d 6d d0 dc bd
       -0.08485808 -0.021897733 0.08491172 -0.107819416
0002e0 2e 75 0b 3e 70 9c 18 3d b3 fd df bd 62 3b bf bc
       0.13618919 0.037258565 -0.10937061 -0.023343746
0002f0 a9 07 9b bd 00 fe a8 bd 29 f3 e1 bb 15 ee 9b bd
       -0.075698204 -0.08251572 -0.006895442 -0.0761377
000300 ba 03 56 3d 77 64 68 bd bc ed 8d 3d 75 85 0e 3e
       0.052249648 -0.056736436 0.0693011 0.13918097
000310 73 4e 80 3d 81 14 a0 3d 75 fa b6 bd a2 15 a0 bc
       0.06264963 0.07816411 -0.0893449 -0.019541565
000320 72 e6 3e 3c 6c b7 e4 3c c5 01 6f 3c f5 64 c9 bb
       0.011651622 0.027919494 0.014587824 -0.006146068
000330 ce 70 4d bd 05 72 ce 3c 6d 75 d9 bd ed 2b f3 3b
       -0.050156407 0.025200853 -0.106181 0.007421008
000340 f9 9b 3d 3e c5 81 f9 bd 9b 02 c6 bc bc 17 49 bd
       0.1851653 -0.12182955 -0.024171164 -0.0490949
000350 a2 c6 5e 3d f6 41 c1 bd 22 9f 98 bc 0b 01 ba 3b
       0.05438865 -0.09436409 -0.018630568 0.005676394
000360 10 d9 4e 3c 9c cd 8b 3c a4 cc 87 3d 88 a2 b0 bd
       0.012624994 0.017065816 0.06630829 -0.086247504
000370 c9 2d a0 bd 2e fd b0 bd be f0 ac 3c d7 67 be 3d
       -0.07821233 -0.0864204 0.021110889 0.0929715
000380 99 0f 19 be de 0b 38 3c 8a 6f 29 bd 96 ce 6e bb
       -0.14947356 0.011233298 -0.041366138 -0.0036439053
000390 0c 5a 0b bd f0 8f af bd 3e ec 25 3e 98 dd 3e 3e
       -0.034021422 -0.08572376 0.162034 0.18639219
0003a0 b1 7e 98 bb 89 85 b1 bc 21 32 05 bd 99 9e df bd
       -0.0046537747 -0.02167012 -0.03251851 -0.10918922
0003b0 27 c0 6a 3c cc 43 02 be 55 88 e0 3d 91 49 a0 bd
       0.014328039 -0.12721175 0.10963503 -0.07826532
0003c0 0c 59 01 bd bb df ac bd 22 b2 4d bd 32 03 11 bd
       -0.031579062 -0.08441111 -0.05021871 -0.035403438
0003d0 f3 eb a2 bc 9b 0e 1d 3d 35 20 f3 bd 26 03 b8 bd
       -0.0198879 0.038344007 -0.118713774 -0.089849755
0003e0 a3 e6 72 3d 33 da a9 3d db 4c 7e 3c 0b 75 f9 bd
       0.059301984 0.08293571 0.015521253 -0.12180527
0003f0 fa ad cc 3d f6 53 0a 3e 4b 59 b3 3d 3b fb 91 3d
       0.09994121 0.13508591 0.08757266 0.071279965
