scripts_chemix/results/chemix_ensemble/top2/chemix.pt (torch, 725066 bytes, 33 tensors)

input_net.weight f4 [96, 196]
00000000: 15de 943d 30c2 1cbd 979b 1b3c 4a86 353d
00000010: 6a7b cfbd 6852 893d 6252 27bd 922c e53b
00000020: 57e0 ea3c d128 45bd 2545 c43b 0317 d83b
00000030: 4784 5ebb 16bc 9abc 827b 363c 1b45 12bd
00000040: 3939 023c 0e9d e93b 986d 5d3d 3e10 b9bc
00000050: d903 e83a 5f63 27bc 8470 38bd cb1f 03bd
00000060: 0aa6 87bd 8a9a 293c fdca 2c3d b126 b6ba
00000070: 2b55 bfbd 95d1 303c 67ec b13b 60bf be3c
00000080: 7aaa d03d 0ace acbd 7bdc e3bc 925e 0ebb
00000090: 88aa 483d 553a e3bb 040f 0b3d a6ee 66bd
000000a0: 9c1f 6f3d 7e44 f7bc fef8 5f3d d550 9f3c
000000b0: 2d34 63bd 89a2 e73c fee8 edb8 a609 f13b
000000c0: b9c9 16bc 34f4 19bd 31eb a8bd 0cec 17bc
000000d0: 8dc2 653c d258 b5bd e709 373d b37a 483d
000000e0: 8c92 a23c 49a1 b7bd 0c72 033d 8818 b138
000000f0: 1ab3 59bd 1532 003d e988 1e3d 5d7c f03c
00000100: 4880 21bd 97fa 82bc c249 6bbc 3efc 16bb
00000110: f41e 8bbd 86da 9cbd bac7 723d 5084 3939
00000120: a16c 813c ef56 10bd 6e94 c73d f55b 653d
00000130: 59aa 18bd a842 7c3d 4fca 18bd e3d6 663d
00000140: 17c4 72bd f814 51bd 1b5a 84bc 1dfd a6bb
00000150: 62c0 403d 1645 05bd 4b91 c4bd 5aa6 873d
00000160: ff44 4c3d ece1 223d 31d0 063d ece2 90bd
00000170: 9f98 d4bc 2950 5cbc 553e 65bd de71 8abd
00000180: 4dad 4e3d 5aba ed3b 383a 4cba aeb5 5d3c
00000190: a9df 883c 06bf f43c 5e7c aa3c b5e3 003d
000001a0: 1173 c6bc 0df2 c1bd efe3 a53d 89f0 033c
000001b0: 4dbe fd3d ca81 3fbc 89d8 6c3d 95ce cd3d
000001c0: bc3d 043d f9c4 3ebb c9d1 eabc 2d8c cc3d
000001d0: f49e d33d 7908 4b3d 69d2 15bd 7ae4 85bd
000001e0: 8e85 c6bc dcce 643c 85c8 e13d 1647 52bd
000001f0: ec49 893d 8d7a 62bd 07bc 9bbd c987 323c
00000200: 4c38 f63c 273d bf3d ea6c 09bd 6d97 2e3c
00000210: b874 6d3d 9e8f 763d b468 a03d 1002 c83d
00000220: 9259 883d 2fb4 a1bb 1909 4abd bceb abbd
00000230: 40b7 acbd 3c6e 96ba 0b8e f2bc e1f9 973c
00000240: c326 1e3d 29f0 0dbc 212c 2b3c 35f4 113d
00000250: 697d 3e3d c4c8 263d 26f4 38bd 4bad ce3d
00000260: 9b5f f7bc b828 083b cf63 a7bd 0b2b 863b
00000270: b42c afbd fb1b d0bb 958f 7c3d c77a b7bd
00000280: 4440 18bd 84cd 533d 70a9 143d daac aa3c
00000290: 6209 87bd c56d d33c 24bd c0bc ac8a 4fba
000002a0: 9e81 8fbd 68c6 17bd 2cf1 00bc a983 243d
000002b0: 0a93 63bc 0ac0 363c 7556 ad3d 8b4d 883d
000002c0: ab96 4e3d 5c90 f03c c06d 7bbd 7a8d d03d
000002d0: 6f21 1dbb 21fd 8ebc 7c93 44bd 1df7 90bb
000002e0: 0806 b7bd d364 873d 081b cfbd 8e2f bcbd
000002f0: 5a59 98bb 95f4 52bd 5439 9e3d c60a d63c
00000300: 9f03 e4bd 2e8f b63b d8f1 52bb 9398 70bd
00000310: f8ee 823d e0ce 013d 3a0e d23d f29f cebd
00000320: 34ef 833c fc2b 603d d5a5 cb3d a9e2 11bc
00000330: 3459 a83d 9dd9 4cbc 5ea1 173d f4ff e0bc
00000340: a215 85bd b182 233d 67b0 5c3c fedc 423c
00000350: cb0a 88bd 9f61 c83d d088 ae3d c2c0 fd3c
00000360: 31de a93d 5059 60bd c310 c2bc 1f97 b53d
00000370: 4e40 49bd 0864 593d d151 7fbd e028 8cbd
00000380: 7718 133d 2d9b 5cbd a7cf 9ebc a3eb 6a3d
00000390: 3cac 163d 9b32 b13d 17bc 2a3c ee32 40bd
000003a0: 0634 0e3e e2b1 003c 25be edbc 6cbf 6cb9
000003b0: 6f1d 1fbb 496c 893d f725 053d 5466 a0bd
000003c0: e221 92bd d343 173c baf1 5f3c aa76 1dbb
000003d0: 295d 12bd 5773 4b3b af00 a7bd 5dd4 32bd
000003e0: 94d2 41bd 1b2e 843d 998b 633d efbe 59bd
000003f0: 4fc9 a53d d671 8bbb d7be acbd 7d0d 97bd
0.07268921 -0.03827113 0.009497545 0.04431752 -0.10130961 0.06705171 -0.04085005 0.0069938386
0.028671427 -0.04813463 0.005989688 0.00659454 -0.0033953355 -0.018888514 0.011137845 -0.035710435
0.007948213 0.007129318 0.054059595 -0.022590753 0.0017701342 -0.010216563 -0.04502918 -0.032012742
-0.06623466 0.010351786 0.042185772 -0.0013897029 -0.093424164 0.010792156 0.0054297927 0.023284614
0.10188766 -0.08437736 -0.027815094 -0.0021723849 0.048990756 -0.006934444 0.033949867 -0.056379937
0.058379754 -0.030184027 0.054680817 0.019447723 -0.05546968 0.028275745 -0.00011344439 0.0073558865
-0.009203368 -0.037586406 -0.08247984 -0.009272587 0.014023435 -0.08854832 0.044687178 0.04894514
0.01984527 -0.089663096 0.032091185 8.444587e-05 -0.05314932 0.031297762 0.038704786 0.029356176
-0.03942898 -0.015988631 -0.014360847 -0.0023038532 -0.06793013 -0.076588675 0.059272505 0.00017692265
0.015798869 -0.035239156 0.097451076 0.0559959 -0.03727183 0.061587006 -0.03730231 0.056357276
-0.059269037 -0.051045388 -0.016156247 -0.0050960914 0.04705847 -0.03253659 -0.09598025 0.06623526
0.049870487 0.039766237 0.03291339 -0.07074532 -0.025951682 -0.013446846 -0.055967648 -0.0676
0.05045824 0.007254881 -0.00077906577 0.013532085 0.016708212 0.029876243 0.020811256 0.03146716
-0.02422479 -0.09469996 0.081001155 0.0080529535 0.123898126 -0.011688659 0.05782369 0.10049168
0.032285437 -0.0029109104 -0.028664486 0.09987674 0.10333052 0.049568627 -0.036577616 -0.06537719
-0.024233606 0.013965335 0.11024574 -0.051337324 0.067035526 -0.055292655 -0.07604223 0.0108966315
0.030056141 0.09337836 -0.033551134 0.01065622 0.05797264 0.060195558 0.078324705 0.097660184
0.06657709 -0.0049348096 -0.049325082 -0.08394572 -0.0843339 -0.0011476944 -0.029608747 0.018551769
0.038611185 -0.008663216 0.010447533 0.035633285 0.04650632 0.04071881 -0.045154713 0.10091647
-0.030196955 0.0020776223 -0.08173334 0.0040944866 -0.08553448 -0.006350992 0.061660368 -0.08958965
-0.037170663 0.051709667 0.0362944 0.020834375 -0.065935865 0.025809178 -0.02352769 -0.0007917087
-0.070071444 -0.03705445 -0.00787 0.040164623 -0.013890037 0.011154184 0.08463756 0.06655415
0.050436657 0.02936571 -0.061383963 0.101832345 -0.0023976227 -0.017454686 -0.047992215 -0.0044239894
-0.08936697 0.066110276 -0.10112578 -0.09188758 -0.0046493234 -0.051502783 0.07725778 0.026128184
-0.11133503 0.0055712676 -0.0032187607 -0.058739256 0.06393236 0.031691432 0.1025662 -0.10089101
0.016105272 0.054729447 0.09943739 -0.008904138 0.08220139 -0.012503055 0.037019126 -0.027465798
-0.06498267 0.03991956 0.013469792 0.011893509 -0.066426836 0.09784245 0.08522189 0.030975703
0.08294333 -0.054772675 -0.023689633 0.08866715 -0.04913359 0.053073913 -0.062333886 -0.06843734
0.035912003 -0.053858925 -0.019386126 0.057353627 0.03678535 0.0865223 0.010420821 -0.04692357
0.13887033 0.007854911 -0.029021332 -0.00022578024 -0.0024279018 0.06710107 0.03250691 -0.078320175
-0.07135369 0.009232479 0.013668472 -0.0024027028 -0.035733376 0.003104409 -0.08154427 -0.043659557
-0.047319964 0.064541064 0.055553053 -0.053160604 0.08095037 -0.0042555137 -0.08434837 -0.073756196

input_net.bias f4 [96]
00000000: 40d2 073d 757a 903c ab08 2ebd c930 4abd
00000010: e1c3 4b3d fa53 39bd f97a 343d e567 f83c
00000020: 8153 453d 9646 a3bc 8a47 51bd 90ea 8cbd
00000030: ee5f 6cbd 51de 173d 3e08 c13c 312d d2bc
00000040: e111 803d 716e 65bd 89ca 74bd 9118 6abd
00000050: 955a efba 1ae9 00bc a94d a53c 5011 ecbb
00000060: b5d3 46bd 994a 15bd 44d8 63bd eec0 89bd
00000070: b8e1 743d 99b4 a33b acbf 65bd 57ad 8d3d
00000080: d7cc 483d f87d 743d acd4 6d3a 5bea 0b3d
00000090: 3654 3c3d f8bb 63bd d83b cd3c 9acd 84bd
000000a0: d712 253c a06d f43c 6449 9a3d d05e 48bd
000000b0: e2c6 3d3c 7213 fdbc f58c 0f3b a5ec 3abc
000000c0: 3dd5 24bd a1fa 23bd 9899 89bc b529 a23d
000000d0: ca4c 7bbd 2d7c 6abd e741 943d a6e2 66bd
000000e0: 35f2 41bd 92e3 143c 6586 a43c 6694 24bd
000000f0: 8261 54bb 4d9d 94bc 7f91 36bd a683 353d
00000100: 4c44 1dbb 158e 753d 2fc9 96bd d4a7 febc
00000110: cdd1 443d beb0 91bd 8b57 533d 4dc8 03bc
00000120: 2d09 913c 0e43 ae3d ac75 0d3d 57a1 01bd
00000130: 6e37 41bd 8a2f 1d3b 1656 20bd ac39 c93c
00000140: 8d9e d73a 3f54 8fbc 97f0 5fbd fdc7 483c
00000150: b9e8 7dbd 598b 6fbd 76fc 8a3c c2b2 b6bc
00000160: bd59 02bc 7541 853d e598 8abd 3bb7 133d
00000170: bbfa 313d 2fa4 8bbc a49b ce3c 1fa8 10bd
0.033159494 0.017636517 -0.042488735 -0.04936293 0.04974735 -0.045246102 0.04406259 0.030322978
0.04817534 -0.019931119 -0.051093616 -0.06880677 -0.057708673 0.03707725 0.0235635 -0.025656315
0.0625341 -0.05601353 -0.059763465 -0.057152335 -0.0018261248 -0.007868076 0.020178633 -0.0072042122
-0.048541743 -0.036448095 -0.05562617 -0.067262515 0.059785575 0.004995894 -0.056090996 0.069178276
0.049023475 0.059690446 0.0009072523 0.034159046 0.045978747 -0.055599183 0.02505295 -0.06484528
0.010075293 0.02983743 0.075335294 -0.048918545 0.011583062 -0.030893061 0.0021904085 -0.0114089595
-0.040242422 -0.04003394 -0.016796872 0.07918111 -0.06135253 -0.05724733 0.072391324 -0.056368493
-0.047350127 0.00908746 0.020083616 -0.040180586 -0.0032406752 -0.018141413 -0.04457235 0.044315003
-0.0023997007 0.059949953 -0.073625915 -0.031085886 0.048051644 -0.07113789 0.05159716 -0.008043361
0.01770457 0.085088834 0.03453605 -0.031648006 -0.047172002 0.0023984634 -0.039144598 0.024563633
0.001645045 -0.017496226 -0.054672804 0.012254712 -0.06198952 -0.0584825 0.016966086 -0.022302035
-0.007955966 0.065066256 -0.067674436 0.036063414 0.043452006 -0.017046062 0.0252207 -0.035316583

mixture_net.mol_attn_layers.0.self_attn_layer.in_proj_weight f4 [288, 96]
00000000: 172f 28bd e510 283c 1306 cabc b7cb 01bd
00000010: fadf 3c3c 7072 54bc 3d41 a3bd 09f3 733d
00000020: b811 01be ad9c 1a3e 72de 2f3e ac9c 25bd
00000030: 9a79 c1bd ea7e 9d3d 50a7 f93c a84b e43c
00000040: 60f7 90bd f583 dc3d b6da b63c e08c 03bd
00000050: 179d ac3d 85e4 d5bd dae6 4dbd a8c5 7a3d
00000060: e70a 0abe 8fba a73d dba0 543e 65ca 873c
00000070: 2e24 09be c640 6ebd 210f c83d 3482 49bd
00000080: 8336 fb3b a206 443d 66b0 96bc e3b1 9cbd
00000090: 111f 9e3d bde3 fe3d 9ae0 0abe af21 b4bd
000000a0: dad9 2cbe dae8 1d3d c5db 9e3c 6dbe 0c3d
000000b0: 294b bfbd 2503 e6bd 81aa 9d3c 94b7 b5bd
000000c0: 4744 84bd 43a0 673c 87e5 05bc f763 0fbe
000000d0: 43c7 a2bd 5cf0 fbbc d1dd d5bd 36e8 7fbd
000000e0: 4ab8 3cbd 5e81 03be e511 1cbc b7b4 9abd
000000f0: d2e4 dbbd f0a2 febc 6542 7b3c 320b 473c
00000100: a270 283d 5ec5 603e 4287 373d 4f2f 90bc
00000110: 8563 bbbd 8eeb 76bd 0873 fa3d d383 e63c
00000120: 26bc 1fbe b7b7 6bbd 3b2e 8fbd 16d3 d0bc
00000130: 3c0a f6bc bea9 9ebd 50e6 93bc b1a6 4ebd
00000140: 8969 d0bd 7980 ff3d 2fa9 083d 38bb 98bd
00000150: b2cf 53bd d7dd 83bd 1c64 2fbe 0b92 8a3d
00000160: 7120 703d 992f 693d e0d8 133c 051e 44bb
00000170: 34d4 403d 7cd0 9e3c 6e62 af3a 3bd7 323d
00000180: 2f7e 903c 4200 4cbd 1ae6 a3bc a734 4b3e
00000190: b463 423e 1893 4e3d 5baa f03d a7c7 053e
000001a0: 96a9 8fbd 1bd0 a73d 5f39 e63d 1bac ff3c
000001b0: 7acd bc3d e865 5e3c 6794 af3d 483b 233e
000001c0: 4ef4 2c3d a772 973d 9c35 093e beb9 ee3d
000001d0: e434 32bd fc43 26be 886e b23c 10bf 8cbd
000001e0: 520d d7bc bba1 c83c e4ed 093d 1785 bf3d
000001f0: d44a eabd 7d34 07be 4109 00be b521 adbc
00000200: f0c6 96bc de63 15be 2e16 b8bd 6a28 82bc
00000210: d819 48bd 9ad9 2abd 24ff 933c d399 aabd
00000220: 518a 24be f945 08be 4395 82be ddca 5fbd
00000230: db33 38be 00fa 86bd cc8b c9bc 57c6 5abd
00000240: bb06 2cbe fa1b 2e3c 7b9b 50bd ddd8 093d
00000250: 88b7 b73d 031e 96bc 8562 4fbd 070d 10bd
00000260: 12d5 86bc 9fe6 bdbd 7988 073e fd5e 17be
00000270: 2118 adbc b8a7 2b3e 886a a7bd 39c5 8bbd
00000280: 5035 253d d84d 013e 7d8d 0b3e 6f94 113e
00000290: a32b d7bd cd15 423d 7cc5 dd3c 3fc1 62bc
000002a0: 6616 a63c 73f6 02bd 9b7c 0abd 6273 acbd
000002b0: f03d 283d 8731 bbbd 285a 62bc 0a05 2d3d
000002c0: 304f 6dbd 5917 c53d 182a e53d 8d44 4a3c
000002d0: 8593 2ebe d818 47be 845b d1bd 879d 0a3e
000002e0: 4394 ebbc a9d1 36bd 9c8a f43d 246b 95bd
000002f0: 8333 053d 4bbf 58be 242e f2bd eb6d c4bd
00000300: c6aa fabc b864 98bc 497e a8bc 5aa4 b93d
00000310: f73d 29bd 7a50 013e cee0 1d3d 8d66 833d
00000320: eb80 d9bc 5bb8 a03d 115a 13be 8a07 fd3d
00000330: 0d83 5abd 0329 f1bd f5d1 073e 0294 8dbc
00000340: 8ff5 d53c a7d9 d0bd 2278 0f3e 3a89 b93d
00000350: 0744 2e3d 845c 0cbe bf85 d63c 4b06 8abd
00000360: 2cef b33c 1a2b a9bd 7327 3bbd 9c74 4fbd
00000370: 46d1 4ebd 7756 7b3c d218 0ebd 07ac e03d
00000380: 04c4 e83d c4e7 0cbe 7408 b23d 7e7d d73d
00000390: 754c 093e 1424 543d 3419 cebc 98fb fcbc
000003a0: 40da 57bd c097 bb3c cace 133e 8888 af3c
000003b0: 81b3 043e 8d88 2dbd 3753 32bd a0b9 72bd
000003c0: d2b2 09be c110 b43c 7b1a e43c d2ab a13d
000003d0: 0a57 d53c ada4 e5bd 1cb2 9b3b 6c52 1bbe
000003e0: d0e3 14be 4e04 9ebc 39d6 04be 7ee5 d63d
000003f0: 8b2a 0cbd 3341 df3d 0062 2b3d f5c8 24bd
-0.041060533 0.010257934 -0.0246611 -0.03168842 0.01152801 -0.012966737 -0.079714276 0.05955795
-0.12604415 0.1509883 0.171747 -0.040432617 -0.09447022 0.076902226 0.030475289 0.027868107
-0.07078433 0.10767356 0.022321086 -0.03211677 0.084284 -0.10443977 -0.050268985 0.061223656
-0.13480721 0.0818988 0.20764486 0.016576001 -0.13392708 -0.05816724 0.097685106 -0.049196437
0.0076664104 0.047857888 -0.01839466 -0.07651117 0.07720769 0.124457814 -0.13562241 -0.08795487
-0.16879979 0.038552143 0.019391904 0.03436129 -0.093405075 -0.112310685 0.019246342 -0.088729054
-0.06458335 0.01413733 -0.008172399 -0.14002977 -0.079481624 -0.03075426 -0.10442699 -0.062477313
-0.04607419 -0.12842318 -0.009525751 -0.07554 -0.107370034 -0.031083554 0.015335654 0.012148665
0.04112304 0.2195029 0.044806726 -0.017600683 -0.09149841 -0.060283236 0.12228972 0.02813903
-0.15599117 -0.05754825 -0.0699124 -0.025491279 -0.030034177 -0.077472195 -0.018054157 -0.050451938
-0.10176379 0.12475676 0.03336447 -0.07457584 -0.051711746 -0.06438797 -0.17128032 0.06766137
0.05862469 0.05693016 0.009023875 -0.002992512 0.047077373 0.019386522 0.0013380775 0.04366229
0.017638294 -0.049804933 -0.020007182 0.19844304 0.18983346 0.05043325 0.11751243 0.13064443
-0.07014768 0.0819399 0.112414114 0.031209996 0.09218879 0.013574101 0.085732274 0.15940583
0.042225175 0.07394915 0.13399357 0.11656521 -0.04350747 -0.16236871 0.021781221 -0.0687238
-0.026251469 0.024491182 0.033674136 0.09351557 -0.114400536 -0.13203616 -0.1250353 -0.021134237
-0.018405408 -0.14588878 -0.089886054 -0.015888412 -0.04885277 -0.041711427 0.018065996 -0.08330121
-0.16068389 -0.13307942 -0.25504503 -0.054636825 -0.17988531 -0.065906525 -0.024602793 -0.053411808
-0.16799442 0.010626787 -0.050929528 0.033654083 0.08970553 -0.018324858 -0.050631065 -0.035168674
-0.016459022 -0.09272503 0.13235654 -0.14782329 -0.02112967 0.16763198 -0.08174616 -0.068247266
0.040334046 0.12627351 0.13628192 0.14216779 -0.1050637 0.047384072 0.027071707 -0.013840019
0.020274352 -0.031973314 -0.03381024 -0.08420445 0.041074693 -0.09140306 -0.01381544 0.042241134
-0.057936847 0.09623594 0.11189669 0.012345445 -0.17048462 -0.19443071 -0.10222533 0.13536654
-0.02875722 -0.04463354 0.119405 -0.07295826 0.03251983 -0.21166722 -0.11825207 -0.09591278
-0.03059901 -0.018602714 -0.02056803 0.09064551 -0.04131886 0.12628356 0.03854447 0.064160444
-0.02655073 0.07847663 -0.14389826 0.123549536 -0.053347636 -0.117754005 0.13263686 -0.01728249
0.026118068 -0.10197764 0.14010671 0.09059377 0.042545345 -0.13707167 0.026186822 -0.067394815
0.021964632 -0.08260174 -0.04569192 -0.050648317 -0.050492547 0.015340439 -0.03469164 0.109703116
0.11365512 -0.13760287 0.086930186 0.105219826 0.13408072 0.05179222 -0.025158502 -0.030881688
-0.052698374 0.022899508 0.14434353 0.021427408 0.129591 -0.042366553 -0.04353639 -0.059259057
-0.13447121 0.021980645 0.027844658 0.078941 0.02604248 -0.1121305 0.004751457 -0.1516816
-0.14540029 -0.019289162 -0.12972344 0.10492991 -0.03422026 0.10901108 0.041841507 -0.04023071

mixture_net.mol_attn_layers.0.self_attn_layer.in_proj_bias f4 [288]
00000000: 2945 6cbd 03af a4bd 50f6 a23d 36d2 363b
00000010: 6d6a 85bd 76f4 80bc 902d fdbc 88c3 a5bb
00000020: a823 8a3d 7078 60bd 7c91 dbbd 29b3 7c3b
00000030: 4686 a4bc 0693 a3bd f98c 3abd 251c 8c3d
00000040: ea74 0ab9 f481 ebbc bda1 b73b 4f48 903c
00000050: 584e 08bc 929c c7bd 5407 4e3d 8ab6 ba3c
00000060: 9d3e 2c3c d102 e83c e976 303d 33f5 353c
00000070: d010 7cbc e5af 12bc c002 133d 76ef b73b
00000080: d007 023b e55a b8bd 4541 4c3d 7d54 af3a
00000090: 38c1 48ba 716b 1d3d 1c05 61bd 4bc3 473c
000000a0: 1909 0c3b 1d74 163d 7c90 c2bd f004 1f3d
000000b0: 71f4 693d 6e8e 603c 0fe8 debc 79b7 6c3c
000000c0: 7a17 7e3c fcb8 f9bc 04c5 29bc f21f 87bc
000000d0: 5035 4e3c 0141 32bc 6132 0d3d cc7c c5bc
000000e0: ffdd 89bd 11ff 823d 642f c739 c531 ea3c
000000f0: 090c 4fbd 3415 843d 776f d7bc 2989 8abc
00000100: 9863 813d ee3c 73bd 8803 bbbc 9e58 683d
00000110: 211d ca3c ccbf 28bc b681 5ebd 036e c9bb
00000120: c1b3 57bd 33ba 00bc f646 83bb f0f6 063c
00000130: 97e7 333c bd67 1cbc dc78 47bd 8845 9b3c
00000140: f62d 933c 9563 003c 8292 493d ed71 5c3c
00000150: d7da 393d 035e 413b 051a d43c 51b8 4c3c
00000160: 6afa acbb 05f5 6b3c 7b76 0bbd 0f72 41bd
00000170: 07e3 bcbc c6d7 a43d 7c25 3abc a6c6 3abd
00000180: 94fe 07b8 c992 89b4 9615 0038 72ee 8b37
00000190: 2ec4 18b8 86bf 4437 f683 68b6 8514 59b7
000001a0: 7039 dc37 ec81 8db6 84e4 36b7 df36 9838
000001b0: ea31 21b7 876f 82b7 ef45 f8b7 4fbf 1437
000001c0: 5298 d3b7 4574 82b7 7d5a 8db6 f407 98b6
000001d0: fe9e 0537 fbf1 0238 a3b7 ef36 22d5 84b6
000001e0: 9353 77b8 f2b6 dab6 5b7c 3137 0477 82b7
000001f0: 036c 0838 1751 d136 5276 08b8 904b 50b8
00000200: af57 9f38 7623 deb7 b172 30b8 8d6f 1bb8
00000210: b4c0 9f34 d949 5e38 2aa7 76b6 209a 10b6
00000220: 03aa 7ab7 21dd 67b7 2c58 66b8 9168 4038
00000230: 569d da37 3131 2c38 93cd 6537 b80d fa36
00000240: ea64 7938 7280 74b7 d9d2 0338 e532 2436
00000250: e454 7ab6 a70b d1b6 9312 4638 7787 2fb7
00000260: 6756 aeb8 3fd6 9938 3b4a 7f37 6b2f 6937
00000270: 4af7 77b8 e691 2038 4e8c 0337 e276 09b8
00000280: 3b6c 8c38 e015 a4b8 9501 6136 523a 30b7
00000290: 72a6 c237 5f94 5ab8 edd2 8cb8 a268 44b8
000002a0: 2740 b5b6 d2af afb7 422a 1db8 1048 8cb7
000002b0: c324 8238 345c 1db6 2a5a 3238 f17a 0cb8
000002c0: 5eb9 21b8 fede 6ab7 76a4 1c37 b1f6 d3b7
000002d0: e1c0 a1b6 eaba 5437 91cb 3fb7 689a ff36
000002e0: 6b92 57b7 0c9e abb5 b1d6 50b7 516a 34b7
000002f0: 7969 2cb8 71d8 7eb8 f3ec deb5 8a6e 6637
00000300: 2556 84bc 0053 2c3c b9ee 543a 7935 1d3b
00000310: b66e 1b3d 7828 093c f892 5d3b d93d ab3b
00000320: d7a3 773c 7b79 793c 0ad0 563c e157 503c
00000330: 197e 88bc 0337 52bc 7ceb b53b d016 6a3b
00000340: 44c9 143c bf39 9dbc f361 12bc fd15 513c
00000350: e62d 8c3c 9037 103c 967c a43c 063c 12bc
00000360: 37cf c33b 538d b33c e178 41bc 1aab 28bb
00000370: 6373 d2bc a881 f3bb e5c2 76bb de78 7cbb
00000380: be32 2cbc 201d e4bc 1e6f 8d3c 805f d13c
00000390: 3628 483c 51bc b4bb b6ef 19bc 83bf c33c
000003a0: 42a2 b0bc fc8f 673c 062d ddbc c83d 46bc
000003b0: 7202 e9bc 4172 8f3c 1f09 e4bb 57ce 8c3b
000003c0: 9eb9 48ba 2136 c9bb 0cf2 5a3b f8a3 92bb
000003d0: 95e4 bf3c 2196 d53c 7773 043c 8076 3a3c
000003e0: 4bef 70bc f713 81bc 5e62 6a3b d415 99bb
000003f0: 5844 97bc 89c4 453c 279f 813c a13b 52bb
-0.057683144 -0.08041193 0.07957137 0.0027896292 -0.0651444 -0.015741568 -0.030905515 -0.0050587095
0.06745082 -0.05480236 -0.10721108 0.0038558936 -0.020083558 -0.07987027 -0.0455446 0.06841306
-0.0001320426 -0.02874849 0.0056039975 0.017612604 -0.00831946 -0.0974666 0.050299957 0.02279212
0.010512975 0.028321655 0.04308215 0.011105823 -0.015384868 -0.008953069 0.035891294 0.0056132628
0.0019841082 -0.09001712 0.049866933 0.001337662 -0.00076581864 0.038432542 -0.054936513 0.012192558
0.0021367727 0.036731828 -0.095002145 0.03882307 0.057117883 0.013705833 -0.027210264 0.01444804
0.015508527 -0.030483715 -0.010361914 -0.016494725 0.012585953 -0.010879756 0.034471873 -0.02410736
-0.067317955 0.06396306 0.00037991547 0.028588185 -0.050548587 0.06449357 -0.026298268 -0.016911106
0.06317824 -0.05938428 -0.022828832 0.056725137 0.024672093 -0.010299634 -0.05432292 -0.0061471476
-0.05266166 -0.007856893 -0.004006262 0.008237585 0.010980508 -0.0095462175 -0.048699245 0.018954054
0.017966252 0.007836242 0.049211986 0.013454896 0.045374718 0.0029505498 0.025891313 0.012495116
-0.005278875 0.014401679 -0.03404854 -0.047227915 -0.023057474 0.08048968 -0.011361476 -0.045599602
-3.2423603e-05 -2.562504e-07 3.053768e-05 1.6681126e-05 -3.642233e-05 1.1727103e-05 -3.4647505e-06 -1.29389855e-05
2.625279e-05 -4.2172524e-06 -1.0901251e-05 7.258145e-05 -9.607969e-06 -1.5549142e-05 -2.959647e-05 8.86603e-06
-2.522409e-05 -1.555135e-05 -4.2126617e-06 -4.530879e-06 7.964436e-06 3.1219777e-05 7.144133e-06 -3.9587185e-06
-5.8967224e-05 -6.518204e-06 1.0578976e-05 -1.5552629e-05 3.252552e-05 6.2381255e-06 -3.253512e-05 -4.9661438e-05
7.598043e-05 -2.6480975e-05 -4.2068485e-05 -3.705877e-05 2.9756268e-07 5.29977e-05 -3.6754159e-06 -2.1547385e-06
-1.4940745e-05 -1.38201585e-05 -5.491839e-05 4.5873752e-05 2.606089e-05 4.105381e-05 1.3697328e-05 7.4521777e-06
5.946021e-05 -1.4573439e-05 3.14292e-05 2.446753e-06 -3.7302316e-06 -6.230042e-06 4.7224177e-05 -1.0462353e-05
-8.31306e-05 7.335515e-05 1.5216468e-05 1.3898923e-05 -5.9119695e-05 3.828285e-05 7.840876e-06 -3.2774064e-05
6.69588e-05 -7.824204e-05 3.3528534e-06 -1.0503996e-05 2.320411e-05 -5.211343e-05 -6.715008e-05 -4.682749e-05
-5.4016887e-06 -2.0943498e-05 -3.7471073e-05 -1.6722857e-05 6.2057305e-05 -2.3448492e-06 4.252248e-05 -3.34931e-05
-3.8558028e-05 -1.3999406e-05 9.336616e-06 -2.5268035e-05 -4.820628e-06 1.2679704e-05 -1.1431884e-05 7.6175675e-06
-1.2849089e-05 -1.278649e-06 -1.2447753e-05 -1.075359e-05 -4.1106225e-05 -6.0759896e-05 -1.660925e-06 1.3734805e-05
-0.016154358 0.010517836 0.00081227307 0.002398817 0.03794738 0.008371465 0.0033809524 0.0052258787
0.015114746 0.015226717 0.013111124 0.012716264 -0.01666169 -0.012830499 0.0055517536 0.0035719164
0.009081189 -0.019192575 -0.008934486 0.01276159 0.01711173 0.00880231 0.020078938 -0.0089254435
0.0059756297 0.021917975 -0.011808605 -0.002573675 -0.025689786 -0.0074312277 -0.0037652787 -0.003852419
-0.010510145 -0.02784592 0.017264899 0.025558233 0.012216618 -0.005515613 -0.00939553 0.02389503
-0.021561746 0.01413345 -0.026999008 -0.012099691 -0.028443549 0.017510535 -0.006959095 0.0042970586
-0.00076570536 -0.006140486 0.0033408431 -0.004475113 0.023424426 0.026072564 0.00808417 0.011380792
-0.014705489 -0.01575659 0.0035764198 -0.0046717916 -0.018465206 0.012070783 0.01582296 -0.0032078999

mixture_net.mol_attn_layers.0.self_attn_layer.out_proj.weight f4 [96, 96]
00000000: 6df7 863d 7792 033e e5d1 893b ca83 773d
00000010: df4a f0bd 1575 16bd e344 393d 306c b5bc
00000020: 5eb6 b4bd 91a5 e73d b6ad d0bd 62eb 653d
00000030: c807 42bd daf3 be3d f1bd a53d 1c17 283d
00000040: 99de 5e3d 73cb 713b c4c8 36bd 2f4f c63c
00000050: f6d1 c53c 1757 04bb 2ae0 64bd 73d5 da3d
00000060: 967e 24bd 4b60 363d a71d be3c 7e72 ee3c
00000070: df1b 09bd 6c00 9abd 50f1 993d f8d5 213c
00000080: 6f87 8dbd d25b d7bd 7900 81bb b8f9 9c3d
00000090: 7263 6d3d f365 183d 3b8c cbbd 1461 903c
000000a0: 3c20 e73c 40ef 83bd 1a7e ff3d 29bd 83bd
000000b0: 7860 303d 0621 00bd 62ef ec3d 6f5e fa3c
000000c0: 08e6 6dbd c00f a53d 0769 99bd d2f4 2ebc
000000d0: 6492 a33d 38d7 9bbd 9ac8 8fbc db02 b5bd
000000e0: 00b5 7d3d c824 a2bd b9b0 dabc 01b6 8abd
000000f0: 08d9 b1bc bf06 31bd 0f78 093d cc56 b23d
00000100: 64d3 bb3d 582c 8b3b 0703 ea3c badb 933d
00000110: 9d04 40bd 9784 a73d d1b5 863d 93dc cc3d
00000120: ad28 fa3c f941 d23d 4aa4 d5bc 125f 833d
00000130: 0fef 323d 3127 1b3d ac2f e43b 6ed9 b4bd
00000140: ae68 0bbd fb24 5b3d 6e56 41bd 987d c43d
00000150: 3e29 59bc f223 81bc 98b6 633d d6c1 883c
00000160: 0db6 65bd cf3e 3e39 fb81 1dbc c694 9c3d
00000170: 14e5 12bd 5132 bbbd 9069 a43d ca77 103d
00000180: 668a 52bc 206a 7dbd f46d 08bc a72e 993d
00000190: 9662 78bc 568b dbbd ee8e afbc 736e 62bd
000001a0: 687c 4b3d 60c5 883d beac 16bd 3190 ccbd
000001b0: 3265 86bb 1761 a5bd f752 ce3d 68c3 17bd
000001c0: 42dd 5fbc a57a d33d 1b85 f1bd 868c 25bc
000001d0: cf82 d63c cb79 7ebc d5a9 adbc 0406 b63d
000001e0: 39e8 9dbd 091e 6dbd 914c d03c 0fe5 abbc
000001f0: e2c1 a63d add8 ffbc 5507 8fbd fe57 0fbd
00000200: 97ad 6d3c 863c e53c ccb7 7f3d 0044 abbc
00000210: 250b 5ebd 918a e63c 6585 123e edb2 52bd
00000220: b596 7fbc b566 b2bd 9b69 3c3d 98f2 6bbc
00000230: 1688 4a3d 1088 583d 4332 983c 23bc 84bc
00000240: c183 153d 55d2 29bc 6800 cc3a 6890 5ebd
00000250: 1406 ddbd 1a3a a83b a3c2 ff3c fead 01be
00000260: 5a48 a73d 6504 bb3d f952 823d 006c 7bbd
00000270: b30d f23c 4c8e 8d3c c4e5 d63d 9cda 34bc
00000280: 33a2 e83d 5111 6b3d 92f0 243d 3f95 3e3d
00000290: 97f5 bc3c b4b5 3c3c 338f 4f3c 6c3e 093d
000002a0: fda1 d33c cbd9 febd 4196 513d 8e31 cc3d
000002b0: 8e98 fc3d b8b1 91bd 3fef b9bd dbe3 193d
000002c0: 9e83 0b3c e421 7fbd e189 49bd 600c 9abd
000002d0: 9c19 7dbd 2c3f c0bd df98 67bd cf2d 9dbd
000002e0: d4b3 ffbd 655c 603d 4785 87bc 98f7 7bbd
000002f0: ebec 62bd 88dd 8c3d 6419 1b3c eb34 e5bc
00000300: 8f77 003e a475 9e3a 100f c9bc 1fa7 5d3d
00000310: 0070 953c 8e98 103d 5c5b 2ebd 1805 033d
00000320: 580a 1d3d ba8a 1d3d bb19 593d 7ff4 28bd
00000330: c7ab d3bc d0a3 8cbd b855 a33d a97f df3d
00000340: ec42 8f3d 70ae dc3c f175 2b3c 6aa7 d0bd
00000350: 1956 273d 513e 633c 8f48 c3bd f8e9 0d3d
00000360: dbdf d1bc 7c50 67bd 55be 5f3c 6850 0ebd
00000370: 067f c03c 0c61 04bc 1672 81bd 8e69 393d
00000380: 2521 0cbb bc57 8cbc b6be c53c 91ac d5bc
00000390: e805 ab3d 59d0 b6bc c7b1 c1bd 97d5 e23c
000003a0: d735 07bd 8484 a1bb 6065 2e3d e7b8 cbbd
000003b0: e07f 643c e0a3 2ebd 11a2 913d 1fdc b8bd
000003c0: b8ce 893c 228c 55bd e885 9e3d 54bb a73d
000003d0: ac83 e33d 1d99 79bd 6c38 9d3c 9737 d9bd
000003e0: c0ef 03bd b04d aabc d835 2c3c 77d1 313d
000003f0: 1246 9cbd 8a83 773d 453a c0ba ba5e ea3c
0.065901615 0.1284884 0.0042059296 0.06042842 -0.117330305 -0.036732752 0.04523171 -0.022146314
-0.08823846 0.11310876 -0.10189383 0.05613268 -0.047370702 0.09323855 0.08092869 0.041037664
0.054411504 0.0036894947 -0.04462506 0.02420768 0.024147969 -0.002019351 -0.055877842 0.106852435
-0.040159784 0.044525426 0.023207499 0.029107329 -0.033473846 -0.07519612 0.0751673 0.009877674
-0.069105975 -0.1051556 -0.003936824 0.076648176 0.057956167 0.0372066 -0.09938856 0.017624415
0.028213613 -0.06442118 0.12475224 -0.06432564 0.04306075 -0.031281494 0.11569096 0.030562608
-0.058080703 0.08059645 -0.074907355 -0.010678487 0.07986906 -0.07609409 -0.017551709 -0.08838435
0.061940193 -0.07917172 -0.026695596 -0.06772996 -0.021709934 -0.043219324 0.033561762 0.087079614
0.09171179 0.0042472295 0.028565897 0.07219644 -0.0468794 0.081795864 0.065776475 0.10003009
0.030536974 0.102664895 -0.026079316 0.064146176 0.043685015 0.037879173 0.0069636907 -0.08830534
-0.034035377 0.053502064 -0.047201566 0.095942676 -0.013254462 -0.01576421 0.055594057 0.01669399
-0.05608182 0.0001814321 -0.009613509 0.07645564 -0.035862997 -0.091404565 0.08027947 0.03527049
-0.01285038 -0.061868787 -0.008326996 0.07479601 -0.0151602235 -0.107199356 -0.021430459 -0.055281114
0.04967919 0.06678271 -0.036785834 -0.0998844 -0.004101419 -0.08075159 0.10074418 -0.03705159
-0.013663592 0.10326127 -0.11792966 -0.010104304 0.026185421 -0.015531967 -0.021199146 0.08887866
-0.077103086 -0.057889972 0.025427135 -0.020983247 0.08142449 -0.031231249 -0.0698382 -0.034996025
0.014506719 0.027982961 0.06243114 -0.020906448 -0.054209847 0.028142245 0.14308698 -0.05144017
-0.015599896 -0.08710996 0.04599915 -0.014401101 0.049446188 0.052864134 0.018578654 -0.016202992
0.036502603 -0.0103650885 0.0015564086 -0.054336935 -0.10792175 0.0051338794 0.03122074 -0.12664029
0.08168097 0.091316976 0.06363482 -0.061382294 0.029547548 0.017279766 0.10493043 -0.011038449
0.11359062 0.05738956 0.04026849 0.04652905 0.023066325 0.011517931 0.012668419 0.033506796
0.025834078 -0.124438845 0.051168684 0.09970389 0.12333785 -0.07113975 -0.09078836 0.037570816
0.008515267 -0.06228818 -0.049203757 -0.075218916 -0.061792 -0.09387049 -0.056542274 -0.07674753
-0.12485471 0.054775614 -0.016543044 -0.06151542 -0.055401724 0.06878191 0.009466503 -0.027979335
0.12545608 0.0012089503 -0.024543315 0.054114457 0.018241882 0.035301737 -0.042567596 0.03198728
0.038339943 0.038462378 0.053003054 -0.041248795 -0.025838746 -0.06867182 0.07975334 0.10913021
0.06995186 0.026938647 0.010465131 -0.10188182 0.040853593 0.013869838 -0.09535324 0.034646958
-0.025619438 -0.05647324 0.013656219 -0.03474465 0.02349807 -0.008079778 -0.06320588 0.04526668
-0.002138206 -0.017131679 0.02413879 -0.026083263 0.08350736 -0.022316145 -0.094577365 0.027689738
-0.03301033 -0.004929127 0.042577147 -0.09947377 0.013946503 -0.042636752 0.0711099 -0.0902636
0.016822204 -0.052135594 0.07740384 0.08190027 0.11109099 -0.060937036 0.019191943 -0.10606306
-0.032211065 -0.020788997 0.010510884 0.043412652 -0.07630552 0.06042818 -0.0014665803 0.028609622

mixture_net.mol_attn_layers.0.self_attn_layer.out_proj.bias f4 [96]
00000000: e133 07bc 5a14 8a3c fa2a 0bba f0e5 b4bc
00000010: 986c 9bbc f155 9ab9 a9c9 f5bc 35db 9338
00000020: 2fbf 2a3d b27c d1bc fde3 2dbc 09ba 1bbc
00000030: e7f8 a7bb b120 89bc 4c4a 793c 92db a3bc
00000040: fe1c f73b 35c9 4c3b 7d10 2f3b a11c 1d3d
00000050: c140 ad3b d61b a13c 2c5f fcb9 cf01 903b
00000060: 808d 743c 3d92 813c 828c 33bc acec 6e3b
00000070: 817c 2f3c 8f02 91bb 961c 863c 301b b43b
00000080: f727 7d3c 55f4 1cbc cdc0 9abc eeee ef3b
00000090: e620 ad3c 44ca 263c 4490 a0bb ae70 7fbc
000000a0: 00e9 74bc 5026 a0bc 0ccb ad3c 64b5 8b3c
000000b0: 7bd3 a0bc c221 d03b bfc4 a2bb 8099 9d3b
000000c0: 1deb b2bb cf49 85bc 5450 8fbc ceda 1d3a
000000d0: 6814 95ba ffde 88ba 942c 7f3c 1a2b 10bd
000000e0: f361 c4ba d8c1 6838 64ba cfbc cf9d e33c
000000f0: 0ff4 e9bb fdfe a1bc b486 0e3c b450 683b
00000100: 8132 433c 516b 443c c79b 403c b1cd 8ebc
00000110: 1b1a 613b 90ec 0bbc 96ac 80bc 1366 5dbb
00000120: cf55 603b b4f6 23bb 8941 9fbb 5ee1 8c3c
00000130: b945 8bba f777 bc3c c746 85bc 9bb7 cbb9
00000140: 2a55 563c 3cd6 93bb ae13 0bbc 6ac0 a83b
00000150: 1194 113c f73b bf3a 6bed 9e3c 9bea 36bb
00000160: 4ca0 09bc 5e0f a0bb ad75 bbbc 64b6 6c3b
00000170: 265e 8c3c cb04 c4ba d6bc c53b 45eb 68bc
-0.008252115 0.016855408 -0.0005308833 -0.022082299 -0.01897268 -0.000294372 -0.030003386 7.050337e-05
0.041686233 -0.025572155 -0.010613439 -0.009504803 -0.005126107 -0.016739221 0.015215468 -0.02000216
0.007541298 0.0031247858 0.0026712709 0.03835738 0.0052872603 0.019666594 -0.00048136094 0.004394747
0.014926314 0.015816802 -0.010958793 0.0036456985 0.010710836 -0.004425354 0.016371053 0.005496405
0.015451423 -0.009579738 -0.018890763 0.007322184 0.021133851 0.01018006 -0.0049000103 -0.01559083
-0.01494813 -0.019549519 0.021214984 0.017054267 -0.019632092 0.0063516805 -0.0049673016 0.0048095584
-0.0054601566 -0.016270546 -0.017494358 0.0006021679 -0.0011373879 -0.0010442435 0.015574593 -0.035197355
-0.0014982804 5.549364e-05 -0.025357433 0.02778521 -0.0071396898 -0.019774908 0.008699108 0.0035448493
0.011913897 0.011988477 0.01175589 -0.017432066 0.0034347835 -0.008540288 -0.015707295 -0.0033782765
0.0034230833 -0.0025018873 -0.0048601073 0.017197307 -0.0010625637 0.023006422 -0.0162691 -0.00038855974
0.013081828 -0.0045116227 -0.008488579 0.0051498907 0.008885399 0.0014590014 0.01940032 -0.0027910832
-0.008400034 -0.0048846444 -0.02288326 0.0036119455 0.017134737 -0.0014955042 0.006034474 -0.014216249

mixture_net.mol_attn_layers.0.addnorm1.norm.weight f4 [96]
00000000: 5e1a 863f 4943 833f 8012 803f 4fff 8c3f
00000010: 4bef 813f 0cc2 843f 8704 803f 44ad 7e3f
00000020: 91f4 833f faa2 803f 475e 803f 8a0f 813f
00000030: dc64 823f 8e0f 7f3f 8e73 873f ce4e 7d3f
00000040: a6d2 813f 53c1 8a3f b364 723f 3a26 843f
00000050: 49bd 893f 3efa 7f3f 3879 823f b5b0 7c3f
00000060: 6b5d 773f 2984 813f 3afe 833f ae19 803f
00000070: 9b15 8a3f bc10 823f f277 7f3f a8b0 843f
00000080: 8439 823f 8612 823f 5f76 873f 3d2f 803f
00000090: dbc3 813f d852 7f3f ab20 7f3f 614a 813f
000000a0: 2a76 803f 2ccc 7f3f 81a1 803f 9fe8 7f3f
000000b0: d9f9 8b3f 181f 7c3f 6ad0 7d3f 03e3 7e3f
000000c0: a54d 813f 0901 853f 95a8 793f aa9c 803f
000000d0: 8bda 7d3f 56a5 803f ee29 823f 8883 823f
000000e0: c6a9 833f 0be8 863f 312e 873f 97f2 853f
000000f0: 0177 793f 4652 773f b02a 823f b1e4 843f
00000100: f693 773f 2967 7f3f fcb1 833f f53e 843f
00000110: 2efd 7f3f 44aa 833f 1bf8 7b3f 30e7 833f
00000120: e75e 803f ae54 823f 45c6 803f 8048 813f
00000130: 5c69 833f a5dc 7c3f d198 853f 5aef 803f
00000140: 8a9f 853f 96bd 803f ec73 7f3f ab37 813f
00000150: 491c 883f 36f5 813f 6570 7d3f c072 803f
00000160: b217 813f b018 843f 279a 7d3f 4b03 863f
00000170: b885 843f 2894 823f b55d 7d3f c195 853f
1.0476797 1.0254909 1.0005646 1.1015414 1.0151151 1.0371718 1.0001382 0.9948313
1.0309011 1.0049736 1.0028771 1.0082867 1.018703 0.9963311 1.058214 0.9894837
1.014241 1.0840248 0.94684905 1.0324166 1.076089 0.99991214 1.0193243 0.98707134
0.9662692 1.0118457 1.0311959 1.0007837 1.0787843 1.0161357 0.997924 1.0366411
1.0173802 1.0161903 1.0582999 1.0014416 1.0137895 0.99735785 0.9965922 1.0100824
1.0036061 0.99920917 1.0049287 0.99964327 1.0935622 0.98484945 0.9914614 0.9956514
1.010182 1.0390941 0.9752286 1.004781 0.99161595 1.0050457 1.0169046 1.019639
1.0286186 1.0539564 1.0560971 1.0464658 0.9744721 0.96609914 1.0169277 1.0382291
0.96710145 0.99766785 1.0288692 1.0331713 0.99995697 1.0286336 0.98425454 1.0304928
1.0028962 1.0182092 1.0060507 1.010025 1.0266528 0.98774177 1.0437261 1.0073044
1.0439312 1.0057857 0.9978626 1.0095114 1.0633632 1.0152957 0.98999625 1.0035019
1.0085356 1.0320034 0.9906334 1.0469755 1.0353308 1.0201464 0.9897111 1.0436326

mixture_net.mol_attn_layers.0.addnorm1.norm.bias f4 [96]
00000000: 917d 8abc c408 aa3b 6f64 ec3c 42ad a1bc
00000010: c766 bfbc 6278 88bc 33ba 58bb 6462 5739
00000020: 5467 363d d8da c7bc 0035 2cbc f46c b53b
00000030: 8d6f a7bb 4275 c53c 3876 813c cf31 a5bc
00000040: 158f ef3c 04a9 84bb ba7d cdbb 1f46 533c
00000050: d64c bc3a 6287 dd3c aeb1 a6bc 9371 b737
00000060: 772b 89bc 28cc 503b a453 e1bc a48b 8bbc
00000070: 07bd 19bd 45a4 213c 0a3a af3c 948c 643c
00000080: 5dba 113c f135 82ba d12a 11bc 8ef1 c33c
00000090: 4c1f ebbb 364d 92bc 7e1b 10bb 0adf 03bc
000000a0: 4d4e 443b bf69 323b c679 263d 6049 693c
000000b0: 3eb5 00ba 7fd5 c33c 8cde 1938 c117 9cbb
000000c0: 74ab 253c 5a69 2fbc 9e93 ae3c 9027 613c
000000d0: 84a6 813a 59fc 753c 265f b33c 9032 ffbc
000000e0: 2de4 8c3c 0a65 3ebb 6ac6 babc e8d8 4b3c
000000f0: a6bc 03bd d3d3 30bd 5b4c 083d ff7d febb
00000100: 91cd 1d3d d31c 43bc 5b04 b93c 05cc a33b
00000110: cfbf 063c ffc7 bbbc d31a 49bc aac1 063c
00000120: 5bca b03c 1f9f ec3c 2578 8fbb 03b5 e03c
00000130: 10a4 3c3c 25a0 033c 8feb 023d b7c4 81bc
00000140: 9e09 b43c 8cd0 863b c4e7 a7bc 03d1 6fbc
00000150: 92c4 10bd 77cb 7b3c 5b59 d63c 2206 d3bc
00000160: 2883 4a3b 142e 50bb 2155 f5bc 5843 27bc
00000170: 419b aabc 94c6 c83c 7b07 6c3c aa31 c03b
-0.016905578 0.005189033 0.028856484 -0.019735936 -0.023364438 -0.016658965 -0.0033069968 0.00020540651
0.044532135 -0.024396345 -0.010510683 0.00553667 -0.0051097334 0.024103764 0.015803441 -0.020165352
0.029243032 -0.0040484685 -0.0062710913 0.012895136 0.0014366161 0.027042095 -0.020348396 2.1868187e-05
-0.016744358 0.0031859968 -0.027505703 -0.01703436 -0.037533786 0.009865825 0.02138998 0.013949532
0.00889453 -0.0009934289 -0.008860306 0.023918893 -0.0071753617 -0.017859083 -0.0021989043 -0.008048782
0.0029953897 0.0027223674 0.040643476 0.014238685 -0.00049098197 0.023905514 3.6685306e-05 -0.004763574
0.010111678 -0.01070627 0.021310624 0.013742343 0.0009891544 0.015013778 0.021895956 -0.03115204
0.017198646 -0.0029051923 -0.02279969 0.012441851 -0.03216233 -0.04317076 0.033275943 -0.0077664847
0.03852612 -0.011908728 0.022585085 0.0049986863 0.008224442 -0.022922514 -0.012274462 0.008224884
0.021580866 0.028884469 -0.004378336 0.027430063 0.011513725 0.008033787 0.031962927 -0.015840871
0.021977242 0.004114216 -0.020496257 -0.014637235 -0.035343714 0.015368334 0.026165655 -0.02575976
0.003090093 -0.0031765746 -0.02994782 -0.010208927 -0.020825984 0.024508752 0.01440608 0.0058652954

mixture_net.mol_attn_layers.0.ffn.layers.0.weight f4 [96, 96]
00000000: 1d90 12bc d017 3bbd 785e 023d fd20 38bd
00000010: 434a 80bd a433 d23c 98ab 6f3d 48e7 de3d
00000020: b4a8 873d 9705 c1bd 2b42 a5bb b979 af3c
00000030: 8dc7 943d 7335 02be ce05 cc3d dfef 26bd
00000040: 6abd bc3c 86e5 913d fc3f 91bb b246 dbbd
00000050: 62a6 bdbd fb69 9abc 749c 1d3e 6f72 463d
00000060: 2615 87bd eae4 713c 43ed a73d 5e13 93bd
00000070: 8c21 26bd 315b 963d 0fbd 6e3d bb27 26bb
00000080: 0fc4 ce3d ae0c acbb fc89 c4bd fb21 923d
00000090: a074 8a3d 9006 923c 4e16 3e3d df34 84bd
000000a0: 3ce0 ea3d d04d 6bbd a3ce 9cbc e522 80bb
000000b0: a473 41bc 359e e3bd a90b e53d 02c8 813d
000000c0: 9295 46bb 0032 53bd 2dee 4b3d 705a 1bbe
000000d0: 2478 3c3d 3ca8 e0bd 9562 633d 5444 a73d
000000e0: 052a a6bd 6f33 a5bc d2bb 073e f365 693d
000000f0: 1cb0 1c3d d165 a1bd eb4f e4bc a081 303d
00000100: 5ada 623d 4f12 1ebd 796f 343d 51b7 fdbc
00000110: b828 833d 3133 6f3d ed74 68bc f427 18bd
00000120: d81e efbd d141 033d 26d8 203d f8bc 2e3b
00000130: 5113 22bd ba00 c8bd 2ca2 303d caba 043e
00000140: ffef c1bc ab50 88bb 011b 2abd 4245 7fbd
00000150: 5563 913c f4cd 893b 961a c3bd 0d77 bdbc
00000160: 8100 b33c b34b 483c a69a bf3d c707 9dbd
00000170: 606a 053e acd8 8e3d c6df a3bc a3cc 623d
00000180: ac4f 1f3e 4821 4a3c 39ec 26be 253a 8fbd
00000190: aa1a 0e3e 0032 183d c7e1 3a3e 1b5a b13c
000001a0: 2143 7dbd 73f9 e23d 860e c53d 22a5 d5bd
000001b0: c358 f3bb 7a27 81bd d877 80bd 9b32 0e3e
000001c0: 88a6 b13d c762 3ebd 1e03 523d 6765 dc3d
000001d0: ed6d 1fbc 1cec a4bd 14ec 823d 9e83 1cbe
000001e0: f676 17bd fd33 553d 1f03 0fbd d66a d6bc
000001f0: 4087 f1bd 0f99 88bc 62d1 cd3d aa88 4abc
00000200: 1fa4 4d3e cceb 00be edb8 343d 6e76 0abd
00000210: e2ce 16bd 06a0 ecbc cbe9 efbd 5fc3 59bd
00000220: 9e47 d93c 23a1 a1bd 10db 1fbe 1142 043d
00000230: 3dc3 a5bd b874 193e 631f d1bd a068 93bd
00000240: 50f4 593d 8783 a83c 1caa cf3c d0e4 a4bd
00000250: 6c14 5fbc 28cd 983c 19db f0bc b661 4cbd
00000260: 0218 1739 cebf a03d 86cb 6a3d d537 0abb
00000270: 4eaf cdbd 7d6e 8d3d 7c8f 93bd 3c8c 2cba
00000280: 7add 543d f53c a8bd 5c92 05bc f76d aabd
00000290: 6af1 b2bd c258 383d 10eb 39bd 7853 033d
000002a0: 7cd1 11bc ad1a 0cbd a9ba 0d3c debe 9f3d
000002b0: f2ce 51bd 51cc 92bd f262 7d3d 7974 373d
000002c0: 15d4 cabc 6d41 243e cf50 c4bd ae01 3abd
000002d0: fae5 f0bd 3ddf 7c3b 7f2d 3dbd ddef bdbd
000002e0: 29ce b9bc 29a1 303d 7038 5f3c 2c15 2fbc
000002f0: 76de f7bd 654f bd3d eebd c13d 08df 803a
00000300: 7558 ef3b 3949 46bd 7d86 cebd 48b8 00bd
00000310: 28da d33d 103d 913c 0e71 4f3b ae1e b3bd
00000320: c245 d33d 55ef 0f3e 12f1 823c f264 70bd
00000330: cb82 1c3d b258 bb3c 16f4 b2bd 6359 bc3d
00000340: c621 20bb 5292 8f3d e01d ae3d 6270 92bd
00000350: 8008 fa3d ebfc 34bd 5c74 adbc 89dd 67bd
00000360: 9c2a 033e bb70 86bd 487c c7bd 38c7 853c
00000370: 67ef 1a3c 7c17 e1bd 9f5e a23c 1de4 123d
00000380: e724 b3bd 625f 1ebd 6585 b63d e0a4 b1bd
00000390: c1a3 6e3d 2aa3 5dbc b47a 233e 60a3 cebc
000003a0: 73af 0fbe ca1d 26bd 1901 093e 770a 923c
000003b0: d728 9b3b ef23 6f3c d592 aebd 3882 963d
000003c0: 0f6f bebd 8ae3 f03c 9191 f53d c2c6 d83d
000003d0: e47b 493d d712 1c3e 9611 ee3d 33a0 d43d
000003e0: 0a03 1f3d 4222 1cbe 6461 d0bd 7312 b03d
000003f0: 6667 c3bd 6882 b8ba 6726 593c 7d5a 2cbe
-0.008945492 -0.045677006 0.031828374 -0.044953335 -0.06264164 0.02565939 0.058513254 0.10883957
0.066239744 -0.09424894 -0.005043288 0.021420347 0.07264624 -0.12715702 0.09962045 -0.040756103
0.023039538 0.07123856 -0.0044326764 -0.107068434 -0.09260251 -0.018849364 0.15391713 0.048448976
-0.065958306 0.01476405 0.08199551 -0.071814284 -0.040559337 0.07341612 0.05828577 -0.002535327
0.10095989 -0.005250535 -0.09596631 0.071353875 0.06760526 0.017825395 0.04640799 -0.06455397
0.114685506 -0.057447255 -0.0191415 -0.0039104098 -0.011807356 -0.1111416 0.111838646 0.063369766
-0.0030301553 -0.051561356 0.04978769 -0.15171218 0.046013013 -0.10969588 0.055513937 0.081673294
-0.08113483 -0.020166127 0.13255242 0.056981992 0.03825389 -0.07880748 -0.02787014 0.04309237
0.055384018 -0.03859168 0.04405162 -0.030971201 0.06404251 0.05839843 -0.0141880335 -0.037147477
-0.11675805 0.03204519 0.039268635 0.0026662927 -0.039569203 -0.097657636 0.04312341 0.1296188
-0.02367401 -0.004160007 -0.04152966 -0.06232191 0.01774756 0.0042054597 -0.09526555 -0.023128057
0.021850826 0.012225079 0.09355669 -0.07667499 0.1302886 0.06974921 -0.020004164 0.055370938
0.15557736 0.012337036 -0.1630105 -0.06993512 0.13877359 0.03715706 0.1825019 0.021649411
-0.061831597 0.11082735 0.09621911 -0.10431887 -0.0074263527 -0.06306358 -0.062728584 0.13886492
0.086743414 -0.04648092 0.051272504 0.107615285 -0.009730798 -0.08052847 0.063926846 -0.15284583
-0.036978684 0.052051533 -0.034915086 -0.02617399 -0.11793375 -0.016674547 0.10049702 -0.012361685
0.20082138 -0.1258995 0.04412167 -0.03380435 -0.036818393 -0.028884899 -0.11714514 -0.053164836
0.026523408 -0.078920625 -0.1561091 0.03228957 -0.08093879 0.14985931 -0.10211065 -0.0719769
0.05321151 0.02057053 0.02534967 -0.08051455 -0.013615709 0.018652514 -0.029401349 -0.049897872
0.00014409426 0.07849084 0.057323 -0.0021090407 -0.10043202 0.069058396 -0.07205102 -0.0006582176
0.05196903 -0.08214752 -0.008152571 -0.083217554 -0.08737452 0.04500652 -0.04539019 0.032062024
-0.008900043 -0.034205128 0.00865046 0.07800077 -0.05122275 -0.071678765 0.06186194 0.04478881
-0.024759332 0.16040583 -0.095857255 -0.045411758 -0.117626145 0.0038585209 -0.046185967 -0.09274266
-0.022681313 0.043122444 0.013624296 -0.0106862 -0.12102978 0.09243659 0.09460054 0.0009832093
0.007304246 -0.048409674 -0.10084245 -0.031425744 0.103443444 0.017729312 0.003165308 -0.08746086
0.103160396 0.14056142 0.015984092 -0.05869002 0.03821067 0.022869442 -0.08737962 0.09196737
-0.0024434193 0.0701033 0.08501792 -0.071503416 0.122086525 -0.044186514 -0.021173649 -0.056607757
0.12809223 -0.065644704 -0.09740502 0.016330346 0.009456492 -0.109908074 0.01982051 0.035862077
-0.08747273 -0.038665183 0.08912162 -0.086740255 0.058261637 -0.013527671 0.15964776 -0.025224388
-0.14031772 -0.040555753 0.13379325 0.017827256 0.004735093 0.01459597 -0.085241 0.07349056
-0.092985265 0.029405374 0.11990655 0.10584785 0.049190417 0.15241562 0.11624448 0.10382118
0.038821258 -0.15247443 -0.10174826 0.08597269 -0.09541206 -0.001407695 0.013253785 -0.16831394

mixture_net.mol_attn_layers.0.ffn.layers.0.bias f4 [96]
00000000: 2967 0dbe 7c7a 9c3d 51a7 45bd 0e80 88bc
00000010: c767 e7bd 8cbe 95bd 1135 393d 48bc 69bd
00000020: ce5f 4c3d abbf edbd f5ec cf3a 24d0 003c
00000030: b227 0dbe 2a4f bbbc 2ab6 babc 00c7 853d
00000040: be5b 92bc 3261 c73c d710 03bd 6a59 ac3c
00000050: 4dd8 583d 894d 033d a0ea 2abd 77e1 dcbd
00000060: f439 40bd 2061 8ebd e4b3 b8bd dadc 86bd
00000070: 379d 7f3d 8496 1dbc 976a d0bd bd26 67bd
00000080: f6cd 6fbd bb44 85bc 45f5 94bd 18f1 60bc
00000090: f9b4 d8bd 4475 72bd 85ac 88bd f650 a73c
000000a0: dcdd 1dbd 5ced abbd 0202 41bd f311 28bc
000000b0: 696c 76bd 9f9d d2bc 7c74 263d eaa4 3dbd
000000c0: d724 273d 2508 003d 5512 abbc b312 debd
000000d0: 518b baba 8906 01be 35a2 c2bd ce79 e83b
000000e0: 32e6 ebbd 3e41 aebd 6116 a3bc 8754 82bd
000000f0: 8bc4 12bc 3645 303d 0a1c 493d 330f 4abd
00000100: 00b9 5d3d 7105 703a 44d0 3d3d 86a3 7bbd
00000110: 7a72 143d 293a 273d 0419 193d f04f 86bd
00000120: 02ad a4bc 1dcb a2bc 7a4d 833d 5ffa e5bd
00000130: d27a 25b9 bfb5 57bd 49ff 1ebc fa4f 0f3b
00000140: 2a65 383d 59d1 c1bc 46a2 0f3d a1f6 76bd
00000150: 82f5 e1bd 177f bbbd 873b a8bd a655 6e3d
00000160: 38b5 17be 5212 b33c d12d 5dba e363 723c
00000170: 7491 05be b69e 07be 0b99 4fbd cd6a aa3d
-0.13808884 0.076405495 -0.04825527 -0.016662624 -0.11299091 -0.073117346 0.045216624 -0.057064325
0.049896054 -0.116088234 0.0015863465 0.007862125 -0.13784674 -0.022864897 -0.02279194 0.06532097
-0.017866012 0.024338339 -0.03199848 0.02103873 0.052940655 0.032056365 -0.041727662 -0.107851915
-0.04693027 -0.06952119 -0.090186864 -0.06585093 0.06240579 -0.009618405 -0.101765804 -0.056433428
-0.05854603 -0.016268125 -0.07273344 -0.013729356 -0.10581393 -0.059193864 -0.066735305 0.020424347
-0.03854166 -0.08394882 -0.047121055 -0.010258186 -0.06016198 -0.025709925 0.040638432 -0.046299852
0.040806618 0.031257767 -0.020882765 -0.1084341 -0.0014232193 -0.12600149 -0.09503595 0.0070945984
-0.11518516 -0.08508538 -0.019908132 -0.063637786 -0.008957992 0.043034755 0.049099006 -0.0493309
0.054131508 0.0009156084 0.046341196 -0.061435245 0.036241986 0.04082695 0.037377372 -0.065582156
-0.020102028 -0.019872243 0.06411262 -0.11229395 -0.0001578138 -0.05266356 -0.009704419 0.0021867738
0.045018353 -0.023659395 0.035066865 -0.060293797 -0.11033155 -0.091551 -0.08214479 0.05818715
-0.14815223 0.021859322 -0.0008437308 0.014794323 -0.13043767 -0.13244137 -0.050683063 0.08321152

mixture_net.mol_attn_layers.0.ffn.layers.2.weight f4 [96, 96]
00000000: c1c7 d43d 1952 99bd 69fa 003d a3ac 9dbd
00000010: 116e 183d 5297 1dbe 84f2 8cbd cc3f 77bb
00000020: 9dde 403d 5127 983d e556 bdbc 6af7 75bd
00000030: b490 df3c 2d25 87bd 7c2d 083c 0591 033d
00000040: 7e1f 1d3e 62fd 6ebd d4f1 113d a30d 8e3d
00000050: fabc f43d 3949 0abe 31fd fbbc 015a 2bbe
00000060: 0920 bebd ca7b eabd 30b1 073e 6e78 9d3d
00000070: 19db 80bd 30a7 5dbd 0f24 223d 6630 7e3d
00000080: 6cc4 5c3d 966e ea3d a2b4 61bc 4bea 413c
00000090: b060 38bc dcfc 013d 4c8a 85bd 0d7e d6bd
000000a0: 0faa ab3d 9789 db3d 7d3a 493c 2b49 6f3d
000000b0: b1a4 b1bd 0b6d 48bd d7ad 7abc 8687 4b3c
000000c0: 1c39 db3d f5ad f4bc 2502 cbba 031b 843c
000000d0: 717a 87bc f647 abbd f5f1 fdbc 143b 4ebd
000000e0: 8d91 b1bb a3b4 fdbd fc3e 703d 1f8d 543d
000000f0: 70b6 d1bd b19e fdbd 8b12 c33a 613f 073d
00000100: a39e 93bd 505d 9a3c 924a 89bd 5274 85bc
00000110: 82f2 29bd fa44 15bc c342 b63c b08b 333d
00000120: 2f59 afbd 87f3 34bd d135 c5bd 8ae4 0bbc
00000130: 7c83 61bd 1251 b63d f143 8cbd 60b5 3c3c
00000140: 0a5a 39bc 752f 56bc 4e2f d6bd 1c2a b6bc
00000150: acf5 9a3c 2031 a13d ece7 99bd ae39 00be
00000160: 41c0 8b3d 3a52 193d a619 4dbc 2e37 84bd
00000170: 8ba0 9d3d 8ef2 7abd 631d aebd 14f5 b8bc
00000180: 8eee e33c b880 3b3d 8b93 b93c 7c3b e5ba
00000190: 0e5a 1c3c 62bb 8c3d 9238 3e3a ff58 a4bd
000001a0: 2f06 35bd ccae 3fbd 96fc 643d a0d8 7abd
000001b0: e293 633d 85e6 603d b314 e03d f5bf acbd
000001c0: bcf9 443d 1da7 1ebd 4fc9 d03d 2a75 2839
000001d0: 10f3 953c 5d8a 863d e117 8d3d 2cc1 0dbd
000001e0: e814 b6bd 51f6 9e3d ffaa 903c dbf3 013e
000001f0: 384c dfbc 390f 083e 8475 853c 1e1d 713d
00000200: 4df9 b8bd 8792 1cbd 4bcc eebc f567 9abd
00000210: 8a2c babd 0755 ddbd ce53 253c 8be5 013e
00000220: 8177 e03d 29b5 adbb 9c4d 723d 48a0 d83c
00000230: d3d7 c83b c5bd 20ba a3e1 48bd 8d2c ac3d
00000240: ff5b 283d 6ac5 433d dfff 913d aa9c db3d
00000250: 6983 92bd af4d 023e f2e9 04bd 5a57 19be
00000260: 6b4f 54bd 79ca 41bd 1745 183d d908 86bc
00000270: 5958 8fbb 0f2c 2bbd 60c6 163e bb84 b43d
00000280: cd12 aeba bffe bebd dca8 1fbe e55f 14be
00000290: 88cd 78bd 83c2 5fbd a01e 0dbd bbd9 2d3d
000002a0: 09e3 4bbd 5201 b0bd 4881 a13d 3f2d 00be
000002b0: 0fc3 03bd e01f 073d 3535 2a3d f756 b23d
000002c0: 829b 813d ea48 83bd 5c7b ab3d f19c 08be
000002d0: bb5e 143e 9de1 2a3b 838d aa3d 3714 17be
000002e0: 7a60 433e 5f41 993b 59c6 5fbb 9bbf 82bb
000002f0: 07fa eb3d 8e93 a43d 6b65 923d ead4 193e
00000300: dea0 45bb 33fc cb3d e50f 983c 409f 3dbd
00000310: 2cb0 133e bf1d 023e 0d90 a6bd e560 53bd
00000320: 23d9 3ebc dcfa 87bd fbf3 f03c eab0 173e
00000330: 1e2a df3d 8a4e d93d b919 68bd 86ef ce3d
00000340: 9aa4 fb3d 653d f73b 443f a3bc da47 e4bd
00000350: a034 c43d 3b80 95bd 3861 5c3d 7b12 2a3d
00000360: 70ac c43c d89d 8cbd e13a 733d 9efb 7ebb
00000370: 92e3 553b d1bb 643d a7ce 923d 9af4 8abd
00000380: a88d ab3c 8e0a 91bd d9b0 19bd 80e9 04be
00000390: fd2e 94bd 4233 223b 4a6a fe3d 18a8 d83d
000003a0: ed75 a43b 25fb 243c 3590 783d 3f89 2a3d
000003b0: bb2f 813d 066d 443d 9fc1 763d cd76 4dbd
000003c0: a54b b43d 7b37 873d 3828 c9bd 4360 853d
000003d0: 392f 09bd 3ccc 3a3d cd96 aebd 6b2e 8d3c
000003e0: 2707 10be bbea 833d 00e4 ed3c 7d03 05bd
000003f0: 4ff2 383d 8bc6 38bc ed35 083e 1cb7 013d
0.103896625 -0.07486362 0.03148881 -0.076989435 0.037214343 -0.15389755 -0.06882194 -0.0037727235
0.0470873 0.07429374 -0.023112724 -0.060050406 0.02729068 -0.065988876 0.008311626 0.032120723
0.15344045 -0.058347113 0.035631016 0.06936195 0.11950107 -0.13504495 -0.03076038 -0.16733553
-0.09283454 -0.11449392 0.13251185 0.07688986 -0.062917896 -0.05411452 0.03958517 0.062057875
0.05389826 0.11446874 -0.013775976 0.011835645 -0.011253521 0.031735286 -0.06520519 -0.10473261
0.083820455 0.107196026 0.012282011 0.058419388 -0.086739905 -0.048932116 -0.015300236 0.012422448
0.10704252 -0.029868105 -0.001548831 0.016126161 -0.016537877 -0.08363335 -0.030999163 -0.05034931
-0.0054189623 -0.12387969 0.058653817 0.051892396 -0.10239875 -0.123837836 0.0014882846 0.033019427
-0.07207992 0.018843323 -0.06703676 -0.016290817 -0.04149104 -0.009110684 0.022248631 0.04383439
-0.08561932 -0.04417756 -0.09629405 -0.008538375 -0.055057034 0.08902182 -0.06848896 0.011517853
-0.011312971 -0.013072838 -0.104582414 -0.022236876 0.018915974 0.07870698 -0.07514939 -0.12522003
0.06823779 0.037431933 -0.012518322 -0.06455837 0.07696637 -0.061266474 -0.08501699 -0.0225778
0.027823713 0.045777053 0.022653362 -0.0017489041 0.009542955 0.06871678 0.00072563544 -0.08024787
-0.04419535 -0.04679756 0.055904947 -0.061241746 0.055560954 0.05490734 0.10941448 -0.084350504
0.048089728 -0.03873359 0.101946466 0.00016065376 0.018304378 0.065693595 0.0688932 -0.03460805
-0.08890706 0.07761825 0.017659662 0.1269068 -0.027258024 0.13287057 0.016291387 0.05886566
-0.09031925 -0.038225677 -0.029150149 -0.075393595 -0.090905264 -0.10807233 0.010090781 0.1268522
0.109602936 -0.005301137 0.059156045 0.026443616 0.006129244 -0.00061317935 -0.04904331 0.08406935
0.04110336 0.04779569 0.07128882 0.10723241 -0.07153971 0.12724946 -0.03244967 -0.14974728
-0.05183355 -0.047312234 0.037175264 -0.01636164 -0.0043745455 -0.041790064 0.14724112 0.08814379
-0.001328075 -0.09325933 -0.15591758 -0.14489706 -0.060742885 -0.05462886 -0.034453034 0.042443972
-0.049777064 -0.08594002 0.078859866 -0.1251726 -0.032168444 0.032989383 0.04155465 0.087079935
0.06328489 -0.06410392 0.08373138 -0.13341118 0.14489262 0.0026074417 0.083277725 -0.14753805
0.19079772 0.0046769823 -0.0034145324 -0.0039901263 0.11522298 0.08035956 0.0714825 0.15022627
-0.0030155699 0.099602126 0.018562267 -0.04629445 0.14422673 0.1270666 -0.08132944 -0.051606078
-0.011648449 -0.066396445 0.029413214 0.14813581 0.10896705 0.10610683 -0.056665156 0.10104279
0.12287255 0.0075451606 -0.019927628 -0.11146517 0.0958035 -0.07299849 0.053803653 0.04152153
0.024008006 -0.06866044 0.059382323 -0.00389073 0.0032636863 0.05584318 0.07168322 -0.06784935
0.02094157 -0.07082091 -0.03752217 -0.12979698 -0.07235525 0.002474979 0.12422617 0.10578936
0.0050189407 0.010069643 0.0606844 0.041634794 0.06307932 0.047955535 0.060243245 -0.050162125
0.088034905 0.06602379 -0.09822124 0.06512501 -0.0334923 0.04560493 -0.08524857 0.017234048
-0.14065228 0.06441256 0.029039383 -0.03247403 0.04515296 -0.011277805 0.13301821 0.031668767
