scripts_chemix/chemix_weights/best_model_dict_6.pt (torch, 346246 bytes, 16 tensors)

input_net.weight f4 [96, 196]
-0.0128896255 0.055585403 -0.0431178 0.055911455 0.11172942 -0.011927746 -0.006234522 -0.02604636
-0.025864853 -0.06371477 0.03793934 -0.042119883 0.04018271 0.065793656 0.024835244 0.004085063
0.057736844 -0.06440505 0.031434573 -0.071127385 -0.051021628 -0.04425282 0.055851936 0.052747052
-0.029269174 -0.059571102 -0.033607233 -0.054511823 -0.060703233 0.06352215 0.0068468954 0.062755235
-0.049866084 -0.0045670625 -0.0028717017 -0.06584564 0.07694808 -0.022223756 0.042624038 -0.0015234225
0.0016905566 -0.034512464 0.054299876 0.051998924 -0.0040564225 -0.047445647 -0.050586186 0.07789464
-0.025273167 -0.040532503 -0.045026463 0.042541884 -0.033972252 -0.005846381 0.013178774 0.01692507
-0.04333332 -0.031151712 -0.051176507 0.018677084 -0.07384102 0.036867976 0.04189815 0.037808966
0.0149146905 -0.026145326 0.035858944 0.028785774 -0.009417842 0.0047372733 -0.036681008 0.010908915
-0.019522943 0.066435866 0.032275595 -0.08018805 -0.034059934 -0.016162181 -0.030904384 0.04653946
-0.028133811 -0.050646182 0.009528372 0.0054348707 -0.034855843 0.037034784 0.061046332 -0.03891281
0.07969258 -0.058462467 -0.036762927 0.039027926 0.06641324 -0.07533794 -0.007585552 -0.04286408
0.02814361 -0.028867498 0.0562372 -0.008634195 -0.015915656 0.026230345 0.08989646 -0.08099516
-0.0022019206 -0.06211347 0.021118037 -0.025105754 0.03282911 -0.031795587 0.05318709 0.061159704
-0.02303527 -0.053314537 -0.056800585 0.036542457 0.009018707 0.06170445 0.025396105 -0.0705525
0.055390175 -0.023644334 0.00550148 -0.058642734 -0.04499454 -0.03647473 0.06209887 -0.04388
0.028457522 0.0025228392 0.026977492 -0.012015779 0.045197275 -0.047085978 0.02365288 0.028914586
0.044200044 -0.008379158 -0.01857783 0.04060136 0.066445135 0.044232495 -0.05887061 -0.07187258
0.06273852 -0.054217394 -0.017117443 0.06753792 -0.03484744 0.040182624 -0.046576824 -0.01184981
0.050850287 -0.08201954 -0.05608842 0.059271485 -0.03670075 0.08273987 0.047127377 -0.0701988
-0.043121193 0.03565074 0.050434362 -0.0137041155 0.035007816 -0.05693026 0.034598853 0.03479016
0.06088003 -0.044134505 0.01467781 -0.040395036 -0.047623076 -0.09139146 0.018273158 -0.049260776
-0.044643223 -0.03479587 0.044198297 -0.023806825 -0.043348182 0.025031334 -0.07109304 -0.030005036
-0.025670959 -0.021462116 0.07060075 -0.0789538 -0.029469334 0.008479252 0.025294315 -0.026498416
0.007624564 -0.027045235 0.049185302 0.03553866 -0.08591487 -0.06511655 -0.04998174 0.070087336
0.114609 0.04017553 -0.016905284 -0.06130207 -0.058265474 -0.04588299 0.043801732 0.021899357
-0.05158627 -0.05513285 -0.069941476 0.034781195 -0.0063765524 -0.013877723 0.013306464 0.053862922
-0.061623037 -0.0045173983 0.053539272 0.0023009304 -0.0073746233 0.0641094 -0.015031213 -0.027689427
-0.052149747 -0.052111533 0.029428402 -0.008552038 -0.026923083 -0.039533976 -0.057894837 -0.027988965
0.084242746 -0.06857773 0.014790005 0.021397464 -0.027900277 -0.048478436 -0.05627802 -0.013123083
0.034404226 -0.01562397 -0.08791588 0.009239225 -0.03339872 0.05788698 -0.06349364 -0.036084834
0.0032269417 -0.004829697 -0.046276644 0.025609476 0.042034622 -0.0035756833 0.03748109 0.017261503
00000000: 022f 53bc 85ad 633d 4a9c 30bd 6903 653d
00000010: 65d2 e43d 986c 43bc f64a ccbb 2d5f d5bc
00000020: 87e2 d3bc e47c 82bd 4866 1b3d e685 2cbd
00000030: a096 243d d3be 863d 4873 cb3c fedb 853b
00000040: 787d 6c3d cbe6 83bd 8ac1 003d 3cab 91bd
00000050: 0efc 50bd 7242 35bd 00c5 643d 4b0d 583d
00000060: e8c5 efbc d400 74bd bda7 09bd ca47 5fbd
00000070: f4a3 78bd e717 823d ec5b e03b d185 803d
00000080: 6140 4cbd 4ca7 95bb 2933 3cbb 14da 86bd
00000090: f496 9d3d 980e b6bc 8b96 2e3d 94ad c7ba
000000a0: ab95 dd3a f15c 0dbd 8c69 5e3d d3fc 543d
000000b0: bdeb 84bb 5e56 42bd 7633 4fbd 3a87 9f3d
000000c0: ac09 cfbc 6905 26bd ab6d 38bd 6640 2e3d
000000d0: 7d26 0bbd 0093 bfbb c9eb 573c 72a6 8a3c
000000e0: 487e 31bd e031 ffbc 759e 51bd af00 993c
000000f0: f639 97bd e002 173d 659d 2b3d 93dd 1a3d
00000100: bf5c 743c b92e d6bc d4e0 123d 25d0 eb3c
00000110: 4b4d 1abc 213b 9b3b d33e 16bd 4ebb 323c
00000120: 94ee 9fbc 870f 883d 6a33 043d a239 a4bd
00000130: 6e82 0bbd 8d66 84bc 312b fdbc 29a0 3e3d
00000140: e178 e6bc 5f72 4fbd e41c 1c3c 0017 b23b
00000150: 00c5 0ebd c9b1 173d b80b 7a3d 0a63 1fbd
00000160: dd35 a33d 5776 6fbd b994 16bd bfdb 1f3d
00000170: aa03 883d c74a 9abd 3990 f8bb 3f92 2fbd
00000180: 6e8d e63c 887b ecbc fa58 663d 7076 0dbc
00000190: 8d61 82bc 05e1 d63c a31b b83d cae0 a5bd
000001a0: 194e 10bb b26a 7ebd bcff ac3c 95aa cdbc
000001b0: d177 063d 173c 02bd b5da 593d 9982 7a3d
000001c0: 76b4 bcbc 5860 5abd bba7 68bd 8bad 153d
000001d0: 33c3 133c cebd 7c3d 7e0b d03c d47d 90bd
000001e0: cfe0 623d c3b1 c1bc c245 b43b 5d33 70bd
000001f0: 324c 38bd 8766 15bd 625b 7e3d 84bb 33bd
00000200: c01f e93c 3856 253b e7ff dc3c d4dd 44bc
00000210: c720 393d 3add 40bd afc3 c13c 48de ec3c
00000220: 1b0b 353d bc48 09bc 8930 98bc 9d4d 263d
00000230: 6314 883d 222d 353d 4f22 71bd ee31 93bd
00000240: 0e7d 803d 0f13 5ebd e139 8cbc 5251 8a3d
00000250: 30bc 0ebd 8996 243d 57c7 3ebd b525 42bc
00000260: 6448 503d dcf9 a7bd f9bc 65bd a8c6 723d
00000270: 8753 16bd 8573 a93d a308 413d 63c4 8fbd
00000280: d99f 30bd 8306 123d 4394 4e3d 3a87 60bc
00000290: 5b64 0f3d b42f 69bd 87b7 0d3d 2080 0e3d
000002a0: 575d 793d 62c6 34bd 327b 703c 4475 25bd
000002b0: 6a10 43bd 722b bbbd 97b1 953c abc5 49bd
000002c0: d0db 36bd 1d86 0ebd 4609 353d 8806 c3bc
000002d0: dd8d 31bd 830e cd3c 3a99 91bd 1fcd f5bc
000002e0: e74b d2bc 52d1 afbc 2097 903d 88b2 a1bd
000002f0: ac69 f1bc 90ec 0a3c 0636 cf3c 3513 d9bc
00000300: 7bd7 f93b f88d ddbc 8776 493d fc90 113d
00000310: 23f4 afbd d35b 85bd a7b9 4cbd f389 8f3d
00000320: 20b8 ea3d 198f 243d f37c 8abc e117 7bbd
00000330: c7a7 6ebd cdef 3bbd 7269 333d 4866 b33c
00000340: 204c 53bd fcd2 61bd 7a3d 8fbd ba76 0e3d
00000350: 66f2 d0bb 645f 63bc 5b03 5a3c 5e9f 5c3d
00000360: 7068 7cbd af06 94bb ff4b 5b3d 35cb 163b
00000370: d3a6 f1bb ca4b 833d 7a45 76bc f0d4 e2bc
00000380: f99a 55bd e772 55bd d513 f13c d91d 0cbc
00000390: cc8d dcbc 61ee 21bd 2323 6dbd 1d49 e5bc
000003a0: 7687 ac3d 7b72 8cbd c751 723c bc49 af3c
000003b0: 1f8f e4bc 5391 46bd c883 66bd 3302 57bc
000003c0: 72eb 0c3d aefb 7fbc 3e0d b4bd 1e60 173c
000003d0: 19cd 08bd e61a 6d3d f408 82bd b1cd 13bd
000003e0: 197b 533b 6f42 9ebb 948c 3dbd f7ca d13c
000003f0: 7f2c 2c3d 0356 6abb c585 193d ff67 8d3c

input_net.bias f4 [96]
0.022038346 0.023146734 0.052022453 0.00052961323 -0.043529887 -0.041897908 0.06684033 0.008305008
-0.04322161 -0.040853675 0.035968773 -0.00025706668 -0.049653016 -0.0134680765 -0.04532652 -0.06864689
0.023875669 0.056335423 0.06912245 0.039560724 0.046882536 0.017864775 0.03958757 -0.012204953
-0.017657876 0.013556213 0.0114285415 -0.023387928 0.05921675 -0.019237796 -0.037022613 -0.07342253
-0.042709913 -0.06121704 0.01716461 0.063482374 -0.05996392 0.05004014 0.04991174 -0.06389133
-0.04621359 0.0253077 0.012273752 -0.046448465 -0.045989554 0.066656604 -0.0118241375 0.037399072
0.043706167 -0.032090332 0.043054502 0.032433167 0.019940043 0.04438283 -0.06782935 -0.065737344
-0.056378197 0.06370851 0.065513216 0.041032318 0.022306193 0.044158094 -0.03109064 0.061287437
-0.04100095 -0.057691675 0.04500856 -0.056520708 -0.01887876 0.05000566 0.06696181 -0.0072861803
0.04428246 0.067699455 0.019860128 -0.040110227 -0.006498338 0.031753413 0.03735691 0.044585682
0.014664064 -0.042930067 0.058867056 -0.013850344 0.004349571 -0.039945476 -0.016049707 0.046130296
0.048248325 -0.064332835 0.024413725 -0.041081853 -0.03867508 0.017485961 -0.056597378 -0.0038543507
00000000: c389 b43c 389e bd3c 7f15 553d bed5 0a3a
00000010: 654c 32bd 249d 2bbd 95e3 883d ba11 083c
00000020: 2509 31bd 2f56 27bd fe53 133d e8c6 86b9
00000030: f660 4bbd 35a9 5cbc 4da8 39bd be96 8cbd
00000040: e896 c33c f9bf 663d 1290 8d3d 6d0a 223d
00000050: e707 403d 2659 923c 9326 223d 48f7 47bc
00000060: 40a7 90bc e11a 5e3c c73e 3b3c 0a98 bfbc
00000070: 438d 723d 9598 9dbc 06a5 17bd 8d5e 96bd
00000080: 97f0 2ebd b8be 7abd cc9c 8c3c 0c03 823d
00000090: ba9c 75bd e4f6 4c3d 4170 4c3d 75d9 82bd
000000a0: 764a 3dbd 1852 cf3c d917 493c bf40 3ebd
000000b0: 8b5f 3cbd 4283 883d 07ba 41bc c52f 193d
000000c0: 3d05 333d 2771 03bd eb59 303d a4d8 043d
000000d0: 4d59 a33c c5ca 353d 1dea 8abd 4da1 86bd
000000e0: d3ec 66bd 9b79 823d cb2b 863d 8111 283d
000000f0: 7abb b63c 1edf 343d ccb1 febc 8908 7b3d
00000100: 9df0 27bd 1b4e 6cbd e55a 383d 4282 67bd
00000110: a1a7 9abc bcd2 4c3d 4623 893d e9c0 eebb
00000120: 8661 353d 03a6 8a3d b5b1 a23c 9f4a 24bd
00000130: 03f0 d4bb de0f 023d 8f03 193d 7a9f 363d
00000140: 8b41 703c 70d7 2fbd 951e 713d 8eec 62bc
00000150: d986 8e3b de9d 23bd ad7a 83bc 1ff3 3c3d
00000160: 09a0 453d efc0 83bd 4bff c73c 7245 28bd
00000170: c369 1ebd b83e 8f3c a7d2 67bd 4699 7cbb

mixture_net.mol_attn_layers.0.self_attn_layer.in_proj_weight f4 [288, 96]
0.12505367 0.040289044 0.04003719 0.06877067 0.026020857 0.028494762 -0.0032582385 0.009682961
0.06409812 0.12650423 -0.06570782 0.03174866 -0.101033695 -0.072276264 -0.043712817 0.043902956
-0.08017985 0.0038281896 -0.03270632 0.014219448 0.009110696 0.020479612 0.10307832 0.09797967
-0.010205867 -0.034661524 0.0674408 0.056977067 0.021956112 -0.061260257 0.00783538 0.012087652
0.028126663 0.062841564 -0.07564998 -0.08287051 -0.014473365 -0.117850736 -0.09704126 -0.06261308
-0.012317342 0.05044282 0.08536038 -0.015662845 0.07881775 0.0034021502 0.056624793 -0.038446527
0.082692444 0.18271448 0.1423727 0.04631128 0.14183876 0.060433146 -0.07769732 0.090097085
-0.09324282 -0.12121161 -0.040303834 -0.021791456 0.086067595 0.09497483 0.06570639 0.11534048
-0.014927393 -0.036226097 -0.11885693 -0.045545716 -0.07147236 0.08720825 0.019659217 0.11847855
-0.052722186 0.008540061 -0.10218347 0.057213422 -0.050515532 0.07342319 0.088978715 0.0367716
0.0005670793 0.015409597 0.050292414 0.12756625 0.0034844927 0.09928267 -0.013318959 -0.15587793
0.10932025 -0.0397029 -0.08330398 -0.029156081 0.08450561 0.12788194 -0.07638393 -0.059288677
0.0916405 0.02679681 -0.061623633 0.058328036 -0.029047826 0.08518364 0.0066009294 0.08629231
-0.10914459 0.12870654 0.07913339 0.056709874 0.08124158 0.08842199 0.08192753 0.009812252
-0.056164205 -0.054957125 -0.03163959 0.1206878 -0.071388856 0.11141593 0.09281402 8.5957116e-05
0.11352197 -0.084345065 0.04298685 -0.026455969 -0.07622599 -0.015019742 -0.09972426 -0.048301667
0.0431494 -0.018031439 -0.06531721 -0.04153379 -0.0746607 -0.041612916 -0.10104929 0.07075214
-0.038624067 -0.046009902 0.06983608 -0.05270681 -0.12463901 -0.030736044 -0.052342106 -0.07160283
-0.104940936 -0.07073451 0.12158554 0.016470755 0.051105782 0.12174694 -0.045836993 0.03619293
-0.025608229 0.056181062 -0.059549388 0.053700145 -0.13919537 0.012578415 0.0016654687 -0.11031871
0.08090891 -0.14101079 0.042417955 0.0153637035 -0.0093801 0.11148249 -0.079826124 -0.037523203
0.031103345 -0.056696646 0.09957457 0.060902305 -0.06690206 0.049743906 -0.07345974 0.106423095
-0.023114253 -0.12069774 0.02943988 0.07788801 0.09854997 0.032127254 0.014545141 0.06458429
0.07597945 0.09278958 -0.054908928 0.017475836 0.086561814 -0.09758462 0.04108292 0.12060762
0.028077085 -0.038060535 0.03956453 -0.02267312 -0.059422515 0.06541165 -0.0081454255 0.08920868
0.13733266 -0.16565058 -0.016745193 0.110958554 -0.1588062 -0.13658503 -0.0428412 -0.12744243
0.062689275 -0.064332694 0.14947887 -0.09936738 -0.014492624 0.14696157 -0.08409816 0.08957751
-0.09958166 -0.097090885 0.08839249 0.04629213 0.006869937 0.012297399 0.08451584 0.07696284
-0.13098672 0.06571162 -0.12266935 0.050221235 0.07891193 -0.050816365 0.103289604 -0.12493876
-0.010062851 0.08644657 0.11929993 0.06790636 -0.066223904 0.14457762 -0.053213533 -0.0040696533
0.008974065 0.11939144 -0.18507895 -0.0057591614 -0.0296824 -0.06876643 0.02499375 0.10553703
-0.09171479 0.057025544 0.07705207 -0.01889078 -0.1115129 -0.11362706 -0.056483176 -0.0759555
00000000: 120e 003e 2006 253d 09fe 233d a3d7 8c3d
00000010: b129 d53c d96d e93c 2c88 55bb 48a5 1e3c
00000020: e045 833d 538a 013e d291 86bd e20a 023d
00000030: c1ea cebd 9405 94bd 360c 33bd 96d3 333d
00000040: 5535 a4bd 5de2 7a3b 10f7 05bd b0f8 683c
00000050: 0745 153c dcc4 a73c ba1a d33d 91a9 c83d
00000060: 8236 27bc 3ef9 0dbd 671e 8a3d c960 693d
00000070: 4edd b33c 09ec 7abd f75f 003c 4a0b 463c
00000080: e369 e63c 14b3 803d 60ee 9abd 04b8 a9bd
00000090: b121 6dbc ba5b f1bd 91bd c6bd 493b 80bd
000000a0: adce 49bc 219d 4e3d 6cd1 ae3d 5e4f 80bc
000000b0: 336b a13d 9cf6 5e3b 66ef 673d 1b7a 1dbd
000000c0: a85a a93d 8119 3b3e 26ca 113e e6b0 3d3d
000000d0: 2e3e 113e bf88 773d c61f 9fbd d284 b83d
000000e0: 17f6 bebd cb3d f8bd a215 25bd ff83 b2bc
000000f0: 3544 b03d 2a82 c23d 1291 863d a137 ec3d
00000100: 0692 74bc d161 14bd 436b f3bd 258e 3abd
00000110: 1a60 92bd 3d9a b23d 5e0c a13c e2a4 f23d
00000120: 38f3 57bd 9deb 0b3c 9145 d1bd 9f58 6a3d
00000130: 60e9 4ebd e65e 963d 793a b63d d19d 163d
00000140: 0ca8 143a 8978 7c3c 6bff 4d3d baa0 023e
00000150: 165c 643b b654 cb3d c337 5abc 779e 1fbe
00000160: 4ce3 df3d 829f 22bd 479b aabd bcd8 eebc
00000170: 4711 ad3d 7cf3 023e 2e6f 9cbd afd8 72bd
00000180: 04ae bb3d fc84 db3c 1069 7cbd 61e9 6e3d
00000190: b5f5 edbc c374 ae3d 9c4c d83b 06ba b03d
000001a0: 3387 dfbd a6cb 033e b010 a23d 9d48 683d
000001b0: fc61 a63d 9716 b53d 9fc9 a73d 91c3 203c
000001c0: 700c 66bd b91a 61bd 8498 01bd 2a2b f73d
000001d0: 5234 92bd 092e e43d 4715 be3d e043 b438
000001e0: 357e e83d 1bbd acbd fb12 303d 30ba d8bc
000001f0: 5f1c 9cbd 5d15 76bc 3c3c ccbd f8d7 45bd
00000200: 6dbd 303d abb6 93bc 08c5 85bd 561f 2abd
00000210: b6e7 98bd 4e72 2abd eef2 cebd 7fe6 903d
00000220: 4534 1ebd e174 3cbd 3806 8f3d 19e3 57bd
00000230: bd42 ffbd 28ca fbbc ad64 56bd 81a4 92bd
00000240: 46eb d6bd 41dd 90bd d701 f93d aded 863c
00000250: 4c54 513d 7656 f93d 92bf 3bbd 0a3f 143d
00000260: 59c8 d1bc 1d1e 663d 0fea 73bd aff4 5b3d
00000270: 3b89 0ebe b215 4e3c db4b da3a c7ee e1bd
00000280: 92b3 a53d 2265 10be 73be 2d3d 0bb8 7b3c
00000290: feae 19bc ef50 e43d e17b a3bd eeb1 19bd
000002a0: 71cc fe3c be3a 68bd c1ed cb3d b274 793d
000002b0: f203 89bd 44c0 4b3d 0f72 96bd 5af4 d93d
000002c0: 1a5a bdbc 6030 f7bd e72b f13c c083 9f3d
000002d0: 91d4 c93d de97 033d be4e 6e3c c544 843d
000002e0: 1d9b 9b3d 7708 be3d 2fe8 60bd 7c29 8f3c
000002f0: 5247 b13d 72da c7bd 9046 283d 2101 f73d
00000300: ea01 e63c 5de5 1bbd 6b0e 223d fbbc b9bc
00000310: 0665 73bd 8bf6 853d 6474 05bc 0ab3 b63d
00000320: efa0 0c3e 4ea0 29be 372d 89bc 3d3e e33d
00000330: 189e 22be f2dc 0bbe 417a 2fbd 4580 02be
00000340: 3c63 803d dcc0 83bd fd10 193e 2081 cbbd
00000350: 7972 6dbc 187d 163e a83b acbd 6a74 b73d
00000360: 78f1 cbbd 96d7 c6bd 1f07 b53d d19c 3d3d
00000370: 351d e13b 087b 493c a416 ad3d b29e 9d3d
00000380: 6221 06be d093 863d 113a fbbd c8b4 4d3d
00000390: 949c a13d d224 50bd 8089 d33d e5df ffbd
000003a0: a8de 24bc e60a b13d 8653 f43d 7d12 8b3d
000003b0: 66a0 87bd 280c 143e 6ff6 59bd ba5a 85bb
000003c0: f507 133c 8083 f43d 5685 3dbe 59b7 bcbb
000003d0: 8128 f3bc 6ad5 8cbd b1bf cc3c cc23 d83d
000003e0: f7d4 bbbd 9e93 693d 7acd 9d3d d6c0 9abc
000003f0: e060 e4bd 4eb5 e8bd e75a 67bd 8f8e 9bbd

mixture_net.mol_attn_layers.0.self_attn_layer.in_proj_bias f4 [288]
-0.01646295 -0.00087083795 0.055282596 -0.015007715 -0.0065383315 -0.023473293 0.0036277766 0.0263005
0.008672656 -0.01658763 -0.01117043 0.03927913 0.014513133 -0.009553616 0.025107587 0.008608519
0.0017956961 0.005668031 -0.004854098 -0.033649962 0.0108218 0.02006219 0.00056172966 -0.043628655
0.023685351 0.022596013 0.006812603 -0.0068567283 0.0025341948 -0.0011446967 0.016924154 -0.032411844
0.014350029 -0.015699564 -0.031128684 0.017599655 -0.0144573 -0.02841258 0.012038061 -0.0072388123
-0.029009214 0.02701127 0.0053912043 -0.00742492 -0.01670057 0.027979326 -0.04730751 -0.013919737
-0.019741992 0.029902285 0.02394374 -0.023911227 -0.074146435 -0.018761832 0.012168518 -0.02894382
-0.03347596 -0.006373841 -0.026293686 0.0113253 0.0005775934 -0.0028021652 -0.01508984 -0.0013459596
0.021316554 -0.027183628 -0.0026559746 -0.0011860668 0.007053113 0.015388415 -0.019518325 0.008864294
0.015929658 -0.015014231 0.0041178023 -0.015360525 -0.0049842717 0.0007234718 0.014847547 0.012772854
0.016356252 0.014075051 -0.00851976 0.016415402 -0.012188263 -0.016706338 -0.0033659204 -0.014841987
0.012908955 0.0026862696 0.009417315 0.0008059099 -0.00013707232 -0.025800552 0.0010119209 0.01623525
5.146066e-05 -2.8798855e-05 -0.00015783933 -2.5477495e-05 -4.4427215e-05 6.131924e-05 -0.00024042076 -0.00026605348
-0.000102336846 -2.9468272e-05 -5.7396846e-05 -8.976671e-05 6.9278074e-05 -2.0696475e-06 6.543668e-05 -4.264714e-05
0.00014906842 4.121766e-05 -8.822923e-06 -0.00014672872 5.6387365e-05 -2.1211967e-05 -0.00010099512 -0.000106306514
-4.6550063e-05 2.2876764e-05 -8.514442e-05 0.00010345435 -4.313074e-05 3.7504913e-05 -4.552226e-05 0.00022343914
-1.7625323e-05 0.00013882387 0.00022228701 -0.00025956717 3.7438498e-05 -0.00024190951 3.8185502e-05 1.5958745e-05
-3.922137e-05 1.5379363e-05 6.3216154e-05 2.9074574e-06 2.1881373e-05 3.3359865e-05 -3.2832784e-05 -1.2000636e-05
-2.524769e-05 2.5668753e-05 1.565271e-05 1.3542364e-06 -8.5511696e-05 -1.4937559e-05 1.9410034e-05 -7.3454765e-05
6.2106395e-05 0.00012579402 1.2952661e-05 3.4315744e-05 1.828692e-05 -4.7586243e-05 -3.4481298e-05 7.689211e-05
5.0730305e-06 -4.971443e-05 3.3622742e-05 5.9852915e-05 5.7727695e-05 0.00018220655 0.00012028857 -4.5570955e-06
-6.529603e-05 8.362595e-06 2.6415304e-05 4.942574e-05 1.1087673e-05 -3.2106072e-05 -1.5703607e-05 3.2960677e-05
-3.609653e-05 -3.7761874e-05 -8.157023e-06 5.6830995e-05 4.0461633e-05 3.5679812e-05 -2.4536355e-05 0.00015677884
-0.00011615814 -2.7920487e-05 -5.3718544e-05 -0.00011017118 3.4152852e-06 -0.00011565283 -1.2728542e-05 3.7031743e-05
0.0026904645 0.000182443 0.00035466216 0.008500737 0.006198797 -0.0023141077 0.005556815 -0.007103313
-0.0042698774 0.003986491 -0.0031517595 0.014060402 -0.0025428906 0.008144381 -0.0021896304 0.0055780597
0.0051571224 0.0047748093 -0.0037128825 -0.016187707 0.0055163098 0.0064574024 0.0061901812 -0.0031891337
-0.00801692 0.006159577 -0.0047621457 0.0020741 -0.003834264 0.0036692224 0.0017103967 0.0035752968
-0.009002782 -0.0025221778 -0.00994388 -0.007195123 -0.0007440999 0.006120157 -0.0060035908 0.00012632307
0.0059419167 0.0018785986 0.0043328884 0.0055551725 -0.0042530037 -0.011483404 0.0035514254 -0.00094650476
-0.0033772634 -0.0023912694 0.010698404 -0.011415868 0.00055816164 -0.0018951509 -0.002649929 0.0035947587
0.0018978242 0.007928603 -0.008251424 0.002856946 0.0029973707 0.0051449426 -0.0033154932 0.0019175664
00000000: 4fdd 86bc f248 64ba 0170 623d ebe2 75bc
00000010: 803f d6bb 104b c0bc febf 6d3b 2574 d73c
00000020: c117 0e3c c8e2 87bc 2e04 37bc 27e3 203d
00000030: 7ec8 6d3c c586 1cbc 6dae cd3c bf0a 0d3c
00000040: 905d eb3a e4ba b93b 200f 9fbb 8bd4 09bd
00000050: eb4d 313c 7659 a43c 0a41 133a f6b3 32bd
00000060: c807 c23c 461b b93c 423c df3b 68ae e0bb
00000070: bc14 263b a609 96ba 86a4 8a3c 48c2 04bd
00000080: 621c 6b3c 5f9c 80bc 9501 ffbc 272d 903c
00000090: 50de 6cbc 80c1 e8bc 4a3b 453c 8f33 edbb
000000a0: bba4 edbc bd46 dd3c b3a8 b03b be4c f3bb
000000b0: a2cf 88bc e634 e53c 85c5 41bd 9c0f 64bc
000000c0: f5b9 a1bc a3f5 f43c aa25 c43c 7ae1 c3bc
000000d0: 16da 97bd 6ab2 99bc 775e 473c 971b edbc
000000e0: 171e 09bd a7db d0bb db65 d7bc c08d 393c
000000f0: a369 173a 88a4 37bb 603b 77bc e96a b0ba
00000100: 0ea0 ae3c 33b0 debc dc0f 2ebb cc75 9bba
00000110: cd1d e73b b11f 7c3c e5e4 9fbc 8b3b 113c
00000120: ea7e 823c 40fe 75bc a1ee 863b b6aa 7bbc
00000130: 1a53 a3bb 5fa7 3d3a 2043 733c 3c45 513c
00000140: 8cfd 853c 0b9b 663c 7796 0bbc 9879 863c
00000150: 48b1 47bc bbdb 88bc c696 5cbb ce2b 73bc
00000160: 1580 533c 200c 303b 154b 1a3c b343 533a
00000170: 12bb 0fb9 ae5b d3bc 6ea2 843a c9ff 843c
00000180: 77d7 5738 1295 f1b7 ac81 25b9 81b8 d5b7
00000190: 5c57 3ab8 8498 8038 7519 7cb9 187d 8bb9
000001a0: ad9d d6b8 a232 f7b7 65bd 70b8 2341 bcb8
000001b0: 6249 9138 46e4 0ab6 0d3b 8938 05e0 32b8
000001c0: 404f 1c39 20e1 2c38 2a06 14b7 31db 19b9
000001d0: 7981 6c38 5af0 b1b7 58cd d3b8 e0f0 deb8
000001e0: c03e 43b8 7ae7 bf37 908f b2b8 a2f5 d838
000001f0: 48e7 34b8 984e 1d38 28ef 3eb8 fd4a 6a39
00000200: 18da 93b7 4091 1139 b715 6939 8416 88b9
00000210: 4807 1d38 17a9 7db9 5f29 2038 25df 8537
00000220: a081 24b8 ee02 8137 ea92 8438 bd1d 4336
00000230: e48d b737 e2eb 0b38 efb5 09b8 5756 49b7
00000240: 00cb d3b7 3a53 d737 f04d 8337 35c3 b535
00000250: be54 b3b8 549c 7ab7 bbd2 a237 ba0b 9ab8
00000260: 1e3f 8238 93e7 0339 414f 5937 40ee 0f38
00000270: dd66 9937 5797 47b8 03a0 10b8 2341 a138
00000280: 0039 aa36 7684 50b8 2506 0d38 940a 7b38
00000290: a420 7238 b30e 3f39 6f43 fc38 27e9 98b6
000002a0: 8aef 88b8 124d 0c37 6f96 dd37 7c4e 4f38
000002b0: 3105 3a37 a2a9 06b8 3dbb 83b7 423f 0a38
000002c0: 5b66 17b8 8162 1eb8 26da 08b7 d15d 6e38
000002d0: 59b5 2938 e8a6 1538 6cd3 cdb7 0065 2439
000002e0: ed99 f3b8 ca36 eab7 d94f 61b8 b40b e7b8
000002f0: 2732 6536 a48a f2b8 ac8c 55b7 8852 1b38
00000300: 8152 303b 2b4e 3f39 f3f1 b939 ad46 0b3c
00000310: 471f cb3b 49a8 17bb f115 b63b e9c2 e8bb
00000320: 54ea 8bbb 1ca1 823b c08d 4ebb 9a5d 663c
00000330: a0a6 26bb 0370 053c e77f 0fbb 28c8 b63b
00000340: 14fd a83b 0176 9c3b d553 73bb 159c 84bc
00000350: 29c2 b43b 9e98 d33b 01d7 ca3b c900 51bb
00000360: 6659 03bc 47d6 c93b c60b 9cbb a0ed 073b
00000370: 4648 7bbb 5677 703b 642f e03a 874f 6a3b
00000380: 6880 13bc 1f4b 25bb a8eb 22bc 11c5 ebbb
00000390: b30f 43ba 998b c83b c5b9 c4bb 9775 0439
000003a0: 69b4 c23b 4f3b f63a e7fa 8d3b 2a08 b63b
000003b0: c85c 8bbb e324 3cbc 08bf 683b dc1e 78ba
000003c0: 1455 5dbb d8b6 1cbb 5c48 2f3c 9f09 3bbc
000003d0: 9851 123a b666 f8ba 6eaa 2dbb 0b96 6b3b
000003e0: 6ac0 f83a f9e6 013c fb30 07bc 9a3b 3b3b
000003f0: 896f 443b e896 a83b bf48 59bb da56 fb3a

mixture_net.mol_attn_layers.0.self_attn_layer.out_proj.weight f4 [96, 96]
-0.08016033 -0.008436638 0.076213785 -0.030391522 -0.031959683 -0.10409719 -0.004020377 0.10133167
0.043423206 -0.1373866 -0.078031674 -0.017333902 -0.06467736 0.1204422 -0.08972392 0.0647612
0.08054108 0.07501667 0.002836591 -0.034495626 -0.071177825 -0.038882438 0.06296156 0.032997224
0.005327967 0.07017453 -0.09863545 -0.10519663 0.017574368 0.07396987 -0.06789525 -0.027298793
-0.11984668 0.15278105 -0.025944129 0.0006161531 -0.011312632 0.015694506 0.06718447 -0.027055113
0.031443514 0.087341346 0.08687755 0.055056114 0.007514478 -0.032154825 -0.016503658 -0.035026055
-0.047459695 -0.032420803 -0.049902663 0.09520097 0.033284213 0.033667073 0.007890112 -0.0396789
0.056256108 -0.058857925 0.10851561 0.05968637 0.102587394 -0.10532453 -0.01894111 -0.06608092
-0.08379982 0.0907599 -0.067921594 0.024626225 -0.08892825 0.055261582 -0.082992375 -0.10421743
-0.0132881515 0.03003231 -0.10018858 0.029123917 0.1077493 0.032698378 -0.06908647 0.03093651
-0.014457123 0.07544624 0.08596834 0.01101379 -0.083931126 -0.008235196 0.026743975 -0.031564757
0.044729758 -0.098961145 0.1302698 0.12224996 0.05529934 0.052417316 -0.06701184 -0.009059678
-0.020435495 0.08448545 -0.023135884 0.04163967 -0.068190776 0.06052994 -0.02937396 0.09605949
0.11012606 -0.064409696 -0.044543743 -0.08175736 -0.019723227 0.015802015 0.002896881 -0.04064698
0.012147911 0.03740098 0.0386707 0.029426338 -0.014977009 0.12264957 -0.014027067 0.013116706
0.10779325 0.07548747 -0.05310212 -0.037829377 0.07550075 -0.0068407203 -0.06820992 0.043998767
0.00062047114 0.09586856 0.061308313 -0.02462008 0.061580736 0.010948692 -0.021785619 -0.018362824
0.038587928 -0.061891247 0.019309884 -0.02998331 -0.039795216 -0.07458073 0.09113159 0.09622464
-0.0698097 0.03106819 -0.1194239 0.02304918 0.011286028 0.07409086 0.061350867 -0.05225998
0.109158635 -0.03428621 0.07601745 0.00951664 0.036404874 -0.086725645 -0.004232335 -0.086170815
-0.030049697 -0.03164321 -0.06876535 -0.04656094 -0.058736835 -0.06046342 0.09350175 0.029228073
-0.0077793878 0.08100672 -0.008516332 -0.03906823 0.17422022 0.012194369 0.0019349386 -0.13887201
0.08242673 0.0006458377 0.013499818 -0.019391054 -0.029330753 0.06587764 0.019564824 0.07808851
0.05128219 -0.060848482 0.020755181 -0.073023796 -0.018304747 -0.07873489 -0.09541834 0.017842581
-0.011241091 -0.06702269 -0.09474473 -0.07108701 -0.002147821 -0.09661571 0.016312413 0.033886608
-0.00026649312 0.057241265 -0.10723682 0.014261766 0.035367724 -0.080379784 -0.048074037 -0.07503133
-0.07894513 -0.005647277 0.069035426 0.07370095 -0.1496122 0.075847685 -0.0708454 -0.0064585987
-0.0043253223 0.00039943247 -0.074132204 0.015832892 0.005029615 0.043140914 0.04488521 -0.023428397
0.04768917 -0.06386901 0.011626042 -0.06017451 0.12057003 0.093499884 0.070544265 0.07308055
-0.070572324 0.102993906 -0.0034497115 0.093580656 -0.08823626 0.068578206 0.027066283 -0.08886023
-0.02804215 0.04536233 0.051111892 -0.031884488 0.002887439 -0.057407983 0.0032498576 0.05680333
0.069776915 -0.00047178104 0.085856825 -0.070098266 0.049226522 -0.08170406 0.07353127 -0.12597238
00000000: 192b a4bd d339 0abc f915 9c3d a4f7 f8bc
00000010: 28e8 02bd e830 d5bd 5ebd 83bb fb86 cf3d
00000020: 88dc 313d 13af 0cbe 12cf 9fbd d4ff 8dbc
00000030: 9075 84bd 66aa f63d 2dc1 b7bd 85a1 843d
00000040: b9f2 a43d 57a2 993d 1ae6 393b 494b 0dbd
00000050: aec5 91bd 3143 1fbd fef1 803d 1928 073d
00000060: 3a96 ae3b aab7 8f3d 6201 cabd 5571 d7bd
00000070: 1ff8 8f3c 847d 973d aa0c 8bbd b8a1 dfbc
00000080: 2d72 f5bd a372 1c3e c888 d4bc 5685 213a
00000090: 9e58 39bc c491 803c 0398 893d afa2 ddbc
000000a0: eaca 003d 05e0 b23d dbec b13d 8582 613d
000000b0: 033c f63b c7b4 03bd ae32 87bc 7b77 0fbd
000000c0: 1965 42bd adcb 04bd bc66 4cbd baf8 c23d
000000d0: 0755 083d 7ce6 093d 8745 013c 5886 22bd
000000e0: ce6c 663d 0215 71bd 6f3d de3d b279 743d
000000f0: 5719 d23d 63b4 d7bd 632a 9bbc 6f55 87bd
00000100: 3d9f abbd 54e0 b93d 7a1a 8bbd f0bc c93c
00000110: 0420 b6bd f859 623d e8f7 a9bd f36f d5bd
00000120: 8cb6 59bc 5206 f63c ac2f cdbd 4895 ee3c
00000130: aaab dc3d bcee 053d 357d 8dbd 906e fd3c
00000140: 92dd 6cbc 8f83 9a3d 2b10 b03d 2f73 343c
00000150: 15e4 abbd eaec 06bc 2e16 db3c 0c4a 01bd
00000160: 8d36 373d 24ac cabd 7265 053e 305e fa3d
00000170: 9081 623d 8ab3 563d 813d 89bd 0b6f 14bc
00000180: 5768 a7bc b506 ad3d 7787 bdbc 5c8e 2a3d
00000190: 9ba7 8bbd 3eee 773d a9a1 f0bc d7ba c43d
000001a0: c689 e13d 3be9 83bd 8073 36bd 6770 a7bd
000001b0: 9b92 a1bc 3a73 813c 99d9 3d3b 737d 26bd
000001c0: 0808 473c c531 193d 2b65 1e3d 810f f13c
000001d0: 2162 75bc b32f fb3d c9d1 65bc 74e7 563c
000001e0: b5c2 dc3d 2d99 9a3d 9c81 59bd faf2 1abd
000001f0: 23a0 9a3d 1f28 e0bb a4b1 8bbd 0d38 343d
00000200: 1da7 223a bc56 c43d 6d1e 7b3d 0db0 c9bc
00000210: 153c 7c3d 2562 333c c177 b2bc a26d 96bc
00000220: 600e 1e3d ad81 7dbd c32f 9e3c 8f9f f5bc
00000230: 4f00 23bd c8bd 98bd 33a3 ba3d 6d11 c53d
00000240: 63f8 8ebd b782 fe3c 8594 f4bd a2d1 bc3c
00000250: 08e9 383c f3bc 973d 0c4b 7b3d 900e 56bd
00000260: 908e df3d b26f 0cbd 09af 9b3d aeeb 1b3c
00000270: 471d 153d 379d b1bd 66af 8abb 537a b0bd
00000280: c82a f6bc 509c 01bd d9d4 8cbd afb6 3ebd
00000290: 0996 70bd 7ea8 77bd d87d bf3d b66f ef3c
000002a0: 3cea febb dae6 a53d 1688 0bbc 0206 20bd
000002b0: c966 323e e4ca 473c c49d fd3a 7734 0ebe
000002c0: 58cf a83d 6f4d 293a 572e 5d3c fdd9 9ebc
000002d0: 0c47 f0bc dbea 863d 6946 a03c deec 9f3d
000002e0: 460d 523d 423c 79bd c506 aa3c 808d 95bd
000002f0: d6f3 95bc c23f a1bd b16a c3bd 9b2a 923c
00000300: 8e2c 38bc 3143 89bd 8609 c2bd 1196 91bd
00000310: 75c2 0cbb 75de c5bd 9ca1 853c afcc 0a3d
00000320: 1ab8 8bb9 d175 6a3d fa9e dbbd 2faa 693c
00000330: bfdd 103d 289e a4bd 48e9 44bd 07aa 99bd
00000340: fcad a1bd cb0c b9bb 7262 8d3d 86f0 963d
00000350: f133 19be 0856 9b3d 6517 91bd a7a2 d3bb
00000360: 6fbb 8dbb eb6a d139 a0d2 97bd fbb3 813c
00000370: 78cf a43b 87b4 303d 8ed9 373d e9ec bfbc
00000380: b855 433d c1cd 82bd 287b 3e3c 8c79 76bd
00000390: 6bed f63d de7c bf3d 8379 903d 41ab 953d
000003a0: 3988 90bd 78ee d23d 8e14 62bb 37a7 bf3d
000003b0: 36b5 b4bd bb72 8c3d 1cba dd3c 5afc b5bd
000003c0: a7b8 e5bc dacd 393d b45a 513d 4f99 02bd
000003d0: 303b 3d3b a224 6bbd 90fb 543b 9caa 683d
000003e0: 33e7 8e3d 6159 f7b9 b4d5 af3d ae8f 8fbd
000003f0: c0a1 493d 7554 a7bd 9097 963d e7fe 00be

mixture_net.mol_attn_layers.0.self_attn_layer.out_proj.bias f4 [96]
0.0039048162 -0.0033804616 0.004513386 -0.0058073886 0.005798763 0.00032318028 -0.00032227352 -0.004293534
-0.005181265 0.0003851412 -0.0021983427 -0.006641384 0.010967312 -0.00027408297 -0.008070831 5.820297e-05
-0.005808998 -0.004906693 -0.0032838006 0.003220964 -0.0021848513 0.012187299 -0.0043367585 0.001122436
0.004010425 0.00014251976 -0.0005909745 -0.0008767052 0.0037379859 0.0023303383 -0.0023087405 -0.010441838
0.0048731156 0.010843568 0.0037015192 -0.0020376928 0.00086448464 -0.0011243479 -0.0021505915 0.0027165315
-0.0046232333 -0.005296421 0.0027197178 -0.01186375 0.00066778844 -0.0027357626 0.010620617 -0.007380642
-0.0061194845 -0.004470217 -0.001119175 -0.002857658 -0.00037572323 0.002659873 -0.002516019 0.0027494638
-0.0062655024 -0.0039830776 -0.0031014413 0.00053579285 -0.0014611476 0.007519185 0.0072925473 0.0006767507
0.0027676418 -0.00018798882 0.0054799705 -0.00079300656 -0.0064004264 0.0018065481 -0.004070596 0.00051348633
-0.002225249 -0.00014565779 0.002770393 0.0011128765 -0.0077796043 0.007837468 0.0034638422 -0.009774493
-0.007817393 -0.0068948544 -0.0010050058 0.009555441 -0.0065860036 -0.009468006 1.39776e-05 -0.004475697
-0.001848834 -0.00063015486 0.0077753095 -0.001828465 -0.0020815183 0.0019051285 -0.0011311355 0.0016647943
00000000: f2e7 7f3b bc8a 5dbb 07e5 933b e84b bebb
00000010: 8d03 be3b 8670 a939 d2f6 a8b9 c6b0 8cbb
00000020: 9ac7 a9bb c7ec c939 1212 10bb f89f d9bb
00000030: 3eb0 333c cbb2 8fb9 853b 04bc f71e 7438
00000040: 6859 bebb 53c8 a0bb 0835 57bb cf16 533b
00000050: b92f 0fbb 3dad 473c 5e1b 8ebb b41e 933a
00000060: e269 833b 5b71 1539 a1eb 1aba b1d2 65ba
00000070: fff8 743b 97b8 183b 3d4e 17bb 3e14 2bbc
00000080: a8ae 9f3b 38a9 313c 3095 723b d08a 05bb
00000090: 959e 623a db5e 93ba f0f0 0cbb d607 323b
000000a0: 7e7e 97bb 998d adbb 4b3d 323b 2d60 42bc
000000b0: 860e 2f3a 7b4a 33bb 1902 2e3c 50d9 f1bb
000000c0: f585 c8bb e67a 92bb 48b1 92ba 8c47 3bbb
000000d0: b8fc c4b9 4451 2e3b cbe3 24bb 5930 343b
000000e0: d84e cdbb 7a84 82bb 8d41 4bbb 7374 0c3a
000000f0: fa83 bfba 7f63 f63b 52f6 ee3b f867 313a
00000100: 5361 353b dd1e 45b9 5391 b33b c5e1 4fba
00000110: abba d1bb b2c9 ec3a a262 85bb 7c9b 063a
00000120: 7cd5 11bb b7bb 18b9 7b8f 353b f0dd 913a
00000130: 0dec febb b968 003c a101 633b 3225 20bc
00000140: 8614 00bc 3bee e1bb 66ba 83ba 6d8e 1c3c
00000150: 67cf d7bb b21f 1bbc 5681 6a37 dea8 92bb
00000160: 9354 f2ba fa30 25ba 06c8 fe3b 1ba9 efba
00000170: 156a 08bb 81b5 f93a 9c42 94ba 3a35 da3a

mixture_net.mol_attn_layers.0.addnorm1.norm.weight f4 [96]
0.9897847 1.0153208 0.9701787 0.99995124 1.0248892 1.0140369 1.0105673 0.99506044
1.0017132 1.0249096 0.9834157 0.9879487 0.9906274 0.99809074 0.99148744 0.9911703
0.9940224 0.9973474 1.0043677 0.9782938 1.0103273 1.0087565 0.9996294 1.018288
0.98521477 0.9953928 1.0077074 1.0216554 1.0022994 0.99355733 1.0432901 0.9735553
0.9978804 1.0369931 1.0379376 1.0681154 1.004208 0.9841748 1.0211079 1.0182229
1.0034962 1.0139225 1.02181 1.0651304 1.0400863 1.0154577 0.98608506 0.98136896
0.9934565 0.9801103 1.0092052 1.0160784 1.0055367 0.9569746 0.9831013 1.0420632
1.0249847 1.0073024 1.0231265 1.0371792 1.0161462 0.9951776 1.0028353 1.0377204
1.0016806 0.9951826 1.0208089 1.0187064 0.9981612 1.026349 1.0269946 0.9829328
1.0002574 1.0543656 1.0020878 1.0037571 1.0428196 1.0017154 1.038162 0.9913737
0.9901801 1.0139459 1.0011593 0.99202585 1.0029379 0.9753201 1.0018446 1.0206158
1.004247 1.0274081 1.0441071 1.0101638 1.0018879 0.9941334 1.012367 1.0252256
00000000: 8862 7d3f 08f6 813f a25d 783f cefc 7f3f
00000010: 922f 833f f6cb 813f 455a 813f 48bc 7e3f
00000020: 2338 803f 3d30 833f 22c1 7b3f 35ea 7c3f
00000030: c299 7d3f e082 7f3f 1fd2 7d3f 56bd 7d3f
00000040: 4178 7e3f 2952 7f3f 1f8f 803f 7671 7a3f
00000050: 6852 813f ef1e 813f b6e7 7f3f 4357 823f
00000060: 0937 7c3f 10d2 7e3f 8efc 803f 9bc5 823f
00000070: 594b 803f c659 7e3f 888a 853f ec3a 793f
00000080: 1775 7f3f 31bc 843f 24db 843f 01b8 883f
00000090: e389 803f e1f2 7b3f aab3 823f 2155 823f
000000a0: 9072 803f 36c8 813f acca 823f 3156 883f
000000b0: 8c21 853f 85fa 813f 1270 7c3f ff3a 7b3f
000000c0: 2a53 7e3f 82e8 7a3f a32d 813f db0e 823f
000000d0: 6db5 803f 4afc 743f 87ac 7b3f 5462 853f
000000e0: b332 833f 49ef 803f cff5 823f 4ac2 843f
000000f0: 1411 823f f6c3 7e3f e85c 803f 06d4 843f
00000100: 1237 803f 49c4 7e3f dea9 823f f964 823f
00000110: 7e87 7f3f 675f 833f 8f74 833f 7ca1 7b3f
00000120: 6f08 803f 74f5 863f 6a44 803f 1d7b 803f
00000130: 1d7b 853f 3638 803f 7ee2 843f abca 7d3f
00000140: 717c 7d3f fbc8 813f fd25 803f 68f5 7d3f
00000150: 4560 803f 94ae 793f 723c 803f 8aa3 823f
00000160: 2a8b 803f 1c82 833f 4da5 853f 0c4d 813f
00000170: dd3d 803f 877f 7e3f 3e95 813f 983a 833f

mixture_net.mol_attn_layers.0.addnorm1.norm.bias f4 [96]
0.0016164602 -0.0038591134 0.001106334 -0.009765296 0.011595684 0.0052292733 0.002972147 0.0029000863
0.003496262 -0.00045673773 0.004134998 -0.005579417 0.010442255 -0.00301569 -0.012608682 0.0016691429
-0.0076619796 -0.0055311047 -0.002237866 0.0007065453 -0.003277697 0.012110897 -0.003456065 0.004792239
0.0007806049 0.0026271765 -0.00097152486 -0.0043858364 -0.0030994075 0.0060452414 -0.002281346 -0.012103953
0.0099409195 0.0133317225 0.004332918 -0.00095586304 -0.00029686058 -0.0040946314 -0.0033268642 0.0027455941
-0.003404657 -0.002710232 -0.0038923542 -0.013647808 0.005316036 0.0050621843 0.014195011 -0.008537764
-0.0027163667 -0.002108347 0.0024806992 -0.0039378665 0.0010293314 0.009256127 -0.0037613194 0.00043220623
-0.0086371275 0.00023344396 -0.00068829855 0.006071728 0.005494205 0.009706796 0.0019940764 -0.0032762203
0.002389677 -0.00081217114 0.0011344925 0.0040679574 -0.011660115 0.010583034 -0.002445657 -0.0014362367
0.003516125 -0.0009146769 0.002809423 -0.002712008 -0.007746778 0.00961842 0.0019867544 -0.004087653
-0.008844913 -0.006158789 -0.0049502095 0.0123315565 -0.0050837668 -0.00840345 -0.0036210928 -0.006921869
-0.0013954628 -0.0010046046 -0.0021266537 -0.006780045 -0.0041351053 0.0024787718 -0.0027132684 0.0015779374
00000000: 67df d33a 2ee9 7cbb 6902 913a 9ffe 1fbc
00000010: d3fb 3d3c 535a ab3b 5ac8 423b 600f 3e3b
00000020: 8b21 653b 4d76 efb9 e17e 873b 8bd3 b6bb
00000030: fe15 2b3c e2a2 45bb a594 4ebc 24c7 da3a
00000040: 5811 fbbb 453e b5bb 29a9 12bb 7437 393a
00000050: a1ce 56bb c96c 463c 267f 62bb 3708 9d3b
00000060: 82a1 4c3a b52c 2c3b eead 7eba 10b7 8fbb
00000070: 6e1f 4bbb 2917 c63b a282 15bb a94f 46bc
00000080: 3ddf 223c 4c6d 5a3c 27fb 8d3b e292 7aba
00000090: f4a3 9bb9 422c 86bb 8507 5abb 6def 333b
000000a0: aa20 5fbb 269e 31bb de16 7fbb 0e9b 5fbc
000000b0: 2432 ae3b aee0 a53b 3192 683c fae1 0bbc
000000c0: 1205 32bb 312c 0abb 3a93 223b 3809 81bb
000000d0: a1ea 863a 03a7 173c 7880 76bb bd99 e239
000000e0: bd82 0dbc a3c8 7439 ef6e 34ba 59f5 c63b
000000f0: bb08 b43b 4109 1f3c 0daf 023b dbb5 56bb
00000100: 219c 1c3b e2e7 54ba 40b3 943a 804c 853b
00000110: 110a 3fbc 7664 2d3c 5147 20bb 1b40 bcba
00000120: ca6e 663b edc6 6fba 4c1e 383b f2bb 31bb
00000130: afd8 fdbb 9496 1d3c 3534 023b b8f1 85bb
00000140: 41ea 10bc abcf c9bb 5e35 a2bb 4c0a 4a3c
00000150: ba95 a6bb a0ae 09bc db4f 6dbb d8d0 e2bb
00000160: f6e7 b6ba f0ac 83ba 545f 0bbb 242b debb
00000170: c77f 87bb e472 223b 17d1 31bb cbd2 ce3a

mixture_net.mol_attn_layers.0.ffn.layers.0.weight f4 [96, 96]
-0.03773067 -0.060192663 -0.0797606 0.02421677 0.045445543 0.043229528 0.017374154 0.036707908
-0.08358251 0.06711536 -0.002281017 0.0024981992 0.079834454 0.09600935 0.060783163 -0.038298983
0.038532466 0.053501185 0.09741396 0.061643068 0.002365869 -0.07256557 0.086815365 0.043074213
-0.012324838 -0.04823131 -0.07313424 -0.10449228 -0.115730256 -0.08997051 -0.029052524 0.03171992
-0.10842777 -0.0089579765 0.017094838 0.0016091653 -0.03909658 -0.03305877 -0.05862398 -0.015087579
0.033969123 -0.069572315 -0.0562981 -0.06345364 -0.08233086 0.09108415 -0.02092994 0.059203852
0.0043537337 0.06319378 0.06923307 -0.021828802 0.08425318 -0.08841734 -0.058963574 -0.106770866
0.010650722 -0.022524068 -0.086235814 -0.011758314 0.035218805 0.08157221 -0.01109357 0.07651183
0.00046990538 -0.0618093 0.047823824 -0.071019895 0.10875553 0.05364986 -0.07110842 0.11300465
0.07860909 0.04153134 -0.11628932 -0.020023702 -0.043206293 0.03391915 0.048187006 -0.003910533
-0.08545391 -0.05517775 -0.08471232 -0.02921439 0.011515006 0.06757101 -0.020968474 -0.036187254
0.04198889 0.077411324 -0.047686644 0.026424812 0.035152793 -0.09071725 0.12025973 0.039891843
-0.056464154 -0.020139385 -0.024244595 0.032092582 0.022520633 0.11034779 -0.045454744 0.03565856
0.080594555 -0.07067799 0.004039935 0.010835474 0.00830026 0.13352372 -0.01754048 0.09035841
-0.097043976 -0.013071335 0.018073011 0.04985611 -0.04321001 0.07814948 -0.013146152 0.04662467
-0.058319055 -0.017831048 -0.035053644 -0.002151804 0.06911977 -0.029886974 0.043173168 0.010390102
-0.08463972 0.07490513 -0.024832664 0.019538214 0.040242705 0.07961389 0.007848944 0.06629385
-0.06256418 -0.03344791 0.058317106 0.0052058306 -0.05449131 0.085054904 -0.019796006 -0.024637215
0.06164161 0.07696941 0.073304534 -0.05824402 -0.07788585 0.057789404 -0.019601256 -0.052779794
-0.024690403 -0.025181465 0.040670305 0.07686149 0.01218402 -0.069488086 -0.11710612 -0.12209679
0.027994351 0.02749473 -0.07987397 -0.03038393 0.02924616 0.16095322 -0.036229774 -0.07817931
0.075686835 0.014875574 0.01918332 -0.01824725 -0.010488743 0.0072824545 0.012511335 -0.039092
0.050412003 -0.108118564 -0.02856928 -0.020377783 0.07311198 0.100394756 0.025392445 -0.124249265
-0.006497432 0.05340405 -0.08817517 -0.024807975 -0.06417847 0.11001514 0.11001518 -0.09162717
-0.017071148 0.04158214 0.01637966 0.007935157 0.0076639126 -0.09561131 0.009055875 0.03421466
-0.026613308 -0.026969915 -0.1119902 -0.031580742 -0.044784 -0.10779727 -0.08579125 0.02656943
0.010444353 -0.055549636 0.09047564 0.06852206 -0.046631936 0.017373072 0.06838703 0.033666298
-0.035117097 0.017296713 0.073130496 0.08206606 0.065746196 0.076812774 -0.04039027 -0.019279392
0.024401352 0.07870634 0.100808844 -0.04284859 0.04005208 -0.05621825 -0.0739398 0.10700309
0.0044917045 0.12946455 -0.023986721 -0.09054784 -0.07467798 0.017671127 -0.11384981 0.102678865
-0.051529083 0.010516164 0.061588768 -0.07397094 -0.06242162 0.025020674 -0.08716486 -0.109705895
-0.023513613 -0.019090978 -0.024511594 -0.032032434 -0.10236824 -0.08653123 -0.07609403 0.02641723
00000000: 7a8b 1abd 958c 76bd 8759 a3bd 3f62 c63c
00000010: 1b25 3a3d 7211 313d 3e54 8e3c 085b 163d
00000020: 4f2d abbd c773 893d 1d7d 15bb d4b8 233b
00000030: 3f80 a33d 8da0 c43d c4f7 783d 65df 1cbd
00000040: 38d4 1d3d 0f24 5b3d f880 c73d 717d 7c3d
00000050: b20c 1b3b 429d 94bd 41cc b13d 966e 303d
00000060: 1eee 49bc 328e 45bd 68c7 95bd 0c00 d6bd
00000070: fc03 edbd 7542 b8bd 8fff edbc bfec 013d
00000080: 610f debd 7ac4 12bc 790a 8c3c a1ea d23a
00000090: bc23 20bd a268 07bd b31f 70bd e531 77bc
000000a0: 3523 0b3d ee7b 8ebd d698 66bd fbf3 81bd
000000b0: 159d a8bd 548a ba3d 4475 abbc bd7f 723d
000000c0: c4a9 8e3b be6b 813d 11ca 8d3d 51d2 b2bc
000000d0: ee8c ac3d 2614 b5bd ca83 71bd afaa dabd
000000e0: 5e80 2e3c 6584 b8bc 679c b0bd f2a5 40bc
000000f0: 9841 103d 550f a73d cec1 35bc 3cb2 9c3d
00000100: a25d f639 c02b 7dbd eae2 433d e172 91bd
00000110: 38bb de3d f5bf 5b3d 4ba1 91bd fb6e e73d
00000120: cdfd a03d c41c 2a3d 1829 eebd bf08 a4bc
00000130: 15f9 30bd ceee 0a3d bd5f 453d ee23 80bb
00000140: 7602 afbd 1002 62bd a77d adbd 0453 efbc
00000150: 70a9 3c3c ab62 8a3d 14c6 abbc 1639 14bd
00000160: 8bfc 2b3d d489 9e3d 1253 43bd d978 d83c
00000170: 60fc 0f3d f7c9 b9bd bc4a f63d a165 233d
00000180: f546 67bd 5afb a4bc 9a9c c6bc 8373 033d
00000190: 317d b83c 06fe e13d c12e 3abd b60e 123d
000001a0: c20e a53d 9fbf 90bd 6e61 843b 4687 313c
000001b0: d0fd 073c 71ba 083e 0db1 8fbc d40d b93d
000001c0: febe c6bd 2729 56bc da0d 943c ec35 4c3d
000001d0: fbfc 30bd d60c a03d f562 57bc 83f9 3e3d
000001e0: f6df 6ebd 6b12 92bc 6994 0fbd 4805 0dbb
000001f0: aa8e 8d3d 87d5 f4bc 59d6 303d 3f3b 2a3c
00000200: 9757 adbd dc67 993d df6d cbbc 9b0e a03c
00000210: 89d5 243d 9b0c a33d db98 003c 12c5 873d
00000220: a621 80bd ad00 09bd ebdd 6e3d ac95 aa3b
00000230: 4832 5fbd 4431 ae3d 3c2b a2bc fcd3 c9bc
00000240: ea7b 7c3d 23a2 9d3d b020 963d 4891 6ebd
00000250: 9e82 9fbd 95b4 6c3d d092 a0bc a02f 58bd
00000260: 8743 cabc 5c49 cebc e895 263d 8f69 9d3d
00000270: 7c9f 473c c54f 8ebd 55d5 efbd e20d fabd
00000280: 6954 e53c a13c e13c f794 a3bd b8e7 f8bc
00000290: a595 ef3c ecd0 243e ac65 14bd 791c a0bd
000002a0: b301 9b3d aeb8 733c 5726 9d3c 427b 95bc
000002b0: fad8 2bbc a8a1 ee3b 58fc 4c3c ef1e 20bd
000002c0: d17c 4e3d 446d ddbd 1f0a eabc 4fef a6bc
000002d0: bcbb 953d c49b cd3d d103 d03c 6676 febd
000002e0: 69e8 d4bb 35be 5a3d 2f95 b4bd 183a cbbc
000002f0: 0070 83bd 9e4f e13d a44f e13d 07a7 bbbd
00000300: cbd8 8bbc 0952 2a3d a32e 863c 7602 023c
00000310: 8f21 fb3b ddcf c3bd 185f 143c ac24 0c3d
00000320: 2704 dabc 03f0 dcbc 1e5b e5bd cf5a 01bd
00000330: 6d6f 37bd d1c4 dcbd 53b3 afbd 22a8 d93c
00000340: cb1e 2b3c 0488 63bd 4b4b b93d 4b55 8c3d
00000350: 2101 3fbd f951 8e3c 800e 8c3d ace5 093d
00000360: f2d6 0fbd d6b1 8d3c 71c5 953d 4012 a83d
00000370: f1a5 863d 0450 9d3d 4570 25bd d1ef 9dbc
00000380: 58e5 c73c ca30 a13d de74 ce3d 0182 2fbd
00000390: a60d 243d 1c45 66bd c06d 97bd 7024 db3d
000003a0: 262f 933b 5b92 043e cd7f c4bc 2571 b9bd
000003b0: c5f0 98bd 0ac3 903c 172a e9bd 4c49 d23d
000003c0: 2910 53bd fd4b 2c3c 8144 7c3d 147e 97bd
000003d0: d0ad 7fbd 28f8 cc3c 7d83 b2bd 7cad e0bd
000003e0: 9f9f c0bc af64 9cbc 8acc c8bc 7134 03bd
000003f0: 71a6 d1bd 4937 b1bd 30d7 9bbd f268 d83c

mixture_net.mol_attn_layers.0.ffn.layers.0.bias f4 [96]
0.10174572 -0.012202233 0.034923244 0.020161103 0.04321551 -0.07283291 -0.010173147 -0.01659644
-0.08397127 0.012472652 -0.017741317 -0.067809634 0.07896429 0.06784753 0.10388546 -0.05571439
0.014893585 -0.08761418 0.010780335 0.07400695 -0.10536274 -0.056145 -0.08301593 -0.07104716
0.044913936 0.04517818 -0.08321214 0.007974557 0.030210884 -0.078694195 0.02245505 -0.08000695
0.014765154 0.042853422 -0.010583972 0.058297258 0.040563047 -0.042042222 0.026374977 0.04447161
0.040903002 0.059175584 -0.075147934 -0.01747633 -0.08433806 0.07638953 -0.080219395 0.052415185
-0.09309755 -0.0326059 -0.030465765 0.061151486 0.06331253 -0.0772739 0.017078804 0.04479973
-0.08158889 0.027159018 0.020382544 0.08954338 -0.011039289 -0.07865874 0.0009066932 -0.008893424
0.05812497 -0.01917585 0.08892078 -0.08593155 -0.0770711 -0.036735795 0.012152705 -0.001360367
-0.011141934 0.026452769 0.09532777 -0.10740943 0.037606295 -0.06805972 -0.037091326 -0.028559376
0.07389377 -0.049299717 -0.07612551 0.026863614 0.06384845 -0.0927834 -0.051944822 -0.06368678
0.08470578 -0.07188344 -0.0945605 -0.017710904 0.054304354 -0.056433056 0.05236916 0.055851597
00000000: 0f60 d03d e0eb 47bc ad0b 0f3d e628 a53c
00000010: bf02 313d 6c29 95bd 45ad 26bc 42f5 87bc
00000020: 21f9 abbd 185a 4c3c 3d56 91bc c7df 8abd
00000030: 08b8 a13d a5f3 8a3d e6c1 d43d c634 64bd
00000040: 3904 743c 106f b3bd 01a0 303c f590 973d
00000050: 6cc8 d7bd 4df8 65bd 4204 aabd 2c81 91bd
00000060: adf7 373d c10c 393d 206b aabd b7a7 023c
00000070: d17c f73c 6c2a a1bd a7f3 b73c afda a3bd
00000080: 8be9 713c 1287 2f3d 6568 2dbc 1bc9 6e3d
00000090: 7025 263d 7734 2cbd 5610 d83c dd27 363d
000000a0: e889 273d 1962 723d 29e7 99bd 852a 8fbc
000000b0: 6fb9 acbd 1d72 9c3d 114a a4bd 4eb1 563d
000000c0: eea9 bebd c48d 05bd 5793 f9bc fb79 7a3d
000000d0: 00aa 813d c741 9ebd d9e8 8b3c ec7f 373d
000000e0: 1318 a7bd 977c de3c 4bf9 a63c 8562 b73d
000000f0: 22de 34bc d517 a1bd 27af 6d3a b9b5 11bc
00000100: 7314 6e3d ac16 9dbc 191c b63d e1fc afbd
00000110: 74d7 9dbd 4678 16bd 241c 473c 584e b2ba
00000120: a98c 36bc 7ab3 d83c 353b c33d 7af9 dbbd
00000130: 0f09 1a3d e562 8bbd 13ed 17bd 5af5 e9bc
00000140: 9e55 973d 80ee 49bd b1e7 9bbd 1511 dc3c
00000150: fac2 823d 3905 bebd 18c4 54bd 376e 82bd
00000160: 397a ad3d a037 93bd efa8 c1bd 7516 91bc
00000170: 3e6e 5e3d 5926 67bd 0b81 563d a5c4 643d

mixture_net.mol_attn_layers.0.ffn.layers.2.weight f4 [96, 96]
0.0840013 0.013603956 0.022218669 0.051103387 0.1263953 -0.048303008 -0.006790116 0.004150687
0.031768907 -0.08499063 0.01750677 0.0061313366 -0.08722372 0.05576779 -0.0054036756 0.023879392
-0.07019064 -0.06456215 0.048034444 -0.06895518 -0.028219806 -0.072928645 -0.072699755 -0.06795891
0.06748422 0.012030635 -0.086234555 0.010806019 -0.08634816 -0.041621264 -0.057802133 -0.02373358
0.024738196 -0.008053464 0.020344473 0.084946655 0.016946046 -0.10350914 0.043836977 -0.040824715
-0.050735127 -0.039273284 0.0642977 -0.00061817927 -0.078489795 0.009859878 0.097816095 -0.057297595
0.06326252 -0.046942987 -0.05881758 -0.033361983 0.032054957 -0.06417692 0.104338035 0.04605602
-0.087521836 0.0343006 0.07365504 -0.057329416 0.07106641 -0.028786177 -0.016751785 -0.040676072
-0.07300429 -0.05431098 0.052270472 -0.09119111 0.013639155 -0.048320305 -0.04168802 -0.00826832
-0.117073044 0.039681748 -0.09815092 0.047377095 0.072157115 -0.007496287 -0.0045192363 -0.014331793
-0.071071826 -0.0050098486 -0.055725858 0.017104423 0.07640496 0.082924604 0.063636124 0.021131707
-0.041739166 -0.07632052 0.049751885 0.09351705 0.032485817 0.0103184795 0.09777452 -0.09004528
0.045279916 0.028262733 -0.09380865 0.038796637 0.019137664 0.078562416 -0.029207071 -0.11620393
-0.0004585242 -0.10434368 -0.08438248 -0.04766068 -0.10901955 -0.0344945 -0.047446534 0.09652527
-0.048628744 -0.038928524 0.02775305 -0.07277564 0.02912146 0.032915168 0.110454485 -0.084884785
0.036434524 0.04908897 0.11457167 0.028603131 -0.023803694 -0.013896586 0.036036782 -0.0652307
0.10911015 -0.010687109 0.05544527 -0.01389902 -0.07496089 0.03217917 0.09361566 -0.008951565
0.026085706 -0.08411815 -0.022277456 0.094751865 -0.12422792 0.08901368 0.17601635 0.020331407
-0.063439466 -0.097524434 0.09656921 -0.054351717 0.08024307 -0.07887637 0.09332639 -0.006215146
-0.0015505097 0.06743098 0.010114796 -0.012877308 0.0008984129 -0.027456157 -0.029479042 -0.013730408
-0.041892562 -0.08459351 -0.094630025 0.009786169 -0.004802169 0.057573635 0.0037036794 0.03279124
0.06655156 -0.049436923 -0.099456675 0.06262356 -0.052523393 0.037742514 -0.004220859 -0.095479906
0.025882011 0.054561764 -0.027867742 0.0037917492 0.1183146 -0.04356417 0.03585652 -0.008560784
-0.015654355 0.029650569 -0.023364536 0.08683986 0.06104466 -0.08524748 -0.048884563 -0.059786618
-0.090078734 0.019172125 -0.07359579 0.03408486 -0.0170254 0.015952758 -0.021712609 0.077455305
-0.072211176 -0.024422646 -0.0736237 -0.09583165 0.011463061 0.05653869 -0.089926176 -0.08325314
-0.032042623 -0.07026674 -0.009419981 0.14087963 -0.024816472 -0.04069468 0.055284694 0.02334888
-0.07157804 -0.030993551 0.10033632 -0.06250733 -0.021794349 -0.021687774 0.017017022 -0.07180683
-0.081017375 -0.0641135 -0.046750974 0.0879444 -0.0023135222 0.024387803 -0.060419016 0.019940801
0.03331442 0.07963136 -0.07920698 0.076084815 0.076940976 0.08277677 0.0017119149 -0.045335516
-0.06279609 0.019360917 0.018919941 -0.044215597 0.035731927 -0.02871472 0.07493306 -0.073844776
-0.036047526 0.037982386 0.012065911 -0.077431224 -0.014419536 0.100272864 0.044286862 0.077930294
00000000: e008 ac3d 21e3 5e3c ed03 b63c c951 513d
00000010: c56d 013e 60d9 45bd 9f7f debb 7c02 883b
00000020: 1d20 023d 910f aebd 5c6a 8f3c 61e9 c83b
00000030: 5aa2 b2bd c46c 643d 5111 b1bb b79e c33c
00000040: 1cc0 8fbd 2939 84bd c4bf 443d 6038 8dbd
00000050: 392d e7bc 9d5b 95bd 9ce3 94bd 0a2e 8bbd
00000060: 2b35 8a3d 241c 453c be9b b0bd bb0b 313c
00000070: 4ed7 b0bd 0f7b 2abd eec1 6cbd ed6c c2bc
00000080: c2a7 ca3c adf2 03bc 74a9 a63c 83f8 ad3d
00000090: 6fd2 8a3c 9afc d3bd 678e 333d d137 27bd
000000a0: a3cf 4fbd 06dd 20bd 83ae 833d 4f0d 22ba
000000b0: 42bf a0bd 538b 213c ce53 c83d e2b0 6abd
000000c0: c88f 813d 4a47 40bd b4ea 70bd 93a6 08bd
000000d0: 0f4c 033d 306f 83bd 2eaf d53d 3da5 3c3d
000000e0: a63e b3bd c97e 0c3d 74d8 963d 40d2 6abd
000000f0: 448b 913d fdd0 ebbc 0a3b 89bc f49b 26bd
00000100: 4683 95bd 3175 5ebd 9019 563d 68c2 babd
00000110: c376 5f3c 83eb 45bd 0fc1 2abd d977 07bc
00000120: fec3 efbd 5489 223d 5903 c9bd 7c0e 423d
00000130: 1cc7 933d 6aa3 f5bb 1a16 94bb e6cf 6abc
00000140: 1b8e 91bd a829 a4bb cc40 64bd 931e 8c3c
00000150: 347a 9c3d 60d4 a93d a853 823d 671c ad3c
00000160: b0f6 2abd ef4d 9cbd a2c8 4b3d de85 bf3d
00000170: d90f 053d d70e 293c 023e c83d a969 b8bd
00000180: 6f77 393d 3f87 e73c c01e c0bd 39e9 1e3d
00000190: 97c6 9c3c 55e5 a03d ab43 efbc 53fc edbd
000001a0: 1466 f0b9 24b2 d5bd b9d0 acbd d837 43bd
000001b0: a445 dfbd 1b4a 0dbd 4c57 42bd 0aaf c53d
000001c0: ef2e 47bd 8473 1fbd 5d5a e33c 650b 95bd
000001d0: 2190 ee3c 0ed2 063d f635 e23d 13d8 adbd
000001e0: 5e3c 153d 8411 493d 8da4 ea3d 1d51 ea3c
000001f0: f7ff c2bc 82ae 63bc 4e9b 133d ac97 85bd
00000200: 2475 df3d fc18 2fbc 941a 633d b7b8 63bc
00000210: 1885 99bd 4ece 033d 91b9 bf3d 96a9 12bc
00000220: b1b1 d53c 2346 acbd 367f b6bc 440d c23d
00000230: 356b febd ce4c b63d a13d 343e 0d8e a63c
00000240: 8dec 81bd e4ba c7bd 14c6 c53d e89f 5ebd
00000250: 7b56 a43d ef89 a1bd e821 bf3d 6ca8 cbbb
00000260: 793a cbba 4119 8a3d 88b8 253c 58fb 52bc
00000270: 7883 6b3a bceb e0bc 087e f1bc 81f5 60bc
00000280: 8997 2bbd 5d3f adbd 63cd c1bd 2b56 203c
00000290: 835b 9dbb 55d2 6b3d 6eb9 723b 1b50 063d
000002a0: 2f4c 883d 5f7e 4abd f1af cbbd c840 803d
000002b0: c522 57bd e597 1a3d 224f 8abb f88a c3bd
000002c0: 8306 d43c 287c 5f3d e44a e4bc ff7e 783b
000002d0: ed4e f23d 5870 32bd 49de 123d 8842 0cbc
000002e0: 903d 80bc c0e5 f23c fc66 bfbc 19d9 b13d
000002f0: f709 7a3d 3b96 aebd 2e3b 48bd d0e2 74bd
00000300: 337b b8bd dc0e 9d3c 64b9 96bd 919c 0b3d
00000310: da78 8bbc 5caf 823c a4de b1bc e3a0 9e3d
00000320: 74e3 93bd 0012 c8bc 06c8 96bd 6243 c4bd
00000330: 90cf 3b3c 1d95 673d 372b b8bd 9f80 aabd
00000340: 203f 03bd 02e8 8fbd 4456 1abc c042 103e
00000350: ea4b cbbc 77af 26bd 3472 623d 2646 bf3c
00000360: 8297 92bd 30e6 fdbc 217d cd3d d803 80bd
00000370: 108a b2bc 8faa b1bc 4867 8b3c 760f 93bd
00000380: 70ec a5bd f04d 83bd f37d 3fbd 321c b43d
00000390: 769e 17bb eec8 c73c ee79 77bd e45a a33c
000003a0: b474 083d c415 a33d 4537 a2bd 5bd2 9b3d
000003b0: 3b93 9d3d de86 a93d 5562 e03a bcb1 39bd
000003c0: 3d9b 80bd c99a 9e3c fefd 9a3c 6a1b 35bd
000003d0: a45b 123d 223b ebbc 8176 993d ee3b 97bd
000003e0: 92a6 13bd 6b93 1b3d 19b0 453c 4394 9ebd
000003f0: eb3f 6cbc dc5b cd3d 2466 353d eb99 9f3d
