scripts_chemix/chemix_weights/best_model_dict_2.pt (torch, 728370 bytes, 33 tensors)

input_net.weight f4 [96, 196]
0.045242745 -0.0313558 -0.012097621 0.0155774625 -0.10339271 0.0463413 -0.032599844 0.060631752
0.013034835 -0.010562973 0.01010646 0.011946352 0.014058051 -0.024388693 0.0009832213 -0.006955504
0.017978359 0.004347076 0.051833466 0.018552808 -0.0009549381 -0.002631238 -0.018734848 -0.027593711
-0.039032213 0.00017999587 0.021657364 0.035496306 -0.06453867 0.042121287 0.021402437 0.066910535
0.05408207 -0.06493477 -0.07195464 -0.033444606 0.047186527 -0.0016319065 0.018535897 -0.032307435
0.06614028 -0.041465625 0.053770892 0.008595989 -0.04112342 0.038705893 0.004237231 0.01966384
-0.021731725 -0.023804344 -0.066064574 -0.030133735 0.037459243 -0.087164916 0.06748784 0.050855212
0.010880657 -0.069838144 0.030119026 0.026925663 -0.050758738 0.035508145 0.039987188 0.046859466
-0.046530575 -0.013144861 -0.004069301 0.0035366386 -0.052637745 -0.047559362 0.032432858 -0.013061184
0.042345222 -0.008952183 0.07453994 0.028304024 -0.0008506416 0.031748634 -0.053020254 0.04027782
-0.04752316 -0.06955665 0.0052858703 -0.0031754682 0.03972918 -0.029814186 -0.09345544 0.07334357
0.008063004 0.0468064 0.017675325 -0.06790622 -0.06124197 0.021033686 -0.07523981 -0.051206987
0.014706253 0.002631927 -0.029726826 -0.022539767 0.0524481 -0.006735157 0.039721213 0.025390925
-0.042530376 -0.06379556 0.10022978 0.007608848 0.082643665 -0.00050371606 0.022873247 0.051389605
0.019143224 -0.03970228 0.007622809 0.10498871 0.046949152 0.046055373 -0.033431027 -0.054287918
-0.032221925 0.012871103 0.06610123 -0.057733133 0.07835185 -0.042661626 -0.06954288 -0.016004743
0.029032053 0.08018451 -0.042442683 0.03777591 0.06447092 0.067859985 0.041953113 0.06635928
0.046935122 0.0029353492 -0.049105097 -0.056097582 -0.059875812 -0.004667835 -0.056613825 0.08514958
0.05510385 -0.02287013 -0.0075898273 0.025095286 0.046020333 0.0424728 -0.038382705 0.06612988
-0.006156084 0.030932726 -0.07771566 0.0033541122 -0.06484087 -0.021570014 0.048076637 -0.05658941
-0.051907636 0.013689473 0.024099695 0.05429288 -0.07428745 0.009360004 -0.027100554 -0.013112576
-0.05413839 -0.029906757 -0.031591866 0.032582976 -0.0098391045 0.02453188 0.077945106 0.0726867
0.044857908 0.0123341195 -0.05138536 0.08267546 -0.011522573 -0.012782739 -0.05720417 -0.0063018794
-0.05252414 0.046244048 -0.0710844 -0.08481271 -0.012761731 -0.039192278 0.029070431 -0.020998344
-0.10151044 0.017191388 0.035538413 -0.0541888 0.027756125 0.03002743 0.112818144 -0.078106105
0.023996161 -0.018233879 0.09979698 -0.032125127 0.048361097 0.010176768 0.0220095 -0.031373344
-0.057641786 0.03927026 0.0009132583 0.013993932 -0.0633373 0.09543703 0.08786882 0.06111849
0.084734745 -0.05649602 -0.019666318 0.060643658 -0.050206322 0.048944317 -0.06357283 -0.0603408
0.042474005 -0.07153593 0.0006606805 0.04543185 0.05091088 0.08087642 -0.020953197 -0.04709247
0.12014009 0.008033771 -0.043175265 0.018310089 -0.050128046 0.038551368 0.035809763 -0.07588273
-0.07116498 0.0071684276 0.016251335 0.022821197 -0.038819596 -0.0059477296 -0.064454675 -0.044201512
-0.070141725 0.06504623 0.020785639 -0.026861198 0.08207533 -0.015040099 -0.012216915 -0.050066277
00000000: 7550 393d f06e 00bd 1a35 46bc 9d38 7f3c
00000010: 8fbf d3bd 60d0 3d3d 6a87 05bd 0059 783d
00000020: 1090 553c 5210 2dbc 9195 253c a2ba 433c
00000030: bd53 663c ccca c7bc 6fdf 803a ffea e3bb
00000040: 5a47 933c eb71 8e3b 544f 543d 0ffc 973c
00000050: d054 7aba d970 2cbb d379 99bc 350c e2bc
00000060: 3ee0 1fbd 46bd 3c39 c96a b13c 9364 113d
00000070: da2c 84bd 5f87 2c3d 2a54 af3c 6408 893d
00000080: 2985 5d3d 85fc 84bd f45c 93bd 36fd 08bd
00000090: a946 413d b2e5 d5ba 98d8 973c cd54 04bd
000000a0: 8e74 873d dcd7 29bd de3e 5c3d 31d6 0c3c
000000b0: 0871 28bd 128a 1e3d 78d8 8a3b 1016 a13c
000000c0: bb06 b2bc 5401 c3bc dd4c 87bd 06db f6bc
000000d0: dd6e 193d 8583 b2bd 1137 8a3d 8e4d 503d
000000e0: c844 323c 4d07 8fbd 2dbc f63c 3593 dc3c
000000f0: 65e8 4fbd fd70 113d 9bc9 233d b6ef 3f3d
00000100: d896 3ebd 8b5d 57bc c557 85bb f3c6 673b
00000110: ad9a 57bd 9bcd 42bd 51d8 043d 94fe 55bc
00000120: 2f72 2d3d 2dac 12bc 65a8 983d d7dd e73c
00000130: 97fd 5eba db0a 023d c42b 59bd 5bfa 243d
00000140: a5a7 42bd b873 8ebd 1835 ad3b 841b 50bb
00000150: 11bb 223d e13c f4bc 9165 bfbd 2735 963d
00000160: b11a 043c 11b8 3f3d d8cb 903c 6b12 8bbd
00000170: dcd8 7abd d64e ac3c 5417 9abd 6bbe 51bd
00000180: 7ff2 703c 687c 2c3b ac85 f3bc 51a5 b8bc
00000190: d2d3 563d 98b2 dcbb b6b2 223d a100 d03c
000001a0: 5534 2ebd 3fa7 82bd 4545 cd3d a553 f93b
000001b0: 1541 a93d d00b 04ba ad60 bb3c e87d 523d
000001c0: 40d2 9c3c dc9e 22bd c2c8 f93b 5204 d73d
000001d0: c14d 403d 8fa4 3c3d f9ee 08bd 025d 5ebd
000001e0: 23fb 03bd 52e1 523c 1560 873d 9479 6cbd
000001f0: ef76 a03d f5bd 2ebd 7f6c 8ebd 611c 83bc
00000200: a1d4 ed3c c737 a43d 61d8 2dbd eaba 1a3d
00000210: 5409 843d 2dfa 8a3d 07d7 2b3d 60e7 873d
00000220: 0b3f 403d fd5e 403b 6d22 49bd 94c6 65bd
00000230: 5740 75bd a3f4 98bb e6e3 67bd e762 ae3d
00000240: 93b4 613d 245a bbbc 16b4 f8bb a194 cd3c
00000250: d17f 3c3d f5f7 2d3d 2f37 1dbd 1a6f 873d
00000260: fab8 c9bb a166 fd3c 6329 9fbd aad0 5b3b
00000270: 4acb 84bd 99b3 b0bc 02ec 443d 4cca 67bd
00000280: 1a9d 54bd d049 603c b96c c53c 3662 5e3d
00000290: 0524 98bd b45a 193c fb01 debc 21d6 56bc
000002a0: 37c0 5dbd 04ff f4bc 7966 01bd ba75 053d
000002b0: 3234 21bc 15f7 c83c afa1 9f3d c4dc 943d
000002c0: edbc 373d 0c15 4a3c 7579 52bd c051 a93d
000002d0: 2dc9 3cbc b16e 51bc eb4e 6abd ff7f cebb
000002e0: 8d23 57bd 666a 3d3d b394 91bd 49b2 adbd
000002f0: 9416 51bc 1588 20bd 1d25 ee3c b804 acbc
00000300: b5e4 cfbd f4d4 8c3c ba90 113d 13f5 5dbd
00000310: d060 e33c 16fc f53c 330d e73d 18f6 9fbd
00000320: 9993 c43c 375f 95bc 5c62 cc3d a395 03bd
00000330: 4916 463d 75bc 263c 444d b43c 5681 00bd
00000340: cb19 6cbd dad9 203d ba67 6f3a ce46 653c
00000350: fdb6 81bd 7d74 c33d 91f4 b33d 6257 7a3d
00000360: 6989 ad3d 5f68 67bd 421b a1bc 7c65 783d
00000370: 25a5 4dbd d679 483d 7932 82bd ea27 77bd
00000380: 39f9 2d3d 6e81 92bd 8531 2d3a bf16 3a3d
00000390: ed87 503d 89a2 a53d 0aa6 abbc 09e4 40bd
000003a0: 020c f63d 14a0 033c 8cd8 30bd 0aff 953c
000003b0: 1153 4dbd 0ae8 1d3d 42ad 123d 6868 9bbd
000003c0: f2be 91bd 21e5 ea3b 8521 853c 85f3 ba3c
000003d0: 4c01 1fbd 2ce5 c2bb d000 84bd a50c 35bd
000003e0: 77a6 8fbd f536 853d a546 aa3c 040c dcbc
000003f0: 1c17 a83d bf6a 76bc 7529 48bc 4c12 4dbd

input_net.bias f4 [96]
0.034512684 0.012055301 -0.045181 -0.054189175 0.049332 -0.041751344 0.05640562 0.017128633
0.04266193 -0.015872147 -0.06062511 -0.056275252 -0.059758216 0.03339147 0.02256394 -0.01998365
0.0640944 -0.050178066 -0.06997535 -0.06952416 -0.0017759644 -0.0058135004 0.017781079 -0.0028934872
-0.049161762 -0.026104297 -0.05089061 -0.06138262 0.049698163 0.0008580499 -0.05886893 0.061738472
0.054728 0.057825528 0.010267162 0.04122789 0.0496418 -0.0609597 0.02531411 -0.054984275
0.0012654244 0.031451114 0.06878616 -0.049025673 0.002315576 -0.029597305 -0.0014589528 -0.0056705596
-0.04191366 -0.04186312 -0.0041362564 0.068084 -0.061060358 -0.046252925 0.05851501 -0.05375036
-0.051377773 0.0038627156 0.033062838 -0.029724156 -0.0042011016 -0.021822453 -0.044956584 0.043160357
-0.005127197 0.07113798 -0.0747274 -0.041961882 0.04488773 -0.07015497 0.050450403 -0.0009665074
0.013493997 0.07345367 0.04061602 -0.024888393 -0.05321586 -0.01007124 -0.042231563 0.037725423
-0.005355426 -0.012200081 -0.052356422 0.009671413 -0.056368984 -0.04572092 0.009221142 -0.0073103085
-0.0037856647 0.062502675 -0.07237661 0.03363116 0.05163071 -0.023409694 0.026179235 -0.031142216
00000000: 2c5d 0d3d 9983 453c b60f 39bd 78f5 5dbd
00000010: 5a10 4a3d 7503 2bbd 9409 673d 5951 8c3c
00000020: 47be 2e3d 4e06 82bc 0952 78bd e180 66bd
00000030: 08c5 74bd 7ec5 083d 03d8 b83c c0b4 a3bc
00000040: ed43 833d 8487 4dbd 3c4f 8fbd af62 8ebd
00000050: 7ac7 e8ba 2d7f bebb a0a9 913c a9a0 3dbb
00000060: d85d 49bd aed8 d5bc ac72 50bd 586c 7bbd
00000070: 4d90 4b3d c1ee 603a 8c20 71bd 7be1 7c3d
00000080: 782a 603d 76da 6c3d 9937 283c 93de 283d
00000090: 3355 4b3d e1b0 79bd 895f cf3c 3137 61bd
000000a0: 99dc a53a e2d2 003d c2df 8c3d 25cf 48bd
000000b0: ebc0 173b 0c76 f2bc 553a bfba 1ad0 b9bb
000000c0: a8ad 2bbd aa78 2bbd 6f89 87bb a06f 8b3d
000000d0: 6d1a 7abd b573 3dbd 6fad 6f3d 5629 5cbd
000000e0: 8071 52bd 9d25 7d3b e66c 073d 1380 f3bc
000000f0: 65a9 89bb 00c5 b2bc 6524 38bd eac8 303d
00000100: 0c02 a8bb cab0 913d ae0a 99bd 39e0 2bbd
00000110: 32dc 373d 69ad 8fbd 15a5 4e3d 375d 7dba
00000120: ed15 5d3c e16e 963d fc5c 263d bee2 cbbc
00000130: e0f8 59bd d801 25bc 01fb 2cbd f985 1a3d
00000140: 927c afbb d9e2 47bc b073 56bd d974 1e3c
00000150: 2ae3 66bd dc45 3bbd 4614 173c 508b efbb
00000160: ea18 78bb 6701 803d 303a 94bd d4c0 093d
00000170: b97a 533d b0c5 bfbc d675 d63c f61d ffbc

mixture_net.mol_attn_layers.0.self_attn_layer.in_proj_weight f4 [288, 96]
0.0040766816 0.0046336786 -0.0049325284 -0.06815813 0.04390434 -0.062763855 -0.058489002 0.042983606
-0.16242991 0.1493977 0.17752416 -0.036699302 -0.09513257 0.08436408 0.017733267 0.00496553
-0.09904843 0.14521858 -0.009457115 -0.009985552 0.06723264 -0.082117885 -0.0894288 0.045361854
-0.12804823 0.10339129 0.15040177 0.028762251 -0.12245949 -0.052312315 0.10725033 -0.025222609
-0.014724511 0.07697 -0.008580845 -0.097899266 0.060685854 0.14988776 -0.14869875 -0.106985524
-0.1618309 0.07094878 0.054482043 0.058046453 -0.063080035 -0.13695039 0.03304475 -0.038144916
-0.07565826 -0.003120373 0.017474605 -0.12916966 -0.08386995 -0.03169847 -0.13253489 -0.040522587
-0.06412835 -0.1262392 -0.036486566 -0.074688494 -0.10089092 -0.0006144118 0.037075456 0.035381764
0.0747609 0.21426155 0.06962192 0.029979633 -0.13015944 -0.009431905 0.101807825 0.030312875
-0.14780717 -0.05943502 -0.04560656 -0.04256462 -0.020070085 -0.03401979 0.028058471 -0.0065062167
-0.09896616 0.08298249 0.0144499205 -0.0687076 -0.07566815 -0.09802277 -0.14073995 0.09924128
0.07425217 0.034984026 0.021364257 -0.025031343 0.08795839 0.06466759 -0.02763814 0.015207127
0.016530262 -0.067123055 -0.015569529 0.14188492 0.17568254 0.057491124 0.11411634 0.11804258
-0.13417827 0.107755765 0.11882624 0.07542077 0.09584147 0.02328216 0.08839226 0.18087555
0.0063369996 0.100942194 0.14723283 0.11585592 -0.09363746 -0.14120363 0.037073653 -0.06772046
-0.039488845 0.020601192 0.030742483 0.05762562 -0.14639765 -0.13898055 -0.1262338 -0.0040753004
-0.012273169 -0.12506802 -0.02730593 -0.036497988 -0.04992155 -0.035059 0.016773524 -0.05589969
-0.18180601 -0.1265914 -0.23982105 -0.04608767 -0.16806974 -0.040639963 0.047328938 -0.03412387
-0.18605478 0.04517799 -0.05680235 0.02684351 0.103063695 -0.009986329 -0.051149946 -0.038612034
-0.027145132 -0.118073 0.121359855 -0.11976669 -0.020933893 0.2067676 -0.08247552 -0.0919504
0.050466157 0.13990171 0.12922405 0.11385118 -0.19385631 0.059844684 0.01700064 0.0021582304
-0.0056048785 -0.0486852 0.009855137 -0.10778923 0.03054121 -0.1012591 -0.013787116 0.06307931
-0.09130019 0.104209565 0.08339021 -0.013598266 -0.14477421 -0.20356967 -0.10680488 0.16247253
0.01808591 -0.06332301 0.09972487 -0.09723102 0.05090634 -0.19942677 -0.13793185 -0.08849164
-0.025657946 -0.027216818 -0.0054307594 0.0637154 -0.015304332 0.12670773 0.04111239 0.0123439245
-0.059909772 0.044846 -0.088785924 0.13697658 -0.08386642 -0.16546375 0.14233223 0.032662854
0.05870848 -0.11797488 0.0790291 0.072783165 0.042206008 -0.17837246 0.034033082 -0.09534437
0.09225959 -0.027314788 -0.009308226 -0.03998082 -0.02220523 0.00034119916 0.0015052783 0.047137327
0.16717765 -0.12504561 0.076171935 0.1411837 0.115326546 0.004093757 0.030097917 0.052663907
-0.024356667 -0.020118577 0.13110085 0.06693348 0.12980002 0.07457533 -0.049541973 -0.073434316
-0.10869972 0.041333713 0.06411735 0.054612793 -0.016643371 -0.04485152 0.06516153 -0.13719976
-0.13986543 -0.05459236 -0.12287062 0.12975724 -0.09316513 0.043375846 0.07974367 -0.08282444
00000000: af95 853b 1dd6 973b 0ca1 a1bb 7d96 8bbd
00000010: 0ad5 333d 568a 80bd 2a92 6fbd 940f 303d
00000020: 0754 26be b6fb 183e e5c8 353e 0252 16bd
00000030: ddd4 c2bd 13c7 ac3d 5b45 913c e2b5 a23b
00000040: e7d9 cabd 2eb4 143e 04f2 1abc 719a 23bc
00000050: 44b1 893d 6c2d a8bd 7226 b7bd 5acd 393d
00000060: 131f 03be d0be d33d ec02 1a3e d09e eb3c
00000070: 0bcc fabd 7045 56bd 10a6 db3d a59f cebc
00000080: 133f 71bc 73a2 9d3d ac96 0cbc 697f c8bd
00000090: bb91 783d 2d7c 193e 7c44 18be 3a1b dbbd
000000a0: 00b7 25be 984d 913d 9028 5f3d 1ec2 6d3d
000000b0: 1b30 81bd b93c 0cbe ef59 073d d83d 1cbd
000000c0: b8f2 9abd 2c7f 4cbb e726 8f3c 0d45 04be
000000d0: 02c4 abbd 41d6 01bd 3ab7 07be 03fb 25bd
000000e0: b955 83bd d944 01be f072 15bd 48f6 98bd
000000f0: e69f cebd 7a10 21ba 6fdc 173d 78ec 103d
00000100: 3e1c 993d 6167 5b3e f095 8e3d d997 f53c
00000110: 8448 05be 4788 1abc 9f80 d03d b552 f83c
00000120: c35a 17be 2372 73bd f2cd 3abd 3d58 2ebd
00000130: 056a a4bc 5658 0bbd e1da e53c 1a32 d5bb
00000140: c5ae cabd b9f2 a93d 5cbf 6c3c 92b6 8cbd
00000150: e7f7 9abd 29c0 c8bd 221e 10be 033f cb3d
00000160: 8611 983d 694b 0f3d 1804 af3c 880e cdbc
00000170: 8723 b43d 7170 843d 6169 e2bc 5027 793c
00000180: 796a 873c d077 89bd 5617 7fbc 484a 113e
00000190: 20e6 333e d07b 6b3d d4b5 e93d 4fc0 f13d
000001a0: 0766 09be 0eaf dc3d 2c5b f33d 3476 9a3d
000001b0: 8848 c43d 3aba be3c 0007 b53d 7137 393e
000001c0: 9ba6 cf3b c8ba ce3d 34c4 163e de45 ed3d
000001d0: ffc4 bfbd af97 10be 8bda 173d 06b1 8abd
000001e0: 0ebf 21bd d5c3 a83c a9d7 fb3c d808 6c3d
000001f0: 44e9 15be eb50 0ebe 6f43 01be 198a 85bb
00000200: 6715 49bc d511 00be b0b0 dfbc ea7e 15bd
00000210: 8a7a 4cbd 079a 0fbd a168 893c 13f7 64bd
00000220: 5b2b 3abe 2da1 01be a693 75be 6dc6 3cbd
00000230: 791a 2cbe 1776 26bd fddb 413d 79c5 0bbd
00000240: 2585 3ebe 8e0c 393d 95a9 68bd ece6 db3c
00000250: 0f13 d33d b39d 23bc 9b82 51bd a727 1ebd
00000260: 785f debc 42d0 f1bd 848b f83d 3d48 f5bd
00000270: 8e7d abbc e3ba 533e ede8 a8bd 7e50 bcbd
00000280: 9ab5 4e3d 6542 0f3e 4f53 043e cf2a e93d
00000290: 4582 46be b31f 753d ed44 8b3c 1971 0d3b
000002a0: 21a9 b7bb 226a 47bd 7177 213c 9ac0 dcbd
000002b0: 8f31 fa3c ee60 cfbd 5be3 61bc ba2f 813d
000002c0: 98fb babd d36b d53d 7dc8 aa3d 43cb 5ebc
000002d0: b13f 14be 9174 50be 84bc dabd 335f 263e
000002e0: e728 943c 7faf 81bd 8d3c cc3d 0f21 c7bd
000002f0: 2b83 503d 8836 4cbe 023e 0dbe 1b3b b5bd
00000300: 9d30 d2bc cef5 debc 83f4 b1bb 387d 823d
00000310: 05bf 7abc acbf 013e 7765 283d 2c3e 4a3c
00000320: f363 75bd 70b0 373d 65d5 b5bd 9743 0c3e
00000330: 28c2 abbd 546f 29be 8abf 113e 7cc9 053d
00000340: 4e78 703d d09c f1bd 02da a13d 570f 953d
00000350: 35e0 2c3d 45a7 36be 4666 0b3d e943 c3bd
00000360: 99f2 bc3d 43c3 dfbc 8881 18bc eec2 23bd
00000370: bee7 b5bc fae2 b239 c24c c53a 1213 413d
00000380: 9e30 2b3e f50b 00be 0800 9c3d 7692 103e
00000390: 5330 ec3d ec24 863b e88f f63c 1cb6 573d
000003a0: a287 c7bc b7cf a4bc 4d3f 063e 6c14 893d
000003b0: 4cea 043e f3ba 983d 86ec 4abd bb64 96bd
000003c0: f59d debd 8a4d 293d f54f 833d aab1 5f3d
000003d0: ae57 88bc 3ab6 37bd 6973 853d 187e 0cbe
000003e0: e238 0fbe 3d9c 5fbd 97a3 fbbd 15df 043e
000003f0: 5ccd bebd dfaa 313d a650 a33d dc9f a9bd

mixture_net.mol_attn_layers.0.self_attn_layer.in_proj_bias f4 [288]
-0.046103604 -0.07188021 0.021841194 0.00010184746 -0.009309531 -0.01611481 0.0055000125 0.0027879444
0.060054325 -0.04042762 -0.09309271 -0.05791069 -0.0076799993 -0.03845909 0.017903555 0.042050432
0.017775534 -0.07068804 0.0143490145 0.047527336 -0.013204778 -0.07727318 0.027817499 0.0140484935
0.057429265 0.00023177279 0.008241034 -0.0077744895 -0.050474055 -0.012747807 0.050642636 0.044357635
-0.042044256 -0.017907396 0.035385907 0.041438196 -0.02986326 0.035644654 -0.07167047 -0.013096868
0.020621954 0.014181382 -0.08625235 0.027665881 0.0522281 0.015603276 -0.047594562 0.014576489
-0.017739072 -0.0076832306 -0.034932792 -0.011144781 0.01480964 -0.036803614 0.04834706 -0.015103315
-0.04394712 0.07121967 0.019660497 0.049765922 -0.060574733 0.022779034 -0.0040931697 -0.008320419
0.047618225 -0.0529794 -0.023097614 0.022647308 0.039899528 -0.035440262 -0.03481816 -0.024178034
-0.04200803 0.04309126 -0.0018227609 0.02044841 -0.037108 -0.046336308 -0.06708208 0.03185028
0.061429024 0.027380304 0.040739417 0.03389749 0.0074415603 0.0070337183 0.024473093 -0.007849957
-0.016393187 0.0038154854 -0.018903924 -0.012485868 0.0063322945 0.08832681 0.020256894 -0.020088583
8.62075e-06 1.1431666e-05 -5.0964513e-06 -2.6036794e-06 3.6859014e-06 1.3956622e-05 4.6880978e-06 -2.0605607e-05
1.2755342e-05 -8.486909e-07 1.8191804e-05 -4.6774894e-06 -5.307557e-06 -7.910983e-06 2.5846246e-06 -2.1998658e-05
-1.7030483e-05 -1.4520003e-05 -2.7610515e-06 -6.2354684e-06 6.88193e-06 3.98513e-05 5.889827e-06 -5.599562e-06
-3.6248362e-05 3.3789431e-06 -5.9886865e-08 -1.4961761e-05 2.5300298e-05 9.397129e-06 -3.7279602e-05 -3.19149e-05
3.4044144e-05 2.1859407e-05 -1.978491e-05 -3.0806896e-05 -8.09383e-06 3.3998705e-05 -5.7127045e-06 -8.032479e-06
-1.955037e-05 -8.569298e-06 -2.1087471e-05 1.3251515e-05 2.271976e-05 3.0600164e-05 -1.2696482e-05 8.211929e-06
7.146896e-06 -4.4399635e-06 1.8753761e-06 -8.969917e-06 4.774691e-06 -2.9837463e-05 6.322372e-05 -2.6744074e-05
-2.3572675e-05 4.854114e-05 1.6202916e-05 2.7640946e-05 -5.8834372e-05 2.9148232e-05 2.016788e-05 -3.930389e-06
6.352687e-05 -7.358917e-05 1.6679964e-05 -1.0780458e-05 2.6314181e-05 -4.947214e-05 -9.541595e-05 -5.793135e-05
8.654608e-06 -5.868828e-06 -1.2185027e-05 -1.6172724e-05 3.778816e-05 -7.687401e-06 3.9408435e-05 -2.7888038e-05
-9.971816e-06 -1.3702237e-05 -1.1630233e-05 -1.5893058e-05 -1.3108723e-05 1.7390621e-06 -8.332725e-06 1.0872689e-05
-4.2743295e-06 -4.663907e-06 -4.3283194e-06 -7.2725957e-06 -3.2290463e-05 -6.0334816e-05 -3.6565896e-06 1.456409e-05
-0.0030647027 -1.8773195e-05 -9.2652015e-05 0.0019946957 0.011103159 0.0026359695 -0.009188841 0.0014737305
-0.00038003796 0.0076265475 0.016196791 0.0061139297 0.006365134 -0.009990778 -0.00386313 0.0059863823
0.00010360529 -0.0156729 0.0030582729 0.0040338775 0.0021701015 -0.0043138796 0.014930501 -0.011410435
-0.0017575803 0.00022155308 0.009289923 -0.0008955523 -0.015086159 -2.9373638e-05 0.009580192 -0.0012466636
0.012841251 -0.0018221176 0.01098199 0.008767457 0.0016352294 -0.0050599873 -0.013891752 0.010696395
-0.0003818106 0.008498411 -0.018009275 -0.0033331022 -0.006929689 0.005301062 -0.0013262838 -0.005746834
0.0027959235 0.0050235805 -0.011435286 -0.002799197 0.012277385 0.0048914813 -0.008139294 3.8677026e-05
-0.0039380733 0.0027446263 0.0069227866 0.0059255767 -0.0038250193 0.0039521647 -0.0025072913 0.004188432
00000000: 22d7 3cbd ee35 93bd 4eec b23c f096 d538
00000010: 0187 18bc 3503 84bc 7339 b43b f2b5 363b
00000020: 86fb 753d 6f97 25bd 64a7 bebd c233 6dbd
00000030: 81a8 fbbb 4787 1dbd 7aaa 923c 133d 2c3d
00000040: ff9d 913c e4c4 90bd 2118 6b3c 06ac 423d
00000050: da58 58bc 6741 9ebd 86e1 e33c a72b 663c
00000060: f33a 6b3d 0908 7339 6705 073c 25c1 febb
00000070: e2bd 4ebd 2edc 50bc a76e 4f3d 5ab0 353d
00000080: 9936 2cbd 88b2 92bc d0f0 103d 19bb 293d
00000090: cca3 f4bc 2100 123d f8c7 92bd 3f94 56bc
000000a0: 5fef a83c 0759 683c 12a5 b0bd 8fa3 e23c
000000b0: 22ed 553d e2a4 7f3c 84f2 42bd 3ad2 6e3c
000000c0: 8851 91bc 9cc3 fbbb b015 0fbd 9998 36bc
000000d0: 22a4 723c 63bf 16bd 9107 463d e573 77bc
000000e0: e501 34bd 9edb 913d 0d0f a13c 5ad7 4b3d
000000f0: 361d 78bd 199b ba3c ff1f 86bb 5e52 08bc
00000100: 540b 433d ed00 59bd 3537 bdbc d986 b93c
00000110: b06d 233d cf29 11bd 7d9d 0ebd 0311 c6bc
00000120: 9d10 2cbd 7680 303d b5e9 eeba 6d83 a73c
00000130: 8ffe 17bd 24cb 3dbd 5462 89bd 7075 023d
00000140: 009d 7b3d a94c e03c 60de 263d 18d8 0a3d
00000150: 55d8 f33b 1b7b e63b cc7b c83c 1b9d 00bc
00000160: 014b 86bc 390d 7a3b 67dc 9abc 8791 4cbc
00000170: 237f cf3b b0e4 b43d c9f1 a53c d090 a4bc
00000180: d7a1 1037 a2ca 3f37 2f02 abb6 dfba 2eb6
00000190: 4e5b 7736 3c27 6a37 744e 9d36 34da acb7
000001a0: c7ff 5537 98d1 63b5 9a9a 9837 54f3 9cb6
000001b0: 9117 b2b6 6ab9 04b7 8373 2d36 c289 b8b7
000001c0: afdc 8eb7 f09a 73b7 814a 39b6 443a d1b6
000001d0: 54eb e636 0226 2738 3ba1 c536 dfe3 bbb6
000001e0: 6209 18b8 cdc1 6236 279b 80b3 4604 7bb7
000001f0: fa3b d437 5da8 1d37 ab5c 1cb8 5ddc 05b8
00000200: 9fca 0e38 b85e b737 c5f7 a5b7 a736 01b8
00000210: bcca 07b7 d599 0e38 c2af bfb6 3cc3 06b7
00000220: 1a00 a4b7 dbc4 0fb7 00e5 b0b7 d352 5e37
00000230: 5096 be37 ad58 0038 fa02 55b7 f7c5 0937
00000240: 5fcf ef36 fffa 94b6 6fb5 fb35 807d 16b7
00000250: 4936 a036 774b fab7 fa96 8438 7658 e0b7
00000260: efbd c5b7 a798 4b38 7feb 8737 7bde e737
00000270: edc4 76b8 5a83 f437 312e a937 c9e1 83b6
00000280: bb39 8538 e353 9ab8 f3eb 8b37 b7dd 34b7
00000290: 46bd dc37 4e80 4fb8 0c1a c8b8 50fb 72b8
000002a0: 4233 1137 d9ec c4b6 4b6e 4cb7 a9aa 87b7
000002b0: ba7e 1e38 23f9 00b7 7c4a 2538 1bf1 e9b7
000002c0: a04c 27b7 a9e2 65b7 781f 43b7 1552 85b7
000002d0: 89ed 5bb7 b869 e935 c8cc 0bb7 d869 3637
000002e0: 366c 8fb6 a87e 9cb6 fb3b 91b6 1f07 f4b6
000002f0: 9f6f 07b8 0410 7db8 bb63 75b6 4a58 7437
00000300: 2ed9 48bb 217b 9db7 2c4e c2b8 71b9 023b
00000310: 06ea 353c 3bc0 2c3b cb8c 16bc 312a c13a
00000320: d53f c7b9 1ee8 f93b 22af 843c 5c57 c83b
00000330: 9d92 d03b 5cb0 23bc 912c 7dbb 6a29 c43b
00000340: ab46 d938 7464 80bc 4e6d 483b 9e2e 843b
00000350: 4338 0e3b 725b 8dbb 0f9f 743c d5f2 3abc
00000360: 9c5e e6ba b450 6839 c334 183c 7fc3 6aba
00000370: f02b 77bc 6867 f6b7 3df6 1c3c 1767 a3ba
00000380: 1c64 523c 1fd4 eeba ceed 333c 61a5 0f3c
00000390: 3255 d63a 40ce a5bb 3b9a 63bc ef3f 2f3c
000003a0: c02d c8b9 eb3c 0b3c 3088 93bc 2d70 5abb
000003b0: 7212 e3bb 88b4 ad3b b3d6 adba f04f bcbb
000003c0: d03b 373b d99c a43b 115b 3bbc bc72 37bb
000003d0: 1627 493c b848 a03b ac5a 05bc 2439 2238
000003e0: f40a 81bb 30df 333b 8bd8 e23b 572b c23b
000003f0: 2dad 7abb 2981 813b 5e51 24bb 1d3f 893b

mixture_net.mol_attn_layers.0.self_attn_layer.out_proj.weight f4 [96, 96]
0.042538885 0.08963853 -0.009569867 0.024759607 -0.12450992 -0.08367302 -0.029708473 -0.029570362
-0.069462754 0.09826291 -0.090306595 0.02890428 -0.057089236 0.055659197 0.06620837 0.09196617
0.042106453 -0.032374464 -0.050308827 0.054749094 0.0060220426 -0.012408857 -0.075462766 0.05236421
-0.012000236 0.034653194 0.027760673 0.023365814 -0.035097547 -0.061268624 0.08754321 -0.0018290447
-0.05082126 -0.072315454 -0.019235691 0.08895818 0.04007667 0.019045297 -0.09892678 0.016249103
0.070688516 -0.028514508 0.097560406 -0.078652434 0.06077711 -0.040814865 0.100515954 -0.0063521597
-0.053731654 0.09071442 -0.020687953 0.018342702 0.028837264 -0.08676792 -0.022159792 -0.09370052
0.08179791 -0.078009546 0.015684562 -0.094373874 -0.031911578 0.055584203 0.030868728 0.03203182
-0.02352053 -0.0045859944 0.05780997 0.08984603 -0.023829186 0.054072745 0.054050572 0.09042203
0.04457389 0.049807437 -0.030418543 0.05099403 0.04265499 0.055301055 -0.032271184 -0.036538303
-0.039094612 0.075417705 -0.05319798 0.08916175 0.010833261 -0.025567764 0.03336412 -0.020882113
-0.056270175 0.0035072595 -0.0044459766 0.05536198 -0.03530713 -0.09251362 0.066270426 -0.0023549893
-0.013627914 -0.038373522 0.012136405 0.09824544 -0.04179519 -0.0811257 -0.036744837 -0.04679981
0.06489101 0.06941342 -0.019503228 -0.13056962 -0.057379875 -0.048608504 0.14193222 -0.028115334
-0.024015654 0.05723115 -0.10230096 -0.06863879 0.058892664 -0.05491622 -0.0035426547 0.03757447
-0.0996271 -0.055274993 0.060242806 -0.027775317 0.10136658 0.01749836 -0.10581432 -0.09006429
-0.020954452 0.013364347 0.053454444 -0.017883595 -0.06896379 0.015221162 0.11186593 -0.08514276
0.028592614 -0.12258 0.1022492 0.010343277 0.117705196 0.03291345 0.07619904 -0.058549397
0.04456439 -0.021149248 0.022695245 -0.08274398 -0.09324657 -0.020693408 0.042493522 -0.102562636
0.09425249 0.03561272 0.04095505 -0.12923484 0.06318162 0.05056746 0.095036685 -0.028189735
0.11750999 0.05132369 0.043978345 0.040938374 0.04876249 0.029771868 0.055256225 0.040600944
0.013728421 -0.098742194 0.04601272 0.13147432 0.10170611 -0.08870266 -0.11317225 0.07184595
-0.011837907 -0.06612316 -0.0731852 -0.03663821 -0.052753508 -0.10686694 -0.03068438 -0.10308307
-0.098848954 0.03495649 -0.042179797 -0.09088458 -0.030659448 0.103601284 -0.009785073 -0.0705169
0.07619103 0.003341636 -0.074547805 0.023105662 0.009980094 0.0021544814 -0.08357382 0.04330114
0.13276696 0.0466416 0.080655985 0.007912762 -0.010363063 -0.06358152 0.13785887 0.10142111
0.085609116 0.05172073 -0.04504839 -0.057588615 0.046314158 0.02965381 -0.06765909 -0.020527149
0.0059185857 -0.023931332 0.048603933 -0.091621585 -0.00514501 -0.030598046 -0.04544732 0.045949485
-0.040380307 -0.05818262 -0.022371106 -0.042573355 0.09209737 -0.0067708166 -0.089882016 0.07530858
-0.014517061 -0.011489843 0.023440816 -0.11317794 0.019128565 -0.02281368 0.08647618 -0.06134447
-0.03010068 -0.043850582 0.066081 0.04893906 0.08498413 0.014927142 0.07881154 -0.11165419
0.029827632 -0.091030106 -0.025023285 -0.038845457 -0.07378919 0.033203594 0.036012135 0.0040530153
00000000: 413d 2e3d 6894 b73d eeca 1cbc a9d4 ca3c
00000010: 0fff febd c35c abbd 2f5f f3bc 8b3d f2bc
00000020: 7d42 8ebd 113e c93d aaf2 b8bd abc8 ec3c
00000030: 67d6 69bd e6fa 633d 4198 873d c258 bc3d
00000040: d177 2c3d 169b 04bd a110 4ebd 9640 603d
00000050: 8e54 c53b 854e 4bbc 398c 9abd db7b 563d
00000060: a39c 44bc 82f0 0d3d 5a6a e33c aa69 bf3c
00000070: 72c2 0fbd cff4 7abd db49 b33d 8ebc efba
00000080: f429 50bd 201a 94bd 2b94 9dbc b52f b63d
00000090: 6f27 243d e204 9c3c 209a cabd d71c 853c
000000a0: 24c5 903d 4297 e9bc c0cd c73d 8714 a1bd
000000b0: 6bf1 783d 7d2d 27bd 4fdb cd3d c725 d0bb
000000c0: b915 5cbd 7bc8 b93d c879 a9bc 6f43 963c
000000d0: 203c ec3c 61b3 b1bd 7488 b5bc 0fe6 bfbd
000000e0: aa85 a73d 78c3 9fbd e97c 803c 1747 c1bd
000000f0: b7b5 02bd 43ac 633d 6ae0 fc3c cc33 033d
00000100: 20ae c0bc 1c46 96bb 26ca 6c3d 3201 b83d
00000110: 6d35 c3bc 627b 5d3d 2264 5d3d 2f2f b93d
00000120: 1c93 363d e202 4c3d 4f30 f9bc 1edf 503d
00000130: 00b7 2e3d 5c83 623d ca2e 04bd 30a9 15bd
00000140: ac21 20bd 9974 9a3d 20e6 59bd 709a b63d
00000150: fd7d 313c 7d73 d1bc d1a8 083d f710 abbc
00000160: 8e7b 66bd 0dda 653b 8eaf 91bb 3ec3 623d
00000170: 369e 10bd c877 bdbd cab8 873d 2a56 1abb
00000180: 9d47 5fbc 8e2d 1dbd c6d7 463c e834 c93d
00000190: 6f31 2bbd 3b25 a6bd c181 16bd 28b1 3fbd
000001a0: 94e5 843d a028 8e3d 3cc5 9fbc 0bb4 05be
000001b0: 2907 6bbd b619 47bd ae56 113e 2152 e6bc
000001c0: 7abc c4bc 366b 6a3d 2a83 d1bd 7e92 8cbd
000001d0: 6f39 713d d5ef 60bd e22b 68bb b0e7 193d
000001e0: 4b09 ccbd 0868 62bd 29c1 763d 1089 e3bc
000001f0: 4899 cf3d b858 8f3c 2eb5 d8bd a073 b8bd
00000200: aca8 abbc 22f6 5a3c 0cf3 5a3d 9e80 92bc
00000210: e33c 8dbd 2e62 793c f719 e53d 545f aebd
00000220: 0f3b ea3c 390b fbbd 0768 d13d d976 293c
00000230: 6c0f f13d 41d0 063d 3e0e 9c3d 7ed1 6fbd
00000240: 2689 363d 3041 adbc 61eb b93c ad75 a9bd
00000250: 0ff8 bebd 3985 a9bc b00d 2e3d 5c0c d2bd
00000260: 7307 c13d a5de 113d 7cc0 273d 2356 04be
00000270: 5d65 813d d31f 4f3d 98a2 c23d 29ee e6bc
00000280: 14a9 f03d ca38 523d a322 343d ffae 273d
00000290: 2dbb 473d 22e4 f33c 5a54 623d 2d4d 263d
000002a0: 2ced 603c 5939 cabd d577 3c3d 34a1 063e
000002b0: 4b4b d03d bda9 b5bd dac6 e7bd f823 933d
000002c0: c8f3 41bc 946b 87bd 1fe2 95bd f311 16bd
000002d0: 1014 58bd 0edd dabd cf5d fbbc 371d d3bd
000002e0: 5271 cabd 892e 0f3d b9c4 2cbd b221 babd
000002f0: 8629 fbbc e92c d43d 9251 20bc 2a6b 90bd
00000300: 0b0a 9c3d 59ff 5a3b 85ac 98bd 1648 bd3c
00000310: 8c83 233c 3332 0d3b c028 abbd 895c 313d
00000320: 10f4 073e 430b 3f3d f72e a53d 88a4 013c
00000330: d6c9 29bc 0737 82bd e02a 0d3e dfb5 cf3d
00000340: d553 af3d 1ed9 533d a984 38bd 0ae2 6bbd
00000350: eab3 3d3d 8cec f23c d990 8abd 8d28 a8bc
00000360: b2f0 c13b a40b c4bc eb14 473d 19a4 bbbd
00000370: 7997 a8bb c1a8 fabc f826 3abd 8735 3c3d
00000380: d265 25bd e650 6ebd 9c43 b7bc 6661 2ebd
00000390: 8c9d bc3d badd ddbb 1014 b8bd 633b 9a3d
000003a0: f8d8 6dbc e53f 3cbc f406 c03c d6c9 e7bd
000003b0: 82b3 9c3c c1e3 babc 6c1a b13d 5744 7bbd
000003c0: b495 f6bc ab9c 33bd 7a55 873d 5374 483d
000003d0: 290c ae3d f990 743c f267 a13d f4aa e4bd
000003e0: 1459 f43c fe6d babd a2fd ccbc 6a1c 1fbd
000003f0: c91e 97bd 7e00 083d 7681 133d 28cf 843b

mixture_net.mol_attn_layers.0.self_attn_layer.out_proj.bias f4 [96]
0.0039657988 -0.0035174438 0.0057531926 0.0020429133 -0.0032256262 -0.0034411512 -0.0006936893 0.0014170362
0.0059301173 0.0010381361 -0.0049513206 -0.015375085 0.0003053308 -0.017677654 0.0042443136 -0.005496986
0.0070171775 0.017938128 -0.005965461 0.0025975376 -0.001598005 0.0091132345 0.0016487701 -0.010133266
0.0034098788 0.0085385 -0.006291074 -0.0026708504 -0.007984476 0.0022370068 0.0025814013 0.0020351012
0.009287633 -0.0068957414 -0.0011430233 0.0044687884 -0.013447671 -0.0061510773 -0.0007192404 0.0037565988
-0.0016383103 -0.0021211486 -0.000512896 0.032819476 -0.0029367034 0.0005414692 -0.0054424917 0.0019070315
-0.0009172997 -0.005983519 -0.0023142742 -0.00057746185 -0.0004007066 0.006333397 -0.00026974556 6.310528e-05
-0.0045105526 -0.00040091082 -0.0037495096 0.0050784103 -0.0025204115 -0.009976419 0.0013957424 -0.002691736
0.0065616197 -0.0013410172 -0.006901239 -0.009982159 -0.0011932082 -0.011096508 -0.007231923 -0.012057523
0.006594499 0.0038473927 0.00044760297 0.0057854294 -0.0030183669 -0.0045866873 -0.006145002 2.506752e-05
-0.0016242666 0.0070526395 -0.004791093 -0.002749486 0.0007082209 0.0049586333 -0.002908141 -0.00084040593
-0.0019455085 -0.0046197698 -0.009499167 -0.008230317 0.007107022 0.0032533002 0.0043028607 0.0018884444
00000000: 88f3 813b ea84 66bb 4785 bc3b 66e2 053b
00000010: 0765 53bb f084 61bb b3d8 35ba d8bb b93a
00000020: 6e51 c23b 1112 883a b03e a2bb c8e7 7bbc
00000030: ce14 a039 bad0 90bc e213 8b3b 1020 b4bb
00000040: 5af0 e53b fbf2 923c ea79 c3bb 733b 2a3b
00000050: 2674 d1ba ad4f 153c 8b1b d83a 0006 26bc
00000060: 4678 5f3b 11e5 0b3c 5b25 cebb 6f09 2fbb
00000070: 52d1 02bc bf9a 123b ba2c 293b 555f 053b
00000080: 282b 183c acf5 e1bb 7fd1 95ba ea6e 923b
00000090: 9f53 5cbc fa8e c9bb 688b 3cba 4531 763b
000000a0: 92bc d6ba f802 0bbb de73 06ba b76d 063d
000000b0: b575 40bb 62f1 0d3a ee56 b2bb 5cf5 f93a
000000c0: f176 70ba 6511 c4bb 14ab 17bb cf60 17ba
000000d0: ee15 d2b9 6288 cf3b a36c 8db9 6457 8438
000000e0: 42cd 93bb 5731 d2b9 55ba 75bb cb68 a63b
000000f0: 7d2d 25bb 2274 23bc 58f1 b63a d667 30bb
00000100: db02 d73b 12c5 afba ca23 e2bb 368c 23bc
00000110: 6c65 9cba 21ce 35bc c4f9 ecbb eb8c 45bc
00000120: ab16 d83b 8a24 7c3b 41ac ea39 b393 bd3b
00000130: cbcf 45bb ec4b 96bb 035c c9bb 1748 d237
00000140: 58e5 d4ba d419 e73b 9afe 9cbb b830 34bb
00000150: e6a7 393a 087c a23b 8296 3ebb b04e 5cba
00000160: 6f00 ffba 7061 97bb 65a2 1bbc 74d8 06bc
00000170: 06e2 e83b 5235 553b 03ff 8c3b ae85 f73a

mixture_net.mol_attn_layers.0.addnorm1.norm.weight f4 [96]
0.98988986 1.0280071 0.97539526 0.9858718 1.0018177 1.0205214 1.0009525 0.9941003
0.9891428 0.9936601 1.0105112 1.0026402 1.0028279 1.0201397 1.044635 0.9929797
1.0025657 0.991527 0.999697 0.9927033 0.99743885 1.0204184 1.0010393 0.99908453
0.9774027 1.0191629 1.0031434 1.0091473 0.9914306 1.0026382 1.0155615 1.0415493
1.0074806 1.0097027 0.9981002 0.994121 0.9992732 1.0018526 1.0104593 0.9934747
1.0117763 1.0017046 0.99229306 0.9940582 0.9994491 0.998607 1.0038115 1.0172373
1.0266058 1.0304906 0.99462306 1.0065367 1.0039713 0.99369985 1.000915 0.99161255
1.020959 1.0300169 1.0033731 1.0193598 0.9947623 1.0011766 1.0033562 1.0005647
0.9955001 1.015833 1.0198805 0.9944656 1.0204272 1.0035106 0.9940218 0.9885993
0.9915955 0.98393434 1.0096654 1.0083781 1.0147204 0.99664646 0.99581057 1.0011251
1.0070003 0.99874 1.0031466 0.98953664 0.99763644 0.99886495 0.987103 1.0003062
1.0080214 1.0189971 1.0073286 1.0112878 1.0046629 1.0055622 1.0035416 1.0003439
00000000: 6c69 7d3f bd95 833f 81b3 793f 1862 7c3f
00000010: 903b 803f 72a0 823f 361f 803f 5b7d 7e3f
00000020: 7638 7d3f 8260 7e3f 6e58 813f 8456 803f
00000030: aa5c 803f f093 823f 9ab6 853f eb33 7e3f
00000040: 1354 803f b7d4 7d3f 25ec 7f3f ce21 7e3f
00000050: 2758 7f3f 129d 823f 0e22 803f 01c4 7f3f
00000060: 1037 7a3f ee73 823f 0167 803f bd2b 813f
00000070: 65ce 7d3f 7356 803f ebfd 813f 7d51 853f
00000080: 20f5 803f f03d 813f 7f83 7f3f b77e 7e3f
00000090: 5ed0 7f3f b53c 803f bb56 813f 5c54 7e3f
000000a0: e381 813f db37 803f eb06 7e3f 997a 7e3f
000000b0: e5db 7f3f b5a4 7f3f e57c 803f d534 823f
000000c0: d267 833f 1ee7 833f 9e9f 7e3f 32d6 803f
000000d0: 2282 803f 1d63 7e3f fc1d 803f 52da 7d3f
000000e0: c9ae 823f 98d7 833f 886e 803f 627a 823f
000000f0: bea8 7e3f 8e26 803f fa6d 803f 8112 803f
00000100: 18d9 7e3f d106 823f 728b 823f 4c95 7e3f
00000110: 5c9d 823f 0973 803f 3678 7e3f d814 7d3f
00000120: 34d9 7d3f 1fe3 7b3f b73c 813f 8912 813f
00000130: 5ce2 813f 3924 7f3f 71ed 7e3f de24 803f
00000140: 63e5 803f 6dad 7f3f 1c67 803f 4652 7d3f
00000150: 1a65 7f3f 9db5 7f3f c8b2 7c3f 090a 803f
00000160: d806 813f 7f6e 823f 25f0 803f e171 813f
00000170: cb98 803f 43b6 803f 0d74 803f 450b 803f

mixture_net.mol_attn_layers.0.addnorm1.norm.bias f4 [96]
-0.0028077187 -0.004143556 0.00082114607 0.0013413319 -0.0050346013 -0.0075151646 -0.0038355163 -0.0012578716
0.0008680657 0.0024156568 -0.00013217116 -0.0014288431 0.0010655565 0.015897281 0.00021998883 0.00037687898
-0.0006460022 0.006355291 -0.0027511348 0.0017654914 -0.0025466913 0.005589442 -0.0058505163 -0.0015973306
-0.012337306 0.0045288117 -0.003964375 0.0024258967 -0.015281954 0.0047119 0.00868811 0.006427002
-0.0033954466 -0.0047727777 -0.005372924 0.006462227 -0.008402314 -0.0011276901 -0.009706034 0.0050360807
-0.005766319 0.0062601664 0.001959292 0.01565072 0.00233388 -0.012897821 -0.0016595918 -0.0052548284
-0.0019311252 -0.0022425398 0.0012619427 -0.003960227 -0.0026057898 0.0106496895 0.0015114347 -0.0074239173
0.0033110934 0.0014754555 -0.0046435166 0.002371301 -0.001625074 -0.002583015 -0.005326804 -0.0037745244
0.008138016 -0.004435714 0.0010161343 0.0076522273 0.0012897738 0.00822368 -0.001745878 -0.011814304
0.01048429 0.009267193 -0.0064634345 -0.004270079 0.0047852257 -0.004590989 0.009399499 -0.0016849419
-0.0025237065 0.0059460644 -0.001961973 -0.008131743 -0.007918269 -0.013200791 -0.00538878 -0.00051239086
0.0020194924 0.0015772852 -0.0020110765 -0.009022321 -0.005600375 0.0019348906 0.0051254765 0.001104058
00000000: b401 38bb abc6 87bb 2e42 573a a1cf af3a
00000010: 4cf9 a4bb c541 f6bb 495d 7bbb 2bdf a4ba
00000020: e78e 633a ff4f 1e3b 6d97 0ab9 0548 bbba
00000030: 25aa 8b3a 043b 823c cdac 6639 d797 c539
00000040: 7958 29ba 0c40 d03b 624c 34bb 1068 e73a
00000050: 64e6 26bb a327 b73b b0b5 bfbb 855d d1ba
00000060: 6922 4abc 6d66 943b 96e7 81bb cbfb 1e3b
00000070: 2961 7abc 4866 9a3b 9358 0e3c 9a99 d23b
00000080: 2486 5ebb f664 9cbb 5a0f b0bb 17c1 d33b
00000090: dca9 09bc 00cf 93ba 0f06 1fbc b505 a53b
000000a0: 64f3 bcbb 1522 cd3b 7767 003b f035 803c
000000b0: 02f4 183b 6251 53bc a986 d9ba b230 acbb
000000c0: cf1d fdba 93f7 12bb c567 a53a cbc4 81bb
000000d0: e6c5 2abb 097c 2e3c 551b c63a 5544 f3bb
000000e0: eefe 583b 1264 c13a a428 98bb d467 1b3b
000000f0: 6f00 d5ba cd47 29bb 788c aebb 035e 77bb
00000100: 5055 053c 7759 91bb cf2f 853a 89bf fa3b
00000110: a10d a93a 9dbc 063c f2d5 e4ba c890 41bc
00000120: 4dc6 2b3c 6dd5 173c 38cb d3bb 05ec 8bbb
00000130: 62cd 9c3b 0270 96bb 5b00 1a3c 45d9 dcba
00000140: c564 25bb 34d7 c23b 7294 00bb 013b 05bc
00000150: a1bb 01bc 2148 58bc 5d94 b0bb f851 06ba
00000160: 7659 043b e9bc ce3a 44cc 03bb 5bd2 13bc
00000170: 5a83 b7bb 289c fd3a 9df3 a73b 0ab6 903a

mixture_net.mol_attn_layers.0.ffn.layers.0.weight f4 [96, 96]
-0.007248102 -0.05987039 0.03931032 -0.016139599 -0.078463174 0.023837456 0.059810188 0.11270397
0.048940696 -0.08195761 -0.0329721 0.052731875 0.075834416 -0.13235027 0.101822115 -0.02450974
-0.018165901 0.09168399 -0.00011074705 -0.084034264 -0.09562541 0.004948481 0.118084356 0.06267724
-0.07455907 -0.034932103 0.05819364 -0.053570956 -0.0306297 0.087909736 0.04788512 0.006132215
0.06530733 -0.0067525613 -0.050578963 0.064869136 0.07742135 -0.041687746 0.037676033 -0.06732625
0.09746351 -0.073612295 -0.004577043 -0.010285339 -0.007782702 -0.09435835 0.08662524 0.07104847
-0.01691528 -0.06483484 0.0538869 -0.122787595 0.061641194 -0.11687841 0.057444874 0.06098909
-0.08169318 -0.01607134 0.080376744 0.06236237 0.055565353 -0.08210743 -0.041779142 0.029938271
0.046398196 -0.055162035 0.054905847 -0.023716742 0.047174733 0.06282167 -0.032465447 -0.0037070753
-0.104158096 0.05545462 0.03529765 0.0035687124 -0.049478464 -0.078038104 0.043377124 0.1039342
-0.01033825 -0.018578498 -0.049125593 -0.049906313 0.036755864 -0.00040699035 -0.05344291 -0.03014917
0.027194183 -0.012961524 0.10425333 -0.09620421 0.10778928 0.09777052 -0.026483577 0.065796
0.052974634 0.01604384 -0.08139315 -0.07972441 0.120075166 -0.027820993 0.12581003 0.02116046
-0.05973097 0.09823019 0.07982775 -0.10586641 0.0029469072 -0.13787471 -0.11742528 0.12780574
0.04325313 -0.03311496 0.09570001 0.143946 0.06360176 -0.10069546 0.10178675 -0.1338296
-0.031140186 0.040589385 -0.04404474 -0.004977468 -0.10078891 -0.012247485 0.1038719 0.0010024236
0.06126298 -0.094738804 0.07255029 -0.07414413 -0.024237655 -0.061751664 -0.097969115 -0.014897882
0.055035442 -0.064026736 -0.11858151 0.06673396 -0.07790995 0.108760074 -0.08725834 -0.113850996
0.015679415 0.01151157 0.00791651 -0.08687959 0.00071899145 0.09128196 -0.039504934 -0.064482816
0.013040693 0.080830336 0.008114439 -0.009201986 -0.095216766 0.043568738 -0.05531339 -0.0059976922
0.064007945 -0.10446645 -0.00911013 -0.022629265 -0.08108537 0.030724114 -0.03876824 0.04984744
0.015601083 -0.072217874 -0.018555054 0.089864574 -0.03501787 -0.051476303 0.09815405 0.0010788622
-0.025094504 0.13438906 -0.11087487 -0.038124654 -0.099893235 0.008533619 0.003568489 -0.098984964
-0.002714822 0.028394822 -0.01289371 0.009992821 -0.04519798 0.09299054 0.10681053 -0.040072676
0.016802084 -0.058098968 -0.06234115 -0.044705827 0.08213751 0.013186088 -0.066748105 -0.08027959
0.028319055 0.09721827 0.02884442 -0.095222324 0.043655533 -0.0146292485 -0.051786985 0.07525274
0.008415211 0.06365236 0.049181473 -0.0457574 0.11874036 -0.041292496 -0.059439506 -0.01735693
0.14956205 -0.073307864 -0.051836047 0.03669718 -0.035856582 -0.051984396 0.04557265 0.07099689
-0.060424637 -0.0053245816 0.05628588 0.0016488571 0.060385823 -0.04381965 0.14640772 -0.066108905
-0.10737784 -0.010744222 0.06982431 0.037559185 -0.037823096 -0.048862334 0.0664655 0.07738197
-0.1041286 0.06385139 0.052299775 0.00023320374 0.014092964 0.03430533 0.067188 0.04984951
0.047795657 -0.1033646 -0.09858474 0.08513383 -0.086148545 -0.0066017834 0.01397598 -0.07403488
00000000: 7d81 edbb a73a 75bd dc03 213d 3137 84bc
00000010: 4db1 a0bd c546 c33c 87fb 743d 57d1 e63d
00000020: 0a76 483d 64d9 a7bd c10d 07bd 61fd 573d
00000030: 134f 9b3d d486 07be 1d88 d03d a6c8 c8bc
00000040: a8d0 94bc d1c4 bb3d df40 e8b8 281a acbd
00000050: 41d7 c3bd de26 a23b 36d6 f13d ed5c 803d
00000060: 6db2 98bd f714 0fbd 745c 6e3d 386d 5bbd
00000070: 23eb fabc 050a b43d 3023 443d bff0 c83b
00000080: d9bf 853d 9744 ddbb e32b 4fbd 1cda 843d
00000090: 168f 9e3d c5c0 2abd 2f52 1a3d 58e2 89bd
000000a0: f39a c73d 0bc2 96bd 05fb 95bb d783 28bc
000000b0: 0906 ffbb f33e c1bd 9368 b13d dc81 913d
000000c0: ea91 8abc 21c8 84bd 83b8 5c3d 1078 fbbd
000000d0: 7a7b 7c3d f35d efbd 514b 6b3d b2cf 793d
000000e0: c14e a7bd 0ba8 83bc 909c a43d af6f 7f3d
000000f0: 7f98 633d f127 a8bd 9b20 2bbd 1b41 f53c
00000100: 090c 3e3d 96f1 61bd f4e4 603d 9d49 c2bc
00000110: 4b3a 413d a6a8 803d 7dfa 04bd 67f2 72bb
00000120: d750 d5bd 6224 633d 4594 103d 0fe1 693b
00000130: eea9 4abd 71d2 9fbd 36ac 313d 74db d43d
00000140: c361 29bc ef31 98bc eb37 49bd 906a 4cbd
00000150: 518d 163d 5261 d5b9 f4e6 5abd 64fb f6bc
00000160: 56c6 de3c 925c 54bc c582 d53d b606 c5bd
00000170: a0c0 dc3d e93b c83d 16f4 d8bc 0ec0 863d
00000180: eefb 583d 5f6e 833c 74b1 a6bd 8d46 a3bd
00000190: f8e9 f53d dae8 e3bc 58d4 003e b358 ad3c
000001a0: 76a8 74bd e92c c93d bb7c a33d 7dd0 d8bd
000001b0: e620 413b 072f 0dbe aa7c f0bd 82df 023e
000001c0: 322a 313d 8da3 07bd 5efe c33d 9566 133e
000001d0: a441 823d 6c39 cebd 9275 d03d a00a 09be
000001e0: b419 ffbc 0e41 263d 4268 34bd 071a a3bb
000001f0: 6b6a cebd ada9 48bc caba d43d c163 833a
00000200: e4ee 7a3d 6b06 c2bd 3f95 943d e1d8 97bd
00000210: 0c8e c6bc 50ef 7cbd 08a4 c8bd 3f16 74bc
00000220: d86c 613d 7320 83bd ddda f2bd d0ab 883d
00000230: 408f 9fbd 9abd de3d 80b4 b2bd b62a e9bd
00000240: 1e72 803c 069b 3c3c 40b4 013c eded b1bd
00000250: b37a 3c3a 09f2 ba3d edcf 21bd 910f 84bd
00000260: a1a8 553c 608a a53d 6df2 043c edc3 16bc
00000270: 0201 c3bd 2275 323d 4b90 62bd 4a88 c4bb
00000280: 9916 833d 82f2 d5bd a842 15bc 0261 b9bc
00000290: 1610 a6bd 23b1 fb3c 72cb 1ebd d42c 4c3d
000002a0: af9b 7f3c f7e6 93bd c500 98bc eb0a b83d
000002b0: e66e 0fbd d1d8 52bd fe04 c93d 9c68 8d3a
000002c0: fd92 cdbc 499d 093e 5d12 e3bd 9928 1cbd
000002d0: d394 ccbd 98d0 0b3c 50dd 693b a1b8 cabd
000002e0: 28eb 31bb 429c e83c 2440 53bc eeb8 233c
000002f0: 8421 39bd d371 be3d 7bbf da3d 3f23 24bd
00000300: 86a4 893c 2ff9 6dbd 6f59 7fbd 751d 37bd
00000310: b637 a83d 760a 583c 3bb3 88bd a069 a4bd
00000320: 5dfd e73c 5f1a c73d 224b ec3c ec03 c3bd
00000330: 25d0 323d 84af 6fbc 971e 54bd 1c1e 9a3d
00000340: f4df 093c 2b5c 823d 8372 493d 1d6c 3bbd
00000350: 252e f33d 5222 29bd d776 73bd 1f30 8ebc
00000360: cb26 193e 6f22 96bd 0952 54bd c84f 163d
00000370: 5ade 12bd 97ed 54bd 63aa 3a3d d166 913d
00000380: d37f 77bd d479 aebb 068c 663d 771e d83a
00000390: 2057 773d 3c7c 33bd e8eb 153e 1b64 87bd
000003a0: eae8 dbbd 8908 30bc 0c00 8f3d a9d7 193d
000003b0: 64ec 1abd df23 48bd 101f 883d 707a 9e3d
000003c0: 6041 d5bd 84c4 823d 4a38 563d 2788 7439
000003d0: 2de6 663c bf83 0c3d dd99 893d 002f 4c3d
000003e0: 61c5 433d d2b0 d3bd cce6 c9bd a55a ae3d
000003f0: a66e b0bd c653 d8bb 82fb 643c 999f 97bd

mixture_net.mol_attn_layers.0.ffn.layers.0.bias f4 [96]
-0.11063561 0.08898938 -0.056872025 0.0023518072 -0.08797404 -0.05390456 0.06267547 -0.03289313
0.07999143 -0.0717832 0.009907057 0.022326047 -0.07887763 0.027163567 -0.0043369397 0.09890618
0.058187805 0.049233403 -0.015576336 0.046799228 0.060604196 0.0367892 -0.03322001 -0.069339395
0.008939435 -0.04235445 -0.07251353 -0.046703458 0.073089644 0.005203117 -0.062043265 -0.04173903
-0.042554844 0.011096337 -0.0700426 0.031925093 -0.07470405 -0.01715207 -0.037602723 0.038044047
-0.027149327 -0.03389322 -0.026488697 0.02341508 -0.05394626 -0.013558891 0.06715202 -0.0008432485
0.060745217 0.048402347 0.021507688 -0.08176508 0.00864065 -0.07235528 -0.0761487 0.040684763
-0.06663863 -0.07140172 0.021543644 -0.044525243 0.0021763805 0.08249318 0.07384321 0.017389707
0.06794272 0.003437524 0.095797345 -0.053151473 0.055525377 0.05775515 0.07323118 -0.050358646
0.007826843 -0.033349942 0.0768103 -0.08143579 0.07126485 -0.044747647 0.014723309 0.028074907
0.056960374 0.027849456 0.030354297 -0.02829776 -0.093145005 -0.076912254 -0.07177523 0.07101137
-0.08537335 0.04312442 0.017375486 0.02627703 -0.10633713 -0.093861625 -0.03345265 0.09763549
00000000: ec94 e2bd 1040 b63d a4f2 68bd c720 1a3b
00000010: bc2b b4bd 07cb 5cbd ff5b 803d f2ba 06bd
00000020: 8cd2 a33d 1203 93bd 3551 223c 1de5 b63c
00000030: 988a a1bd 2186 de3c e31c 8ebb 538f ca3d
00000040: 5656 6e3d f7a8 493d e333 7fbc 8cb0 3f3d
00000050: 1b3c 783d 46b0 163d b511 08bd d001 8ebd
00000060: b576 123c dc7b 2dbd f981 94bd 204c 3fbd
00000070: 06b0 953d e97e aa3b 1421 7ebd 8cf6 2abd
00000080: fd4d 2ebd 69cd 353c 7f72 8fbd e3c3 023d
00000090: 70fe 98bd 7f82 8cbc 5005 1abd 13d4 1b3d
000000a0: 4468 debc 9ed3 0abd d3fe d8bc fbd0 bf3c
000000b0: c1f6 5cbd 1c26 5ebc 0087 893d 730d 5dba
000000c0: facf 783d 8a41 463d e430 b03c 7374 a7bd
000000d0: 8391 0d3c 012f 94bd daf3 9bbd 11a5 263d
000000e0: d679 88bd 113b 92bd 4c7c b03c 1a60 36bd
000000f0: 9ba1 0e3b 2ff2 a83d 1c3b 973d dc74 8e3c
00000100: 8e25 8b3d 1548 613b 6631 c43d 5cb5 59bd
00000110: 946e 633d aa90 6c3d 3bfa 953d de44 4ebd
00000120: 293c 003c f399 08bd b84e 9d3d cfc7 a6bd
00000130: 4ef3 913d 4f49 37bd 093a 713c 59fd e53c
00000140: 484f 693d 8b24 e43c 93a9 f83c b4d0 e7bc
00000150: cfc2 bebd 2c84 9dbd e4fe 92bd 696e 913d
00000160: 39d8 aebd 3ba3 303d 0957 8e3c ed42 d73c
00000170: 48c7 d9bd 863a c0bd a505 09bd 1ef5 c73d

mixture_net.mol_attn_layers.0.ffn.layers.2.weight f4 [96, 96]
0.09761554 -0.054433793 0.0539297 -0.057357207 -0.022274666 -0.09519638 -0.074364856 -0.03114089
0.057300977 0.05758146 -0.013835653 -0.032533664 0.037906244 0.055739 0.013746717 -0.0059656547
0.10200087 -0.0026930377 0.052146636 0.08993628 0.09600285 -0.07512826 0.0056668757 -0.08518532
-0.108979665 -0.09275935 0.08766152 0.06430792 -0.07592841 -0.05617825 0.013602433 0.059177727
0.062454976 0.07977715 0.02473858 0.003271138 -0.04787604 0.020999838 -0.06204983 -0.09938159
0.09939972 0.04106389 0.037364084 0.043391462 -0.07595666 0.0015966921 0.014406226 0.026263168
0.09524887 -0.014304472 0.00045966383 -0.041567296 0.0049867323 -0.03981739 -0.026531879 -0.06872542
-0.028616697 -0.029519215 0.11511299 0.07644777 -0.100137115 -0.09144812 0.044611473 0.04280591
-0.08293989 0.040125296 -0.055352367 -0.027168518 -0.018108068 -0.018554775 0.067853086 0.058385465
-0.007617603 -0.018052235 -0.07506125 -0.04686111 -0.039550677 0.05437835 -0.017537592 0.0441653
-0.008363481 -0.081499025 -0.0804274 -0.05244892 -0.034544185 0.0500343 -0.038985975 -0.0826263
0.09819044 0.0444087 -0.011415217 -0.069925144 0.08347179 -0.07959538 -0.085570745 0.057592683
0.0090387305 0.01814907 0.003117618 -0.004654045 -0.001072846 0.015238098 0.006333768 -0.0088362135
-0.06058162 -0.03444923 0.042501085 -0.037027758 0.042385027 0.07831245 0.1244293 -0.0915245
-0.0012188648 0.032644313 0.087505504 0.07953239 0.02836937 0.05036332 0.072693646 -0.036834735
-0.078760505 0.07912305 -0.05848432 0.09804092 -0.06379975 0.088733666 -0.01349491 0.04004154
-0.09690196 -0.036054477 0.010099478 -0.09879867 -0.055769734 -0.09712168 -0.015705189 0.1088049
0.09357649 0.011372875 0.0745856 0.060164243 0.020668546 -0.0020394018 -0.05687641 0.06629224
0.058413703 0.051768437 0.13011973 0.09744808 -0.08017347 0.07668467 -0.048848797 -0.068186805
-0.022906322 -0.03186784 0.09901351 -0.028281862 -0.002296096 -0.0815008 0.09623652 -0.051854372
0.020683227 -0.08787252 -0.11658971 -0.062953286 -0.046599265 -0.075353034 -0.09587186 0.055421542
-0.03154197 -0.040682886 0.08512944 -0.04909266 -0.07582838 0.052506354 0.08311467 0.08115178
0.054730132 -0.0073270258 0.08113298 -0.10074395 0.10146678 0.010070137 0.056276362 -0.10764561
0.10102165 -0.011742447 -0.02098898 -0.043275405 0.09667895 0.07670825 0.07319483 0.13672528
0.033357304 0.044668976 0.050184514 -0.009195676 0.085821934 0.10689523 -0.08695051 -0.053523973
0.044411257 -0.059109733 0.029348882 0.07737532 0.09649307 -0.0055896672 -0.04159556 0.030700514
0.07587702 0.019454252 -0.052664656 -0.08434653 0.082569554 -0.08363941 0.07209326 -0.017563647
-0.036594894 -0.07056173 0.044028103 -0.016376948 0.010511172 0.05475786 0.032006506 -0.07933912
0.047121953 -0.054986082 -0.020233834 -0.086201884 -0.06624305 0.033312276 0.13041894 0.088576496
-0.0013992657 0.0769365 0.07078831 0.06846751 0.0936207 0.010778307 0.072977014 0.016105086
0.0862245 0.09051706 -0.07118605 0.06663878 0.0020930204 0.017567804 -0.04488935 0.023202112
-0.11291485 0.07537329 0.013919669 -0.057656717 0.060093075 -0.021742731 0.106911965 0.07200716
00000000: a8ea c73d f8f5 5ebd 64e5 5c3d 64ef 6abd
00000010: 5c79 b6bc 52f6 c2bd 9a4c 98bd 2e1b ffbc
00000020: 6eb4 6a3d 89da 6b3d efae 62bc 0542 05bd
00000030: 9443 1b3d 944e 643d e939 613c 8a7b c3bb
00000040: d5e5 d03d ad7d 30bb b697 553d 8330 b83d
00000050: 249d c43d d8dc 99bd 33b1 b93b a475 aebd
00000060: bb30 dfbd 9df8 bdbd e287 b33d dfb3 833d
00000070: 5b80 9bbd 2a1b 66bd bddc 5e3c 5864 723d
00000080: cad0 7f3d 3462 a33d 90a8 ca3c 9760 563b
00000090: ab19 44bd da07 ac3c f627 7ebd 9388 cbbd
000000a0: 1592 cb3d 9c32 283d 150b 193d 3fbb 313d
000000b0: 2a8f 9bbd 1948 d13a 1708 6c3c db25 d73c
000000c0: d711 c33d 4e5d 6abc 09ff f039 7842 2abd
000000d0: be67 a33b 8f17 23bd 6259 d9bc eabf 8cbd
000000e0: 906d eabc 48d2 f1bc 5cc0 eb3d a690 9c3d
000000f0: b014 cdbd 2749 bbbd 85ba 363d 4055 2f3d
00000100: 64dc a9bd 6c5a 243d 2ab9 62bd 8390 debc
00000110: 5f57 94bc 2f00 98bc 8ff6 8a3d 9925 6f3d
00000120: 169d f9bb 48e2 93bc b6b9 99bd 6ff1 3fbd
00000130: e4ff 21bd d5bb 5e3d ffaa 8fbc ace6 343d
00000140: fb06 09bc f6e8 a6bd 1fb7 a4bd aed4 56bd
00000150: 347e 0dbd c4f0 4c3d c2af 1fbd fa37 a9bd
00000160: 1218 c93d e6e5 353d e406 3bbc ea34 8fbd
00000170: 42f3 aa3d e702 a3bd b73f afbd 4ee6 6b3d
00000180: 2f17 143c 5cad 943c f350 4c3b f680 98bb
00000190: bd9e 8cba 37a9 793c 7f8b cf3b c4c5 10bc
000001a0: 6f24 78bd a31a 0dbd 9e15 2e3d 6baa 17bd
000001b0: ec9b 2d3d 4762 a03d cad4 fe3d 3271 bbbd
000001c0: 51c2 9fba 0bb6 053d 1636 b33d e1e1 a23d
000001d0: e266 e83c c549 4e3d 68e0 943d 05e0 16bd
000001e0: 304d a1bd 440b a23d 418d 6fbd aec9 c83d
000001f0: 71a9 82bd ffb9 b53d c119 5dbc 9902 243d
00000200: 8974 c6bd dcad 13bd 4878 253c f556 cabd
00000210: ce6e 64bd bbe7 c6bd 2ba8 80bc 1ad5 de3d
00000220: 08a5 bf3d 4c55 3a3c 56c0 983d c86e 763d
00000230: 1551 a93c 7ca7 05bb 3df7 68bd 3ac4 873d
00000240: 3543 6f3d 240b 543d 1b3e 053e dc92 c73d
00000250: fd31 a4bd da0c 9d3d ad15 48bd 86a5 8bbd
00000260: 0aa6 bbbc da87 02bd 98c7 ca3d 5daf e7bc
00000270: 197a 16bb e4e9 a6bd a717 c53d 4065 54bd
00000280: df6f a93c 82f6 b3bd 96c6 eebd a7ed 80bd
00000290: dfde 3ebd b152 9abd 7758 c4bd b301 633d
000002a0: 2732 01bd 19a3 26bd 5858 ae3d 6315 49bd
000002b0: e94b 9bbd e710 573d 0638 aa3d e832 a63d
000002c0: b42c 603d 8c17 f0bb 0c29 a63d d852 cebd
000002d0: d1cd cf3d 37fd 243c 0b82 663d 4d75 dcbd
000002e0: 70e4 ce3d 6463 40bc 15f1 abbc 8d41 31bd
000002f0: 9dff c53d 3719 9d3d 2ce7 953d b601 0c3e
00000300: aba1 083d d1f6 363d 478e 4d3d 76a9 16bc
00000310: 69c3 af3d e3eb da3d 1c13 b2bd f43b 5bbd
00000320: 94e8 353d 0c1d 72bd 116d f03c f476 9e3d
00000330: 299e c53d 8729 b7bb 1b60 2abd a57f fb3c
00000340: 6965 9b3d 865e 9f3c e5b6 57bd e0bd acbd
00000350: 3a1a a93d 244b abbd a2a5 933d a3e1 8fbc
00000360: 87e4 15bd ab82 90bd d056 343d f328 86bc
00000370: 0d37 2c3c c749 603d 4119 033d 8c7c a2bd
00000380: f302 413d 1639 61bd 6dc1 a5bc 9d8a b0bd
00000390: 70aa 87bd 7472 083d 8b8c 053e 9867 b53d
000003a0: 9167 b7ba e290 9d3d 76f9 903d b238 8c3d
000003b0: 36bc bf3d 7f97 303c f974 953d d0ee 833c
000003c0: 7896 b03d 0261 b93d fec9 91bd ea79 883d
000003d0: 0e2b 093b 5bea 8f3c e5dd 37bd 5b12 be3c
000003e0: e73f e7bd 505d 9a3d 530f 643c 7329 6cbd
000003f0: 2824 763d d01d b2bc a9f4 da3d 7d78 933d
