scripts_chemix/chemix_weights/best_model_dict_3.pt (torch, 457454 bytes, 45 tensors)

input_net.weight f4 [64, 196]
00000000: dd42 9ebd d36a bebc 65e0 38bd 0c8e 683d
00000010: 720b 58bc 61be d83c 13a8 c9bc aa69 52bd
00000020: 4ec5 623d 1518 f33c b724 30bd 13e3 debc
00000030: e6ab 7cbd 3694 cdbc e6d1 373d 4016 8a3d
00000040: 3eaa 91bd 9a99 75bc c2b9 01bd c121 e1bc
00000050: b9f3 ea3c aaf1 353d de2e 1f3c c1bf 6e3d
00000060: a2c2 01bd 7be1 0abd 7cfb 1bbb f2b8 253d
00000070: 2ac7 2abd bcae 4abc e027 2f3c 6abd bd3c
00000080: aa21 95bc 7bf2 2e3d bd6c a1bd 9f5e a8bc
00000090: 7d16 f4bc 0f02 0abd 2569 683d 5c69 5d3d
000000a0: 55c9 143d 45f6 033d 2c28 27bd 0a07 41bd
000000b0: f9dd c9bb c127 90bc 760b d7bc 8d06 98bc
000000c0: 852f 5b3d ec5a 0e3c 7a90 a93c c2a3 b6bc
000000d0: 18a5 6ebd 899c 3ebd 172e 2f3b ef27 54bd
000000e0: ff7d dc3b 414f 4b3d 0250 253c ff46 e7bc
000000f0: d68c 6cbc db3b fbbc 6d21 46bd e7a3 8abd
00000100: 245d 9b3d 1b95 423d e919 33bd 3c1b 5f3d
00000110: 4de6 903b 1af4 973d ed81 d83c a3ca 563a
00000120: dc96 8c3d a5ad 79bd 393e 293d 902d 7a3d
00000130: 8d86 d13c d95b 77bd 9722 823a 81e3 4c3d
00000140: 2ff9 3dbd fed6 da3d 614f ca3c 0306 86bc
00000150: df09 793d 1c6f 903b 12b1 42bc 18e3 c5bc
00000160: 4e6d 8e3c fa95 493d 7daa 4fbd 8346 23bd
00000170: d3fe 2cbd bd34 86bd 36ef ec38 0d67 b8bd
00000180: 1c5d e1bc c457 9ebc e921 313d d4ee 0c3c
00000190: 51d9 433d 86ef 073d 99ce e63c d146 763b
000001a0: 3594 3e3d 363a 8ebb 0835 91bd 348e 923b
000001b0: a42b e1bc 7996 943d 7b79 9dbc 69b8 6bbd
000001c0: 4c51 ba3d c0f4 19bd 8f98 083d 13ab 063d
000001d0: cd6d 0dbb 902f 88bd f363 47bc 469e c63c
000001e0: 0fb1 c4bd 4027 b93d 543a 0c3d e3dd 913d
000001f0: 9116 4bbd 5780 393d 01d4 85bc 58b6 5f3d
00000200: 273f e23a 2ab4 413d 1cef 75bd da4a 733c
00000210: a9e2 153d faa6 923c c421 b53d a380 9fbc
00000220: 7d7a 743d b338 b4bc 59b3 603d c8e8 d539
00000230: 23ff 5abc 64da 13bd 723e 5dbd 0f62 f0bb
00000240: bf73 09bd e59f b0bc 59a3 093d 46c4 9b3b
00000250: 563d 2e3d ee94 8b3d b4c4 3cbd e5ad 213d
00000260: 889c 4ebd 6196 5e3c 7ed1 4abc f629 133c
00000270: 7bbd 603c 1589 b2bc a59b bfbb 1f42 24bd
00000280: 5d6b 943d a448 2fbd bc55 7b3d 39fd 24bc
00000290: 6df6 f63c 01c2 b9bc 8862 a73d 4377 35bd
000002a0: ba98 adbc 9ca1 32bd 4d9d 573d 651a f13c
000002b0: c05b 303a 5a2e 4e3d e2c5 c4bb b0b8 bc3d
000002c0: 505c 51bd 6f72 303d f0e0 cabc 324a 06bd
000002d0: 1abc 6dbc 5046 7abd 3c32 28bb da00 fdbc
000002e0: 0373 41bd 1eba dd3c 6f3b 263b 64b6 793d
000002f0: 2ed4 a4bd 8218 7a3d e948 2abc 2556 f03c
00000300: 9b2d 8bbd 04f9 803d efb1 233d 229c a9bd
00000310: 7a76 863c d659 4cbd 1e1f a0bd 2c48 553d
00000320: 1765 283c fa43 13bb 7cd0 653c b9d0 d73c
00000330: 3092 7abd 3bfc 2fbd 58ee 67bd 8434 073d
00000340: 0fe5 babd 3eed 4dbd 55fc 873d 8677 8a3c
00000350: 713a 8dbd c0d3 973b f6b5 923d d467 703d
00000360: 1147 853d 28b5 48bd 6988 a0bb 8ea4 013d
00000370: c703 7abd baf7 43bd af12 993b 4cab 623c
00000380: dae3 593d 6f9f 9f3c e316 bdbc c942 18bd
00000390: 50a6 6fbd 2c05 2e3d cc5b 0e3d 0edf 82bc
000003a0: 7ef9 683b 9e17 d1bb d244 d73c 6fdd 04bd
000003b0: eb0a 44bd 7980 733d 240d 81bb 4157 4abd
000003c0: ba89 8abd 3f36 87bc 9f11 023d 4282 d23b
000003d0: 33c5 abbd 2046 1fbd 44dd 023c d4cf 6fbd
000003e0: 3589 233d b324 383d d26f 95bc a77e 903d
000003f0: 77da 753c 3b94 8dbc d388 a9bd 48cc c03c
-0.07727597 -0.023244297 -0.045135874 0.05677609 -0.0131863225 0.026457967 -0.024616277 -0.0513703
0.055363946 0.02967457 -0.043003764 -0.027207887 -0.061687373 -0.025095087 0.04487791 0.06742525
-0.07112549 -0.014990235 -0.031671293 -0.027481915 0.02868067 0.044419922 0.009715764 0.05828834
-0.031679757 -0.03390644 -0.002380102 0.04045958 -0.041693844 -0.0123707615 0.010690659 0.023161609
-0.018204529 0.042711716 -0.07882068 -0.020552931 -0.02979588 -0.03369337 0.0567409 0.054055557
0.036324818 0.032217283 -0.040809795 -0.047125854 -0.0061604944 -0.017597081 -0.026250582 -0.018557811
0.053512115 0.00868867 0.020698775 -0.022294883 -0.058262914 -0.046536002 0.0026730353 -0.051795896
0.006728887 0.04963613 0.010089876 -0.028232096 -0.014437875 -0.03066819 -0.04837172 -0.06769543
0.075861245 0.04750548 -0.04372588 0.054469332 0.0044219852 0.074196056 0.026429141 0.00081936474
0.06864712 -0.060956616 0.041319106 0.061078608 0.025576854 -0.060390327 0.0009928521 0.050021652
-0.046380218 0.10685538 0.024696054 -0.016360288 0.06080043 0.0044077765 -0.011883037 -0.024156138
0.017386105 0.049215294 -0.0506997 -0.039862167 -0.042235207 -0.06553028 0.000112979134 -0.090040304
-0.027510218 -0.01932896 0.04324523 0.008601863 0.04781467 0.03318741 0.028174685 0.003757883
0.04652806 -0.0043404354 -0.07090193 0.0044725183 -0.02748663 0.07255263 -0.019222965 -0.057548914
0.090975374 -0.037586927 0.033348616 0.032877993 -0.002158034 -0.06649697 -0.012169826 0.024245393
-0.09604084 0.090406895 0.034235314 0.071224 -0.049582068 0.04528841 -0.016336443 0.054617256
0.0017261253 0.04729096 -0.060042486 0.014849389 0.036593113 0.017901886 0.08844331 -0.019470518
0.059687126 -0.021999693 0.05485854 0.0004079996 -0.013366493 -0.036096945 -0.05401463 -0.0073359082
-0.03355765 -0.021560619 0.033603046 0.004753622 0.042538963 0.068155155 -0.04608603 0.03947248
-0.05044225 0.013585658 -0.012379048 0.008982172 0.013717051 -0.021793881 -0.0058474117 -0.04010212
0.072470404 -0.042793885 0.06136106 -0.010070139 0.030146802 -0.022675516 0.0817309 -0.04430319
-0.02119099 -0.043611154 0.052640248 0.029431531 0.0006727539 0.050337173 -0.006005035 0.09214914
-0.051113427 0.043077882 -0.024765462 -0.032785602 -0.014510179 -0.06110221 -0.0025664708 -0.030884195
-0.047228824 0.027066287 0.0025365015 0.060964957 -0.080482826 0.06105853 -0.01039336 0.029337952
-0.06795808 0.06297496 0.039964613 -0.08281733 0.016413916 -0.04989036 -0.07818435 0.05207078
0.010278008 -0.0022470937 0.014026757 0.026344644 -0.06117457 -0.042965155 -0.056623787 0.033009067
-0.09125721 -0.05027508 0.066399254 0.016902696 -0.068959124 0.004633397 0.071636125 0.05869277
0.065076955 -0.04900089 -0.004899074 0.031651072 -0.06103876 -0.047843672 0.0046714167 0.013834786
0.05319581 0.019485204 -0.023082202 -0.037173066 -0.058508217 0.0424854 0.034755513 -0.015975501
0.00355491 -0.006380989 0.026277933 -0.032437738 -0.047861975 0.059448693 -0.003938334 -0.049399618
-0.067645505 -0.016505359 0.031755086 0.0064242193 -0.08387222 -0.038885236 0.007987324 -0.05854781
0.039925773 0.044956874 -0.018241797 0.07055407 0.015005699 -0.017282596 -0.0827805 0.023534909

input_net.bias f4 [64]
00000000: fa9e 043d db11 85bd 56d6 0a3c 13d3 0dbd
00000010: 5210 983d 6732 81bd f578 36bd e58e 19bd
00000020: 6c9e 8bbc c739 543d e6fd db3b 13c2 873d
00000030: 4a64 63bd 3f91 53bd 5e72 7dbd b89e 78bc
00000040: 8795 d6bc 8e00 623c 347a 19bb 21d1 413c
00000050: 09dd 0d3d a6d5 e43c 3325 70bd 3e0b 963b
00000060: 8c55 eabc b853 e53b 3c03 76bd b235 12bd
00000070: c15c 62bd dfc0 fc3c 3db8 0a3c 7d4d 99bd
00000080: 9a57 90bd 8eca d93b a9a7 873d ab03 12bd
00000090: 5e77 be3c 6315 b03b 1a82 98bd e061 a73c
000000a0: 41d3 9abd 6640 a83c 3b12 b93a abd7 44bd
000000b0: 5d84 193d bb4e c53c 6a77 6a3d aaa5 80bd
000000c0: ba4d 57bd 212b c4bc 01ff 50b9 9b56 2dbd
000000d0: 9bd6 783d 7b15 adbb edf9 133d bdd4 5d3d
000000e0: 1823 96bc 1f3f a33d ec7a 2e3d a6c7 763d
000000f0: e2f3 6bbd 779b 97bc 33e9 37bd be74 46bc
0.032378174 -0.06497546 0.008473953 -0.034625124 0.07424988 -0.063084416 -0.044548947 -0.03748979
-0.017043315 0.051812913 0.0067136167 0.066288136 -0.055515565 -0.05165219 -0.061876647 -0.01517456
-0.026194347 0.013794078 -0.0023418786 0.011829645 0.034634624 0.027933907 -0.058629226 0.004578977
-0.028605245 0.0069985054 -0.06006168 -0.03569574 -0.05526424 0.030853687 0.008466777 -0.07485483
-0.07047959 0.006646461 0.066237755 -0.03564803 0.023250278 0.0053736432 -0.0744669 0.020432413
-0.07559825 0.02053852 0.0014119813 -0.04805724 0.037479747 0.024085393 0.05724279 -0.06281598
-0.05256436 -0.023946347 -0.00019931422 -0.04231892 0.06075154 -0.0052821017 0.03612702 0.05415796
-0.01832728 0.07971024 0.042597696 0.060248993 -0.05760563 -0.018506749 -0.04490013 -0.012112794

mixture_net.mol_attn_layers.0.self_attn_layer.in_proj_weight f4 [192, 64]
00000000: b2d9 fb3d 0713 c0bd a53c 623d 766c 813d
00000010: 257e 3d3e cabd 6a3d b627 2ebd cf41 1dbe
00000020: 502d c63d f6f4 cd3c b6e2 3f3e 62f3 1dbe
00000030: 7791 383c 885d 3c3e ed94 f93d 4f13 8fbd
00000040: 9587 e23c b27e bfbd 9ac4 4abd 457c 7d3c
00000050: a27f 53bd ece5 47bd fa5e a13d b540 6d3d
00000060: 8c29 b43d 9156 c3bc 6157 f43d 25fb 17be
00000070: 0df2 90bd c4f1 98bd 420b 283c 39e3 7bbd
00000080: e023 a1bd 855f 22be e4b5 8dbc dd05 debc
00000090: 2d07 36bc 69d2 34be 35e8 073e 110b 20be
000000a0: 5d09 e93d 9f8b 61bd 01cd 32bc 5dc0 bc3b
000000b0: c86c 7f3d 42a0 233e fa47 883d 5c7f e53c
000000c0: 886a 9c3c a38a acbd d7de 9e3c 4166 8d3d
000000d0: 24f9 123e 8daa c23d 0317 8a3d bbc4 c53d
000000e0: 35a5 763c 4cc5 00bb 715c 223d 1f1c 673c
000000f0: f48b 583d 2da7 143e c4a2 d3bd 7b46 d43d
00000100: 1847 2c3e 9697 2bbd 09ce 81bd d011 03be
00000110: e506 5abc ab9e 0bbe 60e8 eb3c 5e1a b9bd
00000120: 7eb4 413e 53c3 0c3c 3d9e 1b3e 8d18 973d
00000130: 31f5 323e dfde bbbd 2509 703d 7f45 1fbe
00000140: 03e2 f6bb e84e 5abc b19a 923d a091 4dbc
00000150: c5cd 3e3d cf70 ea3c c218 043e 8564 e83d
00000160: 557f 633b 2cdb 533b 52ab 82bd 951d ec3d
00000170: 2cd1 98bc 9e98 e2bd d08f 9e3d ae05 c1bd
00000180: 8016 a6b9 26a9 c6bc d07e 0b3e b68f e7bd
00000190: 4c81 24be 9392 9ebd db08 18be 8fa1 f43c
000001a0: 060b 8dbd ec09 e4bd 2e5b 173e 8d2e fabd
000001b0: fef6 9c3d 983a 343e 3ff2 063e 96d3 06be
000001c0: c438 a73d 0e39 513d 5a17 44be d7a8 dfbb
000001d0: 6bf8 5f3d 7681 93bd e207 0f3e eea1 3fbe
000001e0: 5e7c 553e f408 273e 9336 8b3d d10d 0e3d
000001f0: e76c fdbd 30f5 253d 2e16 3c3d 7811 be3c
00000200: 3427 943d 58fc a03c d235 843b 8367 67bd
00000210: fee0 33be 9c32 043e e585 3ebe cccb 9abd
00000220: 8aec adbd b3f0 d13d 9165 d1bc 3243 903d
00000230: 111d 8ebd a45f d9bd 4a6a 42bb fa70 773c
00000240: 3923 683e 1dea c2bd eba6 f23b 4fc6 083e
00000250: 5dcb 11be 2c13 b8bd c3bc f3bb 875a 043e
00000260: ccd7 8f3d 66c5 16be b416 6f3c 2675 89bc
00000270: b8b5 953d 509a 3bbd caff d5bd 221c 9b3d
00000280: ce27 943b 3aaf d0bd da43 0ebe 9ece 1ebe
00000290: bff2 a8bd ce7a 84bd 94ed 91bd dbcd ebbc
000002a0: ba56 07be 84ca 1bbe 42a3 a1bd 8a08 bf3d
000002b0: 754e bf3d 02d0 e2bd 7e89 1bbc ea72 ea3d
000002c0: 4def 88bd 6c73 103d faad cfbc 4fa5 9a3d
000002d0: 6f72 923c cf39 2e3d 9eb4 a53d 7919 963d
000002e0: bfb8 a43d 6bfc 263e dd98 81bd a5d5 28be
000002f0: 8aa8 a6bc ce20 083e a50a adbd 7bc6 8dbd
00000300: e920 0f3e 7e09 b6bd 6739 49bd 6ec8 ee3d
00000310: f7b4 57bd c550 b6bd 8b5d 483d d109 87bc
00000320: 7bba 263e 4e1f a1bd b191 233e 6343 0fbe
00000330: 509b 023d 7b72 34bd fa87 df3b 5719 acbd
00000340: b67c 4fbd 6b03 2b3d e4bb 09be e6a0 293d
00000350: 443e 0f3c 63a2 ac3c 2361 ccbd 0113 d53d
00000360: 83ad a13d e998 39be 2e8b 193e a96b 803d
00000370: 0329 9abd 5705 6c3d 036b 17be 72d6 6f3d
00000380: 573e e3bc 4982 b83d b58e 963d 6f71 c4bd
00000390: 998c 973d c733 ea3d eb23 bd3d 076d 003e
000003a0: 3f92 583d e0b7 2abd 1a47 acbd 934e 5d3d
000003b0: c10d 683c 536f 093d a6b3 29be 9ade ff3c
000003c0: 8dc0 acbd bfad 803d b7ac e6bd aad5 60bd
000003d0: 7644 543d a480 693d 99b1 4e3d 05fe 06bd
000003e0: 814f cfbd ef0b 153e 9326 9e3c a22f 54bd
000003f0: 0cb0 2f3d ab97 6a3c bfd2 fbbd d003 823c
0.122973815 -0.09378629 0.055233616 0.063195154 0.18505152 0.057309903 -0.04251834 -0.15357135
0.096766114 0.02514122 0.18738827 -0.15424874 0.01126515 0.18395054 0.121866085 -0.06986105
0.027652541 -0.09350337 -0.0495039 0.015471523 -0.051635392 -0.048803255 0.078794435 0.057923038
0.08796987 -0.023844989 0.11930729 -0.14841898 -0.070774175 -0.07467988 0.01025659 -0.061495993
-0.07868171 -0.1585675 -0.017298646 -0.027102405 -0.011110109 -0.1765839 0.13272174 -0.15629221
0.11378739 -0.055064794 -0.010913135 0.005760236 0.0623596 0.15979102 0.066543534 0.028014831
0.019093767 -0.0842488 0.019393368 0.06904269 0.14352852 0.09505186 0.067426704 0.09656664
0.015054037 -0.0019648848 0.03963894 0.014105826 0.052867845 0.14516897 -0.103337795 0.103650056
0.16823995 -0.04189261 -0.06338126 -0.12799764 -0.013307308 -0.13634746 0.028797328 -0.09038232
0.18916509 0.008591491 0.15197082 0.073777296 0.17476346 -0.09173369 0.05860247 -0.15553854
-0.007534267 -0.013324477 0.07158411 -0.012546927 0.046582956 0.028618244 0.1290007 0.113472976
0.0034713347 0.0032326682 -0.06380333 0.1152908 -0.018654428 -0.11064266 0.07742274 -0.094249114
-0.0003167875 -0.024250578 0.13622594 -0.113067076 -0.16064948 -0.077428006 -0.14847128 0.029862193
-0.06886868 -0.11134705 0.14780876 -0.1221591 0.076642975 0.17600477 0.13178347 -0.13166651
0.08165124 0.051079802 -0.19149533 -0.006825547 0.05468027 -0.07202427 0.13967851 -0.18714115
0.20848224 0.16312009 0.067975186 0.034681145 -0.12374287 0.040517032 0.04591959 0.02320169
0.0723404 0.019651577 0.004034736 -0.0564952 -0.17566296 0.12909931 -0.18605764 -0.075584024
-0.08492382 0.10250988 -0.025561126 0.070440665 -0.06939138 -0.10613945 -0.0029665404 0.015102619
0.22669686 -0.0951731 0.007405152 0.13356899 -0.14237733 -0.08988032 -0.0074382736 0.12925158
0.07023582 -0.14723739 0.014592815 -0.016779494 0.07310051 -0.04580146 -0.104491785 0.07573725
0.0045213467 -0.10189672 -0.13893071 -0.15508506 -0.08249425 -0.06468736 -0.071253926 -0.028784683
-0.13216677 -0.15213972 -0.07892467 0.093278006 0.09341136 -0.110748306 -0.00949323 0.11447699
-0.06686268 0.035266325 -0.025351513 0.07551061 0.017876832 0.0425356 0.080910906 0.07329077
0.0804305 0.16307227 -0.063279845 -0.16487749 -0.020344038 0.13293764 -0.08449296 -0.06922623
0.13977398 -0.08888529 -0.04912701 0.11659323 -0.052662816 -0.08902124 0.048917335 -0.016484173
0.16282074 -0.07867299 0.15973546 -0.1399055 0.0318864 -0.04405449 0.0068216296 -0.08403271
-0.050656043 0.041751307 -0.13450581 0.04141321 0.008742873 0.021073526 -0.09979465 0.10404015
0.07894423 -0.18124737 0.14994499 0.062705345 -0.075273536 0.05762228 -0.14786915 0.05855412
-0.027739687 0.09009225 0.07351438 -0.09591948 0.07399864 0.11435657 0.092353664 0.1254159
0.052873846 -0.041679263 -0.08411999 0.054030012 0.014163435 0.033553433 -0.16572437 0.031234074
-0.08435164 0.062831394 -0.112634115 -0.054891266 0.051823102 0.057007447 0.05046234 -0.032957096
-0.10122586 0.14555334 0.019305503 -0.05180324 0.0428925 0.014318387 -0.12296056 0.015870959

mixture_net.mol_attn_layers.0.self_attn_layer.in_proj_bias f4 [192]
00000000: e0f7 8f3c 8706 fc3c 5806 21bb a24c 903c
00000010: df9e 283d 754e c13c fa2a a23c f599 163d
00000020: d879 21bd 0bff 85bb d8c5 1c3c d1f2 a23c
00000030: dbb0 f6ba 054a 4cbc 7f61 28bd e01e 1c3d
00000040: b172 56bc bcda d8bc 6d66 82bc 34df 8abb
00000050: 10f2 5e3c bb34 5e3c a5d8 cabc a521 e0bc
00000060: 8a10 59bc c963 113d 95f5 e33b 265f 9e3c
00000070: 0db5 2b3c a35d f9bc 6f82 893c 04ff abbc
00000080: 38e4 8c3c 198c 753c b139 1abc 5c32 99bb
00000090: 764f 083d 5f27 d7bd 9875 a3bc 803b d43c
000000a0: d718 0d3d 14d7 d5bd 6453 b3bd 831f 8f3c
000000b0: d295 29bc 29e1 3e3c 9dd9 3dbd eafd 303d
000000c0: 21cd ceba 7360 1dbd ad04 5f3b 877d 81bc
000000d0: 2459 d8bb 3a8b 3bbc b9e8 1d3d 1a29 12bd
000000e0: c637 22bd 7266 903b 1a58 01bd 4bdd cd3c
000000f0: b7ff 9abd d4fa d1bc fb5f c23c 4a72 3e3d
00000100: 31c3 5d38 3bda d938 906b 3837 df32 0d38
00000110: 3c93 8c38 2564 b637 c901 3138 c97c 9e38
00000120: fdc1 a4b8 6b22 6235 be43 5537 59b7 a037
00000130: c785 01b7 e709 0ab7 fa71 79b7 e345 9538
00000140: 4b77 71b6 ee8d ae38 3bb9 c737 b2f9 53b8
00000150: 7068 f0b7 f9a0 14b8 c634 ed38 19ec 9338
00000160: 800e 1039 18de adb8 8add 8db8 0343 bab8
00000170: 2235 80b8 a9db 5e39 3783 1ab6 7f40 7a38
00000180: f273 bd37 8cd3 1b38 2625 a2b7 bc28 f7b7
00000190: ea47 6138 ba1a 57b9 cd89 6db7 eeb0 e638
000001a0: d27a c938 e182 2fb9 3202 35b9 8e80 ab38
000001b0: 9381 b1b7 bb5c 0038 f39d 13b9 cf99 3639
000001c0: 6f04 ccb6 bbf5 5036 e9f1 c3b6 9820 c0b6
000001d0: 63c3 3937 392e 1d38 daeb c5b7 f1bc 3337
000001e0: 9377 06b7 ba97 24b7 6de0 7837 df6a 0b38
000001f0: fef2 7735 4b2a c836 5a5d 11b8 3d85 44b6
00000200: ec73 0cbc 6694 e23b e549 88bb b730 0fbb
00000210: 8eae 0bbc 1cc6 0ebb 5ea4 be3b eb64 8d3a
00000220: ec59 c7ba 5717 a43b 1f47 e23b 2ada d7bb
00000230: d942 77bb 118d 2a3b 0bf2 9e3b c363 a1ba
00000240: 493a b1ba 874c 6a3b a585 c0ba 8b14 c23b
00000250: 8d3f 3a3b 7ea4 40bc 8512 013c 8961 52bb
00000260: e7e8 2abb 9d12 8e3a 3b42 3c3b c1c1 36bc
00000270: 5bd4 22bc 4745 c9bb 2c73 65bc af45 34bb
00000280: 3c13 8dbc 96f5 c8bb fe59 083c 7b2f 043c
00000290: 6484 93bb dcb8 2fbb e2fa e23b 9b0a 1ebb
000002a0: 59f5 9c3b 8cb3 0b3c 29a3 87bb e2c5 273c
000002b0: f57a 963b 1692 1b3b 57c5 19ba 4b6a 213c
000002c0: d040 d1ba 1da6 463b 5a5f 0e3b ace2 773a
000002d0: f982 4aba 812b 87b9 75a0 3abc 8670 91bb
000002e0: da5f 6e3b 9d76 ddba cf49 fbba 2e7e 183c
000002f0: a796 4b3a 9ece e83b bfee b33c d3a6 4b3b
0.01757425 0.030764831 -0.0024570432 0.017614666 0.041167136 0.023596982 0.019795883 0.03676792
-0.03942284 -0.0040892414 0.009568654 0.019891175 -0.0018821018 -0.0124688195 -0.041108605 0.038115382
-0.013088868 -0.026471488 -0.015917981 -0.0042380337 0.013607517 0.013562377 -0.024761507 -0.027359793
-0.013248572 0.035495553 0.006956766 0.01933248 0.010480178 -0.030440157 0.016785828 -0.020995624
0.017198667 0.014987015 -0.009413169 -0.0046751928 0.033278905 -0.10505556 -0.019953534 0.025907278
0.034447517 -0.104414135 -0.0875614 0.01747108 -0.010350661 0.011650362 -0.04635011 0.0432109
-0.0015777686 -0.03842206 0.0034029887 -0.015806926 -0.0066024233 -0.011446768 0.03855202 -0.03568373
-0.03960397 0.0044067437 -0.03157816 0.025129935 -0.07568305 -0.0256323 0.023727408 0.046495713
5.2872292e-05 0.00010388015 1.09922985e-05 3.3664397e-05 6.703145e-05 2.1742724e-05 4.220175e-05 7.55727e-05
-7.8562625e-05 8.4241645e-07 1.2711562e-05 1.9158864e-05 -7.720147e-06 -8.227747e-06 -1.4868094e-05 7.117891e-05
-3.5981236e-06 8.323403e-05 2.3808903e-05 -5.0538867e-05 -2.8658862e-05 -3.5435867e-05 0.000113108705 7.053483e-05
0.00013738312 -8.290651e-05 -6.764669e-05 -8.881653e-05 -6.1134124e-05 0.000212534 -2.3024165e-06 5.966471e-05
2.2584547e-05 3.7151898e-05 -1.9329203e-05 -2.9463663e-05 5.3711155e-05 -0.00020513954 -1.4158385e-05 0.0001100021
9.607304e-05 -0.00016738057 -0.00017262323 8.1778606e-05 -2.1160382e-05 3.060394e-05 -0.00014077853 0.0001741417
-6.08019e-06 3.113745e-06 -5.839615e-06 -5.7258403e-06 1.1072351e-05 3.7474765e-05 -2.3594057e-05 1.0713223e-05
-8.014863e-06 -9.810488e-06 1.4834205e-05 3.3239714e-05 9.236827e-07 5.965388e-06 -3.4657634e-05 -2.928383e-06
-0.00857256 0.006914663 -0.0041591995 -0.0021849105 -0.008525504 -0.0021785563 0.005817934 0.0010787522
-0.0015209294 0.005007665 0.006905451 -0.0065872865 -0.0037729053 0.0026024024 0.004850631 -0.0012313057
-0.0013521399 0.003575118 -0.0014688267 0.005922859 0.0028419227 -0.011757968 0.007877951 -0.0032101593
-0.0026078762 0.0010839287 0.0028726 -0.011154593 -0.009938325 -0.0061422917 -0.01400451 -0.0027507355
-0.017221086 -0.0061327918 0.008322237 0.008067961 -0.004501866 -0.0026813066 0.00692688 -0.0024115208
0.00478999 0.008526694 -0.0041393233 0.01024005 0.0045922943 0.0023738197 -0.0005865893 0.009852002
-0.001596475 0.0030311414 0.0021724314 0.0009456079 -0.0007725205 -0.0002578162 -0.011390795 -0.0044384627
0.003637305 -0.0016896311 -0.0019171777 0.009307427 0.00077662844 0.007104709 0.021964429 0.0031074777

mixture_net.mol_attn_layers.0.self_attn_layer.out_proj.weight f4 [64, 64]
00000000: 149b d33c 4fd8 6a3c ef11 81bc 2375 d1bd
00000010: d06d cfbd f406 943c 6b4b 09bd 807a 02bd
00000020: a22e a33d cfa2 c13d 7368 32bd d838 b5bc
00000030: bf68 22bd 368a 863d ab7f fc3d 8e28 c23c
00000040: 260f 6c3c 6309 cb3d be03 0b3c 92b5 3b3d
00000050: d035 f43d 5050 c53d 65bb 453d c4b8 433c
00000060: c49e a6bc 26d3 f73c 58d8 f03d 094b 61bd
00000070: ee2a 873a d4d3 8abd 605e 7ebd 82e6 47bd
00000080: 197a 7bbd bfb2 083e b530 1dbd 30bd c2bc
00000090: ba4b ccbc e1bf 5b3c 13b9 70bd aefe bebd
000000a0: 2f58 11bd 18aa ee3d 06f1 91bd 539d 5dbd
000000b0: 469a c33d cf99 fa3c 04f3 d23d 1de5 d3bd
000000c0: 7ed1 e03d bb07 77bd dd94 6e3d ade6 06bd
000000d0: 6382 86bd adad b4bd 0c42 8bbd 64e2 c5ba
000000e0: eb11 9bbd f640 5dbd 4bee e03d 80e9 1ebd
000000f0: 23e0 c739 2f35 f3bd 2380 9dbd cbe6 3aba
00000100: 3c41 c5bd 4be7 d1bd 2617 94bd 6c11 f2bc
00000110: 5d28 0dbc b94e 5f3d afd9 5a3d 2d0b bcbd
00000120: 73ab c8bd 448a b7bd a5dc 94bc b7e6 f2bd
00000130: b85a 1a3d 86c5 8cbd 0619 a1bc 4ca5 79bd
00000140: 8998 0bbe 935d 88bd cdaa 3bbd 5e96 fcbc
00000150: 49a6 563d 89c5 03bd ab18 013d 4807 ca3d
00000160: 2000 d03d 6ac1 49bd 9f40 96bd a69a d3bb
00000170: d826 843d be4b bbbd 0108 583c c0c3 a33d
00000180: 372c afbd 040d 993b d21f 8ebd 7aa0 013d
00000190: 888b bcbd af93 5f3d e34e 0c3e 59dd eebd
000001a0: 3788 ce3d 3176 253c 9bac e5bb 45ff 00be
000001b0: c4e0 2d3d 9b4d ac3c ef89 e13b 3e14 a4bd
000001c0: 510c c0ba 7d06 f83c f115 8abc c06d d53d
000001d0: 6fea babd b698 a53d 4b71 67bd c163 68bd
000001e0: 401e 29be 9bc9 1a3d 81b9 833d 2fdd 463b
000001f0: 888e 9d3c 79c3 14bd 1c51 63bd 4f90 083e
00000200: f947 c4bd e4a2 763d c81f c5bd 0e28 72bd
00000210: 4bf7 a3bc 1598 c73b dc61 073e d2dd c23d
00000220: 1ecf a8bc b5ee 89bd cf0d 07be 3446 35bd
00000230: f9ce 33bd 4b5b 99bd 4f99 fabd ed68 9fbc
00000240: f374 743d c29e 99bc 73af b83d c38a 33bc
00000250: d344 81ba ad3e 71bd 730f 0bbe 0d03 c93c
00000260: 7858 dcbc 94f3 ac3d 8d34 f53d f5cc 3b3c
00000270: 91cf eabb 433e c63d 3e55 9cbd 4a9b 393b
00000280: dcfb d23d ec86 da3d faff 76bc 9a0c db3c
00000290: 3d50 c6bd b40b e13d 342f 803a fa98 f7bc
000002a0: ea23 0a3e 4cd8 833d 2ec2 8f3b c025 91bd
000002b0: ea16 edbd 6ac1 3cbd 19be 053b 3d74 4b3d
000002c0: ba4d 003e 1a10 50bd 6293 fabd ce08 26bd
000002d0: 0e08 373b b3ba 50bd 5626 75bd 554d 933d
000002e0: bf64 8dbd f17f 843d 3873 cebb cc84 4f3d
000002f0: 7c98 cdbd 5f25 e23d c0ba ddbc c638 9b3d
00000300: 9751 99bd 53e3 54bd 70eb d63d 6237 e8bd
00000310: ee2b d5bd af48 0abe f3e6 16be e459 e43c
00000320: fc37 1f3d 4b78 5b3d 5a56 aebc f709 9dbd
00000330: a5f9 8f3d 6ee4 51bd 42b5 a0bc 6801 953d
00000340: 18e1 d1bd f8eb c9bd 8de5 5d3d bdc9 38bd
00000350: 456c 01be 0a0f 84bd 8e67 fd3c 294e 3b3d
00000360: 4434 973d 6ce3 1c3d 2bc8 66bd eb4f 6f3c
00000370: 7eba 8a3d 6f3f 083d 5a25 75bd 8de2 ca3c
00000380: a763 30bd 533c 85bd afb8 183d 7a78 933d
00000390: d7ce 5cbd 13b4 88bd ac64 b9bc 1de6 813a
000003a0: 0b1c 64bd 3b67 c6bd 37dd 893d 6958 f13d
000003b0: efe8 f1bc af15 663d 6366 813d e3e2 08be
000003c0: 9d7f fa3d cad7 81bc 3171 6ebd d218 b43d
000003d0: 32e4 c2bd 1b50 d4bd a8de 93bd 2b89 f63d
000003e0: cdd7 5b3d 0174 cd3d 5c21 fabb 66aa f03d
000003f0: df6c bdbd fd01 c83d 499d 3abd bf00 a6bd
0.025830783 0.014333799 -0.015755622 -0.1022742 -0.10128367 0.018069722 -0.03351919 -0.031855106
0.07967879 0.094548814 -0.04355664 -0.022121832 -0.039650675 0.065693304 0.12329038 0.023700979
0.014407909 0.099139 0.008484779 0.045827456 0.119243264 0.09634459 0.048274416 0.011945907
-0.020339377 0.03025205 0.11760014 -0.0550032 0.0010312477 -0.06778684 -0.06210172 -0.048803814
-0.06139574 0.13349436 -0.03837653 -0.023771852 -0.024938453 0.013412447 -0.05877025 -0.0932592
-0.03548449 0.116535366 -0.0712605 -0.054105114 0.0955091 0.03059092 0.10300258 -0.10346434
0.109774575 -0.060310107 0.058247436 -0.032934833 -0.06567838 -0.088221885 -0.06799707 -0.0015097377
-0.07571777 -0.05401703 0.10982951 -0.0387969 0.00038123233 -0.11875378 -0.07690456 -0.0007129728
-0.09631583 -0.10249194 -0.07230978 -0.029549323 -0.00861558 0.054518435 0.053430256 -0.09181819
-0.09798326 -0.08961919 -0.018171618 -0.118604116 0.037684172 -0.06873612 -0.019665252 -0.060948655
-0.13632406 -0.06658473 -0.045817185 -0.03083342 0.052404676 -0.032170806 0.031517666 0.0986467
0.10156274 -0.04925672 -0.07336544 -0.0064576445 0.06452721 -0.09145306 0.013185502 0.07996321
-0.08553355 0.004670741 -0.06939663 0.031647183 -0.09206301 0.0545842 0.13701968 -0.116633125
0.10084575 0.01009898 -0.0070091016 -0.12597378 0.04245068 0.021033099 0.006882898 -0.080116734
-0.0014652108 0.030276531 -0.016856166 0.10421324 -0.09126746 0.08085768 -0.05650453 -0.056735758
-0.16515446 0.037789922 0.064318664 0.0030344238 0.019233003 -0.03631923 -0.055497274 0.133363
-0.0958404 0.06021394 -0.096252024 -0.05912023 -0.02001538 0.0060911276 0.13220924 0.09514965
-0.020606574 -0.06734983 -0.13188861 -0.044256404 -0.043898556 -0.07488116 -0.122362725 -0.019459212
0.059681844 -0.01875246 0.09017839 -0.010958376 -0.000986243 -0.058897663 -0.13580112 0.024537588
-0.026897654 0.08444896 0.11972914 0.01146244 -0.007165857 0.09679844 -0.07633446 0.002832132
0.103019446 0.106702656 -0.015075678 0.026739407 -0.09683273 0.1098856 0.0009779693 -0.030224312
0.13490263 0.0643774 0.0043871617 -0.07087278 -0.11576636 -0.04608289 0.0020407496 0.0496714
0.1252965 -0.050796606 -0.12235142 -0.04053574 0.0027928385 -0.0509593 -0.059851013 0.07192484
-0.069039814 0.064697154 -0.0063003562 0.050663754 -0.1003885 0.11042284 -0.027066588 0.07579188
-0.07486265 -0.051974606 0.10494125 -0.113386884 -0.104087695 -0.13504289 -0.14736538 0.027874894
0.03887175 0.053581517 -0.02128141 -0.07667916 0.07030038 -0.05124324 -0.01961768 0.07275659
-0.10248011 -0.098594606 0.054173995 -0.045114268 -0.12638958 -0.06448181 0.030933168 0.045728836
0.07383016 0.038302824 -0.05634324 0.014606456 0.06773852 0.03326362 -0.059850074 0.024766231
-0.043063786 -0.065056466 0.037285503 0.072007135 -0.053908195 -0.066749714 -0.022631012 0.0009910498
-0.055690806 -0.096876584 0.067316465 0.11784441 -0.029530017 0.056173023 0.06318357 -0.133678
0.122313716 -0.015849967 -0.058213416 0.087937966 -0.09516181 -0.103668414 -0.07220203 0.120378815
0.0536726 0.100318916 -0.0076333713 0.11751251 -0.09249281 0.09766004 -0.045560155 -0.08105611

mixture_net.mol_attn_layers.0.self_attn_layer.out_proj.bias f4 [64]
00000000: 479e 823b be27 ed3a 70cb d63a 49a8 04bb
00000010: 4e50 413c 9918 85ba 545f b6bb 6814 cf3a
00000020: 5382 eb39 ef81 95ba 053b 403b c7af 83ba
00000030: 3b37 973b 3099 5b3b bbdd 2dbb 3fb9 46b9
00000040: 4add d23a 9099 583c 093e ebbb 6caa 603b
00000050: 76f9 1f3a 2c1f 2abb 2134 a53b 4839 0e3c
00000060: a43a 82bb 0374 5fbb acee ff3b b3e8 263c
00000070: e5b3 ff3b a281 9cbb d08f 1cbc 1eed a1bb
00000080: eb5c 773a d336 98bb 71c0 acba af5f ce3b
00000090: d7b7 67bb 9157 793a 94fd 5ebb d62f a63b
000000a0: 8e92 88bb d734 e83a a657 1a3a 2948 843b
000000b0: b852 403b 2539 613b 3335 01bc 3171 5dbb
000000c0: 89e4 9abb 169a afbb a71c 8bbb fce6 16ba
000000d0: 7f90 acbb 7c06 7ebb 0265 c03b 04ec 6fbb
000000e0: 3d96 1a3a 77dd 893b 45e5 05bb f73e b3bb
000000f0: 8b1a a23b d0ec 8439 e6b3 833b f29e 34bb
0.0039861533 0.0018093509 0.0016387533 -0.0020241907 0.011798931 -0.0010154425 -0.005565563 0.0015798928
0.00044919792 -0.0011406521 0.0029332053 -0.0010046893 0.0046147383 0.0033508055 -0.0026529867 -0.00018951761
0.0016087678 0.013220206 -0.007179026 0.0034281267 0.0006102541 -0.0025958521 0.0050416146 0.008680649
-0.0039742757 -0.0034096248 0.0078104343 0.010187316 0.0078034275 -0.0047761956 -0.009555772 -0.0049415966
0.0009436148 -0.0046452074 -0.0013179911 0.0062980275 -0.003535738 0.00095116446 -0.0034025656 0.0050716205
-0.0041678613 0.0017715943 0.00058876944 0.0040369225 0.002934618 0.0034366336 -0.007886219 -0.003378939
-0.0047269505 -0.0053589446 -0.004245359 -0.0005756465 -0.0052662487 -0.003876119 0.005871416 -0.0036609182
0.0005897021 0.004207309 -0.0020430845 -0.0054701525 0.004947012 0.0002535344 0.0040192483 -0.002756056

mixture_net.mol_attn_layers.0.addnorm1.norm.weight f4 [64]
00000000: 62ae 7e3f 6a59 7f3f ce5c 803f 3a7e 803f
00000010: 5208 813f 685d 7f3f 15d4 7e3f f328 823f
00000020: b3bb 803f 2dec 7f3f c6ff 7f3f 9302 7f3f
00000030: 8135 7f3f 62de 7e3f 15ec 7f3f 0f35 813f
00000040: 0738 813f 0972 7b3f f256 823f a8ca 803f
00000050: 5097 7c3f d2c4 833f f427 803f 3408 813f
00000060: 1642 803f 76b2 803f 9a3c 803f 9c51 7e3f
00000070: e04a 7f3f 7c11 7f3f 6801 7f3f fa1a 803f
00000080: 8e07 803f 4e2c 813f a8dc 7e3f 4bf6 803f
00000090: d9d6 733f 2c14 813f 9c5d 7e3f 335a 803f
000000a0: 0d79 813f a11d 803f b97e 803f 2db7 7d3f
000000b0: 1afc 803f 66b7 7f3f f1a9 7f3f 7535 7d3f
000000c0: 722d 7f3f bae6 803f 3021 813f 597d 803f
000000d0: 0fa0 7f3f 7e88 813f e73e 803f 0cb4 7f3f
000000e0: 9289 813f 2ab1 813f 533d 803f 6aaa 803f
000000f0: f029 7f3f 0320 803f 3dc8 803f 9606 853f
0.9948484 0.9974581 1.0028322 1.0038521 1.0080664 0.997519 0.9954236 1.0168747
1.0057281 0.9996975 0.99999654 0.996133 0.99691015 0.9955808 0.9996961 1.0094317
1.0095223 0.9822088 1.0182784 1.0061846 0.98668385 1.029444 1.0012193 1.0080628
1.0020168 1.0054462 1.0018494 0.99343276 0.99723625 0.99636054 0.9961152 1.0008233
1.0002306 1.0091646 0.99555445 1.0075163 0.95249707 1.0084281 0.99361587 1.0027527
1.0115067 1.0009042 1.0038673 0.9910763 1.0076935 0.9988922 0.99868685 0.98909694
0.9967872 1.0070412 1.0088253 1.0038253 0.99853605 1.0119779 1.0019196 0.99884105
1.0120108 1.0132191 1.0018715 1.0052006 0.99673367 1.0009769 1.0061108 1.0392635

mixture_net.mol_attn_layers.0.addnorm1.norm.bias f4 [64]
00000000: 97b3 9a3b 5885 f73a aa9e 633a 704e 143b
00000010: 0175 cf3b 5189 17ba 5d40 61bb 6a3a 68bb
00000020: db6f 30bb f550 42bb f2fd dcb9 0c0f 55bb
00000030: ef87 1f3a 9a63 043b 3586 40bb 42d3 1c3b
00000040: 231d d738 6f5d 863b 8e86 9bbb e7fa 903b
00000050: 5d45 7338 5532 44bb a9b8 643b 16a5 9a3b
00000060: 49fa e6ba 240e 50bb 9c57 8b3b ccc4 1f3c
00000070: 48fa 043c 8c20 6ebb 1fa4 e1bb 78a1 71bb
00000080: 571a b73a 523e 84bb b3c6 80bb 7991 493c
00000090: c741 01ba 8f6b 22bb 2e3f 69bb c7bf 2f3c
000000a0: a854 adbb 70d5 d73a 34f3 57ba c2fb c73b
000000b0: 2df5 603b 54f5 5b3b db71 9fbb 4a49 e3ba
000000c0: 3d90 01bc b62a 10bb 6134 37bb ddc3 193a
000000d0: c844 04bc 3dd5 1fbb 0040 b8ba 0093 2cbb
000000e0: cce2 8fbb 0e4f de3a 2cbc d2bb fdbb bebb
000000f0: a9e1 53b9 51dc b0bb a171 a23a 45a8 71ba
0.004721116 0.0018884344 0.00086830056 0.002262976 0.0063310866 -0.00057806546 -0.003437064 -0.0035435208
-0.002692214 -0.0029650305 -0.00042150874 -0.003251019 0.00060856243 0.0020200969 -0.0029376869 0.002392963
0.00010257426 0.0041004936 -0.004746265 0.004424441 5.8000314e-05 -0.0029937227 0.0034900105 0.004719387
-0.0017622198 -0.003174671 0.004252387 0.00975151 0.008116312 -0.0036335317 -0.00688602 -0.0036869925
0.0013969642 -0.0040357495 -0.003929937 0.01230275 -0.0004930761 -0.0024783348 -0.0035590637 0.010726876
-0.005289633 0.0016466808 -0.0008237839 0.00610301 0.0034325824 0.0033562975 -0.0048658676 -0.0017340567
-0.007907924 -0.0021998114 -0.0027954804 0.0005865673 -0.008073039 -0.0024388575 -0.001405716 -0.0026332736
-0.00439105 0.0016960816 -0.0064311232 -0.00582075 -0.00020206593 -0.0053973575 0.0012393483 -0.00092184945

mixture_net.mol_attn_layers.0.ffn.layers.0.weight f4 [64, 64]
00000000: 6512 df3d dde0 f6bd ccc7 0fbc 8b3c 183e
00000010: abd6 6d3c 8d0b 9fbc 4dcd 0cbe c72d 5a3c
00000020: 68fc dcbd 7463 6dbd 8601 a3bc 7ae2 43bd
00000030: d108 2dbd 77c7 fb3d c225 e5bd 7895 603d
00000040: 2c3b f3bd d63c bf3d 0c19 b83d 63f8 2fbd
00000050: 3b45 953d 9a33 973d 24b2 cc3d 3f3e b93d
00000060: 1d4b 3c3d c3af e63c 7490 fabd 34df b63d
00000070: 3978 e8bd f781 78bc 4b59 f5bd 65ad 013c
00000080: 0c92 0c3d 397c 633d e0bc 2abd 8b14 1c3d
00000090: 263f d53d bd4a 9b3d e067 23bd 6225 933d
000000a0: 4af3 fc3d b6e1 6fbd 7db4 cabd 6673 9fbd
000000b0: 87b4 5b3d 0c11 1cbd f688 5e3d 0a7c fcbc
000000c0: fa0d 0c3c a2b2 ef3c 1f45 d63d c13b b6bd
000000d0: d925 8abd c1ab 7dbd 6cf8 66bc 1326 a33d
000000e0: 8d35 f6bd 6fea 023e 061e 5bbd e313 ecbc
000000f0: 1e2b 82bd b626 863d 648a d9bd 909e f5bc
00000100: 2585 5b3c b00f e03d 3a1e 983c 211c a9bd
00000110: 4d41 b33d ee95 3fbd 1066 643d 6ec9 82bd
00000120: d585 e43d e652 853c c06e 863d ab90 693d
00000130: 631d 5abd 1020 843d a29c d5bc 7638 e33d
00000140: fd3d 85bd 40df fa3c 115e c13c a123 bc3c
00000150: 47a9 85bd dbb4 f2bd 5a38 c3bd 1aba 7c3d
00000160: 0ce4 63bb b656 ddbd 0f1f b23d 208f 96bd
00000170: bad3 f9bd 72ea ee3d 97d1 1cbc 6811 603c
00000180: 4170 1b3d 64c9 813c c0ef babd 3edc dd3d
00000190: 9b5f 47bd a39d a33d 2efc 653d 2152 c6bc
000001a0: 5146 0cbd b3ba afbd fb71 f13c c501 553d
000001b0: fcae d9bd d4f1 1e3c 6f62 d83c a1d9 96bd
000001c0: f8ae 08bd 2186 4ebd fa93 5b3c 062d cebd
000001d0: dd44 8cbd d097 23bd 17a6 da3d c7f1 0f3b
000001e0: a0d6 d4bd 7874 a6bd 0e94 ca3d 00b9 e3bc
000001f0: 7b7d 333d 5c36 a4bd f949 983d f88a 9bbb
00000200: b9f0 a3bd 4eef 99bb 1440 a9bd f54f 1e3e
00000210: 58aa 443b 7c23 483d bf58 11be 9625 793d
00000220: 3cbf 26bd f231 b13d 13d9 d03d 22b1 dbbd
00000230: 70a8 c53b 7bff 5ebd 4d46 443d 388b 893d
00000240: 08d9 943d fa3c e7ba e239 5bbc 176a 8e3d
00000250: ce41 7c3d 57d0 443d 7e92 c6bd 27b0 103e
00000260: de8c aebd 4a96 c53d 7816 443d 1a2d 803d
00000270: 8812 4f3d 38a0 0dbe 1426 883d 1f87 c83d
00000280: 69de 8b3d 8a48 4dbd 763c fa3c 2cfd 143d
00000290: 48cf b93c b9f1 bebd fb08 6bbb d640 123e
000002a0: 5e47 1f3d b39b d4bd f8e1 393b 947a 02bd
000002b0: 6506 0c3e 862f 583d 9874 ff3c b56a 7cbc
000002c0: 1826 26bd 3148 ecbd 1db5 373d 1f25 6dbd
000002d0: 28e6 02be 89af 00be 7404 95bd a529 333d
000002e0: bdf6 8b3d d861 27bd 15e1 ba3d 5ed1 43bd
000002f0: e573 723d a1e3 7ebd dc66 063e a490 a0bd
00000300: 3003 e3bd 477d 103d 3e18 813a b543 ad3b
00000310: c001 cc3d f7f6 acbd 21d3 efbd ee46 a3bc
00000320: 3131 8e3d abfc 68bd 2d18 d0bd 80c5 11bb
00000330: b2ff 28bd a513 99bd 184c b03d 3c68 373d
00000340: aa9a 14bd d8e6 b9bd b5fa 263c 27a1 a83d
00000350: e944 cdbc 35f9 0dbd 7c6e e03d d809 013e
00000360: 93c6 b3bc bf18 8dbd 59b7 d63b 3801 3abd
00000370: f15b e9bc 266e 82bc b65f a4bd c9c9 f1bd
00000380: 24b8 e6bd 29c4 0f3e 7479 023e 603a 913d
00000390: 0bb9 8bbd 983d 04be ab7a 303d d4fd ba3c
000003a0: 3997 c83d 5d48 c3bd 705e 103e de90 e8bd
000003b0: be13 353d fb1f edbd 7f74 9b3d 6a9b c9bc
000003c0: cae2 f23d 7abb 963d dd71 b5bc e07a 203d
000003d0: 15a6 29bc 527d 22bd 5224 bebd 853b a2bd
000003e0: 529b 20be a961 e3bd 4d9a 243d 82d6 24bd
000003f0: 20af f23c d99f 8c3a 7d68 50bd 2ab4 303d
0.1089218 -0.12054608 -0.008775663 0.14866845 0.014516513 -0.019414688 -0.13750191 0.013316578
-0.1079033 -0.057956174 -0.019898187 -0.047823407 -0.042244736 0.12293904 -0.11188842 0.054830045
-0.118765205 0.093377754 0.08989152 -0.04296149 0.07288595 0.07382889 0.09994915 0.090450756
0.04597007 0.028159982 -0.122345835 0.08929291 -0.11351056 -0.015167705 -0.11979922 0.007914876
0.03431897 0.05553839 -0.04168403 0.03810553 0.10412435 0.075826146 -0.039893985 0.071848646
0.12351091 -0.058564864 -0.09897707 -0.077856824 0.05363896 -0.038102195 0.054329835 -0.030820865
0.008548254 0.029259983 0.104624026 -0.08898116 -0.067455 -0.061931375 -0.014097314 0.079662465
-0.12021933 0.12784742 -0.05349543 -0.028818076 -0.0635588 0.06550352 -0.10622099 -0.029982835
0.013398443 0.10940492 0.0185691 -0.08257318 0.087526895 -0.046773843 0.055761397 -0.06386076
0.11158339 0.01627488 0.06564093 0.05702273 -0.05325068 0.06451428 -0.026075665 0.110947534
-0.06505964 0.030624032 0.023604425 0.022966208 -0.06526428 -0.11850902 -0.095322326 0.061700918
-0.0034773378 -0.108075544 0.0869733 -0.07351518 -0.12198587 0.11665811 -0.0095714545 0.013676025
0.03794885 0.0158431 -0.0912776 0.108330235 -0.04867516 0.07989051 0.0561487 -0.024209084
-0.034246746 -0.08580532 0.029473295 0.05200364 -0.10629079 0.009701211 0.026414124 -0.07365728
-0.03336999 -0.050420884 0.01340198 -0.10067181 -0.06849072 -0.0399397 0.106762104 0.002196418
-0.10392499 -0.081276834 0.098915204 -0.027798176 0.04382084 -0.08018181 0.07435984 -0.004746791
-0.080048986 -0.004697717 -0.08264175 0.15460189 0.003000876 0.048861966 -0.1419401 0.06082686
-0.04070972 0.086521044 0.101976536 -0.10727145 0.006032042 -0.054442864 0.047918607 0.06716007
0.07267958 -0.0017642074 -0.0133805 0.06953829 0.061586194 0.04805025 -0.0969591 0.14129697
-0.08522962 0.09647806 0.04787299 0.062586024 0.050554782 -0.1383065 0.06647888 0.09791397
0.06829531 -0.050118007 0.030546408 0.036374256 0.022681847 -0.09323449 -0.0035863507 0.14282545
0.03888642 -0.1038126 0.0028363448 -0.03185518 0.13674314 0.052779697 0.031183526 -0.0154063
-0.040563673 -0.11537207 0.044850457 -0.05789673 -0.1278311 -0.12566961 -0.0727624 0.043740887
0.06834171 -0.040864795 0.09124962 -0.04780709 0.059192557 -0.062228803 0.13125175 -0.07840088
-0.11084592 0.035275724 0.0009849144 0.0052876123 0.09961271 -0.08445542 -0.117101915 -0.019931283
0.06942976 -0.056881588 -0.10160861 -0.0022242963 -0.041259475 -0.0747445 0.08608264 0.04477714
-0.03628031 -0.09077233 0.010191609 0.08233862 -0.025057273 -0.03466149 0.10958573 0.12601411
-0.021945274 -0.068894856 0.0065526185 -0.04541132 -0.028486224 -0.015921663 -0.08026068 -0.118060656
-0.11265591 0.14039673 0.12741643 0.07091212 -0.068224035 -0.12914121 0.043085735 0.022826113
0.097944684 -0.095352866 0.14098525 -0.11355756 0.04420828 -0.115783654 0.07590579 -0.02461024
0.11859663 0.07359977 -0.02214902 0.039179683 -0.010354538 -0.039670296 -0.09284271 -0.07921509
-0.1568425 -0.111026116 0.040186215 -0.040243633 0.029624522 0.0010728791 -0.050880898 0.043140568

mixture_net.mol_attn_layers.0.ffn.layers.0.bias f4 [64]
00000000: 44af a83d 558d 273d f198 063a 2a4a b3bd
00000010: dcd9 e7bd bad6 8fbd 8c87 443d ffe9 0e3d
00000020: be26 a3bd 181e f6bd e45f 2fbd a226 d23d
00000030: d267 9dbd 6400 a4bd e44f e4bd 729f 77bd
00000040: 1e8b 9dbd 0b6c 47bd 0953 32bd d243 7e3d
00000050: 745c 2b3d b90f 7a3d e688 8c3d 701d 603d
00000060: e931 ee3d c34c 893d c68f f6ba 0010 d33c
00000070: b5e1 3e3d 66f7 783b dd7c 203d ec18 e8bd
00000080: 206b 62bd 1f62 c83d b8b5 a73d 142f 9abd
00000090: af68 fb3c b0ac e6bd 6163 8a3d 18df e83d
000000a0: 219b a13d 6ac0 f5bd fce4 c7bd f94b db3c
000000b0: d707 473d 3a39 37bd 751e a13d f87e f63d
000000c0: 22ec 0fbd 2345 a2bd 435a 953d 9ac5 243d
000000d0: 4c95 d4bd df81 08bd 9d66 7bbd 175d e1bc
000000e0: 8889 993d cc8c 6d3d 1ebe 993d 1978 a0bd
000000f0: 0323 63bc 4a5a a3bd 0ed3 a93d 880c d53d
0.08236554 0.04090627 0.00051344844 -0.0875438 -0.1132085 -0.07023378 0.04798083 0.034891125
-0.07966374 -0.12017459 -0.042816058 0.10261275 -0.07685818 -0.08007887 -0.111480504 -0.060454793
-0.0769255 -0.048687022 -0.04353622 0.062076397 0.041836217 0.06105015 0.06862049 0.054715574
0.11630613 0.06704094 -0.0018811158 0.025764465 0.04660197 0.0037989258 0.03918158 -0.113328785
-0.055277944 0.0978434 0.08188957 -0.07528511 0.030689565 -0.11263406 0.06757236 0.11370677
0.078909166 -0.11999591 -0.09760472 0.026769625 0.04859146 -0.04473231 0.07867137 0.12035936
-0.035137303 -0.07923343 0.07292607 0.04022751 -0.103800386 -0.03332698 -0.061377157 -0.027510209
0.07496935 0.057995602 0.07506965 -0.07835407 -0.013863328 -0.07976206 0.082922086 0.10402781

mixture_net.mol_attn_layers.0.ffn.layers.2.weight f4 [64, 64]
00000000: 704b a3bc fc5b 9a3d e4e3 633d 7950 a4bc
00000010: 6073 633c ca90 f3bd 7dcd e6bd f758 d73b
00000020: 0c19 803d 5a83 a4bb c39b d23d cce1 b93d
00000030: 7571 51bc 4026 f4bd 411b 1c3d cd53 0d3c
00000040: 3008 31bd 20b9 b23d 0a2c a53d 7634 c3bd
00000050: a653 a2bd 2201 71bd 0fe7 ac3d df7f d5bd
00000060: 6b51 fcbd e3b9 6dbd 1ef9 d93d 1519 31bc
00000070: 9167 e03d dae5 f43d 51f8 85bd 029a cbbd
00000080: 73a0 48bd d63e a9bd ceea f23d 8438 c7bd
00000090: 97d2 7bbd 8933 c8bd 50a7 c1bd 4d52 f73d
000000a0: c685 773d 4e06 b63d bc8d acbd fe57 5e3d
000000b0: 208d cf39 08b3 85bc 922b acbd d74d dd3d
000000c0: ebbf 14bd e463 85bd f943 bebd 337f 4f3d
000000d0: 5765 0bbe 1d4e 0e3d 2841 51bd c279 a7bd
000000e0: 2cb1 c4bd f7b5 e3bc d409 19bd 1c8e cdbc
000000f0: 669b 923b 1d85 3abd 7295 9abd db40 6dbb
00000100: c3ea 98bd b63c acbc 997f b23d 740d 393d
00000110: c6f5 f13d 8b48 f3bd af1f bf3d 3e4a 35bd
00000120: c7fc cd3d ff9e e23d c7bc c93d 0852 583b
00000130: b076 d43d 1e6e 89bd 597b fe3c 7d06 98bd
00000140: 1aa1 c8bc d96f 463d eca0 de3c c408 483d
00000150: 656c 963d c44a 943c 3640 adbd e424 08be
00000160: d12c b93c b141 03be cd48 d03b fef1 ecbd
00000170: 8952 d63d daac 51bc d7c3 d7bd 0d70 963c
00000180: 826c f53d bd5b b0bd fa83 0c3d 86cb d63d
00000190: 67d8 153d 92b6 d43d 23d1 f1ba 9b0b c4bd
000001a0: 9a8a 933d 84c9 84bd ed6e 01be 231f 04bd
000001b0: 527d d4bd 0c2f 4c3d 90fe f0bc 2e70 a2bd
000001c0: 0d48 823d 9967 dcbd a552 abbd e848 453d
000001d0: efdd bd3d 75ad 43bc a1a5 77bc ecec cc3d
000001e0: d9bc f7bd 49e7 b33c c4e1 bdbc 7a91 d73d
000001f0: 33da bcbc af22 163e d503 8d3d 6bb7 963d
00000200: a904 c6bd 078d 00be 5a15 4d3d 238c 40bb
00000210: f1fb ed3b 8c49 10be c761 c63b 86a1 f63d
00000220: 727a ea3c 6e1e 653c 0f97 9abd cdc3 5ebd
00000230: 320a a2bc 9ca2 1b3d 0244 e13d 5216 1abd
00000240: 2412 f73c 20d0 8abd c132 c4bc 069e 803d
00000250: 741e 10bd 2d16 e7bc 1f7c c03d dd2b f9bd
00000260: 9ea7 dbbd 2774 303d 24a6 263d 68ad fa3d
00000270: c9ba ca3d f3a0 9a3d 5943 1dbd 168d 79bd
00000280: 0cb5 d6bd ee3e 003e f585 b03c cf31 e0bd
00000290: f92e 51bd e0b3 74bd c95e ca3d e528 d1bd
000002a0: 6318 c5bd 55fb 80bd e4f0 d5bc 8e2e ccbd
000002b0: 7b75 833d 04b1 083d 6916 de3d c63d 9b3d
000002c0: bd1a a7bd 17a3 2f3d ece5 f4bd 162d f13d
000002d0: f100 843d 1703 0ebd e2e9 b3bc 65bc 453c
000002e0: e7c0 543b 6bd4 11bc be78 e93c 98c7 cbbd
000002f0: 2b97 ccbd 175a f93c af87 8cbd b872 04bc
00000300: f7e4 dfbd fa7d 203d 83ff fcbd 838d 713b
00000310: 03f0 a5bc 8d9a 4b3c b332 683d a8df 63bd
00000320: dbfa 4f3d 4f79 8dbc 2b35 42bd fe26 4f3d
00000330: 55fb 89bd 05fd eebd 3448 f9bb 9d2d 0bbd
00000340: c5cb 8e3d 6cab 86bd a741 fabd f21c 0c3d
00000350: e5fe ecbd 7653 76ba 73dd 5dbc 57f6 dcbd
00000360: 225a d7bd e86d af3d fb7b 963d c19d 473d
00000370: 0631 06bd 6b70 7c3d 07d9 aabd d374 0ebd
00000380: 6f3d 703d 3e2c 903d dd68 c1bc a0a3 b3bd
00000390: ef3e d83d 9f3b 5bbc 71fd e13d ad5c babd
000003a0: 79bb ed3d 6a7e 833c 3d60 7d3b b5a6 cfbd
000003b0: 80c0 28bd bdcc 07be b118 a13d 63d0 a4bc
000003c0: afcb e7bd 88df c1bd fee7 0abd ac1d 37bd
000003d0: 75d7 1c3d cddc f4bc 366b bf3d 26c2 5f3d
000003e0: c6f9 a03b bd3a 5cbc 90f8 f53d 5dbf d73d
000003f0: 0490 0bbd 6461 223d 8ea3 9f3c 8c0b e7bd
-0.019933432 0.07537076 0.055637255 -0.020057904 0.013882488 -0.11892851 -0.112696625 0.0065718847
0.06254777 -0.005020541 0.102836154 0.090762705 -0.012783398 -0.11921358 0.03811193 0.008625937
-0.0432207 0.08726716 0.080650404 -0.095314905 -0.07926111 -0.05883897 0.084425084 -0.1042478
-0.12320217 -0.058038604 0.106432185 -0.010809203 0.10957254 0.11957903 -0.06541503 -0.09941484
-0.04898114 -0.08263938 0.11861192 -0.097275764 -0.06148013 -0.097754546 -0.094557405 0.120762445
0.06043031 0.08887921 -0.08425471 0.054283135 0.00039587263 -0.01632072 -0.08406748 0.108058624
-0.03631584 -0.06513193 -0.092903085 0.050658416 -0.13612877 0.034742463 -0.05108753 -0.0817752
-0.09604105 -0.027796729 -0.03736289 -0.025092177 0.0044740913 -0.045537103 -0.07548036 -0.0036201987
-0.07466652 -0.021025043 0.087157436 0.045178846 0.11814456 -0.11879071 0.09332215 -0.044260256
0.10057979 0.11065482 0.098504595 0.0033007879 0.103742 -0.06710456 0.031064676 -0.074231125
-0.024490882 0.04844651 0.027176343 0.048836485 0.07344893 0.018102057 -0.08459513 -0.13295323
0.022604378 -0.12818028 0.006356335 -0.11569594 0.10464961 -0.012797559 -0.105354 0.018363977
0.11983587 -0.08611248 0.03430555 0.10488038 0.03658333 0.10386385 -0.0018449168 -0.09572526
0.072041705 -0.064837486 -0.12639971 -0.032256257 -0.103754655 0.049849555 -0.02941826 -0.07931553
0.06361399 -0.10761947 -0.083653726 0.048165232 0.09270846 -0.011943211 -0.015115173 0.10006127
-0.12096567 0.021960871 -0.023178943 0.10525794 -0.023053264 0.14661668 0.068854965 0.07359203
-0.096688576 -0.12553798 0.05006919 -0.0029380403 0.0072627 -0.14090556 0.0060541364 0.12042527
0.02862284 0.013984306 -0.075483434 -0.05438595 -0.019780252 0.037996873 0.109992996 -0.037618943
0.030160017 -0.06777978 -0.023949983 0.062801406 -0.035185292 -0.028208816 0.09398674 -0.121665694
-0.1072533 0.04307952 0.040685788 0.12240106 0.09898908 0.0755023 -0.038394306 -0.060925566
-0.10483751 0.12524006 0.02154825 -0.10947 -0.051070187 -0.059741855 0.0988136 -0.10212878
-0.09623792 -0.06297938 -0.026115842 -0.09969817 0.06418892 0.03337194 0.10844118 0.07580142
-0.08159397 0.042880144 -0.119579166 0.117761776 0.06445492 -0.034670915 -0.02196211 0.012068843
0.0032463612 -0.008900742 0.028499957 -0.09950179 -0.099897705 0.030438466 -0.06861817 -0.008083992
-0.109323435 0.03918264 -0.123534225 0.003685803 -0.020256048 0.0124269845 0.056688976 -0.055633217
0.050776344 -0.017269759 -0.047413986 0.050574295 -0.06737391 -0.116693534 -0.0076074842 -0.033979047
0.0697246 -0.06575665 -0.122195534 0.034207292 -0.11572055 -0.0009396592 -0.013541567 -0.10789173
-0.10515238 0.08565885 0.07347866 0.04873443 -0.032761596 0.061630648 -0.08342176 -0.03477938
0.058652338 0.070396885 -0.023609573 -0.08771443 0.10558879 -0.013380914 0.11034668 -0.09099708
0.11608023 0.01605149 0.0038662099 -0.10139219 -0.041199207 -0.13261695 0.07866038 -0.020118898
-0.113181464 -0.09466463 -0.03391265 -0.04470603 0.038291413 -0.029890442 0.09346621 0.054628514
0.004912588 -0.013441739 0.120103 0.105345465 -0.03407289 0.03964366 0.019487169 -0.11281499

mixture_net.mol_attn_layers.0.ffn.layers.2.bias f4 [64]
00000000: 3814 93bd 17b3 1abd 8e3e 483d 9570 ae3d
00000010: 9a10 9fbd 897a 86bc 3bdd c03d 6762 733c
00000020: 1e52 ef3d f6e9 c33d cbd0 5dbd d0ff 21bb
00000030: 3d2c 78bd b515 373d ea26 87bc 14d4 6f3d
00000040: 2542 6f3d a263 4b3c 36d3 bd3d d1cc c63d
00000050: 6cb3 a4bd b3f6 eabd 0bfc 24bd 40cd 923d
00000060: 6f82 e3bd 8b0c c0bd e84a 5fbd 2c71 ef3c
00000070: 8c59 d8bd 8a9d 8d3d 0ae0 a73c bb3c b33c
00000080: 8441 c23d d626 503d 9fe2 eb3c 77b2 783d
00000090: 7aef d13d 8ffd bf3d ad88 f53d 2115 bbbd
000000a0: b453 e6bc 7d8b 883a 88b0 87bd aa30 33bc
000000b0: 9b95 db3b b59f b4bd 5b8f f7bd eb12 e63d
000000c0: ce7a cf3d 8cbf 32bc 2f81 9cbd 521e 993d
000000d0: ad07 f93c 502d bc3d 4386 cfbc 23cd d13d
000000e0: 6029 06bd f868 96bd 647a 8abc 9e9b c83d
000000f0: d29f 4abd 5c63 8bbd 81cd f53d 6309 9dbd
-0.07181591 -0.03776845 0.04888778 0.08517567 -0.07766838 -0.016415851 0.09417196 0.014855004
0.116855845 0.09566109 -0.0541542 -0.0024719127 -0.060589064 0.044698436 -0.016498048 0.058551863
0.05841269 0.012413891 0.09268801 0.097070344 -0.080420345 -0.114728354 -0.04027943 0.071680546
-0.111088626 -0.093773924 -0.054514796 0.02922877 -0.10563955 0.06914814 0.020492572 0.021879544
0.09485152 0.050818287 0.028794585 0.060717072 0.10250755 0.09374534 0.119889595 -0.091348894
-0.028116085 0.0010417547 -0.066254675 -0.010936895 0.006701184 -0.08819524 -0.1208789 0.11234077
0.10130845 -0.010909926 -0.07641827 0.07476486 0.030399168 0.0918833 -0.025332576 0.10244205
-0.032754302 -0.0734424 -0.016904064 0.097953066 -0.049468823 -0.06806061 0.120020874 -0.07667806

mixture_net.mol_attn_layers.0.addnorm2.norm.weight f4 [64]
00000000: 8616 7f3f 7f0e 803f 8b82 803f 009e 7f3f
00000010: 9361 813f 04b7 813f ef27 7e3f 86de 823f
00000020: 1341 813f d97f 803f 6818 803f b0ef 803f
00000030: c8ba 7f3f 34d7 7f3f ef66 813f 8435 813f
00000040: c678 823f 0411 803f b2a4 813f 128b 813f
00000050: dc3c 7d3f c4d1 823f 1855 803f 75e1 803f
00000060: 777e 803f bc3e 813f 4056 803f 29a2 7e3f
00000070: 742c 7f3f 42c2 7f3f 2746 7c3f 0855 803f
00000080: 10c5 803f 6256 813f b9b7 803f 66ab 803f
00000090: 47d4 743f 9f58 813f 6d5c 803f dbd7 7f3f
000000a0: 52c5 813f 5ba9 803f dca9 803f 2a26 7e3f
000000b0: dde2 803f 2b01 803f 1e03 803f d889 7c3f
000000c0: 6d40 7e3f 9139 803f d802 813f eb94 803f
000000d0: 4f97 7f3f 3410 813f 6f94 803f 3499 803f
000000e0: cf2b 813f 8f87 823f 2602 803f 9ff7 7f3f
000000f0: cc20 823f 92ff 803f 7948 803f 249f 843f
0.99643743 1.0004424 1.0039839 0.99850464 1.0107902 1.0133977 0.99279684 1.0224159
1.0097984 1.0039016 1.0007448 1.0073147 0.9989438 0.9993775 1.0109538 1.0094457
1.0193107 1.0005193 1.0128386 1.0120566 0.9892099 1.0220265 1.0025969 1.0068804
1.0038594 1.009727 1.0026321 0.99466187 0.99677205 0.9990579 0.98544544 1.002595
1.0060139 1.0104487 1.0056068 1.0052307 0.9563641 1.010517 1.0028206 0.99938744
1.0138342 1.0051683 1.0051837 0.99276984 1.0069233 1.0000356 1.0000951 0.9864783
0.99317056 1.0017568 1.0078993 1.0045446 0.99840254 1.008307 1.0045298 1.0046754
1.0091494 1.0197619 1.0000656 0.99987215 1.0166259 1.0077994 1.0022117 1.0361066

mixture_net.mol_attn_layers.0.addnorm2.norm.bias f4 [64]
00000000: f863 a63b fd25 79bb 1bda 6b3b c128 fdb9
00000010: 2365 013c 6c5f 8fbb 0d9b 4bbb 9466 a3bb
00000020: d8cf 003b d592 d23a da86 a13a d864 85bb
00000030: 895f 303b e059 5c3b 0b65 86bb 65b8 40ba
00000040: 2e1b 11bb f8e6 643b 69a9 95bb cd5b ca3b
00000050: 0bff 0c3b ba36 68bb 8346 9f3b 0c01 803b
00000060: 8905 61bb 1e6b 84bb 822c 7a3b ad18 063c
00000070: 08cd a63b 8499 47bb 3786 d6bb 3dc4 67bb
00000080: 5206 d9ba 7bb0 acbb 05dc 813b 7783 593c
00000090: 66a9 723a 6a3a 6738 6133 8dbb cc3f 213c
000000a0: 147f b7bb aac7 e939 d5bd 0f3b 8254 d73b
000000b0: 3005 933b 5532 7d3b 8e4b 9abb c93c 0c39
000000c0: f678 10bc 68aa 3ebb 7952 aabb 425a 03bb
000000d0: 2346 08bc a4e8 85bb 493a ad39 0b43 4fbb
000000e0: 3c70 92ba 8dba d43b b831 00bc 4c3a 6bbb
000000f0: 2cc0 96bb 091d 84ba a012 523b 7a88 5d3b
0.005077835 -0.0038017028 0.0035988155 -0.00048286284 0.007897648 -0.004375389 -0.003106776 -0.0049865935
0.0019655135 0.0016065488 0.0012323514 -0.0040708594 0.0026912412 0.0033622906 -0.0041014007 -0.00073516957
-0.0022141444 0.0034927707 -0.0045673144 0.0061754943 0.0021514322 -0.003543301 0.0048607006 0.003906375
-0.0034335575 -0.0040410897 0.0038173501 0.008184594 0.0050903596 -0.0030456493 -0.0065467614 -0.003536477
-0.001655767 -0.0052700615 0.003962996 0.013275973 0.000925681 5.5129094e-05 -0.0043091034 0.0098418705
-0.0055998657 0.00044589984 0.0021933217 0.0065713534 0.0044867024 0.0038634737 -0.004708714 0.00013374085
-0.008817902 -0.002909327 -0.00519782 -0.0020042812 -0.008317503 -0.004086571 0.00033040557 -0.0031625654
-0.0011172364 0.006491965 -0.007824354 -0.0035892902 -0.0046005454 -0.0010079454 0.0032054558 0.003380327
