scripts_chemix/results/chemix_ensemble/top7/chemix.pt (torch, 434410 bytes, 41 tensors)

input_net.weight f4 [64, 196]
000000 e3 24 60 3c 85 ef 47 bd e6 33 e0 39 e1 3e 73 bd
       0.0136806695 -0.048812408 0.00042763277 -0.059386138
000010 0e de 1b 3d 0b 5d 5b 3d 59 e4 b4 bd 98 a6 47 bd
       0.038053565 0.05355553 -0.08832616 -0.04874286
000020 82 e9 23 bd dc 3a b4 3b 05 cd 8c 3d b6 78 42 bd
       -0.040017612 0.0055001806 0.06875042 -0.0474784
000030 40 bb 43 3d 21 d7 41 bb 7d b1 5d 3d 01 3c 45 3d
       0.047785997 -0.002957769 0.054124344 0.048152927
000040 6a 39 48 bd b0 86 f1 3c 53 52 95 3c 5d ed f3 3c
       -0.04888288 0.02948317 0.018227732 0.02977627
000050 95 af ba bd 69 58 c7 3c 98 71 5a 3d b0 30 8e bd
       -0.09115521 0.02433415 0.053330988 -0.0694288
000060 2f 4c 73 bd e4 83 29 bd 6b 1d 81 3d f6 89 27 3d
       -0.059398826 -0.041385546 0.06304439 0.040903054
000070 f7 5d 86 3d 94 56 41 3d 54 9a 8d 3d 4b a7 c7 3d
       0.06560891 0.047201708 0.069142014 0.097487055
000080 e2 ff e3 3c ee 02 81 bc 2a 9e b6 bc 34 02 1c 3d
       0.027831975 -0.015748467 -0.022292215 0.03808804
000090 a9 e8 b5 bd d4 c8 93 bd 38 ec 50 3d da 64 a9 bb
       -0.08882267 -0.07216039 0.051006526 -0.005169493
0000a0 ca 20 e8 bc be a7 cd bc 83 f0 83 3d a7 9b 69 bd
       -0.028335948 -0.0251044 0.06442358 -0.057033207
0000b0 91 d9 d7 bc e3 08 a7 3d 15 2b 39 bd fd 23 77 bd
       -0.026348861 0.08155992 -0.0452071 -0.060337055
0000c0 22 2f a0 bd 0b a6 9f bd 9b f3 df 3c 74 85 32 3d
       -0.0782149 -0.07795342 0.02733784 0.043584302
0000d0 1e 81 8b bd fd 4b 1f bd 14 2c 6a 3d 7f 0c 32 3b
       -0.068117365 -0.038890827 0.057170942 0.0027168093
0000e0 5b 69 9a 3d 6f be 5f 3d 42 3d 68 3c 8e 4d 52 3d
       0.07539626 0.05462497 0.014174761 0.051343493
0000f0 21 e1 56 3d 5c 18 33 bb 5d a0 19 bd 2b 31 a7 3d
       0.052460793 -0.0027327752 -0.03750645 0.08163675
000100 61 3b 0a bd 50 72 76 bd 05 51 22 3c 86 11 1f 3d
       -0.033748034 -0.06016761 0.009907012 0.03883507
000110 d0 1d 0a 3c 39 24 02 3d 05 3a 31 3d 5a 97 aa 3b
       0.008429959 0.031772826 0.043268222 0.005206031
000120 92 22 ae bd fb 70 2a 3d a0 66 06 bd 9b d0 d3 bd
       -0.085026875 0.041611653 -0.032812715 -0.10342523
000130 09 cc ba bd aa cd 89 bd 61 af fb 3c 77 5c 91 3d
       -0.09120948 -0.067286804 0.030723276 0.070977144
000140 9b 0b 77 3d 54 e9 3e 3d 80 53 3f 3c 1c 32 1c bd
       0.060313802 0.046609238 0.011677623 -0.038133726
000150 ab 7c 57 3d 5c f3 5e bd 73 02 08 bc 3d e4 60 3d
       0.052609127 -0.054431304 -0.008301365 0.054905165
000160 66 c6 f4 3c b6 41 85 3d 6e 02 16 bd 1a cc 89 bd
       0.02987976 0.06506674 -0.03662341 -0.067283824
000170 46 8c 24 3d 4d 7f 1b bd 21 da 92 3d 0e 96 c2 3c
       0.040172838 -0.0379632 0.07170511 0.023753192
000180 28 ea 70 bd 59 12 34 3d b6 65 a0 bb 0f 97 51 bd
       -0.05881706 0.04396281 -0.0048949374 -0.05116945
000190 af 80 5a 3d b2 a9 0f 3d cc 11 0f 3c 6f 23 7b 3c
       0.05334538 0.035073943 0.00873227 0.015328272
0001a0 d6 c6 10 bb b6 cc f0 3c 0b 91 da 3a 3a d1 3d bc
       -0.0022091172 0.029394489 0.0016675306 -0.011585528
0001b0 9e 4f de 3d 7c c9 d2 3d c8 31 74 bd 76 60 58 bd
       0.108550295 0.10292336 -0.059617788 -0.052826367
0001c0 66 9b ea 3d 21 fd a3 bd c0 fa 28 3b 96 3f 8f 3c
       0.11455421 -0.08007265 0.0025784224 0.017486375
0001d0 b9 a4 4c 3d f2 a9 33 bd b8 ae 81 3d 52 f9 17 3c
       0.04996178 -0.043863244 0.06332153 0.009275751
0001e0 a8 28 e9 3c a3 bf 64 bc 66 fe 6e 3c c5 fd 68 3d
       0.02846177 -0.013961705 0.0145870205 0.05688264
0001f0 5a 5c 16 3d 3b fb 2c 3c dc 8f e8 3c 10 65 34 bb
       0.036709167 0.010557945 0.02838891 -0.0027526058
000200 8a 7e 85 3c a8 4f 25 3d f1 6a d2 3c 95 87 2f 3d
       0.01629569 0.04035917 0.02568576 0.04285391
000210 ef ca 02 bd 6f 0d 42 bd 42 72 1f 3d 35 b1 17 3d
       -0.031931814 -0.047376093 0.038927324 0.037034232
000220 8d 49 96 bc c5 0c fe 3b 8b 89 35 bd 0d af 97 3d
       -0.018345619 0.007752987 -0.044320624 0.07406435
000230 28 b1 11 3d 20 ea 67 bd 11 b8 65 bc 5d b6 29 bc
       0.03556934 -0.056619763 -0.014020936 -0.01035842
000240 b3 47 a5 3c 34 70 74 3b 87 aa 87 bd 9c af 1e bd
       0.02017579 0.0037298324 -0.066243224 -0.038741693
000250 3b 27 89 bd 34 8c aa bb 73 99 d3 3d 1e 58 cc bd
       -0.06696936 -0.005204702 0.103320025 -0.099777445
000260 0d 35 8f bb c7 8a 26 bd 6a c6 1d 3d 77 dd b1 3c
       -0.004370338 -0.040659692 0.0385193 0.021712048
000270 8f c9 82 3d b2 ef a2 3d d0 ce 7a bd 0e f9 88 bc
       0.063861005 0.079558745 -0.061232388 -0.016720321
000280 49 34 9e bd e7 cc ce bc 7c 58 5b bc 76 4f 84 bb
       -0.07724816 -0.02524419 -0.013387796 -0.004037793
000290 db 81 19 bd e9 e4 b2 3b 22 3f ab bc 0d 6f 49 3d
       -0.037477355 0.005459417 -0.020904128 0.049178172
0002a0 2a c8 ec 3c 4b 19 47 bd d3 ea 73 bc 08 11 0b bd
       0.02890404 -0.048608106 -0.014887529 -0.03395179
0002b0 a0 96 2a bd 61 32 be bd 33 4e de bc 36 e8 03 bd
       -0.041647553 -0.09286953 -0.027136898 -0.032203875
0002c0 a4 0e 2e bc 69 d3 fe bb 9a d5 1d 3c b3 58 1f 3c
       -0.010623608 -0.007776667 0.009633446 0.009725737
0002d0 c9 49 d7 bc 26 d2 2f bd c5 70 fc bb ac 38 ff 3a
       -0.0262803 -0.042925023 -0.007703873 0.0019471846
0002e0 da 48 9f 3d f0 7b fe bc ff d9 da bd 33 54 38 bc
       0.07777567 -0.031064957 -0.10686111 -0.011250543
0002f0 5a bb b5 bb 4f 5d be bc b6 5e e1 3c d0 ea c8 bc
       -0.0055460157 -0.023237852 0.027510982 -0.02452603
000300 32 fd a9 3c 70 86 11 bd 1c 7a 92 bd 93 26 7b 3d
       0.020750616 -0.0355286 -0.07152197 0.061316084
000310 d7 c4 0b 3d fe 6c a3 3c 28 b1 96 3c c3 c1 36 bd
       0.034123268 0.019949432 0.018395022 -0.04461838
000320 da d2 0a bd 3b 53 fe 3c a0 76 8e 3d 3e 56 b9 bd
       -0.03389249 0.031045547 0.0695622 -0.090496525
000330 d0 a5 3e bd 99 42 ee bc 77 82 98 3d 8b 36 5f 3d
       -0.04654485 -0.02908449 0.07446759 0.054495376
000340 a3 e7 0b bc 5a 03 a3 3c 15 2b 43 3d f8 25 2c bd
       -0.008539113 0.01989906 0.047648508 -0.042028397
000350 a2 6a 40 bc 33 2d 81 bc 1c df 9b bc 39 b5 2c bd
       -0.011744173 -0.015768623 -0.019027285 -0.042165015
000360 41 f2 6c 3d 1e 78 86 3d c1 55 f6 bb 2a 69 b5 bd
       0.05784822 0.06565879 -0.007517547 -0.08857949
000370 06 bb b9 bc 73 db 25 bd 14 aa 03 3d 58 5d b7 bd
       -0.022672188 -0.040492486 0.03214462 -0.08953351
000380 94 d8 22 bd 09 cb 7c 3d 41 42 8a 3d a7 e9 93 bd
       -0.039757326 0.061717067 0.06750918 -0.072223
000390 ab c6 c6 3c 72 95 f1 bc fe 2c 33 bd c6 ba 3d 3d
       0.024264654 -0.029490206 -0.04374408 0.0463207
0003a0 4d 54 a7 bd cb e1 0a bc 3e 73 89 bd cb 00 84 bd
       -0.08170376 -0.008476685 -0.06711434 -0.06445464
0003b0 5d 73 dd bc 65 62 ed 3c 05 a7 06 3c cb cf cb 3c
       -0.027032549 0.028977582 0.0082185315 0.024879357
0003c0 53 80 fa bc b4 b3 7e 3d 12 55 ce bc d6 ab cf 3b
       -0.030578768 0.062183097 -0.025187049 0.006337623
0003d0 3e 6c 90 bd cc 24 ae bd 7c ff bc bd a2 e8 36 bd
       -0.070518956 -0.08503112 -0.09228417 -0.04465545
0003e0 5f d2 a6 3d a8 e3 44 bd 78 49 58 3d b5 aa 73 bc
       0.08145594 -0.048068672 0.05280444 -0.014872243
0003f0 b9 80 d8 bd ef 61 d6 3c 1e 9e a7 3d 76 5f fb 3b
       -0.10571427 0.026169745 0.08184455 0.007671292

input_net.bias f4 [64]
000000 df e5 87 bc da e9 24 bd fb 49 91 3d 1e 58 61 bc
       -0.016589103 -0.04026208 0.07094189 -0.013753919
000010 2c 1a 2f bd ef e0 60 bd d2 8f a1 bc 9c 81 30 3d
       -0.04274957 -0.054902013 -0.0197219 0.043092355
000020 b2 32 28 3d f8 5d 68 3b d8 ad 1f 3d b7 21 2f 3d
       0.04106397 0.00354564 0.03898415 0.042756762
000030 09 27 eb bc 45 f7 09 3d c0 cf 66 bd ff 84 4a bc
       -0.028705137 0.03368308 -0.05635047 -0.01236081
000040 9e 61 1d 3d 74 ef 02 bd 6f bc 82 bd 6c 7b 57 bd
       0.038423173 -0.03196664 -0.06383597 -0.05260794
000050 fb c0 f2 bc 95 fe 84 3d d4 b3 63 bc e7 c0 dd bc
       -0.029633036 0.0649387 -0.013897855 -0.027069522
000060 ee 89 e6 3c 20 b9 b3 ba f0 50 33 3d f1 da 88 bd
       0.028141942 -0.0013711788 0.04377836 -0.06682385
000070 d7 30 14 bd d4 5e 87 3c f9 7e af bb 8d d3 bd bb
       -0.03617939 0.01652471 -0.0053557125 -0.005793041
000080 cf 25 8a 3d a6 80 15 bd 02 31 0c 3d 25 48 56 3c
       0.06745493 -0.03649964 0.034226425 0.013078724
000090 56 ec 2e 3c 06 00 38 3d 03 16 c1 3c f6 0c e1 3c
       0.010676464 0.044921897 0.023570066 0.027472
0000a0 68 68 55 3c 7a 83 b3 3b 7e 84 d1 bc 76 db ce ba
       0.013025381 0.0054783197 -0.025575873 -0.0015781957
0000b0 ba c1 05 3d 74 80 45 3b f3 b6 8a 3d 8e 0d 6a bd
       0.032655455 0.0030136378 0.06773176 -0.057141833
0000c0 49 0f 88 3d a4 e1 1d bd ce 7d 26 bd 58 8e 0d 3d
       0.066435404 -0.038545266 -0.04064732 0.034559578
0000d0 81 e6 d3 bc 71 a2 f4 3c 70 49 d7 bc a8 00 3d 3d
       -0.025866749 0.029862614 -0.026280135 0.046143204
0000e0 aa 8d 40 bc 3d a7 23 bd d7 ae 08 bc fb a3 4c 3d
       -0.011752525 -0.039954413 -0.008342466 0.04996107
0000f0 6f a7 ba bc 81 95 02 bd f0 ba 81 bd 9d cf cf 3c
       -0.022784917 -0.03188086 -0.063344836 0.025367552

mixture_net.mol_attn_layers.0.self_attn_layer.in_proj_weight f4 [192, 64]
000000 7d 44 86 3d 30 be b9 3d da a9 be bd 81 6b bd 3c
       0.06556032 0.090694785 -0.0930974 0.02312255
000010 24 20 9d bc 73 82 6c bd 4d 39 75 be 6c a3 fe bd
       -0.019180365 -0.057741594 -0.2394764 -0.12433514
000020 19 d5 6e 3d 9c d1 bc bd eb f3 ba 3d a9 34 57 bd
       0.058308695 -0.09219667 0.09128555 -0.052540455
000030 a8 4c 2a 3d 54 9c b2 bd 50 c2 7e bd 64 2a 97 3e
       0.04157701 -0.087212235 -0.06219703 0.2952453
000040 8b 67 1f ba 02 86 eb bd c2 25 a4 3d c5 e6 45 3c
       -0.0006080798 -0.11500169 0.08015014 0.0120789455
000050 46 18 0b 3e 90 3f a5 3d dc 7d 40 be 98 a5 3c bd
       0.13583478 0.08068764 -0.18798012 -0.04605636
000060 84 48 0e 3e 39 0d 02 3e 39 89 18 be 77 cf 04 3e
       0.1389485 0.12700357 -0.14896096 0.12969767
000070 b5 8c 21 3e f2 f8 bb bc 5a bc 06 bd ac b2 f4 3b
       0.15776332 -0.022945855 -0.03289447 0.0074675884
000080 87 63 ee 3b 3b 35 06 3e 6b 21 c2 3d 5b 0d 3d be
       0.007275048 0.13106243 0.0947903 -0.18462126
000090 52 97 d0 3d 13 27 4f 3d a9 da 8c bc 77 5e d1 3c
       0.10185112 0.050574373 -0.017194109 0.02555774
0000a0 29 9b dd bd a4 6b 11 3d ff 60 19 be 67 58 b4 bd
       -0.1082061 0.035503045 -0.14978407 -0.08805924
0000b0 af e6 54 bd 50 bf b6 3d a4 72 05 3e 3c 11 2e bd
       -0.05197781 0.08923209 0.13032013 -0.042496905
0000c0 9a 74 94 bc 05 72 19 3e c8 94 1c 3e ed f6 4a be
       -0.018122006 0.14984901 0.1529113 -0.19820757
0000d0 d6 22 a1 3d 63 ff ef 3b 76 11 61 bd 36 5d f8 3c
       0.078679726 0.0073241456 -0.054948293 0.030317884
0000e0 b5 da fe 3c 81 ec 79 3d b4 11 a1 bd ec be 3b 3c
       0.031110147 0.061016563 -0.07864705 0.011459094
0000f0 d1 2d 9f 3d 2e d8 74 3d 0f b4 ad bd 93 23 d3 3d
       0.07772411 0.059776478 -0.08481609 0.103095196
000100 39 35 2b 3d 21 2e 00 3e 60 67 d3 3d fa 21 57 bd
       0.041798804 0.12517597 0.103224516 -0.052522637
000110 cc 64 91 3d fa 35 c6 bd a1 33 e7 bd 00 27 4a 3e
       0.070993036 -0.09678264 -0.11289144 0.1974144
000120 f9 80 ba 3d 18 43 16 3e 04 1d 96 bd 65 da 53 3d
       0.09106631 0.14674032 -0.07329753 0.05172195
000130 f5 91 14 3e 98 79 c5 3d a8 7a fb bc 1a 7f 60 bd
       0.14508803 0.09642333 -0.030698135 -0.054808713
000140 df ce bc 3d a0 0f 36 3e e8 7d 9f bd 57 59 af bd
       0.09219145 0.17779398 -0.077876866 -0.08561962
000150 3a 21 1b 3e 66 d1 bd 3d e7 cc 42 bd 6f 90 0a 3e
       0.15149394 0.09268455 -0.04755869 0.1353166
000160 e5 9b f9 bd c3 c3 d1 bd 12 ff 71 bc 08 84 a8 bd
       -0.12187938 -0.10242417 -0.014770286 -0.08228308
000170 7d 50 99 3d b9 80 56 bd 48 f8 ae 3d bf 3b 88 bd
       0.07486055 -0.052368853 0.0854345 -0.06652021
000180 33 80 32 be b4 e6 a4 3c a4 2f 13 3e 11 02 d7 bc
       -0.17431717 0.02012954 0.14373642 -0.026246103
000190 0c cd c2 bd 00 45 45 3d 8f 1d fa bc d4 7c 2a 3e
       -0.09511766 0.048161507 -0.030531673 0.1664918
0001a0 b5 80 9e 3c 17 58 65 bd 0a ef 0d bd 92 f3 25 be
       0.019348482 -0.055992212 -0.034651794 -0.16206196
0001b0 09 2c a6 bc 02 6b 99 bd be 14 1f 3e 43 29 85 3d
       -0.02028467 -0.07491113 0.15535256 0.06502011
0001c0 b5 1c 13 be d8 3b fe 3c f4 5e be 3d 73 28 6c bd
       -0.1436642 0.031034395 0.092954546 -0.057655763
0001d0 a1 04 78 3d 18 d4 3b bc 8a c8 93 bd e4 16 1a bc
       0.06055129 -0.011464141 -0.07215984 -0.009404872
0001e0 17 f7 9a bd 97 f5 10 be 2f bd af bc cd a8 da bc
       -0.0756666 -0.14156185 -0.021452514 -0.026691819
0001f0 36 df 15 be f4 43 44 bc b8 1a 3a bd 8e f1 0e 3d
       -0.1463593 -0.011979092 -0.045435637 0.034898333
000200 52 97 d0 bc 17 04 d2 3c ad 04 a1 bc 6c 93 52 3d
       -0.02546278 0.025636716 -0.01965555 0.051410124
000210 80 9c 2e be f5 41 5a bd 57 fa b6 3d 5b 11 2c 3e
       -0.17051888 -0.053285558 0.08934467 0.16803496
000220 13 7a 92 bd 49 00 6d 3d 7d ce c1 bd d5 b3 f9 bd
       -0.0715219 0.0578616 -0.09463213 -0.12192503
000230 11 d5 32 3d c4 f7 48 bd 43 57 29 3e 7b 51 3a 3d
       0.043660227 -0.049064413 0.16537194 0.045487862
000240 88 f4 18 3d 9e 07 a3 bb b6 5e 27 3e 6e a3 f6 bd
       0.03734258 -0.0049752733 0.16344723 -0.120428905
000250 b8 4a 92 bc 17 d6 49 3d 79 79 3c bc 96 7a 23 bc
       -0.017857894 0.049276438 -0.011503571 -0.009977957
000260 37 b6 0b 3e d0 0f 83 be 2f 36 02 bc 5e c6 11 3e
       0.13643728 -0.25598 -0.007947489 0.14235827
000270 33 2f 13 be 43 b6 89 bd f5 a6 b7 3d d2 03 14 be
       -0.14373474 -0.06724217 0.089673914 -0.14454582
000280 53 6d 13 bd 39 ce 86 bd a1 db d3 3c 4d b9 1e be
       -0.03599293 -0.065823026 0.025861563 -0.15500374
000290 02 c3 0c 3d 33 fc 32 be fe d4 d5 3b 0a 14 e9 3d
       0.03436566 -0.17479019 0.006525635 0.11380775
0002a0 41 3c 30 be 8b c2 d0 bc db ba eb 3d 39 4c fe bb
       -0.17210485 -0.02548339 0.11510249 -0.0077605513
0002b0 d2 02 f6 3d 71 17 f9 bc 05 3b a3 bb e9 62 67 3d
       0.12012257 -0.030406686 -0.004981401 0.056490812
0002c0 93 e0 c7 bd aa 7b 77 be 0f 58 72 3d 24 8f 62 3d
       -0.09759631 -0.24168268 0.05916601 0.05531229
0002d0 03 b8 48 be 55 f7 37 bd f5 07 8c bd e5 b1 93 bc
       -0.19601445 -0.04491361 -0.06837455 -0.018029163
0002e0 d0 81 ea 3d 64 5a b0 3d 96 af 2b be f5 b3 47 3e
       0.11450541 0.08610991 -0.167662 0.19502242
0002f0 0a 99 86 3d 31 ac 3b 3d 11 73 c0 bd 5b c7 15 be
       0.06572159 0.04581851 -0.09396947 -0.1462683
000300 74 be 25 3e 19 a2 b2 bd f3 da 7c bd 1d 76 e0 bb
       0.16185933 -0.08722324 -0.061732244 -0.0068500177
000310 6f b0 db 3c 1a bd fc 3c 1b fb 67 3d bb 2e 02 3d
       0.026817529 0.03085189 0.056635957 0.031782847
000320 13 aa f0 bc 60 a9 4e 3d b9 e9 c2 3d a5 29 b3 bd
       -0.029377973 0.050454497 0.09517235 -0.087481774
000330 58 bf d0 3d dd 8f 66 be 62 14 8c 3d 35 1a 59 3d
       0.10192746 -0.22515817 0.06839825 0.05300351
000340 e9 32 b2 bd ae b1 30 3d e7 5b 0d 3b fd 08 ad 3d
       -0.087011166 0.0431382 0.002156967 0.0844898
000350 58 4a 5d bd 43 df 37 be 1d 57 e9 3d 0e 4c 3b 3c
       -0.054025978 -0.17956261 0.11393569 0.011431707
000360 b2 9c 68 bc 56 bc f1 3c 00 63 12 3e 27 97 f6 3d
       -0.014197515 0.02950875 0.14295578 0.12040549
000370 00 02 bd bd 66 2d 84 3d 28 c1 ee bd b5 a1 d9 bd
       -0.09228897 0.064539716 -0.116579354 -0.10626546
000380 6a 17 aa 3d 49 05 8e 3c 6c 50 5c bd 13 e7 71 be
       0.08305247 0.017336505 -0.053787634 -0.23623304
000390 14 91 a4 bd 47 a5 af 3b b1 04 bc bc ac dc 33 3e
       -0.08035484 0.0053602788 -0.022951456 0.17564648
0003a0 02 11 b8 3d bb df eb 3d 03 ec 62 3d 26 17 70 bd
       0.08987619 0.115172826 0.05540086 -0.058615826
0003b0 83 82 91 3d 00 f9 c2 3c 34 72 1b be 3d 40 35 bd
       0.07104971 0.023800373 -0.15180284 -0.044250716
0003c0 7e 72 ef bd aa 96 0a 3e 6e 5e 0a bd db ef bb bd
       -0.116917595 0.13534036 -0.03378146 -0.09176608
0003d0 89 9d 82 bd be c4 92 3d b5 f5 15 be 4d 9a 0f 3c
       -0.06377704 0.07166432 -0.14644511 0.0087648155
0003e0 92 b8 87 bd a4 d8 85 3d e5 6e 2f 3d cb c4 9a bc
       -0.06627001 0.065354615 0.042830367 -0.018892666
0003f0 32 58 1c be 89 58 a7 3d 84 eb 93 bd 55 91 0d be
       -0.15268019 0.081711836 -0.072226554 -0.13824971

mixture_net.mol_attn_layers.0.self_attn_layer.in_proj_bias f4 [192]
000000 13 c3 99 bb 4e ec 5c 3c b7 74 b3 3b 1f 28 05 bb
       -0.004692444 0.013484074 0.00547656 -0.0020318103
000010 6e 00 74 bc 48 ab e7 3c 53 16 2a b7 05 7e 76 3d
       -0.014892681 0.028279915 -1.0137987e-05 0.060178775
000020 dc b4 1a bd 74 a0 10 3d 13 2b 24 3d 11 8e 85 bc
       -0.037770137 0.03530927 0.04008014 -0.016303094
000030 1d d0 1f 3d 53 1a 04 bc 3f ab 1f 3d 95 86 43 3d
       0.03901683 -0.008062917 0.038981672 0.04773577
000040 ef d5 87 3d 8a a4 50 3a 9a 9a da bc 0a d2 c8 3b
       0.066326015 0.00079590885 -0.026685048 0.006128554
000050 bf 5f cd bb bc 2c 38 bc 62 40 b1 bc 01 b3 1a 3d
       -0.0062675173 -0.011241134 -0.021637145 0.037768368
000060 07 e2 ec 3c bd a0 42 bb 4b 1c 22 bc 6d 78 b5 3c
       0.028916372 -0.0029697858 -0.009894441 0.02215215
000070 05 05 20 bc cb 17 52 bd c0 3d a2 3b b0 e0 d4 3c
       -0.009766822 -0.051292222 0.004951209 0.025986046
000080 78 fb 67 bc e8 d1 1c bc b3 28 36 bd 17 34 22 3d
       -0.014159076 -0.00957153 -0.044472408 0.039600458
000090 a5 8c 11 3c cf 84 42 3b 64 5b 5e 3c df 1e a1 3c
       0.00888363 0.002968121 0.013571594 0.01966804
0000a0 fe d9 d9 38 b8 0d be b9 94 68 71 3d aa bd 0f 3c
       0.000103879705 -0.00036249845 0.058937624 0.008773247
0000b0 b5 58 d6 3c 1b 9a 33 b9 79 eb 14 3d 86 91 e7 b9
       0.026165346 -0.00017128179 0.036357377 -0.00044168177
0000c0 bd 44 39 bd 19 b1 92 bc ec 9f 00 3d a6 f9 15 3d
       -0.04523157 -0.017906712 0.031402513 0.036615036
0000d0 14 cd bd 3b 71 ee 52 3c 5e 62 e5 3c b4 d9 1f bd
       0.0057922695 0.012874232 0.028001007 -0.039025977
0000e0 79 95 c7 bd df c6 8b bb a2 6a ea bc 4e 9b 81 3c
       -0.097453065 -0.0042656506 -0.0286153 0.015821125
0000f0 2e ad 4f bd d5 05 56 3c 33 be 92 ba 10 17 d9 bb
       -0.050702266 0.013062914 -0.00111956 -0.0066250637
000100 93 f5 94 37 b4 af 8b 37 77 70 b3 b5 fd 7c 14 37
       1.775733e-05 1.665191e-05 -1.3369271e-06 8.8505885e-06
000110 10 83 d7 b6 67 b2 c5 36 d1 77 b0 36 4e 8a 08 37
       -6.422757e-06 5.8918263e-06 5.259157e-06 8.138433e-06
000120 0f 9e 09 b8 eb ee ce 36 2d 60 a8 b7 7a d5 9e 36
       -3.281055e-05 6.167092e-06 -2.0071946e-05 4.733619e-06
000130 6c 3e 52 37 1c 73 1e b5 54 13 6d b7 fc d3 bc 37
       1.2531509e-05 -5.9027093e-07 -1.4130801e-05 2.251006e-05
000140 68 0f b3 37 c6 a0 c9 b7 19 e8 7a b7 af c1 f9 b7
       2.1345637e-05 -2.4035933e-05 -1.4955201e-05 -2.9773304e-05
000150 3f 34 f8 34 1c f4 63 36 fb 3f 72 36 a9 46 3a b7
       4.6231614e-07 3.3967726e-06 3.6098052e-06 -1.1102916e-05
000160 7a 49 3a b6 8d ab 8f 37 ce 3f 31 b8 b4 91 16 b7
       -2.7758929e-06 1.7126813e-05 -4.225951e-05 -8.974621e-06
000170 51 dd a2 b5 f1 99 2e 37 2d 8a c1 b7 d9 8a 52 b7
       -1.2134352e-06 1.04070505e-05 -2.3071736e-05 -1.2549303e-05
000180 c3 9c 10 b8 a4 71 d6 b6 3b 39 af b7 a7 21 2c 38
       -3.447827e-05 -6.3909265e-06 -2.0888276e-05 4.1039337e-05
000190 25 1d 21 b8 84 73 87 b7 bc 59 9c 37 b1 81 09 38
       -3.8412534e-05 -1.6147045e-05 1.8638435e-05 3.278413e-05
0001a0 ad 02 bf b6 5b 2b 07 37 c5 f0 57 37 e2 86 35 37
       -5.692555e-06 8.0567215e-06 1.2871057e-05 1.0819846e-05
0001b0 92 f7 15 37 8c 12 d9 b6 88 22 9b 37 0f 50 e9 35
       8.938734e-06 -6.469263e-06 1.849352e-05 1.7383153e-06
0001c0 9b 01 09 37 6b d8 d0 36 f9 52 6b b6 8a a9 91 b7
       8.16621e-06 6.2240774e-06 -3.5066025e-06 -1.7364295e-05
0001d0 5c 37 b7 b5 4d 91 99 b7 a1 81 8f 37 db cc 8b b7
       -1.3650674e-06 -1.8306682e-05 1.7107292e-05 -1.6665485e-05
0001e0 24 3b 16 37 a6 85 0d b8 e6 0f d8 b7 61 66 17 b7
       8.9544665e-06 -3.374149e-05 -2.575661e-05 -9.024138e-06
0001f0 5f 1c fe b7 b8 64 20 b6 16 ba 8d 37 1c 49 a7 37
       -3.029237e-05 -2.3900484e-06 1.6895163e-05 1.9941996e-05
000200 12 ec da bb 71 ee ea 3c d6 6f bf bc f0 80 93 bc
       -0.006680974 0.02867815 -0.023368757 -0.018005818
000210 33 ed 45 bc 75 1b 46 b9 30 4b 47 3c 74 74 d5 bc
       -0.0120804785 -0.0001889298 0.012163922 -0.026056506
000220 56 9d 8b bc 2b 30 61 3c 0d b0 c1 bc ee 9f 95 bb
       -0.017042797 0.013744394 -0.023643518 -0.0045661842
000230 47 41 bd 3b e3 2a 3e 3c a3 ab 9c 3c 0c 72 5d bc
       0.005775604 0.011606905 0.019124812 -0.01351596
000240 79 8e f6 bb ab 86 ef 3a 9c 0f 2e bc 03 65 db bb
       -0.0075243083 0.0018274387 -0.010623839 -0.006695391
000250 59 62 82 3c b6 73 98 bb 72 d9 9c bc ed 31 8f 3a
       0.015916036 -0.0046524657 -0.019146655 0.0010924913
000260 8f 12 1a 3c 1b f1 35 bc da 83 c7 ba 1d 0e 21 3c
       0.009403839 -0.011104847 -0.001522179 0.009830025
000270 3d c0 ca bb e2 71 98 3b 51 62 98 3c 75 fb c4 3c
       -0.0061874674 0.0046522478 0.018601568 0.024045685
000280 04 18 a9 3c 28 a4 2d bc 51 58 8d bc c7 0a 3c 3c
       0.020641334 -0.01059822 -0.017254027 0.011477179
000290 17 f2 94 3c fe 89 e8 3b 3e e8 3f 3c 1d f4 b8 3b
       0.018181844 0.007096528 0.011713086 0.005644335
0002a0 10 7d eb b9 e2 fb 31 bc e2 79 de 3b 53 d0 01 bc
       -0.00044915872 -0.010863276 0.006789432 -0.0079232035
0002b0 d3 2d 05 bd 3a 52 8b bc 0f 80 0e bc 12 46 1e bc
       -0.032514405 -0.017006982 -0.008697524 -0.009660261
0002c0 c9 cd 01 bc b3 4b b3 ba f2 12 0e 3b ef 21 49 3b
       -0.007922598 -0.0013679176 0.0021678773 0.0030690392
0002d0 3c 81 a7 bb 63 c2 56 3b f3 c6 3b 3c 26 04 c0 bb
       -0.0051118415 0.0032769672 0.011461007 -0.0058598695
0002e0 05 5c 69 bc 86 0e 15 3c ab 34 88 3c fa 61 71 ba
       -0.014243131 0.009097701 0.016626677 -0.000920802
0002f0 72 b0 17 3b c6 20 aa bc 90 36 94 ba 5c 2b 9d 3c
       0.002314594 -0.02076758 -0.0011307765 0.019185714

mixture_net.mol_attn_layers.0.self_attn_layer.out_proj.weight f4 [64, 64]
000000 74 fa 72 bd 03 f0 60 bd fb 25 12 3b 03 6b b9 3d
       -0.059320882 -0.054916393 0.002230047 0.09053614
000010 df c4 91 bc 8c 0e f7 3d c7 a9 b5 bd 7b 1e f6 3a
       -0.01779407 0.120633215 -0.08870273 0.0018777394
000020 30 b1 3f bd cf 77 80 bd 69 12 d0 bd 93 a5 01 be
       -0.04679984 -0.06272852 -0.101597615 -0.12660818
000030 0c 68 89 3d 4a 5d 66 bd 0b 85 36 bc e6 f3 dd bc
       0.067092985 -0.05624131 -0.011140118 -0.027093839
000040 b4 47 50 bd 37 ef 52 bd d4 ff 2a 3d 63 e9 05 3c
       -0.05084963 -0.051497664 0.041747883 0.0081733195
000050 1d a6 7b 3d 8f 73 1a 3d 4a 51 b9 bc c4 72 31 3d
       0.061437715 0.03770786 -0.02262177 0.04332234
000060 28 01 2b bd 0d b3 bc bc 50 b0 55 bc 97 b1 fc 3c
       -0.04174915 -0.023034597 -0.013042524 0.0308464
000070 ed e9 88 bd 28 89 f2 bd ea 1d 18 be 8d d5 ac bc
       -0.06685243 -0.11842567 -0.14855161 -0.021097923
000080 4c 08 79 bd ac 0b f5 3a c1 5e 9b 3d d1 c3 d4 3d
       -0.06079893 0.0018695495 0.07586432 0.103889115
000090 0f 13 16 be d9 f3 94 bd ad 52 68 3d e2 63 0e be
       -0.14655708 -0.07273073 0.05671947 -0.1390529
0000a0 e2 e7 6a bd ce bb 9a 3c 77 53 17 be 2c f0 e5 bd
       -0.057350047 0.01888838 -0.14777933 -0.1122745
0000b0 d3 35 9a 3b e7 21 93 bd df 30 3c 3c 44 b2 48 bd
       0.0047061234 -0.07184201 0.011486261 -0.048998132
0000c0 f0 0a 68 3d de dc 92 3c 91 c0 98 bd 70 b9 00 3d
       0.056651056 0.017927583 -0.07458604 0.031426847
0000d0 d3 4b a1 bb a2 32 a3 bd 3a 44 7d bd 63 ab 20 be
       -0.004922369 -0.07968642 -0.061832644 -0.15690379
0000e0 a0 2c ed 3d 78 ea 01 3d f0 6a c5 bc d5 9c d0 3d
       0.11580777 0.031717747 -0.024098843 0.10186163
0000f0 fa 8d 17 3d 15 72 44 3a 5e 4d d2 bd 16 91 41 bd
       0.037000634 0.0007493806 -0.10268663 -0.047257505
000100 85 4b e9 bd 8b 91 3b 3c f5 49 6e 3c 1f 19 03 bd
       -0.11391357 0.011448274 0.014544 -0.03200638
000110 3e 05 13 3e b5 f2 28 bd ad 6a 9c 3b d6 33 a5 bd
       0.14357468 -0.04124709 0.004773459 -0.080665275
000120 5d f9 9c ba 22 63 0b 3d 3d 6a ae 3d 74 a1 ee 3b
       -0.0011976172 0.034030087 0.08516357 0.0072824303
000130 c8 58 99 3c 20 22 6a bd 0e 54 40 3d 4f c1 a7 3a
       0.018719092 -0.05716145 0.04695516 0.0012798699
000140 69 89 fa 3c fc 7c 42 3d 77 8c 04 bd d3 21 ce 3c
       0.0305831 0.047482476 -0.03236052 0.025162613
000150 31 3c 50 3d 3b b7 1c bc 4d 65 53 3d 8e 19 82 bb
       0.050838653 -0.00956517 0.05161028 -0.0039703315
000160 bc e5 11 be e8 20 aa bc 77 2b 1e 3c 7f c5 96 bd
       -0.14247793 -0.020767644 0.0096539175 -0.07361888
000170 44 d9 f8 bd 99 80 f2 3d 60 7e d9 bc 8b 36 f2 3c
       -0.12150815 0.11840934 -0.026549518 0.029567024
000180 6d fd 45 bc fd f8 84 3b 25 8c 43 bb f5 fe 06 3d
       -0.012084347 0.004058002 -0.0029838171 0.03295799
000190 4c e5 26 3d 55 51 81 3c 90 a2 69 bd 4e 4a fe bc
       0.04074602 0.015785852 -0.057039797 -0.03104129
0001a0 f0 38 44 3d 08 02 66 bd 7c ec 9c bc c5 34 e0 bd
       0.047905862 -0.05615428 -0.019155733 -0.10947565
0001b0 ef 5f 79 3c 34 4d a0 3d 3e 8d 4d 3d 04 ab d0 bd
       0.015220626 0.07827225 0.050183527 -0.10188869
0001c0 3c 3c 8a bd d9 24 bc bd e1 5b 8e bd 68 7d 06 be
       -0.0674977 -0.09186716 -0.06951118 -0.13133776
0001d0 61 19 dc bc 6a c9 9f 3d a9 4d c0 bc aa 9d 9a 3c
       -0.02686757 0.078020886 -0.023474531 0.018874008
0001e0 db 75 07 bd 7a f0 09 3d 4a 94 b2 bd 38 ab e5 3c
       -0.03307138 0.033676602 -0.0871969 0.028035745
0001f0 fa 32 22 bd ab 81 b7 bd e3 e4 0f 3e 68 52 64 3d
       -0.039599396 -0.08960279 0.14052157 0.05574265
000200 92 31 f5 3d f7 de 7e 3d f6 af d8 bc e2 ae ad 3c
       0.119723454 0.062224355 -0.026451092 0.021201555
000210 93 83 ed bc 16 52 01 3e cf a1 8d 3c 03 b4 26 3d
       -0.028993404 0.1262897 0.01728907 0.040699016
000220 76 14 8b 3d 6e 8d f5 bc 27 54 b2 3d 30 df de 3d
       0.06791012 -0.029974665 0.08707457 0.108824134
000230 0f 5b 2a 3d 7a 6c c0 3d cb 96 28 bc 6d 4a 61 3c
       0.041590746 0.0939569 -0.010289858 0.013750655
000240 de 6c fb 3c 43 21 5c bd 07 6d 13 3d 19 50 3f 3c
       0.03069156 -0.05374266 0.03599265 0.011676812
000250 aa 3c c6 3b 03 3c 47 3c d4 c6 04 bd a2 87 ba 3d
       0.006049712 0.012160304 -0.03241618 0.09107901
000260 08 4c f1 bb 3a 86 22 bc 5a 6e 03 3e 21 fb 85 bd
       -0.0073638 -0.009919697 0.12835065 -0.0654204
000270 6f 3e 8d bd fa ed 9e bd ad 36 a0 3c e5 28 03 3e
       -0.06896674 -0.07760234 0.019557321 0.12808569
000280 08 36 1c 3c a9 9f be 3d 9a 32 e9 3c 6f e9 24 39
       0.009534366 0.093077965 0.028466512 0.0001572722
000290 16 f0 48 3d 52 70 1a 3e 96 d6 da 3b 86 ae 09 3d
       0.04905709 0.1508191 0.0066784127 0.033613704
0002a0 54 a8 c2 3d 9e 3b 02 bd 3c ff 73 3d ca 83 65 bd
       0.09504762 -0.031795137 0.059569582 -0.056033887
0002b0 05 dc 8b bc 64 f5 27 bd 96 dc 84 3c 38 75 e6 3c
       -0.017072687 -0.041005507 0.016218465 0.028132066
0002c0 94 b8 a0 bd 5a a0 b0 bd c1 e9 01 3e 0c f7 9e bc
       -0.078477055 -0.08624335 0.12686826 -0.01940491
0002d0 9c 55 b0 3d 1d 34 a8 3b cf 27 3f bd 69 a7 5c 3d
       0.08610079 0.0051331655 -0.046668824 0.053870592
0002e0 78 36 82 ba 2b 38 ad bb a2 c2 d2 3c 40 20 94 bd
       -0.0009934446 -0.0052862368 0.025727574 -0.07232714
0002f0 b1 3b e6 bc d3 52 9a 3c aa 90 98 bd 08 f1 bf 3d
       -0.028104635 0.018838322 -0.074494675 0.09372145
000300 58 a3 bc 3d d2 51 82 bb 95 6d e2 3d 23 d7 ea bb
       0.09210843 -0.003977039 0.11056057 -0.0071667596
000310 4a 3f b1 3b bc 59 d1 3a d1 a7 8b 3d 3e ca a9 3b
       0.005409156 0.0015972177 0.06819118 0.00518158
000320 eb d3 63 3d 1a fb de bc 5b 79 9f 3d 86 24 2b bd
       0.055622023 -0.027219344 0.077868186 -0.04178288
000330 e9 9c fa bc 6e 74 ad bc 2c 21 01 be c4 00 f4 bb
       -0.030592399 -0.021173682 -0.1261031 -0.0074463803
000340 b3 5f 6a bd 1d 6a 24 bb 52 69 2d 3d b6 90 06 bd
       -0.057220172 -0.0025087663 0.04233677 -0.03285285
000350 b5 77 18 3e d6 86 66 3d 35 f2 cc 3d 6e 46 73 3d
       0.14889415 0.056280933 0.10007135 0.05939334
000360 1f 4a 73 bd 79 68 26 3d 25 ec 1e 3d df c6 a9 bc
       -0.05939686 0.040626977 0.038799424 -0.020724712
000370 4d 4d 53 bd 68 44 23 bc 23 27 c5 bd 31 5a 02 3c
       -0.05158739 -0.00996504 -0.09626605 0.007956074
000380 78 8c 77 bd 89 54 eb 3c 65 65 cb bc 99 a8 cd bd
       -0.060436696 0.028726833 -0.024828622 -0.10041923
000390 37 e5 92 3c 03 66 31 3d 8a f5 73 3d c3 1e e1 3c
       0.017931564 0.043310177 0.059560336 0.027480489
0003a0 2c ab 5c 3d 12 95 94 3c 95 4f f8 3c eb 95 13 3c
       0.05387418 0.018137489 0.030311385 0.009007911
0003b0 86 ab 11 3c 8b 1c fb bd 9f 95 a4 bd 42 25 58 bd
       0.008890992 -0.122613035 -0.080363505 -0.052769907
0003c0 2d 5c 84 bd c7 ed e5 bd 3d 61 d4 ba f2 0b 75 bd
       -0.06462894 -0.11226993 -0.0016203296 -0.059825845
0003d0 c4 79 e8 bd fd ec 8a bd cf cd 90 ba 5a 6a 43 bd
       -0.1135135 -0.06783483 -0.0011047664 -0.047708847
0003e0 38 b6 9e bd 33 95 d0 bc 26 3a fb 3d 9a aa c3 3d
       -0.07749599 -0.025461769 0.1226695 0.09554024
0003f0 d7 b1 bd bc 22 bc 57 bd ba 8d 1c bd 08 75 d6 3d
       -0.02315609 -0.05266965 -0.0382211 0.10471541

mixture_net.mol_attn_layers.0.self_attn_layer.out_proj.bias f4 [64]
000000 12 b2 84 3b 17 c0 6d 3c 35 9a 66 3b 10 98 d9 bb
       0.004049548 0.01451113 0.003518713 -0.0066404417
000010 fa 1c b5 3b 53 77 92 bb 2a 81 68 3c b8 d6 0d 3c
       0.005527136 -0.004469791 0.014190951 0.00865715
000020 ed cc 05 3d 92 91 93 3c 98 64 f6 bc e9 07 c8 ba
       0.032666136 0.01801375 -0.030077264 -0.0015261146
000030 e3 12 a3 bc aa 2a 60 3c cd 51 26 bd 59 62 12 bc
       -0.019906467 0.013682047 -0.040605355 -0.008934581
000040 a8 20 3e bb 14 0f 9d 3c 6f f8 05 bc f9 cf ad bc
       -0.0029011164 0.019172229 -0.008176907 -0.021217333
000050 c9 52 a5 bc 56 77 85 bc d0 26 94 3c be 1a 6d bc
       -0.020181077 -0.016292255 0.018084913 -0.014471708
000060 43 20 e8 3c 38 0f 02 bc 1a 4e 25 bc fd 27 8a 3b
       0.028335696 -0.007938199 -0.010089422 0.0042161928
000070 25 3f b0 bc ee 35 dc 3b cc c1 33 bc a7 c3 18 bc
       -0.021514485 0.006720296 -0.010971498 -0.009323991
000080 6a 83 2c bb 47 09 3f bb 57 9a 0c bc 3e ee 2c 3b
       -0.0026323446 -0.0029149817 -0.008581719 0.002638712
000090 d9 d8 31 bb c2 70 03 3c e2 00 42 3c 80 51 c0 bc
       -0.0027137308 0.008022489 0.011841031 -0.023476362
0000a0 04 d7 92 bc 9a 7e 92 bc 55 ab d7 3b 75 76 10 3c
       -0.017924793 -0.017882634 0.0065817037 0.008817305
0000b0 3a 76 92 3c 44 4e 87 3c b7 ac b9 3b bb a7 4c 3c
       0.01787864 0.016516812 0.005666341 0.012491162
0000c0 79 65 6c 3b 1f b5 da bc b7 dd 5a 3c dc 32 87 3b
       0.0036071225 -0.026697693 0.013358525 0.004125936
0000d0 36 74 f9 bb 91 3e 22 bc 98 4f 41 3c e4 0c d5 3c
       -0.0076127304 -0.009902612 0.011798762 0.026007123
0000e0 2d 0d 27 ba 8a bf 02 bb 6e e4 4b 3c f1 dd 09 3c
       -0.0006372508 -0.0019950592 0.012444599 0.008414731
0000f0 23 09 45 3c a7 03 dd bb 89 27 57 bc 97 59 3a bc
       0.012026104 -0.00674482 -0.0131319845 -0.011373899

mixture_net.mol_attn_layers.0.addnorm1.norm.weight f4 [64]
000000 09 32 82 3f e9 0d 80 3f ea de 83 3f f9 b0 80 3f
       1.017152 1.0004245 1.0302403 1.0054008
000010 18 c5 7b 3f fe b5 81 3f bc 31 7b 3f 52 e2 7a 3f
       0.98347616 1.0133665 0.98122764 0.9800159
000020 43 c6 77 3f a6 71 84 3f 16 ec 80 3f 99 e6 84 3f
       0.967869 1.0347183 1.0072048 1.0382873
000030 84 d2 81 3f 8a 07 7e 3f a8 b3 81 3f a2 98 7e 3f
       1.0142369 0.99230254 1.0132952 0.9945165
000040 e4 c7 7d 3f 33 a0 74 3f 11 b7 82 3f c5 c2 7a 3f
       0.99133134 0.95556945 1.0212117 0.97953445
000050 aa a3 83 3f 58 a1 7c 3f 42 0a 81 3f c9 c2 7d 3f
       1.0284321 0.9868369 1.0081255 0.99125344
000060 6c 6f 84 3f 2e 15 7d 3f 9a da 7e 3f d6 5b 7d 3f
       1.0346503 0.9886044 0.9955231 0.98968256
000070 fd 9b 7c 3f ad 39 78 3f e9 04 82 3f d4 1a 7b 3f
       0.9867552 0.96963006 1.0157748 0.9808781
000080 aa 84 79 3f 35 46 7b 3f 8f ff 80 3f a2 4c 7e 3f
       0.97468054 0.98154 1.007799 0.9933568
000090 30 f5 77 3f 80 13 82 3f 11 0b 7f 3f 67 ee 82 3f
       0.968585 1.0162201 0.9962626 1.0229005
0000a0 e9 e8 7d 3f d5 56 80 3f be f5 83 3f 4a 6b 7d 3f
       0.9918352 1.0026499 1.030937 0.98991835
0000b0 d8 af 82 3f d3 25 7e 3f 73 5e 7f 3f b6 54 84 3f
       1.0209913 0.99276465 0.99753493 1.0338352
0000c0 f2 07 83 3f 90 30 82 3f 38 1e 7f 3f fa 08 82 3f
       1.02368 1.017107 0.99655485 1.015899
0000d0 8c 9a 75 3f ae 89 84 3f 41 65 7b 3f b9 31 81 3f
       0.95938945 1.0354517 0.98201376 1.0093299
0000e0 c5 7f 7d 3f 8b 31 88 3f b9 46 74 3f de ed 81 3f
       0.99023086 1.0640119 0.95420414 1.0150716
0000f0 dc 93 82 3f 5d 7d 82 3f 61 f2 82 3f ab 08 7f 3f
       1.0201373 1.0194508 1.0230218 0.996226

mixture_net.mol_attn_layers.0.addnorm1.norm.bias f4 [64]
000000 ee 85 31 bc 96 bb 70 3c af ad 08 bb 28 bd e6 3c
       -0.010835154 0.0146931615 -0.0020855477 0.028166369
000010 fe c5 1a 3b 7c a7 b4 bc 78 83 ce 3a a7 fc 05 bb
       0.0023616548 -0.022052519 0.0015755733 -0.0020444782
000020 93 56 14 3d 52 1f b6 3c d4 fd 48 bc ea 6e e0 3c
       0.036215376 0.022231732 -0.012267549 0.027396638
000030 9a 17 4b bc f2 10 06 3c 52 32 d4 bc bd fa 20 bc
       -0.012395764 0.008182751 -0.0259029 -0.009825406
000040 88 46 7c bb c2 b3 a3 3c 8e ce ab bc ad e4 a6 bb
       -0.0038494188 0.019983176 -0.020972516 -0.0050931782
000050 93 83 b0 bb f5 be aa 3c 89 c7 8c 3c e4 a8 26 bc
       -0.0053867786 0.020843009 0.01718499 -0.010172103
000060 51 46 64 3c 17 19 cb bb 1e f7 1f bc 6f 0b c5 bb
       0.01393278 -0.0061980593 -0.009763507 -0.006013326
000070 e8 f9 02 bd 2a d6 c0 bc 8a 45 9f bb d3 88 03 bc
       -0.03197661 -0.023539621 -0.0048605846 -0.008028227
000080 7b 57 67 bc e2 d2 07 bc 0a 8d 3a bc b7 05 ab 3b
       -0.014119978 -0.0082900245 -0.011386165 0.005219187
000090 74 a5 88 3b 2e 23 aa 3c 0d 85 82 3c d1 a9 6f bc
       0.004170114 0.020768728 0.015932584 -0.01462789
0000a0 9d e3 a8 bc fa 45 83 3b 30 66 81 3c ba 4a e5 3b
       -0.020616347 0.0040061446 0.015795797 0.0069974335
0000b0 36 fe 5f 3c 4c 07 6f 3b 6d 66 bc 3c 74 79 0f 3c
       0.013671448 0.0036472855 0.02299806 0.008756984
0000c0 74 70 8a 3b ba ff f3 bc 33 fe e3 bc f5 10 bf 39
       0.0042248312 -0.029785026 -0.027831173 0.00036442993
0000d0 86 cd 8b bc 7c 61 4a 3b 9d 94 14 3c 88 41 8e 3c
       -0.017065775 0.003088086 0.009068635 0.017365232
0000e0 e6 54 76 3c e0 79 81 bc ca a9 b3 3c 6e 6a 9f 3b
       0.01503489 -0.015805185 0.021931548 0.0048649823
0000f0 33 0d 73 3c b1 35 4e 3a 13 e9 51 bb 2f bf 25 bc
       0.01483469 0.0007866277 -0.0032029792 -0.0101163825

mixture_net.mol_attn_layers.0.ffn.layers.0.weight f4 [64, 64]
000000 9d b3 e0 bc fa 5a 82 3d 1e bc df 3d 1d 19 be 3d
       -0.027429396 0.06365009 0.109245524 0.09282134
000010 8d 71 95 3d 1e 12 00 3e c2 b8 54 3d 1f d2 c2 3d
       0.07297049 0.12506911 0.05193401 0.09512734
000020 67 ca 71 bc 15 13 12 be c1 88 d2 bd d2 01 3f be
       -0.014757729 -0.14265092 -0.1027999 -0.18653038
000030 1a d0 f9 3d 2b 1c 52 bd 96 8f 3e bd 5b 34 8b 3d
       0.12197895 -0.051296394 -0.046523653 0.067970954
000040 b9 9a 8a bd 86 cc da bd 4a 93 5f 3d 32 8f 99 3d
       -0.06767792 -0.10683541 0.054583825 0.074980155
000050 e6 12 a6 bd e1 e8 6d bc 4d fe 9f 3d dc 91 d4 bd
       -0.08109073 -0.014520855 0.07812176 -0.10379383
000060 29 93 28 3d a0 1e 40 3e 61 86 21 3d 10 3b 01 3c
       0.041155968 0.18761683 0.039434794 0.007887617
000070 78 e3 8d 3d 4e cc 2b bc 1d 0c d0 bd 37 b7 92 bd
       0.06928152 -0.010485722 -0.101585604 -0.07163852
000080 85 5e 95 bd b8 3b 3a bd f0 42 7e 3e 87 4e 19 3d
       -0.07293419 -0.04546711 0.24830222 0.037428405
000090 1a bc eb bc 6c b6 92 3d 2e ed 52 3d 69 6b 67 bd
       -0.028776217 0.071637005 0.051495723 -0.05649892
0000a0 21 f6 0e be 1b 4c ea bd f5 66 19 3c 9d 73 af bc
       -0.13961078 -0.11440297 0.009362926 -0.021417433
0000b0 c9 50 32 3d 43 91 00 3e 30 3a 02 3d 3e fb 51 bc
       0.043534074 0.12555413 0.031793773 -0.012816248
0000c0 c1 34 91 3d 88 c2 50 3d f3 99 6e 3d 67 36 a4 bd
       0.0709014 0.05096677 0.058252286 -0.08018189
0000d0 19 70 d6 3d 92 7c da bd 82 33 e3 3d ea e5 75 3c
       0.104706 -0.10668291 0.11093809 0.015008429
0000e0 8b aa 13 be ca cc 55 3c 68 03 73 b9 ac 94 b0 3d
       -0.14420526 0.013049314 -0.00023175555 0.08622107
0000f0 fb 54 5a bd 01 3e 3a bd 27 6b 63 3d 16 23 97 bb
       -0.0533037 -0.045469288 0.05552211 -0.004612337
000100 ed ca 0e bd e9 4b 9f 3c e1 df 8b ba c3 fe 74 3d
       -0.034861494 0.019445376 -0.001067158 0.059813272
000110 19 1e 14 3d fd 84 e7 3d 92 c1 ac bd dc 5b fa bc
       0.036161516 0.113046624 -0.08435358 -0.03056138
000120 5d ce e8 3c 07 49 b2 3d 9b 3f e2 3d ef 43 ba bc
       0.028418714 0.08705335 0.11047288 -0.022737471
000130 cc 8e 04 be 60 99 37 3c 47 d0 d1 3d 9c 8f 4b 3c
       -0.12945098 0.011206001 0.10244804 0.012424376
000140 0a 05 02 3d 2d da 37 3c 02 3a e1 3c 73 33 a4 bd
       0.031743087 0.011221451 0.02749348 -0.08017626
000150 0b e3 f7 3d b6 fb 6c bd 01 04 27 be e6 82 b6 bd
       0.12103852 -0.057857238 -0.16310121 -0.08911686
000160 94 ee ed bc 3c 61 13 bd 25 09 67 3c 10 77 00 3e
       -0.029044427 -0.0359814 0.014101301 0.12545419
000170 cf 24 13 3e 01 89 8a 3d 37 c9 bb 3c 22 65 0b 3d
       0.1436951 0.06764413 0.022923095 0.034031995
000180 c7 6c 9b bd 88 85 ba bd bd b1 b9 bc 2d 25 c7 3d
       -0.07589107 -0.091075 -0.02266776 0.097238876
000190 30 78 da 3d b4 c8 ad bd 80 a4 c9 3c ac fe e5 bd
       0.10667455 -0.08485547 0.024614573 -0.112302154
0001a0 95 2e 72 3d dd 38 49 3d f3 cb 6b 3d 1d f6 f2 3b
       0.059126455 0.049126495 0.057567548 0.007414593
0001b0 07 cb a7 bd 52 08 da 3d 6f 6e 04 be 33 f7 06 bd
       -0.08193021 0.10646118 -0.12932752 -0.03295059
0001c0 f6 6c 1c 3e d6 84 b5 3c 9d 43 b6 bd da 07 a6 3c
       0.1527594 0.022158068 -0.08899615 0.020267416
0001d0 6e 06 fc bc a7 d3 ef 3c 8a 1f 59 bd 96 f5 5b bd
       -0.030764785 0.029275728 -0.053008594 -0.053701006
0001e0 c2 63 71 bb f5 14 e8 bd fa 0e 79 bd 6c 35 40 3d
       -0.0036833142 -0.11332122 -0.0608053 0.046925947
0001f0 cf 15 ee 3c f8 61 b2 3d e5 d8 7d 3c 01 df 88 bd
       0.029063134 0.08710092 0.015493606 -0.066831596
000200 03 99 b0 3d 4a a9 8c bd e2 35 a9 3d 85 88 e1 3d
       0.08622935 -0.06868227 0.082622305 0.11012367
000210 0b d4 ed 3d db 52 cd bc b9 3c b2 3d ad 56 e6 3d
       0.116127096 -0.025063923 0.08702988 0.11247001
000220 58 9b bb bd 3f 7d d3 bd 9b 48 4e 3c 96 bd 99 3c
       -0.09160489 -0.10326623 0.012590553 0.01876716
000230 b9 88 2d bb f7 13 48 3d e1 66 c8 bc 18 82 7c 3d
       -0.0026479198 0.048847165 -0.024463119 0.061647505
000240 17 96 9f bb 46 eb 2c be 8d 58 80 bc 95 91 29 bd
       -0.004870187 -0.16886625 -0.015667224 -0.041398603
000250 91 d2 33 be 54 61 a2 3a 57 71 c8 bd c5 24 61 3d
       -0.17560793 0.0012388625 -0.09787243 0.054966707
000260 f6 5d 42 be 5c 11 63 bd 8c 6f 97 3c 44 99 6a bd
       -0.18981156 -0.055436477 0.018485807 -0.05727507
000270 58 a2 60 bb 33 b5 d5 bb f7 aa 7a bd 6b b7 69 bd
       -0.0034276452 -0.006521845 -0.0611982 -0.057059687
000280 9c d1 02 3d bb 52 59 3c 29 a2 7b 3c be a7 8c bd
       0.03193818 0.013264353 0.015358486 -0.06867932
000290 12 ab c5 bd 96 ab 65 bd 4b a6 b9 bd 11 02 3f 3d
       -0.0965177 -0.05607184 -0.09064921 0.04663283
0002a0 0e f1 c4 3d 96 b7 a9 3d 3c 5c ae bd 07 c7 2b be
       0.0961629 0.08286969 -0.08513686 -0.16775142
0002b0 a4 b5 aa 3d 47 3f 0b 3e f4 21 c0 bd 5b f1 1e 3e
       0.083354264 0.13598357 -0.09381476 0.15521757
0002c0 7e a5 5e bb 63 5b 04 3e d1 80 bf 3d 06 5f ca 3c
       -0.0033973153 0.12925486 0.09350742 0.024703514
0002d0 b2 34 20 ba a1 72 e5 3c 8d 02 bf 3d ec a0 86 bd
       -0.0006111368 0.02800876 0.093266584 -0.06573662
0002e0 99 e1 4f be a6 23 10 3e b2 d1 f0 bd df a7 95 bd
       -0.20300902 0.14076099 -0.11758746 -0.073074095
0002f0 28 8b 11 3e d0 c1 5a bd 1c 2e b9 38 70 ed d7 3c
       0.1421324 -0.05340749 8.830076e-05 0.026358336
000300 9b ba ab 3d a2 06 d2 bd 21 af 0f be fc ea 6f bd
       0.083852015 -0.10255171 -0.1403165 -0.058573708
000310 0c e1 f9 bd 49 07 33 3d 4e 63 ef 3b 1f 79 89 3d
       -0.122011274 0.04370812 0.007305539 0.06712555
000320 e3 19 94 bd fb c7 05 bd e6 22 08 3d b3 f5 f8 3d
       -0.072315 -0.03266142 0.033236407 0.121562384
000330 7e 9d 0a bd dc 60 c2 bd 18 e5 09 3e 6e ef d9 3d
       -0.033841603 -0.09491131 0.13466299 0.10641371
000340 97 38 75 3c 2d 23 85 3d 90 91 3a 3c f8 75 88 bd
       0.014967105 0.0650085 0.011387244 -0.06663126
000350 a4 58 85 bd 56 35 90 bd 0e df c7 3d 8b a3 c4 bd
       -0.065110475 -0.07041423 0.09759341 -0.09601506
000360 48 db 0a be b8 5f 15 bd 1a 96 49 3d bd 7e 55 bd
       -0.13560212 -0.036468238 0.049215414 -0.05212282
000370 13 95 76 bd 7d e7 d2 3c 76 3b 2a 3d 3a 18 55 3d
       -0.060200762 0.025745148 0.041560613 0.052025057
000380 74 47 2e bd 56 df b4 bd 71 f9 6e bd e4 0a e6 bd
       -0.04254861 -0.088316604 -0.058343355 -0.11232546
000390 b4 53 ba bd 53 6e 8d 3d 48 f4 56 3d 65 62 0e bc
       -0.09097996 0.06905808 0.05247906 -0.008690451
0003a0 a4 48 22 3c f4 d4 d7 bc a6 c9 38 3d 19 7d f1 bc
       0.009905014 -0.026346661 0.045114182 -0.029478597
0003b0 f7 05 89 bc b4 f5 b9 bd 61 e4 74 3b ba e5 84 bd
       -0.016726477 -0.09080067 0.003736757 -0.06489129
0003c0 54 23 ae bc ba d1 3a 3d 0d c4 fc 3d 6b 05 11 bd
       -0.02125708 0.045610167 0.12342081 -0.035405558
0003d0 f3 45 1f 3e 32 cd 05 3e 2a fc a7 3d 26 f7 89 3b
       0.15554027 0.13066557 0.08202393 0.0042103706
0003e0 55 db ec bc 10 00 1a bd e4 e3 50 3d c4 63 c9 3d
       -0.02891318 -0.037597716 0.050998583 0.09833482
0003f0 5e ab b1 bc 1f 0e e8 bd 20 2c 1a 3e 26 ba be 3d
       -0.02168816 -0.113308184 0.15055895 0.09312849

mixture_net.mol_attn_layers.0.ffn.layers.0.bias f4 [64]
000000 5f 3d 87 3d d5 96 af bc c4 c5 71 3b 6e e8 28 3c
       0.066035025 -0.021434227 0.003689156 0.010309322
000010 4d 01 f3 bd 46 b4 62 3d aa a0 54 bc 1c 71 ab bc
       -0.118654825 0.055347703 -0.012977758 -0.020927958
000020 58 ff 19 bc 11 e3 62 bd bd 13 39 bd 79 1b 07 bd
       -0.009399258 -0.05539233 -0.04518484 -0.032985184
000030 d8 6b 9a 3d c2 35 ba bb c1 82 ef 3c c5 2e 57 3d
       0.07540101 -0.005682678 0.029237153 0.052534837
000040 a6 9d 7a 3d b8 61 e0 3a 72 01 23 be 5a f9 26 be
       0.0611855 0.0017118966 -0.1591852 -0.16306058
000050 ad 42 95 3d 6c a5 d7 3c fb b9 63 bd f3 52 a0 bd
       0.07288108 0.026323996 -0.055597287 -0.07828321
000060 02 b6 34 3d af 43 02 bd 52 5d b7 bd 2a ca 8d 3d
       0.04411889 -0.03180283 -0.08953346 0.06923325
000070 4e d2 9d 3d fa ab c3 bb f4 ef 5e bc 5b 12 50 bc
       0.07706128 -0.005971429 -0.013607014 -0.012699689
000080 af d7 8d bd 6a 0b 09 be 65 4b ee bd 00 82 b0 bc
       -0.06925904 -0.1338326 -0.11635474 -0.021546364
000090 d9 ac 1e bd f4 9d 51 bd be 5d 30 3d ee f4 59 3d
       -0.03873906 -0.051176026 0.04305815 0.0532121
0000a0 67 9b a2 3c 45 ea 0c be b9 7f 0d be ce ce 5f 3d
       0.019849492 -0.13761242 -0.13818254 0.054640584
0000b0 8a 80 a5 bd 64 b2 f6 bd 44 51 23 be 8b 1f 00 be
       -0.080811575 -0.12045744 -0.15948969 -0.12512033
0000c0 1a b2 9f 3d 46 e6 92 bc de e5 60 3d 1c d4 7c bd
       0.07797642 -0.017932069 0.05490672 -0.06172572
0000d0 d1 da 7c bc 95 a3 c2 3d 59 53 73 3b e8 57 ac bd
       -0.015433029 0.09503857 0.0037128536 -0.08415204
0000e0 0d 75 dc bd 9c b1 17 3d 21 e0 29 3d 75 a7 38 bd
       -0.10764513 0.037034616 0.04147351 -0.045081574
0000f0 42 a5 84 bd 18 ba 49 3c 11 e1 b3 3d 6d d4 7f bd
       -0.06476833 0.012312435 0.087831624 -0.062458444

mixture_net.mol_attn_layers.0.ffn.layers.2.weight f4 [64, 64]
000000 8e 40 06 3e bc ed 18 bd 5e ef 56 bd a4 7e 67 3d
       0.13110563 -0.037336096 -0.052474372 0.05651726
000010 ba 73 c3 3d 02 a3 c0 bd e2 4e eb bd da 52 b3 3d
       0.095435575 -0.09406091 -0.11489655 0.08756037
000020 fb bf 2b 3d c0 7f 94 3d 10 92 0c 3e 60 0f 95 3d
       0.041931134 0.07250929 0.13727593 0.07278323
000030 1e d8 3f 3d 8c fb b1 bd e0 b1 00 3e 1a 04 f2 bb
       0.046836965 -0.08690557 0.12567854 -0.007385743
000040 6f f3 85 bd 76 d3 99 3d 9e df b1 3d d6 2e 7d 3d
       -0.06540572 0.07511036 0.0868523 0.061812244
000050 97 66 94 3d 5e 71 ff 3c e0 f5 b2 bd 73 16 32 bd
       0.0724613 0.031181987 -0.08738303 -0.04347844
000060 76 dd 86 bd c0 51 3b 3d a5 f1 80 bd 9b 90 d0 bd
       -0.06585209 0.04573226 -0.0629609 -0.10183831
000070 32 20 32 bd 52 96 02 3c a1 4f 9f 3d 79 7d 00 3d
       -0.043487735 0.0079704095 0.0777886 0.03136966
000080 d0 c9 2b bd e0 b1 90 bd df dc 8e 3d 44 20 cc 3d
       -0.04194051 -0.07065177 0.069757216 0.09967092
000090 b4 a7 4f bc cf e0 41 3e 08 0d cd bd aa 2a 70 3d
       -0.012674261 0.18933414 -0.10012251 0.058634438
0000a0 ad d4 6e 3b b7 af 3c bd 7e 19 3c 3b 75 89 86 bc
       0.0036442683 -0.046066012 0.0028701718 -0.016422966
0000b0 09 b3 8e bb 9c 68 44 bc 1a 27 cd bc 0f 8a d6 3d
       -0.0043548387 -0.011987831 -0.02504306 0.10475551
0000c0 f0 fa 55 3d aa 95 80 bc 5c f2 21 be f7 a1 91 3d
       0.052241266 -0.015696365 -0.15815109 0.071109705
0000d0 3c a8 83 bb 49 62 4d bd 26 5a e0 3d 45 9f 30 3e
       -0.004017858 -0.05014256 0.109546944 0.17248257
0000e0 51 27 98 3d 0b 21 a6 bd b3 95 cb 3d b5 59 0d be
       0.07429374 -0.08111771 0.09940662 -0.13803752
0000f0 3e a1 9e bd ed fb 04 3e 34 1b fd 3d 85 20 8e 3d
       -0.07745598 0.12986727 0.12358704 0.06939796
000100 f5 8a a2 3c ec 17 e1 3d 7a 61 3c bd 71 5d bf 3d
       0.01984165 0.10990891 -0.0459914 0.093439944
000110 df cd 55 3d 83 1b b9 3d f1 8d ad bd 3a ae 6f bd
       0.052198287 0.090384506 -0.08474339 -0.058515765
000120 f9 e1 0f bc bb 57 dc bc 0c d8 b9 3c 59 8e fe 3c
       -0.008781903 -0.026897302 0.022686027 0.031073736
000130 7c 3b f6 bd c3 a8 dc bd 50 91 a0 bc a1 b7 ea bd
       -0.120230645 -0.10774376 -0.01960054 -0.11460806
000140 6f f1 b0 3c 47 f3 81 bd 4e 84 5f bc 4f 91 81 bd
       0.0215995 -0.063452296 -0.013642384 -0.063265435
000150 3c 6e e3 bc 7f 7a 25 bc 03 ba 8f bd cb fc b1 bc
       -0.027762525 -0.010100006 -0.07017901 -0.021726986
000160 70 27 1a 3c 45 9f 80 3d f1 0e 5a 3d cd 7b 46 bd
       0.009408817 0.06280378 0.053236905 -0.04845791
000170 96 6f a4 bd f1 3c 40 bc e6 59 a9 bd ee 29 38 bd
       -0.08029096 -0.01173328 -0.082691 -0.044961862
000180 ce b5 33 bc 46 5a a5 bc e0 2c 0f bd 17 1c 30 3d
       -0.010968639 -0.020184647 -0.034954906 0.04299554
000190 7a db 53 3d 0c b1 be 3d ca 2a 03 3d 8e 0a d0 bd
       0.05172298 0.09311113 0.03202323 -0.10158263
0001a0 c2 87 3c 3d 2c b4 92 bd 37 95 3d bd c6 ec b6 bb
       0.046027906 -0.07163271 -0.04628488 -0.005582425
0001b0 e3 f1 be 3d 31 ec fe 3c c2 31 68 bd d5 a9 00 3e
       0.0932348 0.031118484 -0.056688078 0.12564786
0001c0 a9 f2 b0 bd 50 e1 83 3d ac 5a 2f bd 47 96 f7 3c
       -0.08640034 0.06439459 -0.04281108 0.030223025
0001d0 84 d5 17 3c 21 92 54 3d 0f ac 9b 3d 12 05 8d 3c
       0.009267215 0.051897172 0.07601177 0.017214332
0001e0 91 1c 06 3c 00 51 44 bd 74 6a cd bc 82 c0 a5 3d
       0.008185522 -0.04792881 -0.025075175 0.080933586
0001f0 a3 6d 0d 3e 85 4b 6e 3d c6 13 75 3d 7c e9 be 3c
       0.13811354 0.05817749 0.05983331 0.023304693
000200 5f 0c bc bb 53 0d 88 bc b2 a4 16 3e be 8f cf 3d
       -0.0057387794 -0.016607916 0.14711264 0.101348385
000210 21 e2 7e 3d 0c cc a9 3d eb 82 a0 3d 04 c6 f6 bd
       0.062227372 0.08290872 0.078374706 -0.12049487
000220 c1 6a 20 bd 60 9f 06 be fa 4a 35 bc 7e b6 40 bc
       -0.03916431 -0.13146734 -0.011065239 -0.0117622595
000230 89 73 3c bd 87 28 8b bc f1 ce c5 bd ed 71 db 3c
       -0.04600862 -0.016987098 -0.096586116 0.026787722
000240 a0 ff c9 3c d3 46 ed 3d c9 7f b1 bb c4 16 02 3e
       0.024658024 0.11585774 -0.0054168445 0.12703997
000250 ff 1d 1e bd 8a e0 c3 bd ef 75 09 3e d8 47 0f 3b
       -0.038602825 -0.09564312 0.13423894 0.002186289
000260 2f bd 7e bc 7b a1 56 bc a6 56 c9 3d 1f 13 1b bc
       -0.015548035 -0.013100023 0.0983098 -0.009465008
000270 4e 47 4a 3e 95 68 5e 3d ff e8 05 be 51 93 75 3d
       0.19753763 0.054298956 -0.13077162 0.059954945
000280 45 ed 0f bc 53 21 b9 bd 44 3c 97 bd ad 35 98 3d
       -0.008784597 -0.09039559 -0.07384542 0.07432113
000290 db c1 b5 bd d3 1b 15 be ca a7 63 bd b3 bc ff 3c
       -0.088748656 -0.14561395 -0.055579938 0.031217908
0002a0 e7 45 41 3d d2 c8 99 3d 60 f4 97 3c 9d 64 a4 3d
       0.047185805 0.075090066 0.018549144 0.08027003
0002b0 cc 16 25 3d 5f d2 f9 3d a4 c4 bb ba aa 69 e1 bc
       0.040304944 0.12198328 -0.0014325571 -0.027516205
0002c0 1c e3 2e bd 66 02 73 3d 15 66 07 3d fd 05 c0 3d
       -0.042697057 0.05932846 0.033056337 0.09376142
0002d0 e0 18 7e bd ee 7c 0e 3e 3d 88 03 bd 3c 3a 0c bd
       -0.06203544 0.13914844 -0.03211235 -0.034235224
0002e0 b4 63 ff bd df e3 67 3d bd 6e ff bd ab 13 a0 bd
       -0.12470189 0.0566138 -0.124722935 -0.07816251
0002f0 88 78 0a be ba e9 b1 bd 82 5b de bd 6e 01 82 3d
       -0.13522542 -0.08687158 -0.108572975 0.06347929
000300 2e 78 30 bb d7 3d 90 3d 96 eb 28 3d 6d e3 1c 3d
       -0.0026927101 0.07043045 0.041240297 0.038302828
000310 e0 2e a3 bc 74 3b ad bc ab 2c 60 3c f2 89 48 bd
       -0.019919813 -0.021146514 0.013682525 -0.04895968
000320 e4 41 9a 3d 92 c1 3b bd 72 8e ac 3d 5f 90 b8 bd
       0.07532099 -0.0458389 0.08425607 -0.090119116
000330 6c 10 b8 bd 55 e1 13 bd 95 b8 fa 3c 05 c8 a4 bd
       -0.08987507 -0.036103565 0.030605594 -0.08045963
000340 dc 71 94 3d 60 22 1a 3d 67 4a e9 bd 48 75 6f bd
       0.072482795 0.03763044 -0.11391144 -0.058461457
000350 00 73 be bb b3 49 6d 3d 8f 2c 95 bb 4a c9 c8 3d
       -0.005812049 0.057931613 -0.004552431 0.09804018
000360 06 b9 6d 3d b5 cb e0 3c a3 dc 81 3d 95 b7 6b 3d
       0.05803778 0.027440885 0.06340911 0.057548124
000370 f9 bb d9 3d bf 13 83 bb a1 32 27 be e3 5b 4d bc
       0.10631556 -0.0040001567 -0.16327907 -0.0125341145
000380 b9 45 9e bd bb e6 0d 3c f2 d0 0d bd 81 cd d1 bc
       -0.07728142 0.008660967 -0.034623094 -0.025610687
000390 fa b5 47 3d cd 5f b6 3d 00 1a fd 3d d2 68 3b bc
       0.04875753 0.08904991 0.12358475 -0.011438565
0003a0 17 f9 f0 3a 95 05 7f 3d 02 28 b5 bd a3 46 0f bd
       0.0018384781 0.062261183 -0.088455215 -0.034979474
0003b0 3f 04 c4 bd 13 da 7d bd d9 f7 ce 3d 8a 2a 2b 3d
       -0.095711224 -0.06197555 0.10105867 0.041788615
0003c0 99 94 ed bd f6 3b bc 3d 49 72 d5 3c 03 69 52 bd
       -0.116006084 0.09191124 0.026055472 -0.05136968
0003d0 8c ef 42 bd d5 79 72 3d 7a d8 0f 3e f2 31 92 3d
       -0.04759173 0.05919822 0.14047423 0.071384326
0003e0 78 2e 5e 3c 0a 3c 27 bd 22 30 82 bd cc bc b1 3d
       0.013560884 -0.040828742 -0.06356837 0.08678588
0003f0 fd 27 3b bd 4d f0 28 3d 9c e9 b4 bd 39 d0 d6 bd
       -0.045692433 0.041244794 -0.0883362 -0.10488934
