scripts_chemix/results/chemix_ensemble/top6/chemix.pt (torch, 344586 bytes, 16 tensors)

input_net.weight f4 [96, 196]
-0.031446718 0.059051078 -0.06590888 0.032600228 0.1227179 0.033079345 -0.0012427742 -0.033824358
-0.04450267 -0.07025227 0.078339644 -0.038446836 0.03347085 0.061156057 0.010076787 -0.0024000308
0.06374113 -0.06432955 0.016618574 -0.07272657 -0.0679347 -0.0301461 0.042692684 0.057922337
-0.04042558 -0.041043676 -0.034747895 -0.058724243 -0.085309185 0.067698464 -0.0019349307 0.03963482
-0.087405585 -0.009646834 0.042480048 -0.068318404 0.08017831 -0.044243056 0.030207066 -0.0379808
0.009620561 -0.048391607 0.07045954 0.09201319 0.013712804 -0.073133156 -0.05395517 0.07890228
-0.011171377 -0.050182123 -0.053560574 0.025634881 0.025913477 0.011769668 -0.00072739186 0.02160226
-0.04333218 -0.012061345 -0.05654279 0.023394689 -0.08343433 0.07135849 0.011852563 0.03535059
-0.033165623 -0.05336346 0.037195627 0.026724927 -0.0050899494 0.008229214 -0.034453474 0.012802518
-0.025960408 0.047410045 0.013782937 -0.08728226 -0.028476566 -0.014683281 -0.023643158 0.04661154
-0.035271525 -0.02219931 0.0021374247 0.053225566 -0.037849244 -0.026716137 0.0794421 -0.04159988
0.07282567 -0.059223127 -0.045412004 0.04059421 0.054815657 -0.055338204 -0.008502182 -0.050428405
0.027762732 -0.03818584 0.06698363 -0.0129128015 -0.008202021 0.027746195 0.086443424 -0.08997427
-0.019140886 -0.094625406 0.023536898 -0.03194729 0.034781873 -0.053332776 0.04507989 0.051601104
-0.024989646 -0.06071751 -0.07110824 0.035729248 0.025550144 0.056785833 0.04495688 -0.06818964
0.048238188 -0.009430154 0.020014089 -0.063655496 -0.04662012 -0.051616173 0.0443095 -0.041951787
0.017359193 0.0016771664 0.030922951 0.015010886 0.048276823 -0.032049235 0.03500648 0.0331605
0.06430241 0.0070343795 -0.012504688 0.049151324 0.06120056 0.060849085 -0.05786198 -0.10341666
0.035386495 -0.064041995 -0.043361407 0.06683885 -0.03484049 0.05030424 -0.01567577 -0.019814191
0.06136494 -0.078990586 -0.06827954 0.03517272 -0.03505299 0.13482535 0.060618673 -0.06383177
-0.041272778 -0.0097883195 0.04821493 -0.005780517 0.013637535 -0.060854923 0.028865308 0.03310781
0.06397795 0.01470463 0.044416826 -0.04200499 -0.039164145 -0.09800185 -0.008419238 -0.059035026
-0.040335793 -0.025934672 0.037682533 -0.008581805 -0.043380495 0.028863166 -0.073951386 0.011584288
-0.050676435 -0.019979365 0.065681495 -0.09537871 -0.023951137 -0.0061311754 0.027697083 -0.02241601
0.021574333 -0.052301288 0.033434115 0.036100626 -0.090899736 -0.06694013 -0.054107334 0.085770935
0.11968403 0.020198166 -0.020255243 -0.064233825 -0.073485985 -0.041679773 0.09586172 0.020781692
-0.05053087 -0.041683674 -0.081298366 0.0352841 -0.007577794 -0.012906353 -0.00033994438 0.05965595
-0.06481688 0.008742309 0.06685989 -0.00081266416 -0.031365767 0.06458635 -0.017666252 -0.025680626
-0.0377603 -0.045475084 0.04256519 -0.014662893 -0.027330209 -0.05386875 -0.06410851 -0.032124233
0.07385402 -0.069823995 0.02459835 -0.013622595 -0.01934868 -0.050877687 -0.058374166 -0.03539589
0.024933053 0.009749444 -0.09855791 -0.0031817162 -0.04103504 0.034629416 -0.06633238 -0.048979256
0.012132064 -0.014759745 -0.028374003 0.01845845 0.043677066 0.0017633061 0.05147467 0.018391509
00000000: 46ce 00bd 8bdf 713d 3cfb 86bd d187 053d
00000010: 8653 fb3d 357e 073d 95e4 a2ba 698b 0abd
00000020: 6f48 36bd 6ce0 8fbd 8970 a03d 6e7a 1dbd
00000030: bb18 093d c67e 7a3d 1c19 253c d649 1dbb
00000040: b68a 823d 36bf 83bd ad23 883c abf1 94bd
00000050: 5921 8bbd f4f4 f6bc 86de 2e3d f93f 6d3d
00000060: 4b95 25bd 6a1d 28bd cf53 0ebd d588 70bd
00000070: 95b6 aebd 7ea5 8a3d 809d fdba 1f58 223d
00000080: b301 b3bd c10d 1ebc 8fff 2d3d 85ea 8bbd
00000090: 8734 a43d 3538 35bd cf74 f73c c191 1bbd
000000a0: 8f9f 1d3c 4736 46bd 174d 903d 6971 bc3d
000000b0: abab 603c d6c6 95bd 1900 5dbd 8597 a13d
000000c0: 2708 37bc c58b 4dbd 5562 5bbd 3e00 d23c
000000d0: 8048 d43c 91d5 403c 71ae 3eba 39f7 b03c
000000e0: 157d 31bd f39c 45bc 6a99 67bd 38a6 bf3c
000000f0: 9edf aabd 6624 923d 4131 423c c8cb 103d
00000100: add8 07bd a593 5abd 715a 183d 3cee da3c
00000110: 97c9 a6bb d3d3 063c 161f 0dbd a7c1 513c
00000120: ecaa d4bc 0931 423d d4d1 613c 0bc1 b2bd
00000130: b047 e9bc 2592 70bc 4caf c1bc beeb 3e3d
00000140: e078 10bd 54db b5bc 0914 0c3b 0d03 5a3d
00000150: cf07 1bbd cddb dabc 8ab2 a23d a364 2abd
00000160: a025 953d f393 72bd f001 3abd 1d46 263d
00000170: 6286 603d 50aa 62bd bc4c 0bbc 048e 4ebd
00000180: ab6e e33c c168 1cbd b72e 893d 3790 53bc
00000190: c561 06bc fd4b e33c 4009 b13d 6e44 b8bd
000001a0: 59cd 9cbc f7ca c1bd 74d0 c03c 29db 02bd
000001b0: 7077 0e3d 7873 5abd b1a5 383d ae5b 533d
000001c0: 16b7 ccbc ecb2 78bd 32a1 91bd d558 123d
000001d0: 894e d13c 4398 683d b524 383d 03a7 8bbd
000001e0: 6895 453d ef80 1abc 96f4 a33c d05d 82bd
000001f0: bdf4 3ebd 7b6b 53bd e17d 353d a3d5 2bbd
00000200: de34 8e3c 5ed4 db3a 2152 fd3c 38f0 753c
00000210: ebbd 453d 0f46 03bd f462 0f3d 4ed3 073d
00000220: fbb0 833d a780 e63b 77e0 4cbc e652 493d
00000230: 70ad 7a3d e43c 793d af00 6dbd 1dcc d3bd
00000240: 6ef1 103d 7328 83bd bb9b 31bd cfe2 883d
00000250: e7b4 0ebd d20b 4e3d 796a 80bc 5f51 a2bc
00000260: ce59 7b3d d1c5 a1bd 25d6 8bbd 4511 103d
00000270: b993 0fbd a80f 0a3e 494b 783d 3bba 82bd
00000280: a50d 29bd 305f 20bc 057d 453d 7e6a bdbb
00000290: f86f 5f3c 0343 79bd f076 ec3c 0e9c 073d
000002a0: df06 833d b0eb 703c 6bee 353d 6d0d 2cbd
000002b0: 956a 20bd 32b5 c8bd d8f0 09bc b6ce 71bd
000002c0: 2537 25bd f374 d4bc 0059 1a3d b39a 0cbc
000002d0: bfaf 31bd 7272 ec3c d373 97bd 07cc 3d3c
000002e0: 1892 4fbd c4ab a3bc 0584 863d ea55 c3bd
000002f0: 2d35 c4bc 07e8 c8bb fee4 e23c c8a1 b7bc
00000300: a8bc b03c e039 56bd 36f2 083d 40de 133d
00000310: a429 babd e817 89bd a79f 5dbd aca8 af3d
00000320: e71c f53d a076 a53c 53ee a5bc 068d 83bd
00000330: d27f 96bd 69b8 2abd 2653 c43d 5e3e aa3c
00000340: 75f9 4ebd 80bc 2abd c27f a6bd 0f86 103d
00000350: 254f f8bb 2b75 53bc 903a b2b9 cc59 743d
00000360: b6be 84bd e73b 0f3c d7ed 883d f808 55ba
00000370: 6479 00bd d945 843d d1b8 90bc 2d60 d2bc
00000380: 8baa 1abd 1544 3abd d658 2e3d a13c 70bc
00000390: 9ae3 dfbc 7aa5 5cbd 534b 83bd b394 03bd
000003a0: c740 973d e2ff 8ebd 7b82 c93c 4e31 5fbc
000003b0: 1f81 9ebc 1f65 50bd c019 6fbd 48fb 10bd
000003c0: 6740 cc3c 22bc 1f3c bbd8 c9bd 5784 50bb
000003d0: 5c14 28bd 93d7 0d3d 45d9 87bd 799e 48bd
000003e0: 91c5 463c dcd2 71bc 9970 e8bc 2d36 973c
000003f0: b9e6 323d bc1e e73a 1bd7 523d caa9 963c

input_net.bias f4 [96]
0.02020907 0.017682528 0.048420116 0.0003027077 -0.042977557 -0.043750398 0.06768038 0.0016884349
-0.04145401 -0.043164562 0.032086205 -0.0010811209 -0.051332533 -0.015639463 -0.0420935 -0.06722929
0.023839498 0.062202986 0.07348646 0.041811433 0.041953385 0.021849044 0.038935903 -0.012859792
-0.02130781 0.009003689 0.00482654 -0.022285428 0.061543394 -0.011877158 -0.039477583 -0.073070794
-0.044374183 -0.055517897 0.020329189 0.0744141 -0.05697542 0.05023245 0.039840914 -0.06230794
-0.044548057 0.027728762 0.007867212 -0.04940224 -0.049078804 0.06432562 -0.009811961 0.046493787
0.043052096 -0.03802706 0.041128628 0.038804345 0.020755982 0.051030137 -0.058490593 -0.07038733
-0.06417317 0.06810592 0.066776596 0.038147364 0.022674989 0.031759962 -0.03242721 0.05600817
-0.03571052 -0.06369309 0.04592053 -0.06288628 -0.013307484 0.052069698 0.072454646 -0.016821282
0.050506182 0.06532188 0.01823298 -0.039808024 -0.011467432 0.031606536 0.03902435 0.04169863
0.022564834 -0.042965055 0.05595587 -0.017268471 0.003975849 -0.035756856 -0.012192956 0.05190613
0.04741801 -0.064880565 0.023846965 -0.041797366 -0.03540406 0.023377357 -0.052846238 0.003009777
00000000: 7e8d a53c f3da 903c 2c54 463d bdb4 9e39
00000010: 3c09 30bd 9e33 33bd 039c 8a3d 794e dd3a
00000020: aecb 29bd 53cd 30bd d36c 033d 66b4 8dba
00000030: 1042 52bd 551e 80bc 3c6a 2cbd 83af 89bd
00000040: 0d4b c33c 8fc8 7e3d 1280 963d 7742 2b3d
00000050: 50d7 2b3d c4fc b23c 417b 1f3d e1b1 52bc
00000060: b78d aebc 3584 133c f427 9e3b ee8f b6bc
00000070: ed14 7c3d 6998 42bc 3fb3 21bd 24a6 95bd
00000080: b4c1 35bd bc66 63bd 6689 a63c 6b66 983d
00000090: 0f5f 69bd 8bc0 4d3d 3a30 233d 9c36 7fbd
000000a0: 0678 36bd 6e27 e33c 7be5 003c 015a 4abd
000000b0: db06 49bd 27bd 833d 59c2 20bc 4570 3e3d
000000c0: 6557 303d 43c2 1bbd 7e76 283d 4ef1 1e3d
000000d0: 7308 aa3c fa04 513d d593 6fbd 3c27 90bd
000000e0: 396d 83bd 1e7b 8b3d 2bc2 883d 6940 1c3d
000000f0: e6c0 b93c bc16 023d 65d2 04bd d368 653d
00000100: 3245 12bd 8671 82bd 2a17 3c3d 86ca 80bd
00000110: a207 5abc 0947 553d 1a63 943d c9cc 89bc
00000120: 92df 4e3d 7ac7 853d 555d 953c bd0d 23bd
00000130: e5e1 3bbc db75 013d ffd7 1f3d 2fcc 2a3d
00000140: e3d9 b83c 20fc 2fbd fb31 653d 9c76 8dbc
00000150: d747 823b c875 12bd f7c4 47bc 869b 543d
00000160: 6339 423d 1ae0 84bd b65a c33c b733 2bbd
00000170: d903 11bd df81 bf3c 4c75 58bd ae3f 453b

mixture_net.mol_attn_layers.0.self_attn_layer.in_proj_weight f4 [288, 96]
0.11975077 0.09143007 0.02696846 0.12449231 -0.00035118518 0.03116804 0.023013603 0.01413779
0.040738244 0.1407778 -0.06253081 0.0761914 -0.063627414 -0.09997652 -0.0743308 0.08358618
-0.08597771 0.020300262 -0.031547274 0.019283151 0.11005046 -0.014545519 0.12770797 0.1469479
0.001285071 -0.055036657 0.04222406 0.052293494 -0.01922408 -0.06723434 0.014860093 0.011566913
0.029272074 -0.0025324072 -0.027147308 -0.09558667 -0.01910838 -0.07487719 -0.07956474 -0.040017202
0.03975079 0.06336426 0.12806574 -0.013697033 0.068313204 0.074411646 0.050724868 0.013736216
0.101229794 0.18624933 0.11762792 0.08084188 0.18639773 0.05966036 -0.09408917 0.10607099
-0.10208816 -0.115543924 -0.04943797 -0.07998214 0.057190496 0.080260515 0.052738864 0.102328524
-0.004473542 0.006879409 -0.16170618 -0.06867663 -0.06742313 0.1643663 0.022991544 0.10189973
-0.060245182 -0.05831182 -0.1324675 0.07061327 -0.047780495 0.029914176 0.14334385 0.052373946
0.035702873 -0.008252405 -0.026848426 0.07786927 0.0078240065 0.050113603 -0.030323856 -0.19388211
0.07966773 -0.04718256 -0.11400529 -0.035470806 0.13349877 0.12024426 -0.09189453 -0.10045406
0.04324502 0.066542365 -0.08957308 0.061495293 -0.043907464 0.05197864 0.020737236 0.0986354
-0.11543572 0.13562214 0.0396602 0.04215194 0.08159657 0.05775841 0.10377931 -0.01251828
-0.029538663 -0.049686078 -0.10236864 0.12969668 -0.06776915 0.12113613 0.16629377 0.05733075
0.103439525 -0.05588452 0.03664319 -0.019875398 -0.103367776 -0.05882921 -0.124559134 -0.044212256
0.036996827 0.027894735 -0.07471906 -0.052325577 -0.086492844 -0.0638418 -0.08658899 0.0757361
-0.056957588 -0.056962665 0.07897401 -0.045928314 -0.11944625 -0.021656014 -0.05314708 -0.11949411
-0.1350242 -0.057817686 0.11848787 0.05047463 0.012147343 0.06754058 -0.10978298 0.03532516
-0.043662176 0.07075942 -0.06295991 0.03958256 -0.15131624 0.047670316 0.0634599 -0.07623853
0.060108166 -0.14421035 0.036471795 0.0751903 -0.016079806 0.12904131 -0.07001591 -0.032270245
0.03410149 -0.017573752 0.14842801 0.074040554 -0.06627551 0.046707395 -0.07512933 0.08202645
0.019543735 -0.09129346 -0.017836342 0.046309587 0.0858149 0.050767414 -0.0063633444 0.05104029
0.10045683 0.12028363 -0.09110113 0.015636994 0.05886295 -0.14014065 0.0063673756 0.07801871
0.0060022967 -0.09530015 0.000116050294 -0.0065228064 -0.034940913 0.03324206 -0.00073387125 0.08964739
0.11061164 -0.18227696 -0.033030443 0.08445712 -0.14873067 -0.15111876 -0.017535303 -0.14785431
0.0446287 -0.05603984 0.08795628 -0.06380324 -0.056919023 0.18692814 -0.058364682 0.08416672
-0.15200421 -0.10438798 0.0723485 0.10298062 0.025127752 0.049156547 0.06516404 0.07895593
-0.11300924 0.059804477 -0.1425567 0.043946795 0.067074314 -0.051144753 0.12683386 -0.12307412
-0.018527519 0.048742507 0.09653089 0.060119078 -0.035288744 0.115000226 -0.00986239 0.036075115
-0.008178699 0.1334999 -0.16354975 0.027774997 -0.074222565 -0.073938966 0.016879685 0.077592716
-0.08765402 0.036718518 0.09145208 -0.02412428 -0.1437138 -0.11619887 -0.07852427 -0.070581675
00000000: e43f f53d b03f bb3d f6ec dc3c d3f5 fe3d
00000010: 471f b8b9 1e54 ff3c 0687 bc3c 30a2 673c
00000020: 25dd 263d 0e28 103e 2710 80bd 3d0a 9c3d
00000030: 174f 82bd 7dc0 ccbd bf3a 98bd 3b2f ab3d
00000040: 1515 b0bd bc4c a63c b737 01bd b3f7 9d3c
00000050: 2362 e13d 5450 6ebc e1c5 023e 8379 163e
00000060: d46f a83a 1e6e 61bd 23f3 2c3d b431 563d
00000070: d17b 9dbc 28b2 89bd bf77 733c 2683 3d3c
00000080: fdcb ef3c bef6 25bb 0864 debc f2c2 c3bd
00000090: 2d89 9cbc 3659 99bd d7f2 a2bd 14e9 23bd
000000a0: b9d1 223d 1fc5 813d aa23 033e 8569 60bc
000000b0: cbe7 8b3d 2265 983d e1c4 4f3d de0d 613c
000000c0: 9151 cf3d 25b8 3e3e e8e6 f03d 6d90 a53d
000000d0: 0cdf 3e3e 6c5e 743d d3b1 c0bd bf3b d93d
000000e0: 9913 d1bd 4ba2 ecbd 787f 4abd adcd a3bd
000000f0: 9540 6a3d a05f a43d b504 583d 9e91 d13d
00000100: ca96 92bb aa6c e13b 4e96 25be 55a6 8cbd
00000110: 2315 8abd a44f 283e c358 bc3c ceb0 d03d
00000120: a7c3 76bd 60d8 6ebd 8fa5 07be b19d 903d
00000130: 7bb5 43bd 930e f53c bbc8 123e 1086 563d
00000140: 2d3d 123d 1835 07bc 3bf1 dbbc ed79 9f3d
00000150: 4330 003c ec43 4d3d bc69 f8bc 0889 46be
00000160: d628 a33d 8042 41bd 9b7b e9bd d649 11bd
00000170: e7b3 083e 9f42 f63d 3333 bcbd dcba cdbd
00000180: b121 313d 5d47 883d 1772 b7bd 7de2 7b3d
00000190: 50d8 33bd 8ee7 543d 23e1 a93c 5b01 ca3d
000001a0: 9069 ecbd 88e0 0a3e bc72 223d 83a7 2c3d
000001b0: 1a1c a73d 1594 6c3d 3f8a d43d 7919 4dbc
000001c0: 11fb f1bc a183 4bbd a6a6 d1bd 35cf 043e
000001d0: 8dca 8abd 3816 f83d ea48 2a3e a6d3 6a3d
000001e0: 1ad8 d33d 2be7 64bd 2b17 163d bbd1 a2bc
000001f0: 7cb2 d3bd e6f6 70bd dc18 ffbd e917 35bd
00000200: fc89 173d 8083 e43c 4e06 99bd 5853 56bd
00000210: 2923 b1bd 7dbf 82bd 9255 b1bd 871b 9b3d
00000220: 5c4c 69bd af51 69bd 20bd a13d 541f 3cbd
00000230: 3ca0 f4bd f467 b1bc c1b0 59bd 54b9 f4bd
00000240: c943 0abe 3dd2 6cbd c5a9 f23d 7cbe 4e3d
00000250: a605 473c b752 8a3d e6d5 e0bd 1db1 103d
00000260: 1cd7 32bd 51ea 903d 20f1 80bd 5321 223d
00000270: a5f2 1abe f341 433d 44f7 813d f222 9cbd
00000280: fb33 763d e1ab 13be 7363 153d 5ffd 993d
00000290: ccb9 83bc 6823 043e 8064 8fbd ce2d 04bd
000002a0: 01ae 0b3d d4f6 8fbc 83fd 173e 93a2 973d
000002b0: 74bb 87bd 4150 3f3d 68dd 99bd 7cfd a73d
000002c0: 2f1a a03c 11f8 babd 851d 92bc 1faf 3d3d
000002d0: b9bf af3d 7ef1 4f3d 9a83 d0bb a00f 513d
000002e0: 4fbc cd3d 4457 f63d 3b93 babd 2719 803c
000002f0: 471a 713d 0881 0fbe 6ba5 d03b 46c8 9f3d
00000300: eaae c43b ba2c c3bd 0760 f338 44bd d5bb
00000310: 341e 0fbd d428 083d 4461 40ba 0d99 b73d
00000320: 5b88 e23d d0a6 3abe ee4a 07bd dbf7 ac3d
00000330: da4c 18be e0be 1abe 32a6 8fbc 1f67 17be
00000340: 95cc 363d 088a 65bd 6c22 b43d 46ab 82bd
00000350: ec23 69bd 176a 3f3e ce0f 6fbd 9a5f ac3d
00000360: fea6 1bbe 5ec9 d5bd 732b 943d 81e7 d23d
00000370: b7d8 cd3c 6058 493d b974 853d a6b3 a13d
00000380: 6371 e7bd 8af5 743d 62fa 11be 8e01 343d
00000390: 425e 893d 297d 51bd bce0 013e 490e fcbd
000003a0: 06c7 97bc 39a6 473d fdb1 c53d 6c3f 763d
000003b0: ee8a 10bd 3d85 eb3d dd95 21bc 80c3 133d
000003c0: f3ff 05bc 33b4 083e 9679 27be 6488 e33c
000003d0: 0002 98bd 506d 97bd 4447 8a3c eee8 9e3d
000003e0: f383 b3bd 2866 163d 3a4b bb3d 48a0 c5bc
000003f0: b629 13be acf9 edbd 55d1 a0bd 208d 90bd

mixture_net.mol_attn_layers.0.self_attn_layer.in_proj_bias f4 [288]
-0.01447005 0.0065407213 0.07484813 -0.010740411 -0.012741647 -0.008649555 0.004031762 0.009349595
-0.0054957364 -0.039035268 -0.020065375 0.042708047 0.031200182 -0.0031395133 -0.0075556673 -0.017749913
0.015764903 -0.0018256453 -0.028496267 -0.03281035 0.023471074 -0.013582923 -0.010876459 -0.041456554
0.028197939 0.013840096 0.017530028 -0.03043001 0.013655255 -0.035482995 0.04942885 -0.041610207
0.001079957 -0.01917397 -0.034727003 0.03235054 -0.0031574348 -0.022873601 -0.008154197 0.012008507
-0.053670313 0.045591727 0.009130299 8.869521e-06 -0.043157052 0.00016963053 -0.042758398 -0.020978825
-0.010135928 0.030533893 0.0026813205 -0.009337437 -0.060178876 0.0025645078 0.004028484 0.0014185279
-0.029573957 0.0028457246 -0.019612687 0.00852888 0.025185514 -0.02360269 -0.0024000623 -0.013367241
-0.002870117 -0.028933916 -0.019991344 0.0067016073 0.00710394 0.022252318 -0.024054103 -0.014759875
0.010505253 -0.009195013 0.027657244 -0.021061204 0.0063933115 0.015589088 -0.008331169 -0.0080494
0.01846349 0.031293556 0.018178854 0.039879926 -0.030781936 0.0073067755 -0.004376934 -0.02287291
0.04152983 -0.004900251 0.036602154 0.0005509817 0.01578451 -0.0378932 -0.018149143 0.030212106
9.530692e-05 -3.2000968e-05 -0.00019601606 -5.210436e-05 -8.250855e-05 5.660176e-05 -0.00027426804 -0.00027028346
-8.006246e-05 -3.1772473e-05 -0.0001507099 -5.384561e-05 7.8437035e-05 2.4700743e-05 3.336173e-05 -4.964673e-05
6.9640526e-05 -2.6079588e-05 7.05047e-05 -0.00013802889 -9.1395785e-05 -6.863169e-05 -4.0183295e-05 -1.51577215e-05
-8.530059e-05 -3.588959e-05 -4.221591e-05 0.00017593398 4.6044997e-06 -0.00010494584 -6.764287e-05 0.00020700274
9.247928e-06 9.904193e-05 0.000115817296 -0.00027431516 5.33813e-06 -0.00028673862 6.031335e-05 -8.9894775e-06
-0.00013701973 -3.463159e-05 7.414419e-05 -2.0464933e-05 -5.4199445e-05 5.4934404e-05 -6.898626e-05 -1.0350632e-05
2.0622601e-05 -3.213296e-05 -8.522894e-05 -9.989435e-05 -0.000104757986 -7.9019155e-05 3.9139442e-05 -8.773977e-05
0.0001025701 0.00023993941 3.7848535e-05 8.1353515e-05 -0.0001079528 -0.00012642331 -1.7709029e-06 7.43597e-05
2.2866082e-06 -2.460899e-05 7.9546924e-05 9.711059e-05 1.3319231e-05 0.00023261292 5.476558e-05 -2.3548084e-05
-2.7216513e-05 1.3845956e-05 0.0001145537 3.8708295e-05 -5.0888766e-06 0.00012524305 -0.00015010487 5.480921e-05
3.5063626e-05 0.00012325 0.000112426154 8.4721854e-05 -8.381564e-06 4.15115e-06 -4.4559776e-05 9.881706e-05
-7.0112255e-05 -8.2392e-05 -2.4432704e-05 -0.00014070931 4.1774998e-05 -0.00019416203 -0.0001238039 0.00013868717
-0.0026506628 0.0058213565 0.008668724 0.013793967 0.020676108 -0.00387103 0.014152909 -0.0055757854
-0.013100787 0.0102923345 -0.006312397 0.02649064 -0.002892142 0.014387697 -0.000606959 0.0016659895
0.0104321 0.0028040917 -0.0092580775 -0.021391487 -0.0004399851 0.007154017 0.009881505 -0.003475578
-0.0075748763 0.0008843849 -0.0063638813 0.018552816 0.0057655666 0.0035270667 0.0066950577 0.0052930363
-0.014744187 -0.005882214 -0.0063860347 -0.013908038 -0.002198 0.0069229547 -0.0036210425 -0.011165101
0.0127836615 -0.008216996 0.004644857 0.012649985 -0.005728039 -0.020154 0.004742531 -0.012918758
-0.0050272825 -0.008059058 0.019475216 -0.01927041 -0.00079873577 0.006695867 -0.0097081205 0.0061603505
0.0011140677 0.012156803 -0.0112849185 0.0128823705 0.00018100013 0.005842152 -0.0012430022 0.003227974
00000000: ca13 6dbc 8c53 d63b fa49 993d 8cf8 2fbc
00000010: 57c2 50bc ddb6 0dbc df1c 843b 0b2f 193c
00000020: 9415 b4bb 72e3 1fbd 2460 a4bc a2ee 2e3d
00000030: 8697 ff3c 4bc0 4dbb 8895 f7bb 4468 91bc
00000040: 6625 813c 7e4a efba 0171 e9bc 2564 06bd
00000050: 6946 c03c e98a 5ebc 2d33 32bc 59ce 29bd
00000060: 5dff e63c 92c1 623c 229b 8f3c 5b48 f9bc
00000070: 4aba 5f3c 9e56 11bd e875 4a3d 776f 2abd
00000080: 588d 8d3a bb12 9dbc e73d 0ebd 0082 043d
00000090: f7ec 4ebb 6b61 bbbc 2e99 05bc 54bf 443c
000000a0: 67d5 5bbd 64be 3a3d 4097 153c 4dce 1437
000000b0: 73c5 30bd d9de 3139 6e23 2fbd c9db abbc
000000c0: 2a11 26bc 3722 fa3c 18b9 2f3b 0dfc 18bc
000000d0: 207e 76bd 4d11 283b 6001 843b e6ed b93a
000000e0: 1545 f2bc 567f 3a3b c9aa a0bc b7bc 0b3c
000000f0: da51 ce3c 6e5a c1bc 5d4a 1dbb 4602 5bbc
00000100: 9318 3cbb d206 edbc e3c4 a3bc 2899 db3b
00000110: 2bc8 e83b 7e4a b63c 1c0d c5bc 67d3 71bc
00000120: 3a1e 2c3c aea6 16bc 7291 e23c 8c88 acbc
00000130: fc7e d13b 6069 7f3c 757f 08bc a1e1 03bc
00000140: bf40 973c ac2d 003d d2eb 943c 2259 233d
00000150: 662a fcbc ad6d ef3b 626c 8fbb f85f bbbc
00000160: 2f1b 2a3d 4992 a0bb 24ec 153d c26f 103a
00000170: 844e 813c e635 1bbd 83ad 94bc 617f f73c
00000180: 83df c738 c738 06b8 a989 4db9 a18a 5ab8
00000190: 7108 adb8 ad67 6d38 a2cb 8fb9 d5b4 8db9
000001a0: 35e7 a7b8 6f43 05b8 e107 1eb9 49d8 61b8
000001b0: 907e a438 7134 cf37 e3ed 0b38 c53b 50b8
000001c0: f90b 9238 7dc5 dab7 ecdb 9338 d9bb 10b9
000001d0: bdab bfb8 5cee 8fb8 7c8a 28b8 eb4d 7eb7
000001e0: 68e3 b2b8 2788 16b8 fd10 31b8 eb7a 3839
000001f0: 5a80 9a36 5e16 dcb8 7ddb 8db8 e00e 5939
00000200: 8c27 1b37 bbb4 cf38 f0e2 f238 f5d1 8fb9
00000210: 301e b336 6855 96b9 f7f8 7c38 83d1 16b7
00000220: f4ac 0fb9 6341 11b8 dc7d 9b38 1cac abb7
00000230: 3654 63b8 5e69 6638 b7ac 90b8 a0a7 2db7
00000240: b3fe ac37 81c6 06b8 f0bc b2b8 5f7e d1b8
00000250: 84b1 dbb8 16b7 a5b8 a829 2438 ee00 b8b8
00000260: e71a d738 3f98 7b39 8ebf 1e38 569c aa38
00000270: b864 e2b8 8090 04b9 c3af edb5 8ff1 9b38
00000280: a173 1936 676f ceb7 6ed2 a638 daa7 cb38
00000290: a975 5f37 8ee9 7339 18b4 6538 2089 c5b7
000002a0: 044f e4b7 ee4b 6837 8d3c f038 b75a 2238
000002b0: 1ec1 aab6 ad53 0339 7865 1db9 f1e2 6538
000002c0: 4811 1338 ac3c 0139 55c6 eb38 b3ac b138
000002d0: 8b9e 0cb7 1b4a 8b36 b2e5 3ab8 013c cf38
000002e0: 3b09 93b8 dec9 acb8 d5f4 ccb7 5e8b 13b9
000002f0: 9037 2f38 f997 4bb9 5bd1 01b9 8e6c 1139
00000300: beb6 2dbb 14c1 be3b 4407 0e3c 1700 623c
00000310: f160 a93c 1bb1 7dbb 9ae1 673c 14b5 b6bb
00000320: afa4 56bc 2ea1 283c 39d8 cebb e602 d93c
00000330: 178a 3dbb 60ba 6b3c 541c 1fba 555d da3a
00000340: 66eb 2a3c dac4 373b 31af 17bc 333d afbc
00000350: cdad e6b9 3f6c ea3b 09e6 213c 86c6 63bb
00000360: ab36 f8bb 11d6 673a 1b88 d0bb 13fc 973c
00000370: 14ed bc3b 5c26 673b 3762 db3b 3571 ad3b
00000380: 9a91 71bc 96bf c0bb f141 d1bb 8ade 63bc
00000390: 520c 10bb f4d9 e23b 034f 6dbb d4ed 36bc
000003a0: 9072 513c 94a0 06bc e233 983b e241 4f3c
000003b0: 46b2 bbbb 001a a5bc 3c67 9b3b 33a9 53bc
000003c0: e7bb a4bb 240a 04bc 7d8a 9f3c fbdc 9dbc
000003d0: 4062 51ba 0169 db3b cf0e 1fbc c4dc c93b
000003e0: e905 923a 542d 473c 61e4 38bc 9410 533c
000003f0: daca 3d39 866f bf3b 3cec a2ba 6b8c 533b

mixture_net.mol_attn_layers.0.self_attn_layer.out_proj.weight f4 [96, 96]
-0.08038396 -0.03261127 0.07947516 -0.04529609 -0.04524951 -0.09265421 -0.0131149525 0.08626595
0.041272234 -0.14504066 -0.062765315 -0.026392296 -0.05335742 0.13633731 -0.084896706 0.10379998
0.07580664 0.095734775 0.02650532 -0.020173967 -0.092261456 -0.039376512 0.07444917 0.05229341
0.025971964 0.079320334 -0.11950237 -0.10313653 -0.0016606064 0.078978956 -0.107530534 0.0026354373
-0.14643984 0.17417648 -0.04892644 0.031633608 0.011941433 -0.0039620954 0.04734692 -0.00405597
0.018391684 0.10704252 0.093621746 0.012786361 0.017939022 0.0070842607 -0.028153228 -0.033431906
-0.03804655 -0.051605657 -0.05300852 0.10257768 0.04405144 0.042931497 0.018845329 0.011264208
0.07693253 -0.1013431 0.08604132 0.046734408 0.08888437 -0.13921009 -0.03964497 -0.05644319
-0.08480829 0.05172873 -0.035339903 0.03797131 -0.13311301 -0.024476564 -0.094314046 -0.081164494
0.012293608 0.042682614 -0.10688144 -0.01716665 0.12245112 0.04241175 -0.086789876 0.04754623
-0.03450849 0.04928982 0.04257421 -0.00057841244 -0.07175248 -0.02479922 0.024747737 -0.039329454
0.054606818 -0.12868708 0.09777287 0.11248473 0.05243003 0.039407995 -0.087153405 0.0075320518
-0.029492859 0.09581291 -0.008846941 0.021739407 -0.06342067 0.062959045 -0.008198288 0.113664135
0.113580815 -0.06777329 -0.052894134 -0.08230307 -0.028863542 0.022104254 -0.0037381663 0.009449175
0.03299516 0.03615329 0.045518644 0.02569271 -0.032379866 0.11919268 -0.020511245 0.050827526
0.10182948 0.07574965 -0.051255506 -0.055053983 0.053674363 0.021539072 -0.06507195 0.026417717
-0.0051440634 0.07543114 0.067955524 -0.025441386 0.08439736 -0.0053158198 -0.030400878 -0.010380222
0.021562997 -0.073022395 0.02416409 -0.039032795 -0.029637318 -0.04911802 0.09161326 0.09159028
-0.073521145 0.02901343 -0.10698004 0.027271288 0.0239746 0.095946185 0.060471036 -0.00813807
0.08451118 -0.035534997 0.07352368 -0.009036669 0.04438328 -0.08672635 -0.004227274 -0.065647095
-0.018266004 -0.05590821 -0.052052222 -0.037869893 -0.07170489 -0.10150506 0.09495711 0.031572986
0.0056761396 0.08061892 -0.023089517 -0.013881241 0.21625112 0.033824034 0.011574772 -0.12390758
0.087313384 0.014310091 -0.02039935 -0.016312435 0.0072594336 0.05106613 0.028622175 0.059679475
0.05146047 -0.119905695 0.019973364 -0.06298039 -0.025489124 -0.06779194 -0.09500986 0.017691625
0.011000285 -0.10330896 -0.11873486 -0.09583231 -0.027637323 -0.09177697 -0.012110541 0.03125816
0.059087493 0.01691107 -0.1133077 -0.011866197 -0.0103586195 -0.08231605 0.0039897445 -0.09784223
-0.075304456 0.014857376 0.099264756 0.110801175 -0.15557049 0.09417674 -0.04492461 -0.02415621
0.044511195 -0.019992394 -0.082604714 -0.039810635 -0.014196098 0.09792647 0.0031389697 -0.009602168
0.041518386 -0.04616806 0.0062039024 -0.06440604 0.12536623 0.091634355 0.08679663 0.13883102
-0.0052093593 0.1255246 -0.013170223 0.039623465 -0.09142279 0.015646907 0.04244588 -0.082244165
-0.066232994 0.02147747 0.030507198 -0.010194863 0.0021831081 -0.04119761 0.010310274 0.08856
0.043717906 -0.032713227 0.10049704 -0.11419562 0.048237763 -0.0904343 0.08620976 -0.08857363
00000000: 58a0 a4bd 6593 05bd dfc3 a23d 6588 39bd
00000010: 8d57 39bd 7ec1 bdbd 19e0 56bc 34ac b03d
00000020: 130d 293d 8a85 14be 1a8b 80bd a834 d8bc
00000030: 4f8d 5abd 029c 0b3e 53de adbd 1595 d43d
00000040: 8340 9b3d 9810 c43d af21 d93c e043 a5bc
00000050: 93f3 bcbd 4449 21bd ce78 983d 9d31 563d
00000060: 28c3 d43c b372 a23d a9bd f4bd 3f39 d3bd
00000070: b4a8 d9ba b8bf a13d f838 dcbd 4db7 2c3b
00000080: 53f4 15be 525b 323e 1767 48bd 3e92 013d
00000090: 00a6 433c 77d4 81bb d8ee 413d f1e7 84bb
000000a0: 28aa 963c 1c39 db3d c2bc bf3d e37d 513c
000000b0: dbf4 923c 1623 e83b 99a1 e6bc e5ef 08bd
000000c0: b3d6 1bbd 7460 53bd 761f 59bd 3f14 d23d
000000d0: 486f 343d f0d8 2f3d 8561 9a3c 838d 383c
000000e0: cd8e 9d3d f98c cfbd 6e36 b03d 946c 3f3d
000000f0: 0209 b63d 178d 0ebe c462 22bd f930 67bd
00000100: f8af adbd 81e1 533d 93c0 10bd ce87 1b3d
00000110: c74e 08be 1383 c8bc b927 c1bd 9239 a6bd
00000120: 216b 493c f7d3 2e3d a8e4 dabd 13a1 8cbc
00000130: a7c7 fa3d f1b7 2d3d e4be b1bd d6bf 423d
00000140: c658 0dbd 1fe4 493d 4b62 2e3d 9aa0 17ba
00000150: f7f2 92bd bc27 cbbc c4bb ca3c ec17 21bd
00000160: 66ab 5f3d 8cc6 03be 243d c83d 655e e63d
00000170: dfc0 563d 476a 213d 7c7d b2bd 6ecf f63b
00000180: 029b f1bc 8f39 c43d c3f2 10bc d716 b23c
00000190: b2e2 81bd acf0 803d 1d52 06bc bec8 e83d
000001a0: 0f9d e83d b9cc 8abd 85a7 58bd 838e a8bd
000001b0: 3c73 ecbc fb13 b53c 06fc 74bb b6d0 1a3c
000001c0: ef25 073d 7915 143d c271 3a3d 8579 d23c
000001d0: c0a0 04bd 4b1b f43d 3307 a8bc 8630 503d
000001e0: f98b d03d a222 9b3d 4bf1 51bd 4980 61bd
000001f0: a6d9 5b3d b572 b03c 7144 85bd f869 d83c
00000200: 888f a8bb a47b 9a3d 442c 8b3d 746a d0bc
00000210: 86d8 ac3d 5430 aebb 430b f9bc cf11 2abc
00000220: e2a4 b03c c48c 95bd c5f3 c53c dae0 1fbd
00000230: f6c9 f2bc fa2f 49bd bc9f bb3d af93 bb3d
00000240: 4192 96bd 93ad ed3c 5a18 dbbd 0968 df3c
00000250: 6166 c43c 6f7f c43d 7ab0 773d 8a55 05bc
00000260: 3314 ad3d 258d 11bd 9593 963d 890e 14bc
00000270: 3ecb 353d 969d b1bd f284 8abb fc71 86bd
00000280: 96a2 95bc 0200 65bd b634 55bd 761d 1bbd
00000290: 03da 92bd e3e1 cfbd e078 c23d ad52 013d
000002a0: e9fe b93b 881b a53d 3a26 bdbc 256e 63bc
000002b0: ef70 5d3e 128b 0a3d 1da4 3d3c 42c3 fdbd
000002c0: 5cd1 b23d df74 6a3c 8a1c a7bc a8a1 85bc
000002d0: 8be0 ed3b b82a 513d 0d79 ea3c 7772 743d
000002e0: 37c8 523d 1e91 f5bd 2e9f a33c ddfb 80bd
000002f0: 91ce d0bc 80d6 8abd 8894 c2bd 07ee 903c
00000300: 8a3a 343c a693 d3bd 432b f3bd bb43 c4bd
00000310: ab67 e2bc 90f5 bbbd 4a6b 46bc 8e08 003d
00000320: ba05 723d 1689 8a3c de0d e8bd 706a 42bc
00000330: 33b7 29bc 5195 a8bd 67bc 823b 8261 c8bd
00000340: 3939 9abd 5a6c 733c 524b cb3d baeb e23d
00000350: df4d 1fbe bcdf c03d de02 38bd 3ee3 c5bc
00000360: 5f51 363d 17c7 a3bc a92c a9bd 7a10 23bd
00000370: c096 68bc ac8d c83d 2cb7 4d3b 6952 1dbc
00000380: 2f0f 2a3d b81a 3dbd 1b4a cb3b 50e7 83bd
00000390: 0160 003e cbaa bb3d 6ec2 b13d b829 0e3e
000003a0: 46b3 aabb 8589 003e ebc7 57bc 374c 223d
000003b0: df3b bbbd f12d 803c bbdb 2d3d a16f a8bd
000003c0: 2aa5 87bd 85f1 af3c 3bea f93c 5b08 27bc
000003d0: 7a12 0f3b d3be 28bd 6cec 283c f25e b53d
000003e0: 8c11 333d 4efe 05bd 64d1 cd3d 65df e9bd
000003f0: f694 453d 9e35 b9bd be8e b03d 1766 b5bd

mixture_net.mol_attn_layers.0.self_attn_layer.out_proj.bias f4 [96]
0.0057352553 -0.009477381 0.005679046 -0.00411811 0.013122946 1.0730947e-06 0.0071089594 -0.0110015925
0.0017819358 0.0069947084 -0.006823338 -0.010866413 0.0068661547 -0.0027270408 -0.016359407 0.0008381252
0.0065143774 -0.00850897 0.003023051 -0.0043533235 0.0023834158 0.01604334 -0.010339525 0.004070893
-0.0051589245 -0.0011247102 -0.000649535 -0.0024789427 0.0074397065 0.0025973038 0.0003539299 -0.013317985
-0.006997859 0.022323385 0.0077956705 -0.0075662076 0.004757165 0.005173863 -0.01629593 0.006085902
-0.0072892616 -0.002774581 0.009987545 -0.011975964 -0.002320099 -0.006729289 0.007253638 -0.0034847548
-0.013645489 -0.014911988 -0.00859097 -0.0030853043 -0.013324908 0.006963415 0.0058591543 0.0007870185
-0.012491297 0.0040325737 -0.0020386195 -0.0043957066 -0.005412865 0.0021517742 0.0055399835 -0.004050384
0.0024686789 -0.0094446 0.0045395386 -0.0021758978 -0.0024722524 0.0022118997 -0.014680114 -0.011371756
-0.0004563035 -0.0034498966 0.0046984493 -0.0009685297 -0.013981764 0.007293272 0.003973433 -0.0010099896
-0.011183144 -0.011333561 -0.0059510614 0.0070425593 -0.004774597 -0.0040642014 0.010598596 -0.0026355989
0.0002017937 -0.0005768214 0.011432437 0.0002093416 -0.0012394196 -0.004653673 -0.0058891256 0.007296225
00000000: cfee bb3b 0447 1bbc 4a17 ba3b 36f1 86bb
00000010: a001 573c 4107 9035 46f2 e83b 0640 34bc
00000020: d88f e93a de33 e53b 4f96 dfbb 0a09 32bc
00000030: 7bfd e03b 27b8 32bb 2a04 86bc a1b5 5b3a
00000040: 8f76 d53b 3569 0bbc 611e 463b 53a6 8ebb
00000050: 1533 1c3b 536d 833c 1c67 29bc 2065 853b
00000060: 320c a9bb 036b 93ba 8e45 2aba c275 22bb
00000070: c8c8 f33b 8737 2a3b ab8f b939 ae33 5abc
00000080: 4c4e e5bb 88df b63c d372 ff3b f3ed f7bb
00000090: fee1 9b3b 8289 a93b 0b7f 85bc 3f6c c73b
000000a0: c2da eebb bfd5 35bb cda2 233c d536 44bc
000000b0: cd0c 18bb 5e81 dcbb edaf ed3b 7c60 64bb
000000c0: 5491 5fbc 6951 74bc 24c1 0cbc d132 4abb
000000d0: b750 5abc 5c2d e43b 26fe bf3b eb4f 4e3a
000000e0: 4ca8 4cbc ae23 843b 5c9a 05bb dc09 90bb
000000f0: 675e b1bb c804 0d3b c088 b53b 15b9 84bb
00000100: 8fc9 213b 86bd 1abc 69c0 943b 8299 0ebb
00000110: 8305 22bb 85f5 103b dc84 70bc 9a50 3abc
00000120: 053c efb9 a917 62bb 73f5 993b eee4 7dba
00000130: c513 65bc 66fc ee3b 9233 823b a161 84ba
00000140: 8139 37bc 66b0 39bc 1f01 c3bb 45c5 e63b
00000150: 3974 9cbb fe2c 85bb bca5 2d3c 03ba 2cbb
00000160: 9598 5339 d435 17ba 1e4f 3b3c b582 5b39
00000170: 0574 a2ba d77d 98bb 91f9 c0bb 2c15 ef3b

mixture_net.mol_attn_layers.0.addnorm1.norm.weight f4 [96]
1.0029554 1.024003 1.0135916 1.0291525 1.0632671 1.00836 1.0600902 0.99349564
0.99736124 1.0119941 1.0022881 1.0057857 1.0187678 1.0012095 1.0071765 1.0220734
1.0212802 0.9763578 0.97891533 0.9728801 1.078144 1.0084326 0.98884076 1.019708
1.0128956 1.0122296 1.0296156 1.060081 1.0471495 1.0172911 1.0011282 1.0137573
1.0022247 1.0608228 1.0625626 1.0478927 1.0179669 1.0034903 1.0041488 1.0180377
1.0201075 1.0277821 1.0171928 1.0931293 1.0310732 1.0504838 1.0018983 0.9827591
1.0324143 0.9728223 0.98439956 0.9653354 1.0317457 0.9633576 1.0300853 1.0544649
1.0219066 1.0026076 1.0261706 1.0081335 1.0177901 0.98111045 1.0172502 1.0272068
0.99221474 0.9942662 1.0192379 1.0285565 1.046012 1.0344914 1.0274657 1.0393867
1.0180186 1.0734553 1.0014582 1.0021365 1.0429281 0.9927474 1.0240093 1.0026228
1.02257 1.1001997 1.0411774 1.0181121 1.0153258 1.0041931 0.9806708 1.0295175
0.9842539 1.0078669 1.0502509 0.99045944 1.0066833 1.0033553 1.062304 1.0494998
00000000: d860 803f 8812 833f 5fbd 813f 45bb 833f
00000010: 2319 883f f111 813f 09b1 873f bb55 7e3f
00000020: 1153 7f3f 0689 813f fa4a 803f 96bd 803f
00000030: fc66 823f a227 803f 29eb 803f 4dd3 823f
00000040: 4fb9 823f 96f2 793f 329a 7a3f ac0e 793f
00000050: 9f00 8a3f 5214 813f ab24 7d3f cb85 823f
00000060: 90a6 813f bd90 813f 72ca 833f bcb0 873f
00000070: ff08 863f 9836 823f f824 803f cdc2 813f
00000080: e648 803f 0bc9 873f 0d02 883f 5921 863f
00000090: bd4c 823f 5f72 803f f387 803f 0f4f 823f
000000a0: e292 823f 5d8e 833f 6033 823f a9eb 8b3f
000000b0: 35fa 833f 4176 863f 343e 803f 1a96 7b3f
000000c0: 2726 843f e20a 793f 9c01 7c3f 3920 773f
000000d0: 3e10 843f 9b9e 763f d6d9 833f b5f8 863f
000000e0: d6cd 823f 7255 803f 8f59 833f 850a 813f
000000f0: f246 823f 0e2a 7b3f 4135 823f 837b 833f
00000100: c901 7e3f 3b88 7e3f 6376 823f bda7 833f
00000110: b9e3 853f 376a 843f ff83 833f a00a 853f
00000120: 6f4e 823f fc66 893f c82f 803f 0246 803f
00000130: ab7e 853f b224 7e3f bd12 833f f255 803f
00000140: 93e3 823f 58d3 8c3f 4d45 853f 7f51 823f
00000150: 32f6 813f 6689 803f 3e0d 7b3f 3bc7 833f
00000160: 10f8 7b3f c801 813f 9f6e 863f c08e 7d3f
00000170: 00db 803f f26d 803f 94f9 873f 0256 863f

mixture_net.mol_attn_layers.0.addnorm1.norm.bias f4 [96]
0.0063972427 -0.008114317 0.0037814004 -0.005500156 0.025286019 0.010247773 0.007351234 0.0010662702
0.013032552 0.009176324 -0.0026015744 -0.009974819 0.0045711324 -0.0035208964 -0.026366672 0.003312909
0.0046995254 -0.00050518534 0.0050084237 -0.013835644 -0.0045042154 0.01881796 -0.0075574983 0.014268946
-0.0036044756 0.0020393517 -0.0038167927 0.00024500932 -0.0062213885 0.013368976 0.0036362908 -0.017567104
-0.0033573029 0.034021024 0.008943743 -0.0074891313 0.006789751 0.0039526606 -0.015047813 0.008881785
-0.006796559 -0.0013463444 0.0018098102 -0.014690143 -0.0021728869 0.008855731 0.009996067 -0.0063478933
-0.014949226 -0.020523138 -0.004847331 0.008244573 -0.00740579 0.010394479 0.000787703 -0.0019791469
-0.0076071075 0.009591594 -0.0015029388 0.005537298 0.004612089 0.006490109 -0.0016029596 -0.0042856224
0.006552913 -0.012860463 0.00039601672 -0.0034090155 -0.0015293364 0.007775098 -0.008272812 -0.01974673
0.0016178613 -0.005218082 0.008353813 -0.007919357 -0.01405959 0.008754382 -0.009340214 0.008914355
-0.011506403 -0.0100343935 -0.008154912 0.009031654 -0.005238521 -0.0035125886 0.011481036 -0.0036906071
0.0071689053 -0.001914817 -0.002068582 -0.0028624425 0.0005477846 -0.0021328847 0.0006633234 0.011848458
00000000: f69f d13b eaf1 04bc 5fd1 773b a73a b4bb
00000010: a024 cf3c 46e6 273c 9fe2 f03b 17c2 8b3a
00000020: 7c86 553c 4b58 163c 2d7f 2abb 6c6d 23bc
00000030: 70c9 953b d7be 66bb ebfe d7bc 641d 593b
00000040: 7afe 993b 6a6e 04ba b41d a43b e6ae 62bc
00000050: 1998 93bb 1f28 9a3c e4a4 f7bb 4cc8 693c
00000060: 1139 6cbb a5a6 053b 2823 7abb 9874 8039
00000070: cadc cbbb 8d09 5b3c d64e 6e3b e3e8 8fbc
00000080: 3206 5cbb a159 0b3d c788 123c 6367 f5bb
00000090: 8f7c de3b 5285 813b 1a8b 76bc e884 113c
000000a0: abb5 debb d277 b0ba 2737 ed3a edae 70bc
000000b0: fe66 0ebb a117 113c 8bc6 233c fd01 d0bb
000000c0: 99ed 74bc 2420 a8bc 5cd6 9ebb 3f14 073c
000000d0: 45ac f2bb 9b4d 2a3c da7d 4e3a 93b4 01bb
000000e0: 0b45 f9bb 1026 1d3c 42fe c4ba 3972 b53b
000000f0: 0221 973b fbaa d43b 661a d2ba 686e 8cbb
00000100: d2b9 d63b b1b4 52bc 77a0 cf39 ca69 5fbb
00000110: 0474 c8ba 40c6 fe3b b08a 07bc e5c3 a1bc
00000120: 6b0e d43a 72fc aabb 6ede 083c 31c0 01bc
00000130: 325a 66bc 8a6e 0f3c b207 19bc 840d 123c
00000140: 5a85 3cbc 4c67 24bc 2e9c 05bc 81f9 133c
00000150: e6a7 abbb 7533 66bb f51a 3c3c 1dde 71bb
00000160: 23e9 ea3b 99fa faba 0c91 07bb d197 3bbb
00000170: 3499 0f3a dec7 0bbb e1e2 2d3a 0920 423c

mixture_net.mol_attn_layers.0.ffn.layers.0.weight f4 [96, 96]
-0.022628332 -0.039023492 -0.06475478 0.028096644 0.03906622 0.023161275 0.004938665 0.036714815
-0.075025946 0.109830655 0.034633975 0.0016860629 0.09978713 0.060806416 0.062506005 -0.020642078
0.07415454 0.03472913 0.10916035 0.060740165 0.0051563764 -0.09611203 0.05266496 0.015030967
0.007253932 -0.034523305 -0.048715178 -0.12201815 -0.098960854 -0.07078333 -0.053407013 -0.020037808
-0.07682103 -0.015911285 -0.027891105 0.019274587 -0.03788502 -0.018585104 -0.079461254 -0.0035682432
0.05344438 -0.074368894 -0.05910965 -0.013097699 -0.09081214 0.07034945 -0.049245644 -0.007369326
0.0072012125 0.051324725 0.066755846 -0.015727207 0.14104104 -0.07374992 -0.06175227 -0.1365236
0.01789197 -0.019321183 -0.08533342 0.020076161 0.07533815 0.09631101 0.011769055 0.056272153
-0.015845949 -0.038082402 0.015382955 -0.077944994 0.0836768 0.037087604 -0.0990529 0.14481218
0.059621833 0.017421735 -0.13752331 -0.026150944 -0.005559129 0.015755095 -0.008990004 -0.0082383035
-0.12580557 -0.113846034 -0.06103128 -0.0039968085 0.012595759 0.04835879 -0.00045343165 -0.06406322
0.059411895 0.033449534 0.0071803285 0.010687701 -0.002618702 -0.046846535 0.15082626 0.052411806
-0.02072518 -0.028982483 -0.043551996 -0.009339117 0.06260913 0.081560105 0.00876805 0.03304294
0.13891841 -0.07748736 -0.021567853 0.012644619 -0.007282061 0.13661595 -0.048442 0.09253787
-0.13955246 -0.062958404 0.015654674 0.053000055 -0.07031344 0.10189143 -0.08383317 0.046637826
-0.07077002 -0.04857536 -0.03956219 0.058056828 0.08548556 0.01731776 0.07150312 -0.0509546
-0.009370552 0.050012164 -0.055384483 0.014882261 0.09448208 0.08979386 0.0012306462 0.15238725
-0.130463 -0.095116235 -0.019588731 0.054992355 -0.03456397 -0.027331315 0.032730337 -0.04310055
0.05654846 0.109547146 0.13901904 -0.01985775 -0.10726533 0.12910034 0.030423548 -0.013495933
0.0035962714 -0.029757535 0.07403168 0.0026354408 -0.030157793 -0.14834003 -0.15202087 -0.19232069
-0.010573422 0.071708195 -0.13519683 -0.061974246 -0.10601113 0.17886154 -0.0068029175 -0.12743048
0.07171701 0.024058107 -0.0036828092 -0.03131136 0.006551776 -0.04055461 0.08775586 -0.048071522
0.05542354 -0.123360954 -0.0011691466 -0.018810675 0.037274234 0.06821401 0.07704852 -0.12846904
-0.003510995 -0.0025676007 -0.02716829 -0.014364073 -0.026808603 0.12104705 0.15043516 -0.114642546
-0.041783784 0.09213622 0.035638202 -0.048125528 -0.05173645 -0.06486582 -0.002525481 0.017510608
-0.030737836 -0.009534439 -0.085215196 0.0015871484 0.006141483 -0.13663185 -0.094463736 0.013764031
0.060583275 -0.058393456 0.09943655 0.08869759 0.0092661865 0.025426742 0.12688856 0.059049394
-0.046264276 0.025260855 0.07881936 0.093853705 0.06864685 0.077553496 -0.025996964 -0.0039348127
-6.386081e-05 0.07034103 0.09488123 -0.031349134 0.037279997 -0.122748956 -0.07747184 0.12342857
0.0058213677 0.06483871 0.00038784902 -0.06588592 -0.096342094 -0.0046040462 -0.17021787 0.106862836
-0.055678453 0.040594857 0.10551019 -0.061350606 -0.0074900733 0.034583334 -0.172248 -0.09416653
-0.0025251238 -0.02386209 0.0024631086 0.006014864 -0.106843695 -0.08439436 -0.08758984 0.039054368
00000000: 0d5f b9bc 19d7 1fbd 279e 84bd ef2a e63c
00000010: e703 203d b7bc bd3c 86d4 a13b 4662 163d
00000020: 34a7 99bd e5ee e03d 5bdc 0d3d e2fe dc3a
00000030: 325d cc3d 2610 793d 2603 803d 9319 a9bc
00000040: 56de 973d 2240 0e3d 768f df3d aeca 783d
00000050: d2f6 a83b 62d6 c4bd 37b7 573d 7244 763c
00000060: 64b2 ed3b 4f68 0dbd 9189 47bd a7e4 f9bd
00000070: fdab cabd daf6 90bd 50c1 5abd 5426 a4bc
00000080: 5854 9dbd 6258 82bc e37b e4bc bde5 9d3c
00000090: 532d 1bbd ca3f 98bc 95bc a2bd 30d9 69bb
000000a0: 7fe8 5a3d b84e 98bd f61c 72bd bb97 56bc
000000b0: b7fb b9bd 5f13 903d cdb5 49bd 637a f1bb
000000c0: 26f8 eb3b e039 523d 4ab7 883d 58d6 80bc
000000d0: 106d 103e 330a 97bd f3ef 7cbd d8cc 0bbe
000000e0: 2e92 923c 7547 9ebc 4ac3 aebd c376 a43c
000000f0: e34a 9a3d b53e c53d ffd2 403c a17d 663d
00000100: 5dcf 81bc 4bfc 1bbd ca08 7c3c a0a1 9fbd
00000110: be5e ab3d 2ce9 173d 3fdc cabd a549 143e
00000120: 0636 743d 07b8 8e3c e9d2 0cbe 813a d6bc
00000130: 5b29 b6bb d410 813c cf4a 13bc f3f9 06bc
00000140: 2dd3 00be 1c28 e9bd effb 79bd a9f7 82bb
00000150: 715e 4e3c de13 463d 91ba edb9 9433 83bd
00000160: e359 733d 6102 093d f648 eb3b 781b 2f3c
00000170: 879e 2bbb 27e2 3fbd 3372 1a3e c3ad 563d
00000180: dac7 a9bc ac6c edbc 9463 32bd 1903 19bc
00000190: 3739 803d fc08 a73d dea7 0f3c 0958 073d
000001a0: a140 0e3e b1b1 9ebd 11af b0bc 602b 4f3c
000001b0: 5b9e eebb 0de5 0b3e 1e6b 46bd 7f84 bd3d
000001c0: d7e6 0ebe 56f0 80bd 3b3e 803c 9616 593d
000001d0: 7e00 90bd 74ac d03d bab0 abbd 4e07 3f3d
000001e0: dfef 90bd f5f6 46bd f70b 22bd ffcc 6d3d
000001f0: 0e13 af3d fadd 8d3c 3a70 923d c5b5 50bd
00000200: f286 19bc 8ed9 4c3d d7da 62bd bad4 733c
00000210: d27f c13d d8e5 b73d a24d a13a 670b 1c3e
00000220: 1898 05be 4dcc c2bd 8c78 a0bc aa3f 613d
00000230: f392 0dbd ece5 dfbc 3f10 063d 348a 30bd
00000240: 5c9f 673d 415a e03d 025b 0e3e b8ac a2bc
00000250: edad dbbd e132 043e ce3a f93c 0c1e 5dbc
00000260: 6caf 6b3b 13c6 f3bc ec9d 973d 5cb7 2c3b
00000270: 7a0d f7bc 73e6 17be 5cab 1bbe b7ef 44be
00000280: 253c 2dbc bfdb 923d 0a71 0abe b5d8 7dbd
00000290: 5d1c d9bd 7b27 373e 02eb debb 237d 02be
000002a0: 5ee0 923d 8215 c53c 495b 71bb 5740 00bd
000002b0: 48b0 d63b 971c 26bd 58b9 b33d a5e6 44bd
000002c0: cb03 633d aba4 fcbd 0d3e 99ba d818 9abc
000002d0: deac 183d c9b3 8b3d 9dcb 9d3d 638d 03be
000002e0: b918 66bb 3145 28bb 0990 debc 4a57 6bbc
000002f0: b79d dbbc 84e7 f73d ad0b 1a3e b6c9 eabd
00000300: 7925 2bbd eab1 bc3d 5df9 113d 461f 45bd
00000310: 9ae9 53bd 5fd8 84bd 8a82 25bb 6872 8f3c
00000320: eacd fbbc 5636 1cbc 4e85 aebd dd07 d03a
00000330: 7e3e c93b 38e9 0bbe 3476 c1bd 8882 613c
00000340: 2b26 783d fa2d 6fbd 64a5 cb3d 15a7 b53d
00000350: 34d1 173c be4b d03c 13ef 013e c7dd 713d
00000360: 9c7f 3dbd daef ce3c 0b6c a13d 5f36 c03d
00000370: b896 8c3d 5ed4 9e3d 96f7 d4bc 9aef 80bb
00000380: 03ed 85b8 f50e 903d 1751 c23d f367 00bd
00000390: e9b2 183d ce63 fbbd 8ea9 9ebd 1ec8 fc3d
000003a0: 2cc1 be3b 28ca 843d 3758 cb39 32ef 86bd
000003b0: 014f c5bd 8add 96bb 984d 2ebe e7da da3d
000003c0: 170f 64bd cb46 263d ba15 d83d c64a 7bbd
000003d0: 4a6f f5bb 41a7 0d3d c861 30be 62da c0bd
000003e0: 8c7c 25bb 6e7a c3bc 1b6c 213b 5618 c53b
000003f0: ded0 dabd f3d6 acbd 4d62 b3bd 79f7 1f3d

mixture_net.mol_attn_layers.0.ffn.layers.0.bias f4 [96]
0.083326 -0.020306816 0.025402086 0.011151548 0.01094264 -0.06952367 -0.020166734 -0.024461288
-0.10800512 0.0007196044 -0.018410923 -0.090111054 0.0646298 0.06334659 0.08761392 -0.06085104
0.008739672 -0.09078141 0.0012859001 0.0638494 -0.112098336 -0.06925306 -0.08371937 -0.07613573
0.01609564 0.03995872 -0.09138373 -0.013718336 0.017702047 -0.09185232 0.020075902 -0.09641244
0.0089986725 0.030134583 0.0011275162 0.047225725 0.03349867 -0.036530964 0.017000407 0.026764119
0.03838398 0.016361957 -0.07759272 -0.01871743 -0.08571224 0.06602797 -0.08917157 0.04612281
-0.10429432 -0.03990411 -0.036237724 0.049134716 0.061596956 -0.0955163 0.0006613581 0.031788792
-0.08540031 0.022717416 0.01380625 0.07639643 -0.005390675 -0.08543634 -0.010054325 -0.02150636
0.045251794 -0.037110835 0.075946346 -0.072297476 -0.083869874 -0.038039386 0.0039399005 -0.009726821
0.0034457385 0.011556081 0.07193849 -0.120373555 0.026444351 -0.06834872 -0.05563976 -0.045679465
0.06475229 -0.044833798 -0.07311305 0.023971671 0.059540737 -0.10511629 -0.056896955 -0.07684987
0.065356605 -0.08388937 -0.09660195 -0.03472737 0.05241938 -0.065327905 0.040190425 0.052836735
00000000: d2a6 aa3d 7b5a a6bc 0918 d03c fbb4 363c
00000010: c248 333c 6d62 8ebd b534 a5bc 0a63 c8bc
00000020: ca31 ddbd d5a3 3c3a 81d2 96bc 258c b8bd
00000030: a15c 843d dbbb 813d ed6e b33d f13e 79bd
00000040: d730 0f3c 9beb b9bd a68b a83a 79c3 823d
00000050: d093 e5bd 8cd4 8dbd 1075 abbd 0ded 9bbd
00000060: 01db 833c c1ab 233d 6527 bbbd dfc2 60bc
00000070: e203 913c 121d bcbd 3876 a43c e373 c5bd
00000080: 2b6f 133c cddc f63c 2ac9 933a c36f 413d
00000090: e735 093d 7ea1 15bd 7044 8b3c 6d40 db3c
000000a0: 8538 1d3d 8309 863c efe8 9ebd 4c55 99bc
000000b0: e689 afbd ac39 873d 969f b6bd 46eb 3c3d
000000c0: 4398 d5bd 7e72 23bd 026e 14bd 7c41 493d
000000d0: 174d 7c3d 0d9e c3bd fe5e 2d3a f734 023d
000000e0: 5ce6 aebd e019 ba3c 9c33 623c bb75 9c3d
000000f0: 42a4 b0bb 3ff9 aebd e5ba 24bc 1b2e b0bc
00000100: f259 393d 8801 18bd c289 9b3d b310 94bd
00000110: f8c3 abbd 30cf 1bbd 481a 813b 3f5d 1fbc
00000120: e6d1 613b b755 3d3c 7d54 933d 6986 f6bd
00000130: d3a1 d83c 6afa 8bbd 84e6 63bd 641a 3bbd
00000140: d99c 843d a5a3 37bd 4bbc 95bd 3d60 c43c
00000150: fde0 733d 3647 d7bd c80c 69bd 7763 9dbd
00000160: afd9 853d 31ce abbd 3ed7 c5bd 493e 0ebd
00000170: b4b5 563d a3ca 85bd b79e 243d 556b 583d

mixture_net.mol_attn_layers.0.ffn.layers.2.weight f4 [96, 96]
0.08031168 0.042180564 0.032240804 0.029516267 0.117893174 -0.019631088 -0.015013427 -0.003243924
0.037603624 -0.08248271 -0.045899697 0.0099658305 -0.06472823 0.054945458 -0.005166988 0.027011206
-0.06855936 -0.045512132 0.05749097 -0.06676938 -0.09616049 -0.08652336 -0.053245552 -0.09746774
0.08300583 -0.008021088 -0.09352939 0.05670364 -0.0906707 -0.0057342383 0.028707756 -0.00433741
0.028357983 -0.01772345 0.073817916 0.081654474 0.0054769632 -0.1078909 0.089556485 -0.05923014
-0.07835023 -0.074098855 0.0521789 0.0044922535 -0.085181385 -0.044279538 0.10858938 -0.08822671
0.078353554 -0.012967788 -0.058141124 -0.017918406 0.12904918 -0.074885584 0.14002322 0.067753896
-0.11696155 -0.037119146 0.06340284 -0.057264928 0.048442863 -0.01472882 0.044157196 -0.0026313402
-0.06787612 -0.0838747 0.03272231 -0.06145612 0.012841804 -0.027887532 -0.03233602 -0.065450534
-0.13794394 0.04219466 -0.095081665 0.063009754 0.08470523 -0.011384149 0.004212989 -0.0330118
-0.080757454 -0.015634442 0.010622456 -0.0073996065 0.09622596 0.054026145 0.009196057 0.013556826
0.00544654 -0.08349053 0.029406633 0.045352954 0.017195925 -0.030556403 0.10973775 -0.092467844
0.05568373 0.06469345 -0.09801745 0.033483427 -0.0124491 0.112618215 -0.035475872 -0.15201648
-0.017704796 -0.094988026 -0.14620689 -0.05055539 -0.1068873 -0.023341501 -0.040985517 0.10517842
-0.030736087 -0.013757953 0.02935479 -0.06717263 -0.006891197 0.043868124 0.14544114 -0.101679415
0.04276296 0.029790174 0.11240414 0.090388544 -0.011276968 -0.0045536356 0.16297151 -0.062221404
0.11726541 -0.008367738 0.09464167 0.013149147 -0.059011213 0.025709635 0.12838154 -0.018340807
0.01625487 -0.10648757 -0.028945843 0.093102165 -0.12394038 0.045346264 0.16761419 0.008336529
-0.03499831 -0.058060933 0.12031207 -0.03699589 0.1573855 -0.10433267 0.13495407 0.0059618773
-0.014656186 0.07695917 0.00075089076 -0.01728434 -0.021576846 -0.04149192 -0.028695606 -0.029253254
-0.035828885 -0.13799545 -0.088390365 0.01169564 -0.034784418 0.05488868 0.038541384 0.004986343
0.07686389 -0.0693357 -0.08816511 0.096468255 -0.053269185 0.024364524 -0.005621285 -0.10000734
0.028180407 0.082561724 0.014793486 0.007860984 0.16532964 -0.063283645 -0.0009359746 0.0043654074
0.04778193 0.053149484 -0.027192771 0.08292225 0.055806287 -0.1255829 -0.051148083 -0.076791056
-0.07435196 0.029099353 -0.08983648 0.05245585 -0.070547044 0.0052479915 -0.025772173 0.09172944
-0.12557475 -0.016935296 -0.08179966 -0.10525685 0.018323662 0.067014605 -0.09857706 -0.026560202
-0.037521426 -0.1058049 -0.011190328 0.14924163 -0.017991817 -0.017486798 0.10693787 0.04557168
-0.07673632 -0.024884678 0.11958921 0.0066951336 -0.015359957 -0.051088165 0.027033346 -0.04523861
-0.06569581 -0.050570037 -0.034606114 0.09696823 0.04290697 -0.018920576 -0.061592128 0.023866711
0.05046829 0.049251378 -0.08867304 0.091161706 0.07922076 0.035590775 0.02817396 -0.032621887
-0.04921967 0.056377176 0.05519178 -0.04062797 0.10084026 -0.033026554 0.05812096 -0.08013453
-0.0024499772 0.079179674 0.008820099 -0.07559218 -0.025022706 0.097022936 -0.011292574 0.08234786
00000000: 737a a43d 87c5 2c3d ef0e 043d 19cc f13c
00000010: fa71 f13d 60d1 a0bc e0fa 75bc 0398 54bb
00000020: 4206 1a3d b2ec a8bd 5201 3cbd b947 233c
00000030: 3c90 84bd 7d0e 613d d64f a9bb 9b46 dd3c
00000040: da68 8cbd ee6a 3abd a77b 6b3d 62be 88bd
00000050: caef c4bd 2933 b1bd 0218 5abd 2b9d c7bd
00000060: f6fe a93d e26a 03bc 568c bfbd 1342 683d
00000070: 8fb1 b9bd 47e6 bbbb 872c eb3c d520 8ebb
00000080: 004f e83c c530 91bc d92d 973d 763a a73d
00000090: 1978 b33b e7f5 dcbd 6469 b73d 4e9b 72bd
000000a0: 1676 a0bd 24c1 97bd 8bb9 553d c133 933b
000000b0: 9473 aebd 765e 35bd 1c64 de3d 35b0 b4bd
000000c0: d477 a03d d876 54bc 6325 6ebd 9fc9 92bc
000000d0: 7825 043e 9d5d 99bd 3f62 0f3e 8ec2 8a3d
000000e0: 8a89 efbd 3f0a 18bd 59d9 813d a18e 6abd
000000f0: 066c 463d 2651 71bc 2dde 343d 9072 2cbb
00000100: a302 8bbd 80c6 abbd d407 063d 6ab9 7bbd
00000110: 6e66 523c 6574 e4bc c672 04bd ee0a 86bd
00000120: 2d41 0dbe 4fd4 2c3d 2dba c2bd 420b 813d
00000130: f079 ad3d 9584 3abc 1d0d 8a3b 6237 07bd
00000140: 2a64 a5bd cd13 80bc cf09 2e3c 6678 f2bb
00000150: 1e12 c53d 854a 5d3d 0fab 163c 731d 5e3c
00000160: e478 b23b 15fd aabd 2ee6 f03c 05c4 393d
00000170: 78de 8c3c 6c51 fabc 2fbe e03d c85f bdbd
00000180: 9f14 643d 007e 843d 5fbd c8bd eb25 093d
00000190: 4ff7 4bbc 61a4 e63d 264f 11bd 35aa 1bbe
000001a0: a609 91bc 1589 c2bd 42b7 15be 2b13 4fbd
000001b0: bbe7 dabd ad36 bfbc 6ee0 27bd c967 d73d
000001c0: 3fca fbbc 0a69 61bc 7579 f03c ce91 89bd
000001d0: 8dcf e1bb 10af 333d 86ee 143e 4c3d d0bd
000001e0: 3728 2f3d 860a f43c 2434 e63d a11d b93d
000001f0: 08c3 38bc aa36 95bb 01e2 263e dfdb 7ebd
00000200: d928 f03d d618 09bc 7ed3 c13d 856f 573c
00000210: beb5 71bd 039d d23c 7376 033e 763f 96bc
00000220: ef28 853c 2816 dabd d51f edbc 59ac be3d
00000230: 74d4 fdbd 01bd 393d 0ea3 2b3e f095 083c
00000240: 635a 0fbd 4dd1 6dbd 2d66 f63d 0189 17bd
00000250: aa29 213e 5eac d5bd 6631 0a3e da5b c33b
00000260: 8020 70bc c59c 9d3d 6dd7 443a e397 8dbc
00000270: edc1 b0bc 6ef3 29bd 0c13 ebbc 85a4 efbc
00000280: 4fc1 12bd ae4e 0dbe 0206 b5bd 129f 3f3c
00000290: 1b7a 0ebd f4d2 603d 92dd 1d3d 7a64 a33b
000002a0: d16a 9d3d e0ff 8dbd e98f b4bd 2691 c53d
000002b0: ca30 5abd 1c98 c73c c232 b8bb a6d0 ccbd
000002c0: 99da e63c 1f16 a93d 6160 723c 5bcb 003c
000002d0: 2c4c 293e db9a 81bd 315c 75ba b10b 8f3b
000002e0: fcb6 433d 46b3 593d 60c3 debc 24d3 a93d
000002f0: 2295 643d ce98 00be a780 51bd a144 9dbd
00000300: d745 98bd c461 ee3c 30fc b7bd f2db 563d
00000310: f87a 90bd 58f7 ab3b 2a20 d3bc a5dc bb3d
00000320: ab96 00be e4bb 8abc 9586 a7bd e790 d7bd
00000330: 811b 963c f43e 893d c5e2 c9bd c894 d9bc
00000340: 11b0 19bd 3db0 d8bd a357 37bc ccd2 183e
00000350: 9363 93bc 7940 8fbc 3e02 db3d 5fa9 3a3d
00000360: ef27 9dbd f4da cbbc 30eb f43d da62 db3b
00000370: 54a8 7bbc d341 51bd 0975 dd3c 1f4c 39bd
00000380: 868b 86bd 8722 4fbd 24bf 0dbd 4897 c63d
00000390: 38bf 2f3d 53ff 9abc 0748 7cbd 1f84 c33c
000003a0: d6b7 4e3d d0bb 493d 369a b5bd fdb2 ba3d
000003b0: 7e3e a23d a2c7 113d 14cd e63c 879e 05bd
000003c0: 919a 49bd c1eb 663d c710 623d 8469 26bd
000003d0: 5785 ce3d da46 07bd 3e10 6e3d 931d a4bd
000003e0: cc8f 20bb f428 a23d 2d82 103c 13d0 9abd
000003f0: 6bfc ccbc f6b3 c63d 7d04 39bc ffa5 a83d
