scripts_chemix/results/chemix_ensemble/top9/chemix.pt (torch, 495802 bytes, 21 tensors)

input_net.weight f4 [96, 196]
00000000: b97b 583d 6ec7 99bd 8dd8 d13c e172 493d
00000010: e8b0 453d 41b7 eebd dd5f 98bd ddfa b9bd
00000020: 72f7 14bd ec1d 1d3d 5066 5ebc f12a 073d
00000030: 20f5 88bd 549a a53c 9aa5 5e3d 02ac f03b
00000040: bae6 9a3d 2a92 2c3d 7559 abbd 51e1 da3d
00000050: 4f47 6238 e712 5a3c 9900 79bd 0e69 393d
00000060: d059 5f3d 58a9 dfbc 9d55 773c 517e 223c
00000070: 63d6 5fbd d445 4fbd 7ac7 963c 7794 afbc
00000080: e6ea c6bb 802b 653b 5edd 193d b456 413d
00000090: b703 003e 8e69 90bd c33c 373d e2aa 763d
000000a0: 8037 7b3c 0c0b 77bd 890a 51bd 3d4f bcbc
000000b0: 68c8 c13c 8e39 973d 950d 8b3d da40 f83c
000000c0: 383d fb3c c681 0fbd f396 f63c bfe4 a6bc
000000d0: fe90 f8bc ba36 51bd 1d99 68bc b97a b3b9
000000e0: 6baf 3b3d 95f1 0cbd b794 62bd 11f4 343d
000000f0: 00d7 c3bb 148c 12bd 1d38 18bd f810 88bc
00000100: 7e18 7dbd 4ece 8c3c 3057 21bd 646a ae3d
00000110: a72b 903d bbe6 b5bc ce7b 643d 122a 1fbd
00000120: 42dd 8a3c 4b5b 9a3d 8fb6 bd3c 9144 f03b
00000130: 3ac8 f23c 8b05 a83d 6cb8 2fbb b0b9 96bc
00000140: 70fc 1bbd d4f8 3ebd 79cb 003d 1067 0a3d
00000150: ccd6 893d 864c 39bd f927 94bb 0587 c73c
00000160: c76a 253c 030e 4bbd 18ba 8ebd 949e 58bd
00000170: 3e0c 3e3c 17c2 013d 2951 40bd ac84 fbbc
00000180: d0b0 91b9 a32c 8fba ced2 463d 51be 253d
00000190: 240c d1bc 430a 1fba 713c 2fbd 8f0b a8bd
000001a0: 435c 8f3b 5a80 f5bc 2eba bcbd 6093 9d3a
000001b0: 4a50 d0bb 5ae5 bfbb 7623 86bd d6ba f03d
000001c0: 6138 acbd 230c 11bb 5377 7c3b 5e68 833c
000001d0: 2395 c7bd f770 93bc 0331 1e3d d924 c9bc
000001e0: 0cc5 5d3b da86 94bd 0ad4 d53c 5579 e7bc
000001f0: d68a a2bd ed06 673d ea6d 013d d4b6 abbb
00000200: df45 d6bc be16 10bd b9c6 abbd 5d02 4d3c
00000210: 5647 4a3c 4e74 b13c 98cc a3bd e33f b83d
00000220: 9cb3 9c3d 0446 84bd 19fa 1e3d 788d 27bc
00000230: 3e3a c4bc f8d3 633d 77d1 bf3c d904 a7bc
00000240: 0e6c 4dbc 453b 553d e4e4 b5bc 164d 7c3c
00000250: c36a c43b 0664 a8bc e0f0 84bd 6cc1 063d
00000260: 7ec4 8abb 7da2 083d 8171 49bc 4a92 eebd
00000270: 1f4f 24bd 5b17 9bbc ea06 cfbb 536e 49bc
00000280: 8b88 f83c a7e5 b83d 3e67 093d b47a 8e3d
00000290: efb5 a43d d8bf 843b d18d d83b 611b e4bb
000002a0: b48f 8e3d 3bb4 a13d 8b48 cdbd b0fa 9a3d
000002b0: 6b79 b73b 5513 c1bc 9289 9bbd 8da9 c3bd
000002c0: 86f9 94bd f66b 04bd 126b 9cbc e623 83bc
000002d0: d23c 46bd 0a50 81bd 8215 08bc ba8f b1bd
000002e0: 47c8 d739 ec94 b1bc 032e 653d b459 ee3d
000002f0: 2242 0f3d 30d1 4cbd 8c5c cebc b803 193d
00000300: e01d 913d c174 3a3c 65d7 bcbd b3e9 b4bc
00000310: 897a 413c 78ef 523d 5e3a c2bc af1d 03be
00000320: 13f6 4abd 32d3 51bb a328 60bd 2c20 52bb
00000330: e970 1a3d fe0f 183b 7c23 223d 5ebb 753d
00000340: 9a00 b43c 68cb a2bd c85f 543d c5a3 e93c
00000350: ae2a 29bd 11f5 d53c 6e1d 20bd cb9a 883d
00000360: 048d 993d 0470 dfbd 8746 96bd 75ec ca3c
00000370: 86f1 7fbc 623c 183c fef7 42bd d0ea af3d
00000380: 5680 27bb ff5a 08bc a99a 74bd d5af d13c
00000390: 9a36 943c e8ae af3d 98e2 2bbd 15c9 6cbd
000003a0: 1dce 833d e165 cf3c 41a2 4dbd a112 70ba
000003b0: acd4 43bd e2ff ad3d bfc6 9c3b b107 923d
000003c0: 8949 be3c 2ee8 103c 86e7 1cbc 979f 723d
000003d0: d5da 6cbc 6693 813d 945f 43bd 44a7 203b
000003e0: f8c1 1e3d 8dd3 bfbd 4ad3 6bbd 4b22 b2bd
000003f0: 0414 433b 7208 83bc e418 6f3d 58b5 54bd
0.052852366 -0.07508741 0.025615955 0.049181823 0.048264414 -0.11656047 -0.074401595 -0.090810515
-0.036368795 0.038358614 -0.013574198 0.032999936 -0.06687379 0.020215191 0.05435715 0.0073447237
0.07563539 0.04213158 -0.08366672 0.10687507 5.394901e-05 0.013310171 -0.060791586 0.045266204
0.05452901 -0.02730243 0.015096095 0.0099178115 -0.054647814 -0.050603703 0.018405665 -0.021433098
-0.0060704825 0.0034968555 0.037564628 0.047201827 0.12501417 -0.07051383 0.04473568 0.06022156
0.015333056 -0.06031327 -0.051035438 -0.022987003 0.023655131 0.073840246 0.067897 0.030304361
0.03066884 -0.03503587 0.030101275 -0.020372747 -0.030342575 -0.051077582 -0.014196661 -0.00034232976
0.04582159 -0.034410078 -0.055317607 0.044178072 -0.0059765577 -0.03577812 -0.03716289 -0.016609654
-0.061790936 0.017188217 -0.03938979 0.08516386 0.07039576 -0.022204747 0.05578213 -0.03885848
0.016951207 0.07536944 0.02315834 0.0073323925 0.029636491 0.08204182 -0.0026812805 -0.01839909
-0.03808254 -0.04662402 0.031444047 0.033789694 0.067304224 -0.045238994 -0.0045213667 0.024356375
0.0100962585 -0.04957391 -0.06969088 -0.052885607 0.011599598 0.03167924 -0.0469524 -0.030702911
-0.0002778829 -0.0010923337 0.048540883 0.040464703 -0.025518484 -0.0006066898 -0.04278225 -0.082053296
0.004375012 -0.02996843 -0.092151985 0.0012022071 -0.0063572275 -0.0058561983 -0.065497324 0.11754386
-0.08409191 -0.0022132478 0.0038523271 0.016040977 -0.097452424 -0.017998202 0.03862096 -0.024553703
0.0033839373 -0.072522834 0.026102085 -0.028256098 -0.07936637 0.05640309 0.031598963 -0.0052403007
-0.026156364 -0.03517794 -0.08387513 0.0125127705 0.012346109 0.021661904 -0.079980075 0.089965604
0.07651445 -0.06458667 0.03881273 -0.0102266 -0.023953553 0.05562207 0.02341531 -0.020388054
-0.012537969 0.052058477 -0.02220387 0.015399238 0.0059941723 -0.020555507 -0.06491256 0.032899305
-0.0042348495 0.033358086 -0.012295128 -0.11648996 -0.04011452 -0.018932035 -0.006317963 -0.01229437
0.030338546 0.09028178 0.033545725 0.069569975 0.080425136 0.00405119 0.0066087027 -0.0069612716
0.06961003 0.07895704 -0.10023602 0.07567346 0.005599191 -0.023568789 -0.07594599 -0.095538236
-0.07274155 -0.032329522 -0.019094024 -0.016008329 -0.048397847 -0.06314094 -0.008305909 -0.08669992
0.00041157214 -0.021677457 0.055952083 0.11638203 0.03497518 -0.050004184 -0.025190614 0.037357062
0.07085776 0.011380375 -0.09220771 -0.022084093 0.011809 0.051497906 -0.023709472 -0.12804292
-0.04955108 -0.0032016751 -0.054726254 -0.0032062633 0.037705336 0.0023202891 0.03958462 0.05999314
0.021972943 -0.07948953 0.051849157 0.028520474 -0.04130047 0.026117833 -0.039090566 0.066701494
0.074976 -0.10910037 -0.07337671 0.024770955 -0.0156215485 0.00929174 -0.047599785 0.08589709
-0.0025558672 -0.008322476 -0.059717808 0.025596539 0.018092442 0.085782826 -0.041964144 -0.057808954
0.06435797 0.025317134 -0.050203566 -0.00091580494 -0.04781024 0.084960714 0.0047844346 0.07130373
0.023228424 0.008844418 -0.009576684 0.059234228 -0.0144564705 0.06326942 -0.047698572 0.002451376
0.0387592 -0.09366522 -0.057574548 -0.08697947 0.002976657 -0.015995238 0.058373347 -0.051930755

input_net.bias f4 [96]
00000000: 1d29 383d 10c3 5abc 4519 8bbc e520 04bd
00000010: 251a b83b 48ee 8fbd d274 2c3d c076 3e3d
00000020: d311 663d 2420 563d 8d29 7ebd d338 3bbc
00000030: 17c8 903c 7f1a f53c 8887 3dbd fe10 09bd
00000040: cf8d 973a ceed 803d de64 f2bc ccb0 6f3c
00000050: 4f50 48bc 6522 0e3d 6f29 363d 5fb5 5bbd
00000060: 641c f5bc a955 12bd 01a2 bc3c 6de1 a73c
00000070: 7548 7c3c 450a 543c dc5f 113d bca6 6c3d
00000080: b637 7e3c 0e09 453d bd57 6f3d 63d0 973c
00000090: ff23 1d3d f149 173d 5437 8fba fceb 00bd
000000a0: 4c46 253c 5590 4e3d fb42 fbbc b750 b8bc
000000b0: b5c3 8f3d 16b5 92bd 3400 7e3d de90 08bd
000000c0: 0843 3cbc 19f9 06bd 6303 933c c75a b7bc
000000d0: 9192 cabc a2ae a1bc d705 84bd 6582 e2bb
000000e0: 8b8a 3bbd 3b98 873c 15ef f2bc 08c4 123d
000000f0: 5854 93bc d027 07bd f737 f1bb 2024 7d3d
00000100: 97fc 793b 91e2 0bbd 7d09 203b 05bc f03c
00000110: c4a4 373d b18b 1dbd b328 7cbd 3d2a 59bc
00000120: 9e1b 99bb 1790 623a c3c1 803d 44f7 793d
00000130: d6cc 6cbd ece4 423d 37b5 083d 851b 8cbc
00000140: 6fc8 353d feb8 ff3c ffe1 913d 78f7 77bd
00000150: 6595 e4bb 92ad 383d 8e0f eabb b0f2 39bb
00000160: f3cc 91bd 4a1f fbbb 81d6 0cbc 0f08 8cbd
00000170: 1263 b53c 2ee5 6e3d bc8e a2bd cb8b 48bd
0.044961084 -0.013352171 -0.016979823 -0.032257933 0.005618351 -0.070278704 0.042103596 0.046499968
0.056169342 0.052276745 -0.062051345 -0.011427122 0.017673535 0.02991986 -0.04627183 -0.03346347
0.0011562648 0.06295358 -0.029589113 0.014629554 -0.012226178 0.03470077 0.044473108 -0.053639766
-0.029920764 -0.035726223 0.023026468 0.020493234 0.0153981345 0.012941902 0.03549181 0.057776198
0.015516212 0.04810434 0.058433283 0.018531984 0.038364407 0.03693575 -0.0010926523 -0.031475052
0.010087561 0.050430615 -0.030671587 -0.022499425 0.0701975 -0.07163446 0.062011912 -0.03334128
-0.011490591 -0.0329524 0.01794595 -0.022382153 -0.024728091 -0.019736592 -0.06446426 -0.006912517
-0.04578642 0.016552081 -0.029655019 0.03583148 -0.017984554 -0.032996953 -0.007361408 0.06180203
0.003814494 -0.034151617 0.0024419718 0.02938653 0.044834867 -0.0384633 -0.06156225 -0.013254699
-0.0046724817 0.0008642687 0.06286957 0.061026827 -0.057812534 0.0475816 0.033375945 -0.017102966
0.0443806 0.03121614 0.071231835 -0.06053874 -0.006975817 0.045087405 -0.0071429675 -0.0028373413
-0.07119169 -0.007663642 -0.008596064 -0.068374746 0.022141967 0.05832403 -0.07937381 -0.048961442

mixture_net.mol_attn_layers.0.self_attn_layer.in_proj_weight f4 [288, 96]
00000000: c08a fc3c 1e01 60be 7bab 5a3c aace 303c
00000010: ceee 19bd 2348 bc3c fcf0 493c a877 2e3d
00000020: 6a7a 65be 8482 d1bd 815f 0b3e 9c5e 1cbe
00000030: 938b 98bd 81c7 39bc 95f8 b2bd 85ef edbc
00000040: dff5 b83d 5544 b43d e0d3 1bbe 03bd 21bd
00000050: 35bb 66bd ef74 b4bc 7d11 c33c 5b00 c93d
00000060: 5ffd ef3d b61c 75bd adbf e5bd 6ba5 803d
00000070: 7cdd d4bd 31fc 863d 70d1 823c 849b 453d
00000080: 4f85 bb3d c86e 02be 9c05 473d 50a5 7f3e
00000090: bf42 9d3d eede 493e 1d5c b4bd 5c6e 15bc
000000a0: b83f 4d3e 0080 5bbd 53c1 023d 16da 7abd
000000b0: 12b1 18bc 11d1 e1bc b242 203e f4a9 9b3b
000000c0: 2fd2 7c3d 0280 18be 7c3b 453d a266 2bbd
000000d0: 789d 303e ec6c f8bd 604f 2d3d c524 c0bc
000000e0: 7818 63bc 8253 593c 091e f6bc 870a 13be
000000f0: 1a49 c93d 2067 913d c708 033d da29 b7bd
00000100: e5b1 b03d 75a0 c4bd 5902 a93c 1831 10bd
00000110: 529b 9cbc b356 12bd 2c86 803d 4cca 5f3d
00000120: 2d14 92bd b359 03be b528 c33d db92 6dbd
00000130: 71e3 68bb 0998 323d 1b85 9abc 19f5 c0bd
00000140: b63e 183b cd1e 263d eb61 9b3d 999b 043e
00000150: d781 18be 8d90 04be 5a14 263e 9561 ec3d
00000160: f01a 183e 2740 103e 5ff3 693d b98d 2bbd
00000170: cfbd f0bc 6c7d 2dbd 71a9 e2bd 119e c03d
00000180: ced1 4fbd 9e3a cc3c 8b2c 0f3d 601f 0e3d
00000190: 598f 34bd 19f6 07be 4faa e33d f33f a23d
000001a0: 3a45 103d 07af 02be d8d2 b2bc 2596 b23d
000001b0: 4ddc 63bd ff34 fbbc 5763 3cbd 06ad fabd
000001c0: b197 08be 837d 3cbd 82aa f63d 353b 63bd
000001d0: ceb2 d2bd 2829 13bd 44fb 9f3d f353 efbc
000001e0: 281b 933d 2da3 c1bd f45b 94bc cd4f 19be
000001f0: 86f6 003e f225 53bb 5219 88bc 6473 e5bd
00000200: e643 98bd e5ea 23bd 1159 473d bf31 2b3c
00000210: 4dd5 133e b054 393d 12ee 523e 4f18 02bc
00000220: 1956 183e 8330 c6bc 7125 0ebc eddb f1bd
00000230: af82 1fbd 23a7 9cbd b4af df3d 851b e6ba
00000240: da2c 08bd 8ba8 efbc 20f4 60bd 1afd bbbd
00000250: 8e91 8e3d 5aba 43bd 4e67 4f3d 6708 c3bd
00000260: 9b1b 99bd 757c 95bd 7be9 f8bb 7624 94bd
00000270: 3dbc 2ebc 778d 8b3d 3753 65bd 69ce 733d
00000280: 27ed 12bb 1ca1 8ebd 3f9c 02be a93e 21be
00000290: d517 1c3e 9fa8 453c e44d 26be 62a2 21bd
000002a0: 27ab c13d e207 c0bd d5b1 ed3d 5290 e2bd
000002b0: 6d68 f8bd 6ae1 8b3d 09e6 633d fa50 163e
000002c0: ea63 953c 7106 7a3d 4eb9 d2bd eec6 e4bd
000002d0: bd3a 22be c483 f9bd f9e7 3ebd cc36 aebd
000002e0: b10c c03d 6252 a2bd df5b d23c be01 e23d
000002f0: 2dc5 f3bd dce6 68bd a44d cdbd d1c1 6b3d
00000300: 59c6 8e3c 8eec 1e3d b4b7 d23b 86cc d5bc
00000310: b681 c1bc 3f35 cc3d 5500 113e 7aa6 c5bd
00000320: 9c22 1fbc a154 de3b e5e8 20bc 0063 dbbc
00000330: 7fed e4bd d288 c0bc ed91 293b 4abe 71bd
00000340: 97ed 1bbd f1b0 ee3d 6d50 853d 80d8 e1bd
00000350: 2a19 2ebd 23f4 d8bd 0230 a83d cb64 51bd
00000360: bb13 b23d a197 92bd dfad 9cbd f45e 9bbd
00000370: c151 efbd 1c2c ee3d d7a3 5abc 3d6a adbc
00000380: 3435 eebb 61b4 8d3c c504 063e ee2c 013d
00000390: aaff 8dbd 1cb8 abbc f024 ff3d 3749 823d
000003a0: b1f2 a23d a63a bc3d 4430 e53c 0d97 a8bd
000003b0: c84c c7bd 3652 3bbd c60a a03c 8dc7 8d3c
000003c0: 5efe d83d a6f9 ee3d f563 06be e7a2 4a3d
000003d0: 1cdc 59bd 8030 fdbd 3893 01be 07f1 203d
000003e0: f66e 853d 7389 14be 97ce c73c 61a5 afbd
000003f0: 3c74 133d e76c 4b3d 8179 723c 2d03 0c3e
0.03082788 -0.21875426 0.013346548 0.01079146 -0.037581258 0.022983616 0.012325522 0.04259458
-0.22409979 -0.10229972 0.1361065 -0.15270466 -0.07448497 -0.011339069 -0.087388195 -0.029044876
0.09031271 0.08802096 -0.15217543 -0.039486896 -0.05633088 -0.022028415 0.02381205 0.09814521
0.117182486 -0.059841834 -0.112182 0.06281551 -0.10393807 0.065910704 0.015969008 0.048244014
0.09156286 -0.12737572 0.048589334 0.24965405 0.076787464 0.19713947 -0.08806632 -0.00912055
0.20043838 -0.053588867 0.03192265 -0.06124314 -0.009319561 -0.027565511 0.15650442 0.0047504846
0.061723884 -0.14892581 0.04815243 -0.041845925 0.1724757 -0.1213015 0.042312026 -0.023455033
-0.013860814 0.013264539 -0.030043619 -0.14359485 0.09828396 0.07099748 0.031990793 -0.089435294
0.08627681 -0.09600917 0.020631002 -0.03520307 -0.019117031 -0.035727214 0.06275591 0.054636285
-0.071327545 -0.12827186 0.095292486 -0.05800138 -0.0035535956 0.043602023 -0.018862298 -0.09421749
0.0023230738 0.040556718 0.07587036 0.12949981 -0.1489328 -0.12945767 0.16218701 0.1154205
0.14854026 0.14086972 0.057116862 -0.041883204 -0.029387383 -0.04235594 -0.11067475 0.09405149
-0.050737195 0.024930295 0.03495459 0.03469789 -0.04408202 -0.13277473 0.11116468 0.079223536
0.03522227 -0.1276208 -0.021829054 0.08720044 -0.055630017 -0.030664919 -0.045993175 -0.12240033
-0.13339116 -0.046018135 0.120442405 -0.055476386 -0.102880105 -0.03592792 0.07811597 -0.029214835
0.07182914 -0.094549514 -0.018110253 -0.14971848 0.12594041 -0.0032218662 -0.016613636 -0.1120365
-0.074348256 -0.040018935 0.048668925 0.010448872 0.14436837 0.04524678 0.20598629 -0.007940366
0.14876594 -0.024193054 -0.008675919 -0.11809526 -0.03894299 -0.07649066 0.109221846 -0.0017555809
-0.0332459 -0.029255172 -0.054920316 -0.09179135 0.06961356 -0.04778514 0.05063563 -0.09523087
-0.074759685 -0.07299129 -0.0075961924 -0.07233517 -0.010664997 0.06814092 -0.055987563 0.05952302
-0.0022419186 -0.06964323 -0.12754916 -0.15746559 0.15243466 0.012064128 -0.1624065 -0.0394615
0.09456473 -0.093765035 0.116061844 -0.11062683 -0.12129293 0.06830104 0.0556393 0.14679328
0.01823612 0.0610413 -0.1028925 -0.11170755 -0.1584272 -0.121833354 -0.046607945 -0.085065454
0.09377421 -0.079258695 0.025678573 0.110354885 -0.11902843 -0.05686079 -0.100245744 0.057557885
0.017428564 0.038799815 0.0064305905 -0.026098501 -0.023621421 0.099710934 0.14160283 -0.096508935
-0.009712841 0.006784991 -0.009821151 -0.026780605 -0.11178111 -0.023502741 0.0025874332 -0.059019364
-0.03806838 0.11654843 0.065094806 -0.11027622 -0.042504467 -0.105934404 0.08212282 -0.051121514
0.086951695 -0.07157827 -0.07650351 -0.0758647 -0.11685515 0.11629507 -0.0133447265 -0.021168822
-0.007269526 0.017297925 0.13087757 0.03153699 -0.0693353 -0.020961814 0.12458217 0.06361621
0.07956446 0.09190874 0.027977116 -0.08231936 -0.09731442 -0.0457327 0.019536387 0.017307067
0.10595392 0.116687104 -0.13124068 0.049471762 -0.05318843 -0.12362766 -0.12653816 0.03929236
0.06515305 -0.14505558 0.024390502 -0.085764654 0.03599952 0.049664404 0.014799477 0.13673086

mixture_net.mol_attn_layers.0.self_attn_layer.in_proj_bias f4 [288]
00000000: 386c 923d dd4f 8a3c 9623 463c 4641 48bc
00000010: d8a5 22bc 22c5 85bc 7169 ddbc 6992 9dbb
00000020: 0b41 0f3d 58ef 883c 93b3 0d3d cd63 583d
00000030: 8c8e 173d 8bef 1c3d d53e 16bb 300e 6b3a
00000040: a887 06bc ca50 1d3c 54d0 963b 7523 61bd
00000050: 69b6 b33b 5b55 813c 96f9 0b3d c33a f3bc
00000060: 18f5 323d d5ea 8a3c 3491 0cbc d3af 88bd
00000070: c980 e8bb 2191 8fbc e9b7 453d 3967 fabb
00000080: c667 de3b 1aeb ebbc 1922 b6ba 52a5 16bc
00000090: a3b7 a03c 47bd c53c bf84 803d 6666 df3c
000000a0: 1321 cbbc 19eb c5bc 7724 31bc ecae 4dbc
000000b0: e0c6 6abc 3625 653d 3920 31bc b2dc 47bd
000000c0: 320c 3cbb 7aa8 973c b181 3fbd ad21 103d
000000d0: 54f9 aebc ba6b e83d fec2 d6bc cc60 6bbc
000000e0: 282f 7dbc e195 6cbb acd8 2a3d c54a d6bc
000000f0: 933b 973a 4498 ebbc 60e2 af3c dd77 45bd
00000100: 615c 64bc c5fe 31bc 71e6 04bc 5619 4ebc
00000110: ec16 093d 28ee 8bbc a9ee 38bd 9bfe 6a3c
00000120: eb6f 933d c708 3fbc 57dd 62bb bfe2 3fbc
00000130: 7c55 793c c332 753d caa9 bcbb ed84 b23c
00000140: 2282 913d 1d90 033d 87de 17bd ca21 9a3d
00000150: a468 16bd 6050 593c 0e91 0dbd cdeb 91bc
00000160: e642 873d e910 14bc 0e88 bdbb 7017 ba3c
00000170: ddb8 343c 11ca d83c 3995 333c 974e b4bc
00000180: b289 4137 f452 bdb7 470b b2b4 569f 95b5
00000190: bf57 ab33 0354 b3b7 2c7d cd37 b4f6 40b7
000001a0: f726 9636 72fd 65b7 d646 cd37 6c5d c836
000001b0: 8254 bfb6 eb2c 3b37 f4eb 0237 1c90 7637
000001c0: a460 b136 472a c3b7 a769 4ab5 5ae9 cbb6
000001d0: 22c5 c637 22f3 e1b7 1e98 9335 afda 2fb7
000001e0: 0202 1f37 8a5d 07b7 fb45 1437 6e25 2fb8
000001f0: ba12 a737 8252 35b6 8dc2 ab36 c8e5 f3b6
00000200: 1e9a f536 8fc8 5137 9ced 15b6 ae2c 14b6
00000210: c9d3 9736 43da ccb6 1f90 9837 1825 f936
00000220: d05e 8bb7 de2d bbb5 88a6 d4b7 f9b6 88b7
00000230: 0b19 2b37 c1f8 8a37 68fd 4738 da48 ea36
00000240: 4e6f ac37 9e21 97b7 85c4 5b37 5c44 b2b7
00000250: 155b 8e36 b3c6 2ab8 d1e6 2337 5648 9036
00000260: 26f1 ae37 e7b4 32b5 f716 9a36 65bc 0db8
00000270: 1f82 8e36 070f 72b4 2531 4636 e70e 8037
00000280: 659b 30b7 b48e 9fb7 8f96 4d37 2f1b a436
00000290: 9961 e3b7 c9f2 1e38 c85d d837 bf98 7f37
000002a0: 3b22 6f37 e25f abb7 86ef b4b6 bdf9 8937
000002b0: 2b4f 59b7 853f 57b7 c391 a1b7 36c3 ebb4
000002c0: 1bdd 45b8 37c9 87b7 02f7 3f37 b980 c836
000002d0: 2a62 73b7 b2ea a9b7 94f9 1e37 9150 87b7
000002e0: b6c3 0a36 bf1f 76b7 10ee 0c36 168e 7cb7
000002f0: 3cce 8a35 4a57 6c36 c704 94b5 a016 b237
00000300: d1d9 36bd 8499 3dbc 8955 203c dce1 f2ba
00000310: 8d53 0c3c 0ddc e63a 1cae 623c 5bf4 37bc
00000320: cc63 343c a27f 7e3a 3bce 8bbc 4b55 ff3c
00000330: 15d1 2839 82af f03b 185f 80bc 7ef7 03bb
00000340: efd4 90ba 4f8f 08bc bec6 e33c 12bb c4ba
00000350: 8f9d c33b 50af 60bc 7de1 913c 8add 54ba
00000360: 814f adbc ffc0 6c3b 7341 36ba c949 42bc
00000370: c7f4 4dbc 4cc5 e3bb aa8a a83a 2d58 3bbd
00000380: a3e9 b6bb 8687 bebb 78d8 a5bc 4af1 36bc
00000390: ba13 133d 6003 e3bb f18d c43c 466f 22bc
000003a0: 9b41 a43c 424b be3c cae6 553d 12d4 ad3c
000003b0: f5e0 10bd 6faf 6e3c 0ed5 7abc 6a77 8ebc
000003c0: a17c 06bc 4ca5 ac3b 5ced 273c ad0e 94bc
000003d0: 2c0c 803c bf8b 013d adff 903c e113 673b
000003e0: 5f3b 96bc 73d2 14bb f967 37bc 5e79 8b3c
000003f0: 177c 903c a38f 133a 1654 b13c 2bfb b9bb
0.07149547 0.016883785 0.012093445 -0.012222594 -0.009927236 -0.016329352 -0.027027817 -0.004808713
0.03497414 0.01671569 0.034595083 0.052829552 0.037001178 0.038314383 -0.0022925634 0.00089666527
-0.008211054 0.009601781 0.0046024714 -0.054965455 0.0054843915 0.015787771 0.03417357 -0.029691106
0.04369077 0.01695768 -0.008579541 -0.06674161 -0.0070954305 -0.017525258 0.048271094 -0.0076416996
0.006787273 -0.028798629 -0.001389566 -0.009194689 0.019618815 0.024138106 0.06275319 0.027270507
-0.024796044 -0.024159955 -0.010811917 -0.012553912 -0.014329642 0.05594369 -0.010810905 -0.048794456
-0.0028693792 0.018512953 -0.046754543 0.035188366 -0.021359123 0.11348672 -0.026216026 -0.01436634
-0.015453137 -0.0036100077 0.04171054 -0.0261587 0.001153814 -0.02875913 0.021470249 -0.048210014
-0.0139380405 -0.010863964 -0.008111582 -0.012579283 0.033469126 -0.017081335 -0.04514948 0.014342929
0.07199081 -0.0116598075 -0.0034616792 -0.011711775 0.015218135 0.059862863 -0.005757545 0.0217919
0.07104899 0.03211986 -0.037077453 0.07525976 -0.036720887 0.013263792 -0.034562163 -0.017812634
0.06604557 -0.009037235 -0.0057840412 0.022716254 0.011030403 0.02646354 0.01096087 -0.02201013
1.1535756e-05 -2.2569184e-05 -3.316329e-07 -1.1147738e-06 7.978769e-08 -2.1377584e-05 2.4496192e-05 -1.1501532e-05
4.4748845e-06 -1.37084735e-05 2.447089e-05 5.97134e-06 -5.7020816e-06 1.1156527e-05 7.803541e-06 1.4696296e-05
5.2862615e-06 -2.3265498e-05 -7.540461e-07 -6.077037e-06 2.3695236e-05 -2.6935308e-05 1.0996625e-06 -1.0481729e-05
9.477606e-06 -8.068406e-06 8.837781e-06 -4.175811e-05 1.9916672e-05 -2.7019128e-06 5.118846e-06 -7.2687144e-06
7.3195106e-06 1.2504067e-05 -2.2341037e-06 -2.2079726e-06 4.5248057e-06 -6.105083e-06 1.8186924e-05 7.4250966e-06
-1.6614242e-05 -1.3945935e-06 -2.5349917e-05 -1.6297667e-05 1.0198225e-05 1.6566717e-05 4.76813e-05 6.9822245e-06
2.0555828e-05 -1.8016257e-05 1.3099173e-05 -2.1251086e-05 4.242533e-06 -4.071621e-05 9.769298e-06 4.2999554e-06
2.085471e-05 -6.6573415e-07 4.592231e-06 -3.3792476e-05 4.247078e-06 -2.2543473e-07 2.9532905e-06 1.5265729e-05
-1.0526598e-05 -1.9020728e-05 1.2254007e-05 4.8907455e-06 -2.7105956e-05 3.7896247e-05 2.5792877e-05 1.5234748e-05
1.425348e-05 -2.0429437e-05 -5.3923022e-06 1.6447966e-05 -1.2952641e-05 -1.2829788e-05 -1.9260571e-05 -4.3914196e-07
-4.717438e-05 -1.6186952e-05 1.1441998e-05 5.9754498e-06 -1.4506784e-05 -2.0255658e-05 9.475643e-06 -1.613077e-05
2.0677521e-06 -1.4670134e-05 2.1000196e-06 -1.5053452e-05 1.0341823e-06 3.521755e-06 -1.102825e-06 2.122979e-05
-0.04464132 -0.0115722455 0.009786018 -0.0018530446 0.008564842 0.0017613188 0.013835456 -0.0112276925
0.011010122 0.000970835 -0.017066112 0.0311686 0.00016099618 0.007345141 -0.015670344 -0.002013653
-0.0011049787 -0.008334949 0.027804729 -0.0015009365 0.00596971 -0.013713673 0.017807717 -0.000812017
-0.021156074 0.0036125777 -0.0006952502 -0.011858412 -0.0125705665 -0.00695101 0.0012858708 -0.045738388
-0.005582051 -0.0058144955 -0.020244822 -0.011165926 0.035907485 -0.0069278926 0.023993464 -0.009914225
0.020050814 0.023229245 0.05222205 0.021219287 -0.035370786 0.014568194 -0.015309585 -0.017390925
-0.008208425 0.0052687284 0.010249462 -0.018073404 0.015630804 0.031627413 0.01770004 0.0035259651
-0.018338857 -0.0022708445 -0.011194223 0.017025646 0.017637296 0.00056290085 0.02164654 -0.0056756935

mixture_net.mol_attn_layers.0.self_attn_layer.out_proj.weight f4 [96, 96]
00000000: 5945 16bc 8e7e 1cbd 3990 17bd eede 2cbd
00000010: 1896 b93d c992 afbd d29d 863b b421 c8bc
00000020: eeae 633d 4ccd fb3d 0701 8e3d 9ab7 8dbc
00000030: 351d 353d a320 8a3c f9f4 013c 2123 f63c
00000040: c02a d1bd 6ad3 963c 7285 0f3d 712e c33d
00000050: c109 003e 4232 783d b625 d73d 1d10 8a3d
00000060: aa3f 0e3d 9d49 4bbd 781e ecbd 1390 163d
00000070: a4ef 4f3d 5a6f 06be b643 c5bd 9d3a 9bbd
00000080: 136d 03bd 6fb3 5a3d 197c 073d 4430 8abd
00000090: 78d5 0f3d 3eda a73d 1cba b53d c9bd f53d
000000a0: d2d8 19bd db04 b7bd 1d91 a43d a0c6 8b3d
000000b0: 545e cd3b dcb0 59bd f8b2 68bd f51e 21bd
000000c0: 83ff afbc 2678 443d 3a7f babc b3f2 e3bd
000000d0: 900a f63d 3b5b 3fbd 1f06 babc b8a8 0f3d
000000e0: 7749 653d 14f4 68bd c230 b73d a885 cf3c
000000f0: b12a 08bd 079d f03d 8022 adbc f55d d5bd
00000100: f2fb 9bbb d0c9 173d 088e ad3d 09c6 fdbc
00000110: f325 403b 41db 323d 0a24 163d 7125 e13c
00000120: cf54 6dbd 5bd7 f93d c3af e43b d699 eabb
00000130: 7f98 dabd 1edf b3bd f6c3 033e 25ad 1c3d
00000140: 317b 4e3b 5843 823c bc82 d73d eab1 c0bd
00000150: 2886 aa3c 5d4e 463d 5bc1 77bd ab84 b6bd
00000160: 6963 05bc 6d86 3fbd dd43 a8bd 4624 be3d
00000170: 8fd6 6e3c 90bc 4b3d d89a 6cbb 4e11 bbbd
00000180: 983b 9fbb c6e9 123d f238 a73d 3f3e bdbd
00000190: 754c e6bc 5f8c 913d 11e8 c2bd 0a06 ecbc
000001a0: f036 d13d a7bc f53d d7f5 6a3d df25 a63d
000001b0: e114 e5bc f0ca 883d b6d1 efbd b78d c1bc
000001c0: 04c9 b3bd d5b7 9b3d c814 8f3d 3425 763d
000001d0: 6c91 91bd b2cc d8bd d695 533b 7ed7 aebd
000001e0: d820 68bd 602d c23c 0e56 883d 32f9 023d
000001f0: 2857 84bd 0da4 093d 6bee 9c3d 9e42 b5bd
00000200: af9d 9dbd d1f2 40bd 4c25 9d3d d11d d5bd
00000210: 4d93 e93c 5a1d b33d 93cd 0e3d 8dae 8e3c
00000220: e78b cfb8 b9de 11bd 3a22 813d 23ef 173c
00000230: ceed e8bd 4f82 7d3b 08c5 febc 93e7 b33d
00000240: 17b2 bfbb 716e 01be 245c 69bd f809 5a3d
00000250: b0ad cfbd 7b48 923c f6a5 ad3d 87d5 3138
00000260: bc37 d2bd bfc0 b0bc c20e 0abd 66b7 ddbc
00000270: cc6f 353d 0b30 10bd d459 d63c d264 8abd
00000280: 1f9b a1bd 47ea dc3c 30cc bc3d 256e ea3d
00000290: 774d 9f3d 1122 c63d e3d5 823d 6ffc c73d
000002a0: 734d f93c 8605 303d 5ade 44bd 817d 48bd
000002b0: c51f 17bd f89e eb3c 1650 a5bd c2fa 223d
000002c0: bd56 2ebd b6ea d9bc d7b6 c4bc afb0 8ebd
000002d0: 3ce8 d43d e76b 42bd 40b7 67bd 3ac5 f43d
000002e0: c31b 8e3b 22f5 03bd f6aa 24b9 fe4e c8bd
000002f0: 0833 503d d426 e0bc 1d74 5f3d 2595 a33b
00000300: 013c d9bc 4899 d03c 998c cfbd 1539 073c
00000310: 333d c8bd 0e8b 23bd 531b fbbd 50e1 113e
00000320: 7b5f b93c b9fd 0c3c e327 7b3d b984 b73d
00000330: 9561 b23b c5f0 e43c 4b5d b93d 76e6 e0bd
00000340: 0941 b43d c0b6 053c 01f8 9c3d 9e1c b9bd
00000350: b434 2abe cfa1 8b3d 8b37 a63d 6e90 993c
00000360: 764d 67bc e500 c1bd 4259 39bc 1e94 1ebd
00000370: 1c13 b53d 799f b2bd efa8 603d 1361 12bd
00000380: 8959 443b 4777 92bd 7937 d4bb 6369 d5bd
00000390: dda6 8bbd 7527 513c 5c01 be3d edc6 873d
000003a0: 83f0 10bd a0be c03c 7fe4 36bd 65ef 9abd
000003b0: eeeb f8bd ad4f df3d 90fb 25be b268 f6bd
000003c0: b92c 03be 1a25 5e3d 78d9 dd3c 6ef5 fabc
000003d0: 62d0 143e b82b bebc d24a fdbc c1fb 403d
000003e0: 54cf 2039 2ca0 0bbd ce13 5bbd f148 193c
000003f0: 75d0 e23c 8f0e b3bd 1c02 fcbd b8a2 b1bc
-0.009171807 -0.03820663 -0.037002776 -0.04220479 0.09061831 -0.08572919 0.004108169 -0.024430133
0.055586748 0.12295017 0.0693379 -0.017299462 0.044217307 0.016861266 0.007931941 0.030046048
-0.10213232 0.018411357 0.035039373 0.09530342 0.12503721 0.060594805 0.1050524 0.067413546
0.034728684 -0.04963075 -0.11529249 0.036758494 0.05076565 -0.13128415 -0.096320555 -0.07579539
-0.032086443 0.053393777 0.033077333 -0.06747487 0.03511569 0.08195923 0.08873388 0.11999089
-0.03756029 -0.08936473 0.08035491 0.06824994 0.0062673483 -0.053147182 -0.056811303 -0.039336164
-0.021484142 0.047966145 -0.022765744 -0.111302756 0.120137334 -0.046717864 -0.022707997 0.035073012
0.055978265 -0.056873396 0.08944847 0.025332287 -0.03324384 0.117487006 -0.021134615 -0.104183115
-0.004760259 0.037057698 0.08474356 -0.03097822 0.0029319494 0.043666128 0.036655463 0.027483674
-0.057942208 0.12199279 0.0069789602 -0.007159452 -0.106736176 -0.087827906 0.12867722 0.03825106
0.0031506533 0.015901253 0.105229825 -0.094089344 0.020815924 0.048414577 -0.060487133 -0.08912023
-0.008141377 -0.046759058 -0.08216069 0.09284262 0.014577522 0.049740374 -0.0036103036 -0.0913416
-0.004859399 0.035867475 0.08165158 -0.09240388 -0.02811263 0.07106852 -0.095169194 -0.028811473
0.102155566 0.11998873 0.057363357 0.08112692 -0.027964057 0.06679332 -0.11709921 -0.023627145
-0.08778575 0.076034226 0.069863856 0.060094073 -0.07107815 -0.105859175 0.0032285354 -0.085371956
-0.056671947 0.023703277 0.06657039 0.031975932 -0.06461936 0.033603717 0.07662662 -0.08850597
-0.076960914 -0.047106568 0.076731294 -0.10406078 0.028512621 0.08745833 0.03486402 0.017417217
-9.896588e-05 -0.035612796 0.06305356 0.009273323 -0.11373483 0.0038682406 -0.031099811 0.08784404
-0.0058500874 -0.12639786 -0.056972638 0.053232163 -0.1014055 0.017856827 0.0847892 4.239895e-05
-0.10264537 -0.021576283 -0.03370548 -0.02706499 0.04429607 -0.035202067 0.02616588 -0.06757511
-0.07890915 0.02696718 0.09218633 0.1144679 0.07778447 0.096744664 0.06388452 0.09764945
0.030432438 0.042974018 -0.048063613 -0.048947815 -0.036895532 0.028762326 -0.08071916 0.039789923
-0.04256319 -0.026601177 -0.024012966 -0.069672935 0.10395858 -0.047466185 -0.056571245 0.119516805
0.0043368055 -0.0322162 -0.00015703947 -0.097806916 0.050829917 -0.027362265 0.054554094 0.0049921446
-0.02651787 0.025463715 -0.10134239 0.0082533555 -0.09777298 -0.039927535 -0.12261071 0.14246106
0.022628536 0.008605414 0.061317336 0.08960862 0.0054437616 0.02794684 0.09050997 -0.10981457
0.08801467 0.008161247 0.076644905 -0.090386614 -0.16621667 0.06817972 0.08116063 0.018745627
-0.014117589 -0.09423999 -0.011312785 -0.038715474 0.088415354 -0.08721823 0.054848608 -0.03573711
0.0029960594 -0.071516566 -0.0064763394 -0.104204915 -0.06818936 0.012765755 0.09277603 0.06629739
-0.03538562 0.023528397 -0.044651505 -0.07565192 -0.12154375 0.10903869 -0.16209245 -0.12031688
-0.12810029 0.0542346 0.027081236 -0.030634608 0.14532617 -0.023214206 -0.030919466 0.04711509
0.00015336025 -0.0340883 -0.053485684 0.0093557695 0.02768729 -0.08743011 -0.1230509 -0.021684036

mixture_net.mol_attn_layers.0.self_attn_layer.out_proj.bias f4 [96]
00000000: 64a3 f83c 338d 37bc cd20 e1bb 5b8f e3bb
00000010: 6c66 9dbc 1385 9cba 46f8 1c3c d700 15ba
00000020: dfdc 0bbb c3c4 283b 0b20 3dbb 024d 76bb
00000030: 9f8d da3b b4ea cabb e9eb b8bc 0ce2 763c
00000040: 633f 203b 86c4 663c 52df b1bc 9a19 c3bb
00000050: bd81 27ba 0ab6 b8bc 884f e5bb 93cd 913a
00000060: 1160 2b3c 8d01 99bc d578 d3bc e920 c63b
00000070: 0509 fa3b bd0e 96bc 92f6 543c 3beb 973c
00000080: ec02 d63b 5648 123c d822 373d de69 483c
00000090: a622 0fbc bd62 dd3b 2ad9 d2bc 90a6 693a
000000a0: 8149 00bc 86a7 efbc a122 aabc c3f0 6dbc
000000b0: af96 5ebb 7e25 4f3c 69dd 9ebc 4aa5 b13b
000000c0: c12a d1bb 4edd f93c 75c0 7fbb f0d1 5fbb
000000d0: 1f3d 023c e040 9abc 3841 223b 517f 613c
000000e0: c2e5 81bc 96d2 25bd a4fd 603b c5c8 1ebc
000000f0: bed1 f03b d0ff f83c bee9 7438 fded d73c
00000100: b7cf 373d fe3c 09bc 85c6 653c de83 02bd
00000110: 1293 9b3c 6e7f a1ba 697e 70bc 7036 bcbb
00000120: 2d99 563b 0da1 243c b0e7 513c 4b59 69bc
00000130: b702 61bb 2f26 96bc 4bc4 143b 3fb3 13bd
00000140: 329b 60bb 3f76 913a e097 06bc f3f0 78b9
00000150: c6cf d9b9 12ab cc3c ed31 a83b ded1 ceba
00000160: 9b75 2c3c 1b84 2b3c 9d43 503b 7a4a c1bb
00000170: 3bc1 3abc 49ad f3bb 7484 4e3c cc65 793c
0.030351348 -0.011203098 -0.0068703652 -0.0069445795 -0.019213878 -0.0011941515 0.009580677 -0.0005684024
-0.0021341366 0.0025752045 -0.002885821 -0.0037582521 0.0066697146 -0.0061925296 -0.022573428 0.015068542
0.0024451844 0.014084941 -0.021712933 -0.0059539797 -0.0006389877 -0.02254774 -0.0069980063 0.0011123888
0.010459916 -0.018677497 -0.025814453 0.0060464037 0.0076304697 -0.018317575 0.01299824 0.018544784
0.00653111 0.008928379 0.044710964 0.012232272 -0.008736288 0.0067561553 -0.025738318 0.00089130644
-0.007830025 -0.029254686 -0.020768465 -0.014522734 -0.0033964326 0.012643216 -0.019392686 0.0054213153
-0.0063832705 0.030501034 -0.0039024625 -0.0034152232 0.007949143 -0.018829763 0.0024758112 0.013763265
-0.015856627 -0.040484034 0.003433087 -0.009691422 0.007349222 0.030395418 5.8391823e-05 0.026358599
0.044875827 -0.008376358 0.0140243815 -0.03186404 0.018991027 -0.0012321302 -0.014678576 -0.005743794
0.0032745108 0.010048163 0.012811586 -0.0142424805 -0.0034333894 -0.018328754 0.0022700008 -0.036059614
-0.003427219 0.0011097862 -0.008214921 -0.00023740884 -0.0004154427 0.024983916 0.0051329047 -0.0015779098
0.010526086 0.010468508 0.0031778582 -0.005898771 -0.011398609 -0.0074364287 0.0126048215 0.015222024

mixture_net.mol_attn_layers.0.addnorm1.norm.weight f4 [96]
00000000: d662 7f3f 88a1 7d3f 5992 833f d051 833f
00000010: f629 833f 14c1 813f de3f 803f fe5a 853f
00000020: f105 813f 439d 7c3f cabf 863f 34d3 803f
00000030: cb6f 7b3f d8e4 813f 97f1 7c3f b95c 843f
00000040: b787 823f 3a2c 7c3f 19f6 793f fb4e 7d3f
00000050: 6591 7b3f 756f 803f 131a 7f3f cc38 803f
00000060: f28d 813f c5a8 7a3f 1d45 7e3f 8d53 7e3f
00000070: d5ce 813f 13fe 803f 7a12 843f 1242 823f
00000080: dd7d 823f d3a1 803f df3a 843f c85b 853f
00000090: 584c 833f 2d93 853f f6ac 813f 9638 813f
000000a0: 90c7 813f b4b4 823f 9ada 813f cbd9 843f
000000b0: 91c6 833f fb08 843f 39b7 823f 0071 823f
000000c0: 8f36 823f 1040 813f 7ed8 7b3f d0ea 803f
000000d0: 7384 793f efd8 833f a737 813f cbd4 883f
000000e0: 34f6 7d3f c9e6 803f 44f7 7c3f 3731 793f
000000f0: 2d14 863f 7504 823f 7e1c 803f b2d2 7f3f
00000100: 9cc7 823f 6aa3 823f 508d 803f 74ca 723f
00000110: 4989 803f d0bc 7a3f ea4c 833f 249d 803f
00000120: 66a1 843f 8158 863f b765 813f f339 843f
00000130: 4d03 843f 0720 803f 9576 853f e7c1 803f
00000140: 0b1a 823f 5d8a 803f a1fc 7b3f af41 803f
00000150: 9943 843f 8855 823f 682d 813f 1fb3 833f
00000160: 718d 843f 7736 843f 2ee6 7c3f 6dfc 813f
00000170: e8bd 833f a976 7e3f 4530 843f 5246 823f
0.99760187 0.990746 1.0279037 1.0259342 1.024718 1.0137048 1.0019491 1.0418394
1.0079938 0.9867746 1.0527279 1.0064454 0.9821746 1.0147963 0.98806137 1.0340797
1.0197667 0.98504984 0.9764114 0.9894864 0.9826873 1.0034014 0.9964916 1.0017333
1.0121443 0.9791377 0.9932421 0.9934624 1.0141245 1.0077537 1.0318139 1.0176413
1.019466 1.0049385 1.0330466 1.0418634 1.0257673 1.043554 1.0130908 1.0095394
1.0139027 1.0211396 1.0144837 1.0378965 1.0294973 1.0315241 1.0212165 1.0190735
1.01729 1.0097675 0.98377216 1.0071659 0.97467726 1.0300578 1.0095109 1.0689939
0.992038 1.007043 0.988148 0.9734072 1.0474907 1.015761 1.0008695 0.9993087
1.0217166 1.020612 1.0043125 0.9484017 1.0041896 0.97944355 1.0257847 1.0047956
1.0361755 1.0495759 1.0109166 1.0330185 1.0313507 1.0009774 1.0426813 1.0059174
1.0164198 1.0042225 0.98432356 1.0020045 1.0333129 1.0182352 1.0091982 1.0289038
1.0355664 1.0329121 0.98788726 1.0155159 1.029233 0.9939981 1.0327231 1.017771

mixture_net.mol_attn_layers.0.addnorm1.norm.bias f4 [96]
00000000: 61a1 8138 1ca7 20bb 1a7d 2c3c d5f2 38bc
00000010: 862e 21bc 54d5 cebb 53dc 06bc 3fcf bf3b
00000020: 37e0 cc3c bd68 6abb 922b 563b 9a2d e4bb
00000030: e767 27ba 362e 50bc 0c1e 31bb 4bec 073a
00000040: bd53 df3c 8c18 01bb ae14 a23c d936 ecbc
00000050: 1e0f 133c 5622 783c be42 6fbb 96b5 a0bc
00000060: 1c61 523c ee0c 15bc 868c 8c3b ed65 f1bb
00000070: b82a 8b3c 6085 a33b 4ee8 7f3c 9732 b1ba
00000080: 9376 6e3c c0eb f4bc 13d0 0e3c 3236 bf3c
00000090: 4a03 1c3c df9f 9d3b 6566 583b f850 93bc
000000a0: fcc7 2fbb bb56 d1bb 708e 063b 0d2e 203c
000000b0: 4f40 893b 91d2 77bc 051b 2bbc 8171 e63a
000000c0: 3f13 573b 02e5 86bc 425e 533c 8e1e d33c
000000d0: 758e e13c fd63 d4bb 617a f23b a51e 80bb
000000e0: 1806 013d 50f1 063b 11f8 dfbb a5bd ce3c
000000f0: f243 193c 6b9c 183c 7165 da3c fd5b e2ba
00000100: 99ee ccbb 52c5 0f3c fe7f 753b b41b bbbb
00000110: 228a b0bc c1e5 ebbb b9f0 2fbc 7591 1d3c
00000120: 23ae 3e3b fb47 d3bb 3775 b4bb 396f 833a
00000130: f217 443b af99 6f3c 04c2 9d3b 4595 4e3b
00000140: 24f7 11bd 0f5f 39bc a057 a8bb 47b9 f2bb
00000150: 845c 7fbb 3411 82bb 616b 15bc f96e 9f3b
00000160: aa49 04bb 2613 7f3b e2a0 65bc 846b 2ebc
00000170: b6b8 2f3a b199 5ebc 556b 5c3c fbaa c33a
6.1812585e-05 -0.0024513667 0.010527873 -0.011288364 -0.009837752 -0.006312052 -0.00823124 0.005853563
0.025009258 -0.0035767995 0.0032679779 -0.006963444 -0.0006386027 -0.01270633 -0.0027025966 0.00051850517
0.02726161 -0.001969847 0.019785251 -0.028834747 0.008975772 0.015144905 -0.0036508287 -0.019617837
0.0128405355 -0.009097321 0.0042892126 -0.007366887 0.016988143 0.004990265 0.015619351 -0.0013519105
0.0145546375 -0.02989757 0.008716601 0.023341272 0.009522269 0.004810318 0.0033020016 -0.017982945
-0.002682208 -0.006388513 0.0020531677 0.009776604 0.0041885744 -0.015125887 -0.010443454 0.0017581434
0.0032817868 -0.016466621 0.012900891 0.025771406 0.02753375 -0.006481646 0.0073998426 -0.003909903
0.031499952 0.002059061 -0.0068349917 0.025236914 0.009354578 0.009314637 0.0266597 -0.0017269846
-0.006254029 0.008775072 0.0037460322 -0.0057100896 -0.021550242 -0.0071990197 -0.010738545 0.009617199
0.0029095493 -0.0064477897 -0.005507137 0.0010027654 0.00299215 0.014624043 0.004814388 0.0031522077
-0.035636082 -0.011314168 -0.005137399 -0.0074073407 -0.0038965056 -0.003969336 -0.009119839 0.004865524
-0.0020185509 0.0038921325 -0.014015408 -0.010645751 0.0006703244 -0.013586448 0.013453324 0.0014928275

mixture_net.mol_attn_layers.0.ffn.layers.0.weight f4 [96, 96]
00000000: a49a 93bc e7f9 4e3e a00a a13d 9b6a 2abe
00000010: 6720 05bd 296f 8c3c af9e 32bd de35 0dbe
00000020: 5bcb d93d 3ce8 f53d 24a8 0dbe 62f9 743d
00000030: be25 f53c 8e17 1b3e be58 c63d 132a c2bb
00000040: 810b a13c 8c38 033e e84a 9e3c 82a7 01bd
00000050: 2503 71bd e91f 143e b874 69bc d845 6dbd
00000060: 7d0d 1bbe 2a8a 95bc d525 e1bc 92dc b9bc
00000070: fbc0 243d 26cc 9bbd 0034 b43d 54c4 7e3a
00000080: 739f 2fbc 93cc ba3c c93b 78bd 041a 0fbd
00000090: ca97 b8bb 4b3d 28be daaf b73d 383c dfbc
000000a0: 1124 a7bd 88af 483d 57da 2f3e 809b 923d
000000b0: c998 913c 3f03 4ebe 7249 e1bc f30b 823c
000000c0: 30f8 8ebc f352 043e 94da 663c 55b3 14be
000000d0: c139 8abd 0386 ef3d 37aa 013e e7af 89bb
000000e0: 6634 0cbe ed34 823d 883a 68bd 4a98 c93d
000000f0: b36b c7bc 3b72 66bd dab7 8ebd e50f 29be
00000100: cc0b 873d 7c4f ab3d be13 c03d 4286 1e3e
00000110: c9d9 4e3c 3ec1 18bd 3090 7c3d e8b0 9b3d
00000120: 3429 e5bc d02a 953d 55ba efbb cff5 e93d
00000130: ea8a 92bd 6f69 f2bc be4f 2ebe cc8e 833e
00000140: d135 9ebc da49 81bd 2480 99bc 4ed6 a5bd
00000150: 0d6b abbb 6c48 4ebd 4127 00be 2294 94bd
00000160: 2ef5 c2bd 9f35 c2bc b173 a13d 62c7 89bc
00000170: 9de3 123e b9c2 993e 8c26 70be a85b ea3d
00000180: 5be0 da3b 8037 fdbd 0ae2 a3bd c5e2 53bd
00000190: ba2e 0d3e ad8e 023b aae6 993d 2b76 533d
000001a0: 6e0d 3a3a 1e22 353e ac15 323e 0e3f 293d
000001b0: 177a ecbd ff42 003d 1dbc 18bd 9e10 c03d
000001c0: eaa9 d4bd ecdb 92bd 47b4 243e 9a7e dcb9
000001d0: b367 d9bc 21c5 a0bd 2c30 123e c869 0f3c
000001e0: c411 3ebd 64b7 9dbd c335 01bd a7c4 a2bd
000001f0: e1cb bdbc 4922 56bb fb7d dd3d bf3b 5bbc
00000200: b7c5 443c 4601 bcbd daca a9bb f9db 613c
00000210: e6a1 b4bd 6c3e 06bd a4cf 03be 645c b23d
00000220: 27d7 aa3c ef05 6bbd cf1a 563d 7e4c 05be
00000230: eec2 623d b533 223e a79c 18bd da4b 593e
00000240: 75d5 1fbe db4a 1f3d 2614 5bbe ad55 f8bd
00000250: 71ef edbc 9c24 f2bc 5298 00bd 6890 223e
00000260: 11dc 7ebd ee97 4cbb 0322 473d 9aed 41bd
00000270: e0fe f7bb 4091 b13d 85cc 2dbe 8f4b c53d
00000280: ea9d 6e3e 0359 443d 0888 c1bc f79e 50bc
00000290: 55cf 113e 909f 2d3d 747b 883e 3b4d 613b
000002a0: bd0b 11bd 161a 533e f657 dc3c ef2c 26be
000002b0: 6e37 f2bc 7a51 6cbe 3493 e7bd e8a7 013c
000002c0: e94a ee3d 7960 5fbc 63fa 1e3e 7303 efbd
000002d0: 804b a8bd 55ac 1e3d a050 1dbd dc98 70bd
000002e0: 6efd 5cbc 6ce2 21bc ab8c fcbd d0d4 cc3d
000002f0: 278c cbbd dcfd 103e 2e92 d7bc 6f64 69bd
00000300: a8db 773d a896 303d c916 33bb 34ce 83bd
00000310: e937 003e 5e21 273b b5cf 17be 5735 72bd
00000320: 45d2 55bd 653a 8b3d 8917 6a3d 2abc 133e
00000330: 92eb 0ebe 680c 543d 987a 25bd 19c9 d9bd
00000340: 7398 4abd a1b0 6abd 93ef 2e3d 7991 1e3d
00000350: 5bf2 1b3d 043d 40bd 4e45 cfbd b63d b1bd
00000360: ca3b 913a bac0 37be a6b4 1cbd be44 343d
00000370: 8956 bfbd fb20 4d3d 7334 a4bd c3c1 82bb
00000380: 7d86 21be 55eb 833d 8c68 913d 24b2 3cbd
00000390: 4e4e 4cbe 94f0 f5bb 1b97 823d cc45 7e3e
000003a0: e3c0 16be 4d62 12bd 14a4 4b3c a9db 46bd
000003b0: 00a4 83bc b411 473e 41f5 d13b 530b 1f3e
000003c0: a9d5 9dbd 3d27 363e 634e 86bd 7877 a93d
000003d0: c8f8 a9bc 204d 933d 17f8 a63d 8e19 003b
000003e0: c326 ef3d 7d53 b13d 4517 a5bd 8869 3dbc
000003f0: 7ac3 a4bc ba1b a1bb 852b 87bd 00ca 1cbc
-0.018018074 0.20212518 0.07863355 -0.1664223 -0.032501604 0.017142849 -0.043608364 -0.1379008
0.1063449 0.12007186 -0.13833672 0.059808142 0.029925223 0.15145704 0.09684895 -0.005925426
0.019658806 0.1281454 0.019322827 -0.03165389 -0.05884089 0.14465298 -0.014249019 -0.057927936
-0.15141864 -0.018254358 -0.02748386 -0.022688184 0.040223103 -0.076072976 0.08798981 0.0009718586
-0.010719168 0.022802627 -0.06060389 -0.03493692 -0.005633329 -0.16429631 0.08969088 -0.027250394
-0.08161176 0.048995525 0.17173134 0.071585655 0.017773049 -0.20118426 -0.027500842 0.015874838
-0.01745233 0.12922268 0.014090199 -0.14521535 -0.06749297 0.116954826 0.12662588 -0.0042018774
-0.13691863 0.06357751 -0.056696445 0.098435 -0.024343347 -0.056261282 -0.06968661 -0.1650997
0.06594047 0.0836477 0.093787655 0.15480903 0.012625166 -0.037293665 0.061660945 0.076021016
-0.027973749 0.072835565 -0.0073159137 0.114238374 -0.07155402 -0.02959129 -0.17022607 0.25694883
-0.019312771 -0.06312914 -0.01873786 -0.08097516 -0.0052312673 -0.050362036 -0.12514974 -0.072548166
-0.095194206 -0.02370721 0.078833945 -0.016818706 0.1434464 0.30031374 -0.23452204 0.11443263
0.0066795773 -0.123641014 -0.08002098 -0.051729936 0.13787356 0.0019921467 0.07514699 0.051626366
0.0007097338 0.17688796 0.1739108 0.0413199 -0.11546724 0.031313892 -0.037288774 0.093781695
-0.10383971 -0.07170853 0.16084395 -0.00042055995 -0.026538705 -0.07850099 0.14276189 0.008753248
-0.04640366 -0.077009946 -0.03154541 -0.07947665 -0.023168506 -0.0032674244 0.108150445 -0.013380944
0.0120100295 -0.091799304 -0.0051816525 0.013785356 -0.08819942 -0.032774374 -0.12872177 0.08709028
0.020854546 -0.057378706 0.05227166 -0.1301746 0.05536168 0.15840037 -0.03725877 0.21220341
-0.15608771 0.038889747 -0.21394405 -0.12125716 -0.029044839 -0.029558472 -0.031395264 0.15875399
-0.06222159 -0.0031218487 0.04861642 -0.047345735 -0.0075682253 0.08670282 -0.1697255 0.09633552
0.23302427 0.04793645 -0.023624435 -0.012733213 0.14239247 0.0423885 0.26656687 0.0034378308
-0.035411585 0.2061542 0.026897412 -0.16228078 -0.029567447 -0.23077956 -0.11307374 0.007913567
0.11635382 -0.013633841 0.15525202 -0.1167058 -0.082175255 0.038738567 -0.038406968 -0.058739528
-0.013488157 -0.009880643 -0.12331518 0.10001528 -0.09938841 0.1415934 -0.026314821 -0.056980547
0.060512215 0.043112427 -0.0027326813 -0.064358145 0.12521328 0.0025502066 -0.14825328 -0.0591329
-0.05220248 0.06798247 0.05715135 0.14427248 -0.1395705 0.051769644 -0.040400118 -0.106340595
-0.049461793 -0.057297353 0.042708945 0.038712952 0.038072925 -0.04693319 -0.10120641 -0.086543486
0.0011080441 -0.17944613 -0.038258217 0.04401087 -0.09342677 0.05008028 -0.080178164 -0.0039903834
-0.1577396 0.064413704 0.07100019 -0.046068326 -0.19951746 -0.007505486 0.06376477 0.24831313
-0.14722018 -0.03573828 0.012429256 -0.048549328 -0.016069412 0.19440347 0.0064074104 0.15531664
-0.07706768 0.17788406 -0.0655792 0.0827474 -0.020748511 0.07192445 0.08152788 0.0019546482
0.11677315 0.08658502 -0.08061079 -0.011560805 -0.020112742 -0.0049166353 -0.066000976 -0.009569645

mixture_net.mol_attn_layers.0.ffn.layers.0.bias f4 [96]
00000000: 61f6 efbd 467a 2bbc 5e60 7b3c 5ab0 5a3c
00000010: 9423 dcbd ebc2 33bd a9ec 5d3d 9e87 0a3d
00000020: f81f 7d3d 47e5 7a3a ef55 173d 071e 78bd
00000030: 9bae b8bd 0b42 593d 4a88 863d 0045 82bd
00000040: b1a2 1b3d e849 b7bc c4bc 8fbd 3102 33bd
00000050: 000c 4c3b 6db2 abbc b08a 1dbc d370 ba3c
00000060: 1d5e a0bd 51e6 a7bd 6c52 a1bd 6261 96bd
00000070: 4910 823d 6722 9dbb 6342 2f3d ed23 0cbd
00000080: 8b50 a6bd 3ec3 49bc 31bd 95bd fb6a 5e3d
00000090: 9ef5 98bc be93 b8bd 3b5b c9bd c5ea fabc
000000a0: bcea 873d ba33 7e3d 8284 87bc 952f b6bb
000000b0: c091 913d a44b 783c 5670 8cbc b6cf d1bd
000000c0: 93cd 95ba 60ee 87bd e7a6 57bd 6283 8cbd
000000d0: acb7 59bd 97c2 40bc 82f5 aabd 852e 2a3d
000000e0: f7c5 d7bd efef c83b 8047 52bd 52f3 acbd
000000f0: 604a 57bc 37db 0cbe 3bde 0ebd aeb6 babd
00000100: adac 893b be11 4c39 5ade ec3c 0e03 4dbc
00000110: bba8 b8bd 957e 633d dda2 4dbd e57c 833a
00000120: 8ef6 903d 1ca6 eabd 4d03 eb3c 1c37 8dbd
00000130: 2966 48bd 80c4 10bd e8c2 c5bd 3ec0 f43c
00000140: 7bbf 9dbd 53ae 34bd 5727 0ebe ef30 90bc
00000150: 931b 53bd 908c 013d fdeb 7e3d 47b4 dbbd
00000160: 034d 2c3c afbb 3bbd df61 3e3d ec22 3ebd
00000170: b0b6 8fbd c0a3 7abd 9d45 7ebd da6b b6b9
-0.11716915 -0.010466164 0.0153428 0.01334771 -0.107489735 -0.04388706 0.054180775 0.03382074
0.061798066 0.0009570908 0.036947187 -0.06057551 -0.09017678 0.0530415 0.06568964 -0.06360817
0.03799695 -0.022374108 -0.07018426 -0.04370326 0.0031135082 -0.020959103 -0.009615585 0.022758877
-0.07830451 -0.08198226 -0.07877049 -0.07342793 0.063507624 -0.004795361 0.04278792 -0.03421395
-0.08120831 -0.012314616 -0.07311476 0.054301243 -0.018671807 -0.090125546 -0.09831854 -0.030629525
0.06636569 0.06206105 -0.016542677 -0.0055598714 0.07107878 0.015154753 -0.01714341 -0.10244696
-0.0011429064 -0.06637263 -0.052649405 -0.06860997 -0.05315368 -0.011765144 -0.08347608 0.04154827
-0.10535806 0.006132118 -0.05133772 -0.08444847 -0.013140291 -0.13755499 -0.034879904 -0.09116875
0.0042014928 0.00019461566 0.02891462 -0.012512935 -0.09016558 0.05554064 -0.050204147 0.0010031728
0.070782766 -0.11457464 0.028688097 -0.06895277 -0.048925553 -0.035343647 -0.09656316 0.029876824
-0.077025376 -0.04411156 -0.13882194 -0.017601458 -0.05153997 0.03162819 0.062236775 -0.107277445
0.010516408 -0.045833286 0.046480056 -0.046420023 -0.07017267 -0.06119132 -0.062078107 -0.000347941

mixture_net.mol_attn_layers.0.ffn.layers.2.weight f4 [96, 96]
00000000: e098 643e 636a 013e 05ce dcbd 4c01 d53d
00000010: 3cd3 d93d b215 b5bd 9648 4d3c d8de ee3c
00000020: 3c3a b83a 8e1c a93c 2b0d 793d b95a 16bc
00000030: a637 18bd dff4 1fbc 0134 42bc d3cb f9bd
00000040: ecfe 0dbd 1165 013e cae5 e43d 7ad9 c9bd
00000050: 8f40 8fbd 3469 f6bd 2781 1c3e ef01 22bc
00000060: 7496 2d3d 2e3c ff3d 93b3 da3d 1569 053e
00000070: e41d 943b e81b 2abd 5821 ab3d c7e5 11bd
00000080: 7b66 87bc e92c 2ebc 3311 95bd 2964 8fbd
00000090: 140a d73d e3d6 85bd 0031 52bd bad2 cdbd
000000a0: 7b92 c7bd af0b bfbc 0266 b7bd 9b50 0b3d
000000b0: 8145 cabd be20 da3d 8907 bfbd 3b4a 16be
000000c0: ef5f 913d 2732 cc3d 3ab4 babd fcce e53c
000000d0: 4984 f4bd cf8b 09bc b0a2 b03d 39a7 d7bd
000000e0: 51cb ffbc a548 c83d e0a8 3b3d 414e 2bba
000000f0: ba2d 45bb c309 0bbc e788 98bc 0e38 db3d
00000100: 49e7 8d3d f147 1fbd 6029 643d 4d0c dd3b
00000110: caea 3fbb e670 1cbd 44e7 b6bd 1e26 f33d
00000120: 62e4 ffbc 9281 cb3d 45ef fdb8 5d0f da3d
00000130: c5ed 03bd 9f51 913d a52f b8bd e3d5 fdbd
00000140: 6516 acbd 669b c63d 3532 bfbc 8e79 fd3c
00000150: c3f5 c2bd 4e7b 0e3e 2175 a2bd 7a01 203c
00000160: 7702 443d 93c7 01be 2253 2a3d 4f32 4a3b
00000170: 43fd e4bd 7598 d7bd ad11 283c d506 79bd
00000180: 4150 8d3d 1e19 1abd b4b5 28bd 52a9 a43c
00000190: 929c 3e3d a0fe 68bb 89ec 25bc f8c2 52bc
000001a0: 6857 b73c 45eb b2bd 0384 9dbc eb5d 4bbc
000001b0: 5634 66bc e1a5 b6bd 7add b33c 2590 f33c
000001c0: e250 cbbd d514 cb3c aa0b 54bd 88ab f6b9
000001d0: 68f4 ffbd 8b3d 033e f641 bcbd 3547 cd3d
000001e0: 3ec2 aebd da91 36bc 0917 f0bd 334b adbc
000001f0: 3c01 8cbd 4803 00bd 81d8 e6bd c7bf d4bd
00000200: 5a47 c53d 448b 94bd eff4 373d 62a7 9bbd
00000210: 7e4a cabd 5a46 f53d 0c72 94bd 3321 273d
00000220: 5128 fabd 0931 efbb 053e 49bc 76db a73c
00000230: 324a a13d a223 e7bc 423b 383d ed6d bbbd
00000240: f83c 0abd b1ac 0c3d 75dc b4bd e034 e6bc
00000250: e98a cb3d 5392 a8bb 09df 02bd e4f2 79bd
00000260: 44d5 7b3d fdaf 5abd 5f5f f23d 9219 37b8
00000270: f960 8d3d 6659 0e3d dca0 b33d 6904 0fbe
00000280: f14d 593d 743b 8b3d c636 adba 5fee db3c
00000290: c082 06be 932c a3bd 9b10 4a3d d41b 88bc
000002a0: 30ac 233d eea9 a1bd e09e 66bd 52ff 03bd
000002b0: 8673 f2bd 518f 783c 3e34 973d 8687 1a3c
000002c0: 6731 193d 5423 2b3d 199a 64bd a4f7 553d
000002d0: 0266 5fbd ac5f 95bd 225f a93d f217 c6bc
000002e0: 48e4 c23c e7d3 043d e0b5 b33d 8f98 cfbc
000002f0: 91ce 0abd 86f6 f93a aab6 00bd 1e7a 0dbd
00000300: 357d 0b3b d475 17be 95c2 b13c 0b9f 80bd
00000310: 1e6c ebbc fa0f cc3c 61d6 ba3d 8aa9 0ebd
00000320: 98a3 623c 897f e5bd ef1a 1abd 6f0b 25bd
00000330: a1f2 83bd ec46 223d 04b6 a43c d124 5bbd
00000340: 4ceb 0abe bbd5 c73c 3977 6e3d 9964 a53d
00000350: 874d 48bc 8497 813d 1f25 af3d b146 5d3d
00000360: f2b6 033e 9ac8 f8bc 2b29 623d 2795 fb3c
00000370: c012 9d3c c5f3 423d 74de 0f3e bcdf 3c3c
00000380: 61ce d53b 0e4a 113e a8c7 813c 2d05 ea3b
00000390: 627d 563d ec09 0abe 5ebe 8dbd ebc3 fa3c
000003a0: 3e71 073d fed4 b83d b769 cbbd 5026 3b3d
000003b0: 9141 8d3d bb7f b9bc a9de b2bd 59c6 55bd
000003c0: 713e 3e3d 046d e33c d64b 053d 66f0 8cba
000003d0: e72d 3fbd 92d0 0d3c 5b7e 683d f75b dabc
000003e0: e09c bebc bc2e 3a3d 12cf 7d3d 3f27 08bd
000003f0: 2d4c 1b3d 5654 32be 68d6 0a3c bbe0 e43d
0.22323942 0.1263824 -0.107814826 0.10400638 0.10635993 -0.08842029 0.012529513 0.029158995
0.0014055441 0.020643499 0.060803574 -0.009176903 -0.037162445 -0.009762972 -0.011853219 -0.121970795
-0.03466694 0.1263621 0.11176641 -0.098559335 -0.069947354 -0.12031785 0.15283643 -0.009888156
0.04237981 0.1246265 0.10678782 0.13028367 0.004520165 -0.04153052 0.08355969 -0.035619523
-0.016528359 -0.010630825 -0.07278671 -0.07001526 0.10499969 -0.06535127 -0.05131626 -0.100499585
-0.09744736 -0.023321 -0.08955003 0.03401242 -0.09876538 0.10650776 -0.09327609 -0.14676754
0.07098376 0.09970503 -0.09116407 0.0280528 -0.11939294 -0.008395149 0.0862478 -0.10529942
-0.031224879 0.09779481 0.04581535 -0.0006534793 -0.003008707 -0.008486214 -0.018619968 0.10704051
0.0692888 -0.038886968 0.05570352 0.006745851 -0.0029284232 -0.038193606 -0.08930829 0.11872505
-0.031236831 0.09936823 -0.000121085475 0.106474616 -0.032209177 0.07095646 -0.089934625 -0.12394311
-0.08402709 0.09697609 -0.02333937 0.03094175 -0.095195316 0.13914225 -0.07932497 0.009765977
0.047853913 -0.12673788 0.041583188 0.003085274 -0.11181118 -0.10527126 0.0102581205 -0.06079753
0.06900073 -0.03762161 -0.04118891 0.02010027 0.046536036 -0.003555216 -0.010127195 -0.012863867
0.022380546 -0.0873628 -0.019227987 -0.0124125285 -0.014050564 -0.08918358 0.021956194 0.02973182
-0.099275365 0.024790207 -0.051768936 -0.00047048577 -0.12497789 0.12816446 -0.091922686 0.10023347
-0.085331425 -0.011143172 -0.117231436 -0.021154022 -0.06836173 -0.03125313 -0.112717636 -0.10388141
0.0963275 -0.07253125 0.04491132 -0.07600285 -0.098774895 0.11976309 -0.07248315 0.040803146
-0.12214721 -0.0072995466 -0.012282853 0.02049039 0.0787548 -0.028215233 0.044978388 -0.09151826
-0.03374955 0.03434438 -0.08831111 -0.028101385 0.099386044 -0.0051443963 -0.031950984 -0.061022654
0.061482683 -0.05339049 0.11834597 -4.3654414e-05 0.06903262 0.034753226 0.08770916 -0.13966526
0.053052846 0.06798449 -0.0013215176 0.026847063 -0.13135815 -0.07967486 0.049332242 -0.016614832
0.039959133 -0.0789374 -0.05630386 -0.032225914 -0.118384406 0.015170888 0.07383011 0.009431725
0.03740063 0.04178174 -0.05581102 0.05223812 -0.05454064 -0.072936386 0.08270098 -0.02418134
0.023790494 0.03242865 0.08774924 -0.0253413 -0.033888403 0.0019070662 -0.031424202 -0.03454029
0.0021284346 -0.14791042 0.02169923 -0.06280335 -0.028738078 0.024909962 0.09122921 -0.034829654
0.013832949 -0.11205966 -0.037623342 -0.040294107 -0.06442762 0.039618418 0.020106323 -0.053501908
-0.13566321 0.024393907 0.05821917 0.08075828 -0.012225515 0.063277274 0.08552002 0.054022495
0.12862757 -0.030369092 0.055215042 0.03071077 0.01917398 0.047595758 0.14049703 0.011527952
0.0065248464 0.14188406 0.015842274 0.0071417303 0.052365668 -0.13480347 -0.06921075 0.030611
0.03306698 0.09025 -0.09932273 0.045690835 0.068972714 -0.022643914 -0.08733875 -0.052191112
0.046446268 0.027761944 0.032543026 -0.0010752797 -0.046674635 0.008655684 0.056761127 -0.02665518
-0.023268163 0.045454726 0.061965056 -0.033240553 0.037914444 -0.17414984 0.00847397 0.111756764
