scripts_chemix/results/chemix_ensemble/top8/chemix.pt (torch, 434410 bytes, 41 tensors)

input_net.weight f4 [64, 196]
0.03553284 -0.052348435 -0.008455159 -0.08605417 -0.00077540166 0.04423848 -0.06293074 -0.02670453
-0.04573383 0.012478606 0.022003535 -0.08982196 -0.052374642 0.008271206 0.07320487 0.036481168
0.005703062 0.06926979 0.029298473 0.034139674 -0.030468863 0.032686565 0.03794906 -0.07780479
-0.07592657 -0.06505441 0.07937349 0.111212835 0.08742433 0.023507588 0.104634374 0.041857544
0.039610058 0.026080383 -0.024299633 -0.005616141 -0.13007066 -0.088111766 0.02936024 0.015512679
-0.060254067 -0.039027635 0.060503297 -0.07827259 -0.023755228 0.018041689 -0.043310195 -0.075079694
-0.08020821 -0.07244348 0.014704424 0.05113213 -0.0094634695 -0.11945858 0.090670146 0.02361615
0.08884663 0.078625485 -0.019624462 0.048344657 0.062634856 0.012354919 -0.03762476 0.055659883
-0.07895858 0.011086232 -0.01845317 0.072798155 0.01339345 0.041444216 0.08128243 -0.026732473
-0.06276573 0.058772955 -0.07298681 -0.013433289 -0.07319117 -0.06898367 -0.016504036 0.06539162
0.17590073 0.052141048 0.0059320177 -0.037523814 0.089305356 -0.024457125 0.02084199 0.02697068
0.037187282 0.030077016 0.012265708 -0.0899717 0.047391094 -0.030566745 0.084283724 0.033324353
0.028009733 0.022326661 -0.0071982257 -0.08229686 -0.013583825 0.0005487632 -0.034587488 0.0065720486
0.05193581 0.10854666 0.003093761 0.0118884435 0.16796663 0.09072479 -0.078232594 0.038686
0.06346082 -0.07611438 -0.01903786 0.115758 0.09411948 0.0266597 0.073441274 0.048587557
0.040406734 -0.03538066 0.04969672 0.07460645 -0.019217521 0.039741766 0.03762838 0.029068626
0.012054151 0.034769148 0.028942307 0.066039644 -0.031040449 -0.026137589 0.010131341 0.019950235
-0.05698989 0.017675707 -0.00074952864 0.054993562 0.037430957 -0.031924758 -0.057243377 -0.09195525
0.055622954 0.040824432 -0.034185834 0.019794187 0.028775908 0.037049893 0.075084485 -0.052412465
-0.0070521 -0.05853256 0.024616726 0.069899395 0.10162793 0.11831605 0.006779585 -0.022189075
-0.072454534 -0.04524299 0.011333991 0.008345907 -0.03506018 0.028641121 -0.056880612 0.050750602
0.045959312 -0.01175676 0.10455588 -0.0057507586 -0.07996167 -0.065973625 -0.058269575 0.01918415
-0.04842857 -0.0019359221 0.0029875464 0.039486326 0.02086206 -0.07131583 0.059371725 0.041781127
0.09293438 -0.0014528027 -0.1709403 -0.04039131 -0.044262808 -0.029417953 0.069255695 -0.0116181355
0.021438884 0.04196274 -0.0069055776 0.10036143 0.029050821 0.035523914 0.021634016 -0.09183532
-0.09142385 0.03235328 0.10668978 0.046209548 -0.04643286 -0.021559684 0.059021585 0.09270491
-0.09636387 0.023425415 0.06400695 -0.065867655 0.0070150755 -0.0924322 0.01720222 0.023844514
-0.004276392 0.083819516 -0.031545103 -0.022904908 -0.053208224 -0.04078733 0.0087314965 -0.09064645
-0.018136302 0.13213268 0.118174024 -0.02384757 -0.020133924 -0.033928134 -0.03282374 0.064976215
0.008657672 -0.0034037675 -0.13676637 -0.08127857 -0.04203383 0.0502967 -0.02586611 -0.00685076
-0.07509164 0.024814598 -0.07025124 0.014532232 -0.08556131 -0.08406713 -0.019901503 -0.05188462
0.10813526 -0.081529714 0.03625804 0.01868565 -0.038663328 -0.033681 0.05848889 -0.038608927
00000000: e28a 113d 506b 56bd 8287 0abc 2b3d b0bd
00000010: 5344 4bba 6933 353d d5e1 80bd 75c3 dabc
00000020: 6653 3bbd 1173 4c3c c240 b43c 93f4 b7bd
00000030: cb86 56bd f483 073c 6fec 953d 476d 153d
00000040: c0e0 ba3b 52dd 8d3d 5a03 f03c 0bd6 0b3d
00000050: d699 f9bc 59e2 053d 7970 1b3d 1e58 9fbd
00000060: 647f 9bbd 3f3b 85bd 918e a23d 8ec3 e33d
00000070: 870b b33d fc92 c03c 8c4a d63d d172 2b3d
00000080: 283e 223d 87a6 d53c 0610 c7bc 9b07 b8bb
00000090: 3e31 05be f173 b4bd e384 f03c e428 7e3c
000000a0: f8cc 76bd 71db 1fbd 4ed2 773d 614d a0bd
000000b0: 539a c2bc 2acc 933c 0866 31bd 62c3 99bd
000000c0: 3444 a4bd 3f5d 94bd d3ea 703c ed6f 513d
000000d0: ab0c 1bbc b3a6 f4bd 45b1 b93d a876 c13c
000000e0: 39f5 b53d 6606 a13d 7bc3 a0bc 0c05 463d
000000f0: b446 803d 496c 4a3c 6c1c 1abd 9efb 633d
00000100: 09b5 a1bd 07a3 353c 1a2b 97bc 3317 953d
00000110: 3370 5b3c 69c1 293d 6777 a63d 0ffe dabc
00000120: 528b 80bd e9bb 703d 1c7a 95bd 4c17 5cbc
00000130: 41e5 95bd 4f47 8dbd 7933 87bc 0bec 853d
00000140: 521f 343e da91 553d 5f61 c23b 92b2 19bd
00000150: bae5 b63d 4f5a c8bc d2bc aa3c 9ef1 dc3c
00000160: b151 183d 1364 f63c 1cf6 483c 1543 b8bd
00000170: 2a1d 423d 1c67 fabc f29c ac3d 1e7f 083d
00000180: ab74 e53c 67e6 b63c 18df ebbb 428b a8bd
00000190: b18e 5ebc e0da 0f3a 9cab 0dbd 575a d73b
000001a0: a5ba 543d b64d de3d b2c0 4a3b bfc7 423c
000001b0: 72ff 2b3e ebcd b93d 6938 a0bd 3675 1e3d
000001c0: bff7 813d dbe1 9bbd 49f5 9bbc 8812 ed3d
000001d0: b7c1 c03d 7165 da3c 6168 963d bf03 473d
000001e0: 8881 253d 50eb 10bd ca8e 4b3d 44cb 983d
000001f0: 106e 9dbc 43c8 223d 3720 1a3d 5421 ee3c
00000200: c67e 453c 186a 0e3d 6b18 ed3c cb3f 873d
00000210: 8a48 febc 7f1e d6bc edfd 253c ad6e a33c
00000220: 3b6e 69bd a5cc 903c 047c 44ba ee40 613d
00000230: 3451 193d 89c3 02bd 0878 6abd 0953 bcbd
00000240: e5d4 633d 8537 273d 7206 0cbd 6b27 a23c
00000250: 74bb eb3c a1c1 173d e5c5 993d 74ae 56bd
00000260: 4d15 e7bb d6bf 6fbd 04a9 c93c 6a27 8f3d
00000270: 4e22 d03d af4f f23d 4827 de3b ddc5 b5bc
00000280: 0b63 94bd b750 39bd 34b2 393c 45bd 083c
00000290: 439b 0fbd c9a0 ea3c a5fb 68bd dddf 4f3d
000002a0: d53f 3c3d 6d9f 40bc 6521 d63d dc70 bcbb
000002b0: f2c2 a3bd 2e1d 87bd 14ac 6ebd 1428 9d3c
000002c0: 095d 46bd c4be fdba b6ca 433b 6abc 213d
000002d0: e9e6 aa3c 090e 92bd c42f 733d b022 2b3d
000002e0: 6154 be3d f86b beba f90a 2fbe 5c71 25bd
000002f0: eb4c 35bd ebfd f0bc eed5 8d3d fe59 3ebc
00000300: 99a0 af3c 1fe1 2b3d 2f48 e2bb 4b8a cd3d
00000310: fdfb ed3c 8681 113d d239 b13c 2814 bcbd
00000320: 6d3c bbbd df84 043d 2c80 da3d 3946 3d3d
00000330: 6230 3ebd ef9d b0bc 9ec0 713d 12dc bd3d
00000340: 6c5a c5bd a8e6 bf3c 1316 833d 9fe5 86bd
00000350: b8de e53b 184d bdbd aceb 8c3c 9255 c33c
00000360: fa20 8cbb 91a9 ab3d 7035 01bd 13a3 bbbc
00000370: def0 59bd 9e10 27bd 8d0e 0f3c d9a4 b9bd
00000380: 9592 94bc ca4d 073e 3905 f23d fb5b c3bc
00000390: e6ef a4bc 3af8 0abd 3072 06bd 4012 853d
000003a0: e9d8 0d3c be11 5fbb 7c0c 0cbe 6175 a6bd
000003b0: aa2b 2cbd ea03 4e3d 2ae5 d3bc 577c e0bb
000003c0: a5c9 99bd fc47 cb3c e2df 8fbd 9918 6e3c
000003d0: c53a afbd 632b acbd 7a08 a3bc f884 54bd
000003e0: 0576 dd3d 0df9 a6bd 5083 143d a612 993c
000003f0: 705d 1ebd 17f5 09bd 0c92 6f3d 6524 1ebd

input_net.bias f4 [64]
-0.0077166674 -0.043598276 0.07794263 -0.00823864 -0.04771166 -0.053319097 -0.02975748 0.04058328
0.03908944 0.012604779 0.034521215 0.053512122 -0.015288511 0.047661897 -0.058659934 -0.019403385
0.044859134 -0.030609306 -0.07210076 -0.051154047 -0.033192802 0.06355357 -0.0059616063 -0.0034291537
0.042868156 -0.010125726 0.050110567 -0.06142333 -0.03991482 0.0065403427 0.0063310354 -0.004387312
0.0633357 -0.04386434 0.033595644 0.013414903 0.017067024 0.04792423 0.024528567 0.02756082
0.00470848 -0.0026443843 -0.01885438 0.0015823271 0.049701728 0.0017312556 0.077649035 -0.056932595
0.071391515 -0.054515366 -0.031464003 0.036994245 -0.020155188 0.028772343 -0.030135937 0.04647804
-0.0009899767 -0.045960914 0.0072854087 0.053067233 -0.0077467533 -0.049868267 -0.04582795 0.038908914
00000000: 19dc fcbb 1b94 32bd 63a0 9f3d 5cfb 06bc
00000010: 4d6d 43bd 2065 5abd f5c5 f3bc a73a 263d
00000020: 401c 203d 4684 4e3c 1e66 0d3d 872f 5b3d
00000030: aa7c 7abc 1f39 433d 6645 70bd d9f3 9ebc
00000040: 36be 373d 5ec0 fabc 90a9 93bd e886 51bd
00000050: 2df5 07bd 6028 823d 9459 c3bb a7bb 60bb
00000060: 8596 2f3d 60e6 25bc bd40 4d3d 0897 7bbd
00000070: b97d 23bd 5f50 d63b 9374 cf3b 71c3 8fbb
00000080: 26b6 813d 18ab 33bd 969b 093d 2eca 5b3c
00000090: 25d0 8b3c 334c 443d 22f0 c83c 3bc7 e13c
000000a0: 9849 9a3b 684d 2dbb 8074 9abc 1666 cf3a
000000b0: 0a94 4b3d 4ceb e23a 7506 9f3d 2732 69bd
000000c0: b735 923d 814b 5fbd 66e0 00bd 4787 173d
000000d0: 7e1c a5bc fab3 eb3c a4df f6bc c25f 3e3d
000000e0: 1bc2 81ba 8341 3cbd 70ba ee3b 075d 593d
000000f0: 7ad8 fdbb ab42 4cbd 17b6 3bbd f45e 1f3d

mixture_net.mol_attn_layers.0.self_attn_layer.in_proj_weight f4 [192, 64]
-0.007935452 0.061228577 -0.115306444 0.04847432 -0.06956905 -0.1287669 -0.07956214 -0.07276348
0.07004328 -0.06953724 0.034310717 -0.038453482 0.022098988 -0.08824997 -0.008428169 0.22476417
-0.04470893 -0.036509287 0.04670468 0.0077879536 0.1724853 0.07308956 -0.04168819 -0.07581547
0.17029333 -0.054529462 -0.07727394 0.16056143 0.18916929 -0.123581536 0.009990083 0.034821823
0.05569284 0.15018868 -0.008797189 -0.056422554 0.15323946 0.07789236 0.09228873 -0.12571323
-0.05729135 0.15671846 -0.06726629 -0.12591222 -0.0371229 0.038830496 0.14798358 -0.05425968
-0.003178846 0.040095914 0.16000952 -0.061328113 0.03477822 0.19029906 -0.078216955 0.072794095
-0.0023619574 0.0149498675 -0.10913191 0.055704486 0.21572608 0.073230945 -0.10587753 0.107184395
0.0775491 -0.018672943 0.14015225 -0.018597351 0.036913816 -0.0246686 -0.06658812 0.18870112
0.08312103 0.0545994 -0.13621138 -0.02306365 0.15908843 0.03271351 0.022812478 0.02093899
0.08622192 0.1813988 -0.047685232 -0.12511657 0.11233051 0.0015982565 -0.06625719 -0.03603652
-0.15013 -0.21904501 0.02211839 -0.10570228 0.057925485 0.094788 0.04487449 -0.13273759
-0.04883927 0.09643956 0.2009814 -0.1265042 -0.109834544 0.08938546 0.018580247 0.22567803
0.0627743 -0.08744849 -0.0023951835 -0.21638241 -0.08826913 -0.008901849 0.05538428 0.011658572
-0.07735479 0.057771593 0.011088304 -0.112609826 0.10577607 -0.10057034 -0.0630699 -0.04652867
-0.15407997 -0.22437596 -0.10650389 -0.030785462 -0.08159236 -0.12729774 -0.12196022 0.11615828
0.07143054 0.062193844 0.07723944 -0.03419349 -0.14188378 -0.062229287 -0.036158625 0.1572643
0.0036967658 0.0665813 -0.0951396 -0.115785964 0.13920411 -0.03338303 0.10722955 0.029114738
0.014854324 0.124434866 0.14630611 -0.15275401 -0.075329 0.01203502 -0.013833135 0.06574976
0.17994034 -0.23406906 -0.0011476338 0.12926823 -0.120385684 0.01472781 0.13202286 -0.016438155
-0.052207164 -0.023898354 0.045452453 -0.08792667 0.102574475 -0.1542058 0.024705285 0.1880754
-0.047783174 -0.030188413 0.038346577 -0.06240457 0.14633822 0.024887653 0.046372507 0.12112142
-0.0978868 -0.07628669 0.15184118 -0.03505902 -0.14200333 0.006699607 -0.0062440913 -0.028481549
0.1607542 0.09378061 0.009122822 0.15877555 -0.09659117 0.122442156 -0.1500932 -0.08460116
0.17021178 -0.05465048 -0.04665895 0.04509649 0.007869809 -0.0035847607 0.039755628 0.08630255
0.015582903 0.08764912 0.1331702 -0.04027544 0.06768475 -0.14802171 -0.022966133 -0.03839732
-0.123889856 0.19602606 -0.050867546 0.05638925 -0.010076819 -0.0046765497 0.08450453 0.07678257
0.013843043 -0.011986823 0.11885165 0.115640245 -0.12220259 0.077734254 -0.1519818 -0.062354844
0.042434644 -0.023630751 -0.055229735 -0.085467264 -0.06718998 -0.054156397 -0.07055326 0.11739873
0.014680474 0.12033629 0.032992344 0.014120685 0.11250348 -0.011829297 -0.075107634 -0.030670077
-0.156641 0.093311615 -0.069893144 -0.1267472 -0.023309203 0.11850633 -0.14030726 0.04860952
-0.016973384 0.030259356 0.052314423 0.039920118 -0.16001196 0.06149867 -0.10304228 -0.15451147
00000000: b303 02bc d1ca 7a3d c925 ecbd 028d 463d
00000010: 387a 8ebd 78db 03be 7af1 a2bd 0505 95bd
00000020: da72 8f3d 8a69 8ebd 6589 0c3d 6681 1dbd
00000030: f008 b53c 66bc b4bd 4e16 0abc 9428 663e
00000040: b620 37bd c38a 15bd 684d 3f3d 1732 ff3b
00000050: fd9f 303e fbaf 953d 3cc1 2abd 2445 9bbd
00000060: 6061 2e3e 495a 5fbd cd41 9ebd 376a 243e
00000070: 98b5 413e 5118 fdbd 72ad 233c 54a1 0e3d
00000080: 2d1e 643d 10cb 193e 1622 10bc 561b 67bd
00000090: ceea 1c3e 0886 9f3d e001 bd3d f8ba 00be
000000a0: 56aa 6abd ce7a 203e e9c2 89bd 22ef 00be
000000b0: 2f0e 18bd ba0c 1f3d 0289 173e 663f 5ebd
000000c0: 3054 50bb 9d3b 243d 89d9 233e 3033 7bbd
000000d0: 9b73 0e3d c2dd 423e 3630 a0bd 1215 953d
000000e0: 12cb 1abb 4af0 743c 8d80 dfbd 632a 643d
000000f0: 4ce7 5c3e 1bfa 953d 52d6 d8bd 7e83 db3d
00000100: 10d2 9e3d 00f8 98bc 1284 0f3e 7959 98bc
00000110: f132 173d ce15 cabc 5a5f 88bd de3a 413e
00000120: 5c3b aa3d 9fa3 5f3d ff7a 0bbe fbef bcbc
00000130: 14e8 223e 9afe 053d 3ce1 ba3c 3f88 ab3c
00000140: 1e95 b03d 9bc0 393e 9751 43bd 8f1e 00be
00000150: 8a0d e63d 977c d13a dab1 87bd 089b 13bd
00000160: aebb 19be 564d 60be a031 b53c 707a d8bd
00000170: 4643 6d3d 3620 c23d 50ce 373d 5dec 07be
00000180: b00b 48bd 1b82 c53d 11ce 4d3e 518a 01be
00000190: eff0 e0bd b90f b73d 9a35 983c 2418 673e
000001a0: d08f 803d 3218 b3bd 83f8 1cbb 5a93 5dbe
000001b0: 72c6 b4bd 10d9 11bc a0da 623d 9803 3f3c
000001c0: 306c 9ebd e8a1 6c3d b8ab 353c fb9f e6bd
000001d0: 20a1 d83d d3f7 cdbd cb2a 81bd d994 3ebd
000001e0: 24c7 1dbe d0c2 65be b61e dabd cb31 fcbc
000001f0: e519 a7bd 575a 02be 48c6 f9bd 64e4 ed3d
00000200: 2d4a 923d f9be 7e3d b62f 9e3d 790e 0cbd
00000210: fb49 11be 23e4 7ebd 111b 14bd e509 213e
00000220: 7045 723b c75b 883d 8dd8 c2bd 3121 edbd
00000230: 868b 0e3e a5bc 08bd 2b9b db3d 0882 ee3c
00000240: 8d5f 733c b5d7 fe3d 45d1 153e 8c6b 1cbe
00000250: 1746 9abd 882e 453c 60a4 62bc cfa7 863d
00000260: 4842 383e cdaf 6fbe 336c 96ba e45e 043e
00000270: c58c f6bd ea4c 713c 0031 073e 4fa9 86bc
00000280: 2ed7 55bd 7bc6 c3bc 5a2c 3a3d e612 b4bd
00000290: 9112 d23d 20e8 1dbe bd62 ca3c d696 403e
000002a0: 4ab8 43bd b14d f7bc 4d11 1d3d ef9b 7fbd
000002b0: b0d9 153e 31e1 cb3c 19f1 3d3d 820e f83d
000002c0: e078 c8bd 323c 9cbd 417c 1b3e 0c9a 0fbd
000002d0: 5269 11be 6088 db3b 3c9b ccbb 2352 e9bc
000002e0: c09c 243e 0c10 c03d e477 153c 0f96 223e
000002f0: 97d1 c5bd f4c2 fa3d 08b2 19be 5f43 adbd
00000300: ff4b 2e3e 2fd9 5fbd 751d 3fbd 19b7 383d
00000310: 5ff0 003c 4eee 6abb ccd6 223d 64bf b03d
00000320: 6f4f 7f3c 6281 b33d c55d 083e dcf7 24bd
00000330: 4d9e 8a3d 0193 17be 7923 bcbc 8246 1dbd
00000340: f7b9 fdbd 0ebb 483e 7d5a 50bd 6af8 663d
00000350: 3e19 25bc be3d 99bb b610 ad3d 2e40 9d3d
00000360: eecd 623c 6164 44bc 7e68 f33d cbd4 ec3d
00000370: 5a45 fabd 2333 9f3d 1ea1 1bbe cb67 7fbd
00000380: f3cf 2d3d 4795 c1bc 9338 62bd 7609 afbd
00000390: e69a 89bd 19d3 5dbd 3a7e 90bd bf6e f03d
000003a0: 5f86 703c df72 f63d fb22 073d 725a 673c
000003b0: 3968 e63d abcf 41bc 08d2 99bd d03f fbbc
000003c0: 8066 20be 291a bf3d 2324 8fbd 05ca 01be
000003d0: f1f2 bebc 72b3 f23d b5ac 0fbe c71a 473d
000003e0: c40b 8bbc 78e2 f73c a647 563d 4783 233d
000003f0: 2dda 23be 08e6 7b3d d507 d3bd 4138 1ebe

mixture_net.mol_attn_layers.0.self_attn_layer.in_proj_bias f4 [192]
-0.029214656 -0.031245388 0.047326136 0.014678137 -0.020370282 0.11865129 0.042913966 -0.006312369
0.0017012852 0.015492848 0.037334293 -0.10168531 0.090052076 -0.0017055314 0.084617615 0.006047096
0.057797585 0.0047722408 -0.041679133 0.015701214 -0.043868147 0.019931983 -0.041472446 0.061995424
0.025089476 -0.01827418 -0.017507995 0.00271537 -0.015882678 -0.0069940235 -0.0029237906 0.033125095
0.032254767 -0.011194337 0.019034 -0.0077280044 0.015502263 -0.06662377 0.015104051 0.038261488
0.0040041637 -0.0877675 -0.059733834 0.011712991 0.075570464 0.004982269 0.0044813235 0.0014535757
0.048709836 0.0037905588 -0.030363845 0.039817985 0.008264826 -0.014478752 -0.015946962 -0.0031183495
-0.016361024 0.008770871 -0.0004893401 0.014532829 -0.045004986 0.02131056 -0.044410978 -0.018453162
-1.385677e-05 -5.241398e-07 5.523187e-05 -2.3151936e-06 -2.5182107e-05 8.01684e-05 2.0127172e-05 2.9851051e-05
-1.9818546e-05 5.8795385e-06 -2.3330792e-06 -8.2549304e-05 6.0779905e-05 -3.781859e-05 7.5784366e-05 3.535889e-05
-5.3448784e-05 2.2310072e-05 7.270226e-05 -1.6053034e-06 4.7568712e-05 2.1167645e-05 1.0731009e-05 -3.560215e-05
-9.397779e-06 1.2141266e-05 4.1676158e-05 -3.1981657e-05 1.2697488e-05 -4.7049125e-06 -1.7843613e-05 -3.2072672e-05
-2.1158608e-05 2.3248936e-06 1.5415231e-05 1.6244478e-06 -1.3694413e-05 -1.3108332e-05 -8.980801e-06 -5.827977e-06
-2.0822581e-05 -5.257599e-07 6.629322e-07 2.0955691e-05 -1.2515175e-05 4.984066e-06 1.8315954e-05 -6.1507503e-06
5.9736678e-05 -1.2746267e-05 2.0118141e-05 4.723426e-06 -1.2651891e-05 -2.0550246e-05 -1.3753026e-05 1.1209481e-05
-2.3612322e-06 -5.7843454e-06 1.92114e-05 -1.0937867e-05 -3.4339195e-05 1.4898016e-05 -1.0389795e-05 1.31137385e-05
-0.032940928 0.0006420218 -0.02160316 -0.0095511135 0.010759326 -0.021504132 0.014777647 -0.01591281
-0.0051583005 0.0058533237 -0.025552582 -0.00833348 -0.02622127 0.018940859 0.014594864 -0.0028617366
-0.008834604 0.017316092 -0.016981762 0.010162224 0.019749174 -0.04232757 -0.017218841 -0.007865731
-0.010893462 -0.029251577 0.009585871 0.017741282 -0.009638065 0.00636432 0.012489176 0.03577032
0.02055929 0.020286426 0.0038732365 0.026018366 -0.0029882386 0.0054951054 -0.010602369 -0.0126650445
-0.009452739 -0.031234076 -0.003277878 -0.019728959 -0.012773143 0.012442217 0.0008068714 0.012190775
-0.023568748 -0.0039735925 -0.016622748 0.00010001268 0.0016335502 -0.015408838 0.022311162 -0.019796405
0.011042147 0.012913793 -0.013703763 -0.0030010764 0.014188731 -0.061630584 0.021258513 0.0026652657
00000000: 9353 efbc 54f6 ffbc 0dd9 413d 927c 703c
00000010: 94df a6bc 73ff f23d 8ec6 2f3d fdd7 cebb
00000020: a9fd de3a b7d5 7d3c d8eb 183d 6340 d0bd
00000030: 396d b83d 238c dfba 004c ad3d b826 c63b
00000040: 29bd 6c3d 7560 9c3b bdb7 2abd d59f 803c
00000050: 16af 33bd 6648 a33c 03df 29bd eaee 7d3d
00000060: 7288 cd3c bcb3 95bc ed6c 8fbc 59f4 313b
00000070: 641c 82bc 1f2e e5bb 119d 3fbb 2eae 073d
00000080: 931d 043d 7468 37bc 31ed 9b3c 333b fdbb
00000090: 34fd 7d3c 0b72 88bd fb76 773c 14b8 1c3d
000000a0: 5c35 833b 72bf b3bd 77ab 74bd d8e7 3f3c
000000b0: b0c4 9a3d 4d42 a33b 11d8 923b e885 be3a
000000c0: f783 473d 066b 783b 99bd f8bc 2f18 233d
000000d0: 3169 073c 4a38 6dbc 34a3 82bc 395d 4cbb
000000e0: 8e07 86bc b3b3 0f3c 0f47 00ba 1a1b 6e3c
000000f0: 2657 38bd 7c93 ae3c 49e8 35bd 162b 97bc
00000100: 607a 68b7 9db2 0cb5 c5a8 6738 b95e 1bb6
00000110: 2a3e d3b7 1520 a838 c6d6 a837 a568 fa37
00000120: 0140 a6b7 da48 c536 ff91 1cb6 521e adb8
00000130: eded 7e38 679f 1eb8 6cee 9e38 524e 1438
00000140: 322e 60b8 8426 bb37 bb77 9838 ce75 d7b5
00000150: 8484 4738 2c91 b137 5509 3437 8453 15b8
00000160: 27ab 1db7 57b2 4b37 6fcd 2e38 0b24 06b8
00000170: 4c07 5537 e4de 9db6 deae 95b7 c585 06b8
00000180: c47d b1b7 5e05 1c36 f54f 8137 9a07 da35
00000190: 0ec1 65b7 dbeb 5bb7 3fac 16b7 f18d c3b6
000001a0: 27ac aeb7 f221 0db5 5bf4 3135 01ca af37
000001b0: 44f8 51b7 cd3c a736 36a5 9937 8b62 ceb6
000001c0: c58d 7a38 cdd8 55b7 61c3 a837 ec7d 9e36
000001d0: 7543 54b7 5163 acb7 ccbc 66b7 5b10 3c37
000001e0: a975 1eb6 2617 c2b6 2b28 a137 c881 37b7
000001f0: 6e07 10b8 7ef2 7937 d44f 2eb7 1403 5c37
00000200: 11ed 06bd 5b4d 283a 1cf9 b0bc 467c 1cbc
00000210: e247 303c 6f29 b0bc f21d 723c 955b 82bc
00000220: f606 a9bb 3dcd bf3b a653 d1bc 2689 08bc
00000230: fdcd d6bc dc29 9b3c 4c1f 6f3c f98b 3bbb
00000240: 04bf 10bc 7ada 8d3c 561d 8bbc 757f 263c
00000250: 05c9 a13c ad5f 2dbd 870e 8dbc 44df 00bc
00000260: 7e7a 32bc 01a1 efbc 0f0e 1d3c 2a56 913c
00000270: f9e8 1dbc c98b d03b 679f 4c3c e683 123d
00000280: f56b a83c b82f a63c 20d6 7d3b 7824 d53c
00000290: 53d6 43bb 4910 b43b 8fb5 2dbc 0c81 4fbc
000002a0: a9df 1abc 9bde ffbc abd1 56bb a09e a1bc
000002b0: 7246 51bc 71da 4b3c 3984 533a d1bb 473c
000002c0: 3f13 c1bc e934 82bb 6e2c 88bc e6bd d138
000002d0: d91c d63a 5a75 7cbc e6c5 b63c 122c a2bc
000002e0: 1fea 343c 6094 533c bf85 60bc b5ad 44bb
000002f0: da77 683c 5a70 7cbd 5526 ae3c bdab 2e3b

mixture_net.mol_attn_layers.0.self_attn_layer.out_proj.weight f4 [64, 64]
-0.06199498 -0.034423977 0.029428883 0.06757773 0.07195749 0.03789675 -0.10515092 0.021456385
-0.053809535 -0.014055995 -0.02798025 -0.1227349 0.07728309 -0.03342375 -0.021230308 -0.021050802
-0.0688553 0.046701398 -0.0019248101 0.010314614 0.06359321 0.038886294 -0.037087288 0.044736307
-0.063642144 -0.106596336 0.013577205 0.0025752836 -0.06210783 -0.07139797 -0.062257532 0.007341274
0.0139928255 -0.016618669 0.05618324 0.057086054 -0.09006326 -0.01052054 0.08281719 -0.038576484
-0.10156471 -0.029461034 -0.036614135 -0.03593971 -0.06441422 -0.030169321 0.065530464 -0.05028652
0.064762674 -0.04969001 -0.012990491 -0.012058567 -0.028066436 -0.049304616 -0.10120809 -0.0932214
0.1256987 -0.03727521 -0.027625704 0.02318819 0.048399527 -0.01220912 -0.08272426 -0.038797963
-0.058524005 0.02718417 -0.04352284 -0.024492277 0.17099188 -0.059833642 -0.0110653965 -0.057734035
0.05484103 0.06481295 0.075221844 0.037746504 -0.003058265 -0.03864129 0.07119932 0.026150057
0.13383254 -0.04106672 0.043763146 0.052030057 -0.028941646 -0.02633024 0.022796584 -0.025552467
-0.09446644 0.007006181 0.011408725 -0.05370749 -0.07576248 0.119878456 -0.01716351 0.020740617
0.02919301 -0.057758085 -0.022959918 0.010097995 0.022374276 -0.01129986 -0.09248549 -0.062133826
0.075088345 0.01055489 0.038521867 0.017010052 -0.0017888263 0.057844076 -0.030587368 -0.10044306
-0.06312819 -0.09599804 -0.08650488 -0.07572512 -0.03811892 0.16586116 -0.04148 0.05967692
-0.06704094 0.097732246 -0.024845753 -0.0013538587 0.0055043316 -0.09705766 0.07147489 0.07781595
0.09260633 -0.015495296 -0.1063398 0.055511676 -0.0825978 0.11030612 0.040098507 0.03512678
0.03331169 0.024593612 0.06461448 0.07417147 0.018718107 0.07415508 -0.009571322 0.03353092
0.06581456 -0.021819899 0.0125602 -0.014665329 -0.08846696 -0.038117796 -0.03557752 0.13084386
-0.075023405 -0.030259155 0.12771805 -0.10589511 -0.059616007 -0.014921645 0.035990313 0.11182152
-0.07854263 0.03642448 0.06685151 0.03979646 -0.04153956 0.028871436 0.0026661062 0.029156698
0.010129254 -0.01841132 0.076820046 -0.030748164 0.018084846 -0.0823347 0.01674028 0.10696603
-0.12475845 -0.04418516 0.0553256 -0.016986096 -0.0155208185 -0.02346405 -0.038959447 0.0562861
0.008180308 -0.03702799 -0.077025555 0.047220748 -0.11673976 0.047881562 -0.111071356 0.053352702
0.10269644 -0.07182303 0.020990105 0.016148679 -0.025998708 -0.010602568 -0.02428459 0.06275782
0.09563579 0.060706113 0.0199967 -0.08167963 -0.050126817 -0.0215048 -0.13827978 -0.018093923
-0.049178354 0.062668875 0.015524958 -0.04541438 0.053189036 -0.011848577 0.11479021 0.13518418
-0.016236003 3.203153e-05 0.0065341713 0.029303761 -0.035761293 0.0242521 -0.011157909 0.004482275
-0.04714256 0.099127404 -0.036238797 0.009596197 0.028742082 0.009985515 0.063876435 -0.03803769
0.07494578 -0.0341121 0.0034010662 -0.060055923 0.031908184 -0.036944248 -0.06880378 -0.00041325862
-0.015168352 -0.075782195 0.07870584 -0.06903605 -0.11013002 -0.06857408 0.044800747 -0.052140817
-0.10851604 -0.042520177 0.11546355 -0.046623487 -0.077137545 -0.0091694 -0.01893839 0.03114413
00000000: 73ee 7dbd 2800 0dbd d714 f13c 3166 8a3d
00000010: 735e 933d 9f39 1b3d 5e59 d7bd 4dc5 af3c
00000020: 6367 5cbd 1e4b 66bc d636 e5bc 6f5c fbbd
00000030: 9946 9e3d 58e7 08bd 2feb adbc bb72 acbc
00000040: 0204 8dbd f749 3f3d e949 fcba a0fe 283c
00000050: 283d 823d 3c47 1f3d d7e8 17bd 6b3d 373d
00000060: d056 82bd 2e4f dabd ed72 5e3c 17c6 283b
00000070: c864 7ebd 1939 92bd c101 7fbd 128f f03b
00000080: 2a42 653c e023 88bc 6620 663d 11d3 693d
00000090: 1673 b8bd 585e 2cbc 0f9c a93d 6002 1ebd
000000a0: 2901 d0bd 4458 f1bc b4f8 15bd 8435 13bd
000000b0: 9aeb 83bd a725 f7bc d634 863d 3df9 4dbd
000000c0: 4ba2 843d c087 4bbd 12d6 54bc 4c91 45bc
000000d0: 95eb e5bc a3f3 49bd 3046 cfbd ddea bebd
000000e0: 29b7 003e e4ad 18bd 4d4f e2bc 29f5 bd3c
000000f0: 953e 463d c308 48bc 566b a9bd 9dea 1ebd
00000100: deb6 6fbd 56b1 de3c 0145 32bd 07a4 c8bc
00000110: 7f18 2f3e 1f14 75bd a34b 35bc 867a 6cbd
00000120: fda0 603d a7bc 843d e90d 9a3d 149c 1a3d
00000130: 2c6d 48bb 5446 1ebd f3d0 913d a538 d63c
00000140: 660b 093e 9435 28bd fc40 333d 781d 553d
00000150: 0817 edbc 84b2 d7bc e7bf ba3c 6853 d1bc
00000160: 9f77 c1bd 1b94 e53b a9eb 3a3c 63fc 5bbd
00000170: 5c29 9bbd d682 f53d 7d9a 8cbc 3ae8 a93c
00000180: 2e26 ef3c be93 6cbd 7016 bcbc 1072 253c
00000190: 424a b73c 0c23 39bc 0869 bdbd 0a80 7ebd
000001a0: ebc7 993d 6bee 2c3c 1bc9 1d3d aa58 8b3c
000001b0: 0d77 eaba e9ed 6c3d 5c92 fabc 17b5 cdbd
000001c0: 5a49 81bd 9f9a c4bd 7829 b1bd c615 9bbd
000001d0: 9622 1cbd 82d7 293e efe6 29bd c96f 743d
000001e0: c34c 89bd d827 c83d 5289 cbbc f673 b1ba
000001f0: ae5d b43b 2bc6 c6bd 6d61 923d f85d 9f3d
00000200: 63a8 bd3d fbdf 7dbc aec8 d9bd 3660 633d
00000210: 0929 a9bd 2de8 e13d 553e 243d 19e1 0f3d
00000220: d771 083d 8b78 c93c 9954 843d 36e7 973d
00000230: b756 993c 9ede 973d 09d1 1cbc b857 093d
00000240: c9c9 863d a5bf b2bc 4cc9 4d3c d946 70bc
00000250: 2a2e b5bd 6821 1cbd bcb9 11bd effb 053e
00000260: dfa5 99bd 0ce2 f7bc 85c8 023e 89df d8bd
00000270: ea2f 74bd ea79 74bc 946a 133d ae02 e53d
00000280: f5da a0bd d631 153d 72e9 883d 9d01 233d
00000290: 6325 2abd ca83 ec3c d7b9 2e3b 07da ee3c
000002a0: 2cf5 253c 56d3 96bc d453 9d3d 93e3 fbbc
000002b0: ac26 943c 189f a8bd e922 893c 0211 db3d
000002c0: 5c81 ffbd 80fb 34bd 199d 623d 6d26 8bbc
000002d0: 084b 7ebc ae37 c0bc f193 1fbd 418c 663d
000002e0: b306 063c a9aa 17bd 93bf 9dbd 8b6a 413d
000002f0: 4115 efbd 751f 443d 6179 e3bd 5d88 5a3d
00000300: 8352 d23d f417 93bd 71f3 ab3c 3c4a 843c
00000310: 3efb d4bc 65b6 2dbc 7af0 c6bc 2c87 803d
00000320: b2dc c33d f9a6 783d 1fd0 a33c a647 a7bd
00000330: c751 4dbd d62a b0bc 3799 0dbe b539 94bc
00000340: 3e6f 49bd 8a58 803d 655c 7e3c 6e04 3abd
00000350: bfdc 593d 8920 42bc 2117 eb3d b96d 0a3e
00000360: 5e01 85bc 9859 0638 9a1c d63b 710e f03c
00000370: 6f7a 12bd 57ac c63c aacf 36bc 0ce0 923b
00000380: 8f18 41bd 4f03 cb3d 226f 14bd 5e39 1d3c
00000390: 8474 eb3c 499a 233c a6d1 823d 69cd 1bbd
000003a0: 2c7d 993d 21b9 0bbd 6ce4 5e3b 33fd 75bd
000003b0: 28b2 023d da52 17bd ffe8 8cbd a2aa d8b9
000003c0: ae84 78bc b233 9bbd 8730 a13d c662 8dbd
000003d0: d98b e1bd 9170 8cbd fd80 373d 9c91 55bd
000003e0: a83d debd a329 2ebd 2778 ec3d 45f8 3ebd
000003f0: 4afa 9dbd 403b 16bc af24 9bbc f921 ff3c

mixture_net.mol_attn_layers.0.self_attn_layer.out_proj.bias f4 [64]
-0.0034030916 0.027720766 0.0062657367 -0.02039078 0.003825946 -0.0033183426 0.0049379147 -0.0034911775
0.0435553 0.014501686 0.039039634 -0.0155459065 0.011932964 -0.017219353 -0.0784982 -0.0156034455
-0.0027636106 0.045271974 -0.008561817 -0.019520774 -0.005583578 0.03158669 0.0054204096 -0.007367244
-0.0033315457 0.018457383 0.0016973942 -0.015667256 0.028555918 -0.03862836 0.023294197 -0.0069781533
-0.0053776028 -0.0031615668 0.009608743 0.0040388703 0.019722965 -0.022438588 0.0015617649 -0.03360403
-0.017211858 0.010300308 -0.017506458 0.02529315 0.034805875 0.027618533 0.01603297 0.01946605
-0.024168063 -0.0002775418 -0.035720512 -0.0027769522 -0.016320648 0.023342371 0.008916275 -0.00810539
-0.023428446 0.029781995 -0.00560371 -0.0030158928 0.028594462 -0.021276126 -0.029636774 -0.00397742
00000000: 6706 5fbb a916 e33c cf50 cd3b 910a a7bc
00000010: b9bc 7a3b 8d78 59bb 3bce a13b 3dcc 64bb
00000020: 0b67 323d 7b98 6d3c 06e8 1f3d 42b4 7ebc
00000030: 7b82 433c 9a0f 8dbc aac3 a0bd 98a5 7fbc
00000040: b11d 35bb 1b6f 393d dd46 0cbc 08ea 9fbc
00000050: 72f6 b6bb 0c61 013d b19d b13b ec68 f1bb
00000060: 1056 5abb f033 973c 197b de3a 9e58 80bc
00000070: 1aee e93c c538 1ebd 79d3 be3c fea8 e4bb
00000080: 9a36 b0bb 4a32 4fbb fd6d 1d3c 8058 843b
00000090: 0e92 a13c 21d1 b7bc 22b4 cc3a 61a4 09bd
000000a0: e2ff 8cbc 9fc2 283c b469 8fbc 9533 cf3c
000000b0: 9b90 0e3d 4340 e23c 9357 833c 4477 9f3c
000000c0: 1afc c5bc 0883 91b9 ac4f 12bd 87fd 35bb
000000d0: e1b2 85bc 8038 bf3c 9115 123c 78cc 04bc
000000e0: 03ed bfbc 5ff9 f33c 549f b7bb 49a6 45bb
000000f0: ef3e ea3c 454b aebc d2c8 f2bc 0455 82bb

mixture_net.mol_attn_layers.0.addnorm1.norm.weight f4 [64]
1.0307416 1.0227587 0.98700297 1.0331275 1.0029799 1.0220048 0.91669506 1.0007085
1.0495942 0.9683144 1.049847 1.0050672 0.95404863 1.0371261 1.0647231 0.92132396
1.0101745 0.9869232 1.0092674 0.97331834 1.0073708 1.0167619 0.99169064 1.0661271
1.0302395 1.0574311 0.96773267 1.0313746 0.98344964 0.993232 1.0009099 1.0142012
0.9970993 0.96151036 0.98744804 1.0922916 1.0214543 0.9860327 1.0419503 1.0066837
1.0422895 1.0885502 1.0019933 0.98374677 1.0032547 1.0400703 0.98917997 1.0202667
1.0289491 1.0056312 0.9825438 0.9948495 0.94048876 0.9812164 1.0193619 1.0349314
1.028787 1.0516033 1.0027351 0.9817598 1.0557353 0.9646556 0.9958267 1.0481474
00000000: 57ef 833f c2e9 823f 3aac 7c3f 863d 843f
00000010: a561 803f 0ed1 823f 87ac 6a3f 3717 803f
00000020: 1a59 863f 74e3 773f 6361 863f 0ba6 803f
00000030: 883c 743f 8cc0 843f d948 883f e3db 6b3f
00000040: 664d 813f 00a7 7c3f ad2f 813f 642b 793f
00000050: 87f1 803f 4125 823f 70df 7d3f da76 883f
00000060: e3de 833f e759 873f 54bd 773f 1504 843f
00000070: 5bc3 7b3f 7444 7e3f d11d 803f 58d1 813f
00000080: e641 7f3f 8b25 763f 65c9 7c3f 36d0 8b3f
00000090: 04bf 823f a46c 7c3f a15e 853f 03db 803f
000000a0: be69 853f 9d55 8b3f 5141 803f d4d6 7b3f
000000b0: a66a 803f 0621 853f e63a 7d3f 1998 823f
000000c0: 9bb4 833f 86b8 803f fe87 7b3f 75ae 7e3f
000000d0: dfc3 703f ff30 7b3f 737a 823f a278 843f
000000e0: 4baf 833f f09a 863f a059 803f 9c54 7b3f
000000f0: 5622 873f abf3 763f 80ee 7e3f b229 863f

mixture_net.mol_attn_layers.0.addnorm1.norm.bias f4 [64]
0.0016534935 -0.0017197054 0.008688982 0.008854286 0.011464133 -0.012844882 0.0034890648 0.0018673164
0.021437977 0.03380125 -0.01871875 0.019622182 -0.0077432827 0.025730845 -0.033806548 -0.006438619
0.0016786067 0.02590706 -0.03378772 -0.019074844 0.007528799 0.01746933 0.035918392 -0.015498508
0.026633035 -0.018359821 -0.016114064 -0.010556879 -0.006348694 -0.039179046 -0.0032850618 -0.004915998
-0.014839494 -0.0015784516 -0.021409072 -0.014160616 0.018475816 0.011378447 0.010321702 -0.010445415
-0.0009822511 0.012906311 0.022113195 -0.0036565852 0.029173523 0.0048683267 0.016056985 0.006752057
-0.01533788 -0.026082192 0.00069895637 0.013989792 -0.024183372 -0.006458866 0.0050114654 0.004596015
0.047123883 -0.03732564 0.016282743 -0.0012563074 0.040299933 -5.1345098e-05 -0.004335558 -0.004946231
00000000: 09ba d83a bd67 e1ba 3b5c 0e3c 9111 113c
00000010: 0fd4 3b3c 5773 52bc cba8 643b bec0 f43a
00000020: b29e af3c 2e73 0a3d 1058 99bc b3be a03c
00000030: 5dbb fdbb 7ec9 d23c bc78 0abd 0dfb d2bb
00000040: b204 dc3a 0b3b d43c fe64 0abd d942 9cbc
00000050: 25b4 f63b d71b 8f3c 2a1f 133d 74ed 7dbc
00000060: 862d da3c 5667 96bc a401 84bc c3f6 2cbc
00000070: b508 d0bb 357a 20bd 314a 57bb 6116 a1bb
00000080: 5921 73bc 0ce4 ceba 1462 afbc ee01 68bc
00000090: 985a 973c aa6c 3a3c 5b1c 293c 3f23 2bbc
000000a0: e1be 80ba fe74 533c bb26 b53c 52a3 6fbb
000000b0: 50fd ee3c 7c86 9f3b f089 833c 5c40 dd3b
000000c0: bb4b 7bbc 52aa d5bc 2b3a 373a 7135 653c
000000d0: 351c c6bc e5a4 d3bb 3837 a43b 2b9a 963b
000000e0: f904 413d c5e2 18bd 6363 853c aeaa a4ba
000000f0: 8b11 253d 615b 57b8 4c11 8ebb fe13 a2bb

mixture_net.mol_attn_layers.0.ffn.layers.0.weight f4 [64, 64]
-0.10002737 0.0265569 0.07218339 0.037916 0.0330948 0.0054140217 -0.02234335 0.15116203
0.017249867 -0.11158037 0.036728904 -0.036965434 -0.023386111 0.030483564 0.039899014 0.013023174
-0.07541681 -0.08384721 0.04442013 0.20429555 -0.07327757 0.0916579 -0.014968731 -0.21213819
0.10693198 0.12422561 0.09928135 0.036275733 0.016478864 0.062665306 -0.20283647 -0.01953689
0.018481286 -0.031860664 0.25142264 0.056591608 -0.057225768 0.09431579 -0.07024212 -0.045512922
-0.11523603 -0.11461665 -0.08153327 -0.020780995 -0.09540564 0.0825268 -0.048161205 -0.06421669
0.013049191 0.07044622 0.058936592 -0.052330792 0.13954905 -0.11378695 0.01084558 0.04609933
-0.22721894 -0.047247957 -0.024979493 0.08008135 -0.020397792 -0.06704403 0.06941558 0.034079053
-0.08512318 -0.013002411 0.05865787 0.081140615 0.10248938 0.26012406 -0.06835732 0.0019396906
0.08692793 0.06938352 -0.03270086 0.06563584 -0.15895386 0.057243012 0.01631275 0.013303211
0.054633982 -0.011631303 0.09901692 0.0371366 0.12045905 -0.043679606 -0.12155377 -0.2010631
-0.104983024 -0.1163669 0.04296991 0.14409903 0.17010406 0.039949488 0.12118274 0.073086105
-0.098271556 -0.11919599 0.04430428 0.14550674 0.10570059 -0.16787091 0.05596525 0.022168906
0.019215079 0.036983788 0.075858116 -0.045350738 -0.25069946 0.08750605 -0.21334651 -0.057029147
0.10201778 0.010278411 -0.07159991 -0.16625492 -0.05582263 -0.011279271 0.020788684 -0.017203897
0.00111367 -0.10883542 -0.16516285 0.1272267 -0.0005107728 0.058597315 0.09229901 -0.087748416
0.099772036 -0.008553496 0.08293737 0.07353297 0.08376987 -0.09301713 0.007650095 0.1094959
-0.07683233 -0.050750833 -0.13323066 0.065975584 -0.0816175 0.07840841 -0.012499948 0.08889701
0.06499408 -0.14621723 -0.000509116 -0.002109984 -0.11374331 0.030670036 -0.08690589 0.09346784
-0.1563492 -0.13791454 0.062443823 0.091911994 -0.06072181 0.005693611 -0.004361968 0.054777298
0.08229099 0.006936316 0.063721955 0.06358186 -0.08821352 -0.07646498 -0.11756578 0.042116936
0.052430075 0.04094426 -0.06140428 -0.10352912 0.117468946 0.06500649 -0.05061263 0.049336724
-0.032057766 0.053184316 0.068264164 -0.034438312 -0.11087185 0.043785576 0.078394055 -0.03734129
-0.15219373 0.17263922 -0.062155347 -0.028627044 0.03881257 -0.048964925 -0.024919247 0.07031084
0.0024823209 -0.12192607 -0.10479001 -0.11366338 -0.108384125 -0.044872925 0.0036940083 0.06307869
-0.13666053 -0.24431694 0.07313014 0.13639627 -0.06310909 -0.051143877 0.106329806 0.17535414
0.062295556 0.067009486 0.13259056 -0.045984287 -0.011529139 -0.07742862 0.057318907 0.005444285
-0.09726947 0.013515864 0.14539048 0.02706542 0.010173831 0.15393732 -0.014427054 0.19454525
0.005454152 -0.09156545 -0.009951584 -0.23250689 -0.17479162 0.2154626 0.082537375 -0.07905646
0.03621556 0.02862035 -0.058614776 -0.020380933 0.06013898 -0.0055522555 0.04308761 -0.07118823
0.034889434 0.15886128 0.14366674 -0.016901374 0.13640311 0.036485367 -0.045698654 -0.034909952
-0.12863648 -0.10951474 -0.038658727 -0.038153093 -0.094887055 -0.084770344 0.04240825 0.035916965
00000000: 26db ccbd db8d d93c e3d4 933d cf4d 1b3d
00000010: 6a8e 073d 1b68 b13b 6709 b7bc 38ca 1a3e
00000020: 984f 8d3c 4084 e4bd 0c71 163d 1169 17bd
00000030: 3b94 bfbc abb8 f93c 266d 233d 275f 553c
00000040: 2174 9abd 16b8 abbd e2f1 353d da32 513e
00000050: 8d12 96bd 23b7 bb3d 693f 75bc c13a 59be
00000060: 27ff da3d ff69 fe3d 0554 cb3d dd95 143d
00000070: affe 863c ab56 803d 5db4 4fbe d40b a0bc
00000080: 1166 973c 5480 02bd 78ba 803e 9acc 673d
00000090: 9165 6abd a328 c13d 1adb 8fbd c26b 3abd
000000a0: de00 ecbd 22bc eabd eafa a6bd e83c aabc
000000b0: 0864 c3bd d003 a93d af44 45bd 0a84 83bd
000000c0: 46cc 553c 1c46 903d 7f67 713d d058 56bd
000000d0: f2e5 0e3e 2209 e9bd a9b1 313c a7d2 3c3d
000000e0: 15ac 68be 1387 41bd cba1 ccbc b101 a43d
000000f0: 4519 a7bc 614e 89bd c129 8e3d 7a96 0b3d
00000100: 1055 aebd 1108 55bc 3c43 703d 0d2d a63d
00000110: f4e5 d13d fb2e 853e ecfe 8bbd 373d fe3a
00000120: 4507 b23d f218 8e3d 56f1 05bd 156c 863d
00000130: cdc4 22be a677 6a3d 51a2 853c b6f5 593c
00000140: e2c7 5f3d 3891 3ebc 62c9 ca3d 8c1c 183d
00000150: 3cb3 f63d 63e9 32bd 2ff1 f8bd 7ce3 4dbe
00000160: 5701 d7bd c551 eebd 3701 303d b28e 133e
00000170: c22f 2e3e 13a2 233d a82e f83d 2bae 953d
00000180: 9942 c9bd 071d f4bd 6878 353d b8ff 143e
00000190: 8d79 d83d 5ae6 2bbe d13b 653d 919b b53c
000001a0: f168 9d3c 507c 173d 805b 9b3d b2c1 39bd
000001b0: ae5b 80be 5f36 b33d 8277 5abe 6597 69bd
000001c0: b3ee d03d c866 283c f9a2 92bd bb3e 2abe
000001d0: 45a6 64bd b1cc 38bc 084d aa3c 30ef 8cbc
000001e0: 90f8 913a 1be5 debd 7320 29be b747 023e
000001f0: 62e5 05ba bd03 703d 4307 bd3d 71b5 b3bd
00000200: 4855 cc3d f623 0cbc 11db a93d 7498 963d
00000210: 8a8f ab3d c47f bebd a6ad fa3b 633f e03d
00000220: 455a 9dbd 1be0 4fbd 9e6d 08be 351e 873d
00000230: 1327 a7bd 9794 a03d 95cc 4cbc a30f b63d
00000240: 9e1b 853d f8b9 15be 3276 05ba a847 0abb
00000250: 41f2 e8bd ba3f fb3c b7fb b1bd 116c bf3d
00000260: 011a 20be 7839 0dbe 18c5 7f3d 5b3c bc3d
00000270: 6fb7 78bd 7991 ba3b d7ee 8ebb 295e 603d
00000280: 2e88 a83d 094a e33b a880 823d 3537 823d
00000290: 4aa9 b4bd ac99 9cbd 54c6 f0bd cf82 2c3d
000002a0: ebc0 563d 2bb5 273d 0e83 7bbd 1307 d4bd
000002b0: 8f93 f03d 1f22 853d 304f 4fbd 4e15 4a3d
000002c0: 014f 03bd ccd7 593d 15ce 8b3d 300f 0dbd
000002d0: c810 e3bd 8158 333d 108d a03d 2ef3 18bd
000002e0: acd8 1bbe 56c8 303e 9b96 7ebd 4383 eabc
000002f0: eef9 1e3d 728f 48bd 7323 ccbc 21ff 8f3d
00000300: 6fae 223b 60b4 f9bd 259c d6bd 59c8 e8bd
00000310: 7ff8 ddbd accc 37bd 2d17 723b 662f 813d
00000320: bdf0 0bbe 382e 7abe 41c5 953d 77ab 0b3e
00000330: 573f 81bd 3e7c 51bd 71c3 d93d 0990 333e
00000340: a029 7f3d 453c 893d d2c5 073e 055a 3cbd
00000350: b7e4 3cbc e592 9ebd 3bc7 6a3d f965 b23b
00000360: 3735 c7bd a471 5d3c 3ee1 143e 4db8 dd3c
00000370: 24b0 263c bfa1 1d3e 735f 6cbc df36 473e
00000380: beb8 b23b ab86 bbbd f80b 23bc 4916 6ebe
00000390: 93fc 32be 3aa2 5c3e 5b09 a93d 5ae8 a1bd
000003a0: c456 143d 3975 ea3c 0c16 70bd eaf5 a6bc
000003b0: 4b54 763d b2ef b5bb a27c 303d 22cb 91bd
000003c0: 39e8 0e3d 88ac 223e 601d 133e c074 8abc
000003d0: 42ad 0b3e ae71 153d 832e 3bbd bdfd 0ebd
000003e0: 48b9 03be 4449 e0bd 9d58 1ebd 6b46 1cbd
000003f0: 2554 c2bd 139c adbd 46b4 2d3d ab1d 133d

mixture_net.mol_attn_layers.0.ffn.layers.0.bias f4 [64]
0.007457962 -0.09199404 -0.004276477 -0.03853096 -0.14023298 0.017824983 -0.009061628 -0.026274681
-0.061761875 -0.08768127 -0.085474946 -0.052286215 0.06419606 -0.017240833 -0.031591415 0.014783141
0.042179946 0.015312842 -0.15175417 -0.17422608 0.08558102 0.012801769 -0.09588997 -0.094907776
0.013381306 -0.03939434 -0.123562604 0.05415111 0.0326658 -0.026600964 -0.008411476 -0.106131926
-0.12343595 -0.12072265 -0.15699604 -0.054853655 -0.09081529 -0.055014733 0.038364984 0.017922496
0.008319035 -0.20795141 -0.13683143 0.05815801 -0.07234247 -0.14199418 -0.20682843 -0.1145613
0.042448103 -0.018421557 0.049755067 -0.04291838 -0.059474945 0.06312576 -0.045679137 -0.18563154
-0.11903629 0.02025545 0.022720838 -0.069114484 -0.04503326 0.0034629947 0.07665858 -0.072784044
00000000: eb61 f43b 5f67 bcbd b021 8cbb a4d2 1dbd
00000010: 3c99 0fbe b305 923c 3977 14bc 003e d7bc
00000020: 05fa 7cbd 3d92 b3bd 7d0d afbd 122a 56bd
00000030: 3979 833d a63c 8dbc 0066 01bd fd34 723c
00000040: e1c4 2c3d b7e2 7a3c 7265 1bbe 5268 32be
00000050: 1a45 af3d 83be 513c f661 c4bd 025f c2bd
00000060: 443d 5b3c f65b 21bd 640e fdbd 8ecd 5d3d
00000070: 93cc 053d 44ea d9bc 4ad0 09bc b25b d9bd
00000080: fdcb fcbd 703d f7bd 92c3 20be 3aae 60bd
00000090: 5efd b9bd 2157 61bd 9a24 1d3d 33d2 923c
000000a0: 904c 083c 37f1 54be 8a1d 0cbe 1837 6e3d
000000b0: 4a28 94bd ec66 11be d5ca 53be 1d9f eabd
000000c0: 10de 2d3d cee8 96bc f8cb 4b3d 2fcb 2fbd
000000d0: 009c 73bd 1448 813d 0c1a 3bbd 3216 3ebe
000000e0: 4cc9 f3bd c2ee a53c 0d21 ba3c e58b 8dbd
000000f0: cc74 38bd 69f3 623b 2cff 9c3d cd0f 95bd

mixture_net.mol_attn_layers.0.ffn.layers.2.weight f4 [64, 64]
0.09162029 -0.03714949 -0.08043916 0.058423452 0.060562264 -0.103713766 -0.07762823 0.058094256
0.07450651 0.05976739 0.09633008 0.09811604 0.10334744 -0.19676596 0.06308054 -0.04162622
-0.018464232 0.0970341 0.032703325 0.11366082 0.16057403 0.13608377 -0.09432829 -0.10931739
-0.07828927 -0.0053584035 -0.05827633 -0.119903386 -0.05837903 -0.028508369 0.07668207 0.17264512
-0.03924032 -0.15480068 0.0630246 0.0912115 -0.16655396 0.13690558 -0.048190136 0.082066685
0.049515773 -0.07590086 0.028999675 0.05663137 -0.0028385527 0.026952097 0.09430995 0.17103504
-0.015606829 0.037994407 -0.1908133 0.012673432 0.012852117 0.031776536 0.13708125 -0.033159748
-0.12167976 -0.08260622 0.10629976 -0.071838655 -0.056394767 0.10201571 0.08775354 0.059885662
0.0497704 0.015320356 -0.043529857 0.011413537 0.14449584 0.11962691 -0.06749134 -0.09463841
-0.00016140999 -0.061394293 0.12874165 0.047103122 -0.076685004 -0.03428561 -0.060249995 -0.022455126
-0.045211773 -0.073763825 -0.007652304 -0.108483896 -0.031822458 -0.04099446 -0.10909214 -0.023629067
0.089908585 0.0721812 0.063237585 -0.044621367 -0.09960716 -0.042128284 -0.08819041 -0.21632457
0.010054865 0.09386987 -0.052424308 -0.044963017 0.07666677 0.059566714 0.053954028 -0.08123977
0.04809418 -0.058028627 -0.018659037 -0.03769917 0.07494076 -0.030663574 -0.120157816 0.15948087
-0.067444615 0.07186791 0.020786572 0.114914514 -0.0030984008 0.06547056 0.09019581 -0.016062805
0.06910115 -0.07660474 -0.054647952 0.05526715 0.06795387 -0.05431586 0.07680938 0.043694608
-0.014228102 0.000110182315 0.08836494 0.15263137 0.085688785 0.04370449 0.009094479 -0.050055873
-0.059657827 -0.034401856 0.005324908 -0.0497252 -0.08644795 -0.12427151 -0.06333765 0.018193804
0.054879416 0.13301751 -0.02812373 0.10895519 -0.01987473 0.066461064 0.11339849 -0.056668114
-0.07152896 -0.016017847 0.085072905 0.096773826 0.18343318 0.12637451 -0.09598109 0.10135449
-0.044711836 -0.10082091 -0.03667471 -0.017926427 -0.041100215 -0.103400946 0.0096150115 0.014318563
-0.009282114 0.056176994 0.091288686 0.05470469 -0.0085475985 0.13277097 -0.03524729 -0.028786289
-0.12941365 0.0187413 -0.042259544 0.07552698 -0.122184455 0.14544043 0.016716085 -0.063260205
-0.16522513 0.058395468 -0.11769725 -0.02385964 -0.059676003 -0.0475757 -0.107230134 0.08875662
-0.005961256 0.10089526 0.031488463 0.08680902 -0.06827124 -0.1335791 0.008667565 -0.05018244
0.03398786 -0.090533435 0.123775326 -0.105972365 -0.056502525 -0.048239063 0.06538151 -0.09334386
0.029200925 0.008797534 -0.049080435 -0.06953483 -0.02281463 0.038299434 0.005668792 -0.0068393066
0.0005236021 0.027016744 0.08894305 0.044759486 0.07487033 0.012606487 -0.120541796 0.1216327
-0.10526893 0.109209925 -0.04836004 -0.049302727 0.04056671 0.06424948 0.1081334 -0.03247613
-0.042748358 0.068598755 -0.0054965797 -0.04655565 -0.06843244 -0.07334975 0.1278861 0.048000257
-0.18974192 0.059942737 -0.09075757 -0.06070566 -0.055200666 0.06795448 0.11409049 0.10462884
-0.05753399 -0.08622135 -0.046166644 0.10191894 -0.028246922 0.11044341 -0.04150121 -0.07415532
00000000: 6ba3 bb3d 102a 18bd 49bd a4bd 6e4d 6f3d
00000010: 2310 783d e267 d4bd 8dfb 9ebd 3ef4 6d3d
00000020: de96 983d a7ce 743d b448 c53d 10f1 c83d
00000030: d3a7 d33d 047d 49be 5f30 813d 4180 2abd
00000040: 4d42 97bc d0b9 c63d ecf3 053d 01c7 e83d
00000050: 856d 243e 8b59 0b3e 312f c1bd cce1 dfbd
00000060: 2056 a0bd 8c95 afbb 29b3 6ebd e88f f5bd
00000070: da1e 6fbd 628a e9bc 7d0b 9d3d e2c9 303e
00000080: 75ba 20bd 1284 1ebe 0b13 813d 18cd ba3d
00000090: 1f8d 2abe fa30 0c3e 0563 45bd 9412 a83d
000000a0: 0dd1 4a3d e971 9bbd ba90 ed3c 4cf6 673d
000000b0: 0307 3abb a5ca dc3c 9325 c13d cf23 2f3e
000000c0: c9b3 7fbc 06a0 1b3d 9064 43be 3aa4 4f3c
000000d0: b091 523c 1d28 023d 075f 0c3e 84d2 07bd
000000e0: 3d33 f9bd 732d a9bd b0b3 d93d 2520 93bd
000000f0: 33fe 66bd 9ded d03d 21b8 b33d ab4a 753d
00000100: 0cdc 4b3d 3b02 7b3c 5d4c 32bd d8ff 3a3c
00000110: b8f6 133e f4fe f43d e638 8abd c8d1 c1bd
00000120: 2a40 29b9 9578 7bbd dad4 033e 34ef 403d
00000130: 070d 9dbd 116f 0cbd b3c8 76bd d0f3 b7bc
00000140: fb2f 39bd 7d11 97bd 2ec0 fabb ce2c debd
00000150: 4458 02bd cfe9 27bd b36b dfbd bf91 c1bc
00000160: fe21 b83d bdd3 933d b582 813d e5c4 36bd
00000170: d7fe cbbd b58e 2cbd 2c9d b4bd 3084 5dbe
00000180: 29bd 243c d93e c03d dfba 56bd 242b 38bd
00000190: 7803 9d3d 3afc 733d e6fe 5c3d 0961 a6bd
000001a0: 67fe 443d 6daf 6dbd d6da 98bc 726a 1abd
000001b0: 8b7a 993d 2d32 fbbc 4d15 f6bd f44e 233e
000001c0: 6720 8abd 7c2f 933d 9a48 aa3c 4d58 eb3d
000001d0: 8a0e 4bbb 6e15 863d 95b8 b83d 2596 83bc
000001e0: e784 8d3d f2e2 9cbd 88d6 5fbd cf5f 623d
000001f0: 662b 8b3d 4f7a 5ebd 3c4e 9d3d 1ef9 323d
00000200: fc1c 69bc ae11 e738 adf8 b43d 664b 1c3e
00000210: 9a7d af3d 7b03 333d 0201 153c 6307 4dbd
00000220: c45b 74bd f6e8 0cbd 917c ae3b a7ac 4bbd
00000230: 9f0b b1bd 1082 febd 2bb7 81bd 2c0b 953c
00000240: 3dc9 603d be35 083e bd63 e6bc e623 df3d
00000250: 54d0 a2bc bd1c 883d 783d e83d d31c 68bd
00000260: c67d 92bd dc37 83bc b43a ae3d 5b31 c63d
00000270: e8d5 3b3e 5268 013e bc91 c4bd f192 cf3d
00000280: c223 37bd 317b cebd 3938 16bd 71da 92bc
00000290: b358 28bd e0c3 d3bd 4888 1d3c 6898 6a3c
000002a0: 0214 18bc d919 663d 90f5 ba3d 0612 603d
000002b0: 3a0b 0cbc 1df5 073e 765f 10bd 39d1 ebbc
000002c0: 0385 04be 5b87 993c 5818 2dbd e4ad 9a3d
000002d0: d83b fabd 56ee 143e 2cf0 883c 918e 81bd
000002e0: c730 29be 1630 6f3d 410b f1bd 4b75 c3bc
000002f0: d36e 74bd bdde 42bd 799b dbbd 08c6 b53d
00000300: a456 c3bb 2da2 ce3d 0cfa 003d edc8 b13d
00000310: cbd1 8bbd f6c8 08be 6702 0e3c 1a8c 4dbd
00000320: db36 0b3d 9869 b9bd eb7d fd3d 0a08 d9bd
00000330: 316f 67bd 5396 45bd bee6 853d 112b bfbd
00000340: c736 ef3c 8823 103c 9108 49bd 4768 8ebd
00000350: bfe5 babc dedf 1c3d 46c1 b93b 431c e0bb
00000360: 5842 093a 3852 dd3c c627 b63d b955 373d
00000370: 9e55 993d 708b 4e3c 9ede f6bd 911a f93d
00000380: 3d97 d7bd 74a9 df3d 2d15 46bd a8f1 49bd
00000390: 4729 263d 3b95 833d 0b75 dd3d b105 05bd
000003a0: e718 2fbd 817d 8c3d a71c b4bb 23b1 3ebd
000003b0: 4f26 8cbd 6538 96bd 93f4 023e eb9b 443d
000003c0: b54b 42be 8486 753d 1bdf b9bd 80a6 78bd
000003d0: 181a 62bd b82b 8b3d 46a8 e93d a547 d63d
000003e0: c3a8 6bbd d294 b0bd 3c19 3dbd e1ba d03d
000003f0: 1766 e7bc 2830 e23d 2cfd 29bd bfde 97bd

mixture_net.mol_attn_layers.0.ffn.layers.2.bias f4 [64]
0.019202145 -0.027672658 -0.006938006 -0.07327182 0.017355714 -0.09413661 -0.011075445 0.036999978
0.059031323 0.07776093 0.018525152 0.0021841668 -0.07703895 -0.012576661 0.0060144225 0.041008946
0.029966477 0.01824141 0.08397308 -0.08765877 0.074538834 -0.04785574 0.022963941 -0.019461924
0.072047316 -0.02002242 -0.030759202 0.008540243 -0.01460267 -0.03574933 -0.052999437 0.06808016
0.051528897 0.062198356 0.0040759975 -0.020605119 -0.005908301 -0.024542138 -0.077663526 -0.0729689
0.008578893 0.051201288 -0.015682142 -0.051923748 -0.011856122 0.009599459 -0.014125326 -0.03839616
-0.012130753 -0.031884674 0.029428866 -0.025828041 -0.034070667 0.0067359894 0.004863951 0.09406118
-0.05214183 -0.027798388 -0.05642587 -0.05519755 0.075312994 -0.048027482 0.10737452 -0.09454205
00000000: d14d 9d3c c5b1 e2bc 3658 e3bb 890f 96bd
00000010: 922d 8e3c b2ca c0bd c975 35bc 4a8d 173d
00000020: d4ca 713d 1f41 9f3d 0fc2 973c 3d24 0f3b
00000030: 99c6 9dbd 570e 4ebc a214 c53b fff8 273d
00000040: 427c f53c 026f 953c 14fa ab3d 7186 b3bd
00000050: d1a7 983d 6104 44bd e01e bc3c 9d6e 9fbc
00000060: 8b8d 933d 0f06 a4bc b9fa fbbc 60ec 0b3c
00000070: 0a40 6fbc e46d 12bd f015 59bd 9c6d 8b3d
00000080: f70f 533d b4c3 7e3d f28f 853b 11cc a8bc
00000090: 6c9a c1bb 980c c9bc 0e0e 9fbd b870 95bd
000000a0: 7c8e 0c3c 71b8 513d d677 80bc ffad 54bd
000000b0: 2e40 42bc 0d47 1d3c e96d 67bc 4b45 1dbd
000000c0: 11c0 46bc 8199 02bd ce14 f13c 5495 d3bc
000000d0: af8d 0bbd 93b9 dc3b c761 9f3b 26a3 c03d
000000e0: ac92 55bd 72b9 e3bc d01e 67bd d416 62bd
000000f0: b33d 9a3d 77b8 44bd 2ce7 db3d 439f c1bd

mixture_net.mol_attn_layers.0.addnorm2.norm.weight f4 [64]
1.0466495 1.0498396 0.9962437 1.0290167 1.0052761 1.0152473 0.9806135 1.0102496
1.0021974 0.9713705 1.0831622 1.001726 0.9199956 1.0350537 1.0941379 0.94137776
0.9934576 0.9943882 1.0063907 0.9708272 1.0061284 1.0338255 0.99718 1.0873493
1.0235555 1.0426736 1.0031738 1.0067164 1.0027723 1.0172421 0.9780192 1.0310385
0.98243254 0.96718407 1.0045545 1.0749885 1.0170511 1.0073891 1.0671899 1.0306756
1.0082483 1.0844431 1.0327567 0.98049736 0.99164635 1.0262637 1.0094954 1.0353574
1.0358269 0.9980381 1.0027784 0.97785693 0.9406678 1.0144197 1.0167217 1.0427802
1.0287772 1.0374393 1.0185736 1.0057684 1.0334448 0.97674745 0.9674027 1.0371764
00000000: 9cf8 853f 2561 863f d409 7f3f d2b6 833f
00000010: e3ac 803f a0f3 813f 7d09 7b3f dc4f 813f
00000020: 0148 803f bdab 783f 0fa5 8a3f 8f38 803f
00000030: d584 6b3f a47c 843f b60c 8c3f 22fe 703f
00000040: 3d53 7e3f 3a90 7e3f 69d1 803f 2288 783f
00000050: d1c8 803f 6554 843f 3047 7f3f 432e 8b3f
00000060: de03 833f 5476 853f 0068 803f 15dc 803f
00000070: d85a 803f fd34 823f 775f 7a3f 12f9 833f
00000080: b380 7b3f 6099 773f 3e95 803f 3999 893f
00000090: bb2e 823f 20f2 803f ae99 883f 2eed 833f
000000a0: 480e 813f 08cf 8a3f 5f31 843f e001 7b3f
000000b0: 89dc 7d3f 9c5c 833f 2537 813f 9786 843f
000000c0: fa95 843f 6d7f 7f3f 0b5b 803f d554 7a3f
000000d0: 9bcf 703f 81d8 813f f023 823f d279 853f
000000e0: f9ae 833f d0ca 843f 9f60 823f 05bd 803f
000000f0: eb47 843f 1f0c 7a3f b4a7 773f 32c2 843f

mixture_net.mol_attn_layers.0.addnorm2.norm.bias f4 [64]
0.0029329038 -0.005701989 0.009262478 0.0074752104 0.016271288 -0.0061696647 0.00797407 -0.0028514813
-0.00684905 0.01647626 -0.028269975 0.0070390557 -0.021742972 0.022341365 -0.03010708 -0.006374014
0.03321883 0.02005293 -0.027271295 -0.014502 0.017503265 0.027032815 0.018133694 -0.004628261
0.012457828 -0.030641744 -0.031496678 0.011728259 -0.0032689807 -0.039999597 -0.007405037 -0.01738553
-0.008317476 -0.005582382 -0.012830133 -0.014064817 0.010938631 0.0033418706 0.005592011 -0.015271654
-0.0097928485 -0.013160876 0.01699097 -0.01931332 0.020095073 -0.00081377896 0.005767239 0.00737426
-0.010431261 -0.034472555 -0.026651442 -0.0007338991 -0.021523211 0.0053375512 0.013013241 0.017492875
0.035751455 -0.020714413 0.015138396 0.012838514 0.016855327 -0.006246941 -0.0007854451 -0.011209432
00000000: f635 403b c0d7 babb a6c1 173c 9cf2 f43b
00000010: 5d4b 853c e62a cabb aca5 023c ebdf 3abb
00000020: ff6d e0bb 39f9 863c 6f96 e7bc e1a7 e63b
00000030: 511e b2bc 3d05 b73c 1fa3 f6bc 1bdd d0bb
00000040: 7810 083d 0b46 a43c 0d68 dfbc cc99 6dbc
00000050: 0263 8f3c ec73 dd3c 1d8d 943c aba8 97bb
00000060: eb1b 4c3c 6504 fbbc a902 01bd e227 403c
00000070: 653c 56bb 9ed6 23bd f4a5 f2bb 196c 8ebc
00000080: 0646 08bc 6aec b6bb 7a35 52bc 1e70 66bc
00000090: f237 333c 4903 5b3b 303d b73b f635 7abc
000000a0: 2f72 20bc b7a0 57bc a630 8b3c f836 9ebc
000000b0: 6c9e a43c c853 55ba 1bfb bc3b c7a3 f13b
000000c0: e1e7 2abc 1833 0dbd 2054 dabc 2363 40ba
000000d0: 7251 b0bc a0e6 ae3b 7d35 553c 384d 8f3c
000000e0: 1e70 123d 46b1 a9bc 0907 783c a158 523c
000000f0: 2f14 8a3c 24b3 ccbb 54e6 4dba c4a7 37bc
