scripts_chemix/results/chemix_ensemble/top3/chemix.pt (torch, 174922 bytes, 17 tensors)

input_net.weight f4 [64, 196]
000000 3d 57 7f bb 4d c5 e0 3c b7 07 4d 3c cb 7f b1 3c
       -0.003896191 0.02743783 0.012514046 0.021667382
000010 b5 55 d3 3d 1c e4 55 bd b0 76 a1 3d af 71 ce 3c
       0.10319082 -0.052219495 0.07883966 0.025200693
000020 26 5d 9d bd 1a fc 88 3c 32 b7 5d 3d 19 14 0e bc
       -0.07683782 0.016721774 0.054129787 -0.008671784
000030 de 40 58 3d e0 1b 18 3d 4f 73 80 bb e5 ce 1c bd
       0.052796237 0.03713596 -0.003919996 -0.038283248
000040 12 d8 58 3c e6 5f 8f bd a3 bc 89 3d b4 4a 01 bd
       0.013235109 -0.07000713 0.06725433 -0.031565383
000050 02 5f 0d bd 10 fc 6d 3d 0d d6 90 ba 1b 50 7f bd
       -0.034514435 0.058101714 -0.001105012 -0.062332254
000060 af 48 14 bd b5 03 39 3d 3d 8f 8f 3d 61 23 1d 3d
       -0.03620213 0.04516955 0.070097424 0.038363818
000070 9e 25 16 bd 35 9f 01 bd fd c5 49 3d a5 fc 21 3d
       -0.03665697 -0.031645972 0.049261082 0.03954758
000080 c8 b9 40 bd 40 62 e7 3b 8f f3 04 3c 4f 58 b4 bd
       -0.047052175 0.007061273 0.0081147095 -0.08805906
000090 5f 1b 1f bc 11 97 fb bc 9d a0 32 3d b5 97 03 3d
       -0.009711116 -0.030711683 0.043610204 0.0321271
0000a0 38 73 71 3d 05 2f 7b bc 4b ea 2c 3d 5f b2 44 bd
       0.05894777 -0.015331035 0.042215627 -0.04802167
0000b0 ad cd b6 3b 90 b2 3c bd fb 83 66 3d fd c5 fc 3b
       0.0055787177 -0.046068728 0.05627821 0.0077140317
0000c0 0f 70 07 3d 17 19 87 3d 77 52 2e bd 72 9e 8e bd
       0.03306585 0.065965824 -0.042559113 -0.06963815
0000d0 5d 69 24 bd 88 0e 04 bd 65 74 12 bd e0 cd 7b bd
       -0.040139545 -0.03224042 -0.035755534 -0.061475635
0000e0 b4 68 de bd 8d 15 85 bd 7f 8e 02 bd 9f 93 c2 bc
       -0.10859814 -0.06498251 -0.031874176 -0.023752032
0000f0 4f 83 fb 3c a6 6c 4a bc bd 24 b3 3b b8 31 a0 3c
       0.030702261 -0.012355005 0.005467026 0.019554958
000100 e9 33 07 3d b2 ce 68 3d fe da 44 3c 92 e6 58 3d
       0.03300849 0.056837745 0.012015102 0.052954264
000110 55 bb d2 bc 87 18 b6 bb 18 d3 c7 bc e5 db b0 3c
       -0.025724092 -0.005557123 -0.02439265 0.021589229
000120 78 1b 3f 3d 30 d7 99 3d d4 37 c0 bd 1a a9 39 bc
       0.046657056 0.07511747 -0.09385648 -0.011331821
000130 ea ab 96 3d 96 cf 8b 3c 39 6a ce 3c f4 d4 6b 3d
       0.07357009 0.017066758 0.025197135 0.057576135
000140 8e 48 82 bd f2 54 d9 bc 49 54 87 3d 96 93 ba 3c
       -0.06361495 -0.026529763 0.06607873 0.022775453
000150 15 55 0f bd 6a 75 89 bd 33 a0 cd bd c4 3f 89 bc
       -0.03499325 -0.06711848 -0.10040321 -0.016754039
000160 07 24 34 bc d9 63 1a bd 7a 8a 53 bd 43 1e ce bc
       -0.010994918 -0.03769288 -0.051645733 -0.025160914
000170 41 da fd 3d 22 af 18 bd 31 b8 4d 3c c5 72 a0 bd
       0.12395144 -0.037276395 0.012556122 -0.078343906
000180 48 b2 50 bc d5 df 39 bd f4 35 b0 3c e2 6c 3f 3c
       -0.012737818 -0.04537948 0.021510102 0.0116836745
000190 66 50 be bb 8f b3 20 3d 48 9c b9 bc 25 ab 47 3c
       -0.005807924 0.03923374 -0.022657529 0.0121868
0001a0 d0 1d ab bc 94 ed f4 bb 32 c0 e3 bd 4d ca 3b 3d
       -0.02088824 -0.0074746106 -0.11120643 0.045847226
0001b0 35 44 de bd 77 23 25 bd fc 4c 0c bc 5d 75 84 bd
       -0.10852853 -0.040317025 -0.008563276 -0.06467698
0001c0 54 b9 01 bd 44 a5 80 3b 9f 25 61 3d 00 18 cc bb
       -0.031670883 0.003925951 0.05496752 -0.006228447
0001d0 a6 cc 00 bd 6e f8 90 3c db 17 dc bc 8c 2b 37 3a
       -0.031445168 0.017696586 -0.026866844 0.0006987385
0001e0 7c 90 88 bd 1f d2 8a 3d fa 1f b3 bc fa 6c 4f 3c
       -0.06668183 0.06778359 -0.021865834 0.012660259
0001f0 16 7f c0 bc 04 7f 17 3d fb e9 f1 3a 89 71 0e bc
       -0.0234981 0.036986366 0.0018456572 -0.008694061
000200 78 b0 35 ba d2 cf 7b bd 81 f0 3d 3d 6d 12 8e bd
       -0.0006930898 -0.06147749 0.04637194 -0.06937108
000210 cf d1 3c 3d 65 ce 8a bd d3 18 1f 3d 14 04 15 bd
       0.046098527 -0.06777648 0.038842034 -0.036380842
000220 76 3d 9e bd 94 68 31 bc b3 eb 52 3c 72 8d 89 bd
       -0.077265665 -0.010828156 0.012873578 -0.06716432
000230 23 73 76 3d e6 87 72 bc 6b 64 3c 3a f4 0c 96 3d
       0.060168397 -0.0148029085 0.00071865943 0.07326689
000240 af d7 e1 bd bd ab 8a bd 71 b4 86 3d 98 15 73 bc
       -0.110274665 -0.06771038 0.06577385 -0.014836691
000250 95 ba 58 3d f8 4f 49 bd 99 c3 cc bb d4 34 66 3d
       0.052912313 -0.04914853 -0.006248903 0.056202725
000260 60 a4 40 3c f0 f3 6f 3d 07 ed 30 3d 9e 63 87 bd
       0.01175794 0.058582246 0.043194797 -0.06610797
000270 75 36 c2 bc 2a 36 9a bd 91 0d 46 3d a1 58 53 3d
       -0.023707608 -0.07529862 0.04835278 0.051598195
000280 73 87 a8 3c e8 17 56 3d 9f 49 34 3d df ce e0 bc
       0.0205724 0.052268893 0.044015523 -0.027442394
000290 cd a4 0c 3e ed 52 25 3b 3d e2 59 bd d3 88 92 3b
       0.13734742 0.002522643 -0.053194273 0.004471877
0002a0 f4 78 7f bc 43 7a 12 bd 4f 6d 93 3d 78 a6 81 bd
       -0.015592802 -0.03576113 0.07198583 -0.063305795
0002b0 5f 02 b7 3c ec a5 96 bc 12 c8 ff bc 5a 6b 0a 3d
       0.022339998 -0.018389665 -0.03122333 0.033793785
0002c0 e4 04 2c 3d ad 1b 23 3d 2e f3 8d bd ab 58 f1 bc
       0.04199685 0.039821316 -0.069311485 -0.029461225
0002d0 ac 1f 74 3d e3 ab 34 bd 7e c7 99 3b 24 40 83 3d
       0.059600517 -0.044109236 0.004692971 0.06408718
0002e0 af 43 3d 3d a5 ea 45 3c 1b dc 64 bb 12 66 27 3d
       0.046207126 0.012079869 -0.0034921232 0.040868826
0002f0 9d 96 83 bc 88 28 6f 3d 23 d0 56 3d dd f5 f9 3c
       -0.016063029 0.058388263 0.05244459 0.030512745
000300 95 ff 9b 3d 19 65 62 bd bb 75 04 bd 4e 18 ab bc
       0.07617108 -0.055272195 -0.03233884 -0.020885613
000310 c5 fb b8 bc ba 6d 35 3d c5 9b 69 bb 3a 80 43 bd
       -0.02258099 0.044294097 -0.0035645824 -0.04772971
000320 d7 5f 88 3d 3d 04 af bb 08 fc d7 3c d1 d7 90 bc
       0.06658905 -0.0053410814 0.026365295 -0.017681034
000330 a2 1a 51 3b 8f 08 6c bd da 55 de 3b 0c fc 15 bd
       0.0031906744 -0.05762535 0.0067851366 -0.036617324
000340 91 60 17 3d c2 26 f1 bb 8f 46 a1 bb c4 84 23 3d
       0.036957327 -0.0073593566 -0.0049217413 0.039921537
000350 d2 40 0d 3c e8 0c 63 bd fb 22 30 bd 9c 22 be 3d
       0.008621411 -0.05543223 -0.04300211 0.09283945
000360 cf 28 14 bd 9d 52 01 be bc 41 64 bd de 1e 7c 3d
       -0.03617173 -0.1262917 -0.05572675 0.061552875
000370 e3 8e 04 3d 0a e4 6d 3d f5 8b 28 bd 9a a8 1f bd
       0.03236283 0.058078803 -0.0411491 -0.03897915
000380 16 00 25 bd 55 cb b9 bc 5c 01 0a bb 5c d6 88 bc
       -0.040283285 -0.022679964 -0.002105794 -0.016703777
000390 d6 71 7c bb 24 4f 66 bc a1 35 87 bd 48 4c 33 bd
       -0.003852 -0.0140569545 -0.06602026 -0.04377392
0003a0 9e 9b 8d bd f1 13 a2 bc ef ac 80 3d af 90 8d bd
       -0.06914447 -0.0197849 0.062829845 -0.06912362
0003b0 f5 a4 d0 3b fb 83 64 3d 25 56 cb bc 5f f5 a1 bc
       0.0063673207 0.05578993 -0.02482135 -0.019770322
0003c0 1b 22 75 3d e1 0e b1 bd e7 7c e7 3a 10 4f d5 3c
       0.05984698 -0.08645416 0.0017661125 0.026038677
0003d0 32 40 74 bb 7e 4b 08 bc ad 5d 47 bd ab c3 8a bb
       -0.0037269709 -0.00831878 -0.04867332 -0.004234751
0003e0 c0 6e e4 bc e3 19 71 3d 48 cd a8 3d 0a de ab 3c
       -0.027884841 0.058862578 0.08242279 0.0209799
0003f0 ed d1 b8 3c 09 92 aa bc 45 62 06 be 4c 00 ac bd
       0.022561038 -0.020821588 -0.13123424 -0.08398494

input_net.bias f4 [64]
000000 cb d8 6f 3b 4f 7b 4d 3d d1 a5 e9 bc 61 25 fa b9
       0.0036597725 0.050166424 -0.02852145 -0.00047711565
000010 f5 db 31 3b 56 80 55 bc 60 bb fa 3c ac fd d1 bb
       0.0027139161 -0.013031086 0.030606925 -0.006408414
000020 d8 08 63 3d 3d 9c 6d 3a 00 b5 96 3b f1 64 f5 ba
       0.055428356 0.0009064114 0.0045992136 -0.00187221
000030 f4 c9 65 3d 63 b4 66 3d ee 58 2e bb 56 d7 e7 bc
       0.0561008 0.056324374 -0.00266033 -0.028300922
000040 e9 68 08 bd 9d 10 36 3d ce 5e 50 bd dd 94 98 bd
       -0.033303175 0.044449437 -0.050871663 -0.074502684
000050 6d 0a a0 3c 53 3c 9d bb a5 7a 6f bd 74 ba 0e bc
       0.019536221 -0.004798451 -0.058466572 -0.008711446
000060 03 d1 01 3d 54 25 2c 3c a7 94 f2 bb a8 1d 6b 3d
       0.03169347 0.010506947 -0.0074029746 0.05740133
000070 fd 23 50 bc 03 ba 77 bd 28 f2 84 bd c3 51 f6 3c
       -0.012703893 -0.06048013 -0.064915 0.030068284
000080 4e 91 57 bd c3 10 9b bd 9b 63 42 3d 9c 7a e0 bc
       -0.052628808 -0.075715564 0.047458272 -0.027402215
000090 df 95 11 bc 29 60 26 3d c7 04 57 bc c1 d1 f9 3c
       -0.00888583 0.04061905 -0.013123698 0.030495526
0000a0 d8 fe 18 bd 0f 19 23 bd 72 84 c1 3c d7 95 02 3c
       -0.037352413 -0.03981882 0.023622725 0.007970295
0000b0 43 bf fe bb 92 be 3d 3d d6 e4 b6 3c ec 1e d5 3b
       -0.007774265 0.04632432 0.022325914 0.0065039303
0000c0 c8 11 03 bc f9 98 46 3c 45 cb 78 bd 9d cf 03 bc
       -0.007999845 0.012121432 -0.060740728 -0.008045104
0000d0 dc da 12 3d 17 e8 84 3d f6 cd b0 bc 73 59 9a 3a
       0.03585325 0.0648958 -0.021582585 0.0011775926
0000e0 36 e9 d6 bc 2e ed ea 3c c3 b7 af bc 4f 8d a2 3c
       -0.02623425 0.02867755 -0.02144993 0.019842772
0000f0 c5 b1 3f 3d b7 c6 08 bd c1 83 1f 3d d1 38 bb bc
       0.046800394 -0.033392634 0.03894401 -0.02285424

mixture_net.mol_attn_layers.0.self_attn_layer.in_proj_weight f4 [192, 64]
000000 7d 77 4d bd d5 9f 29 be 2b ac 8a ba 7a 20 18 3e
       -0.05016278 -0.16564877 -0.0010579875 0.14856139
000010 34 72 9d bd 34 ba 11 3b 9e e4 42 3e 49 4f ca bc
       -0.07687798 0.002223623 0.19032523 -0.02469601
000020 9b 9b d9 3d c5 ea 9c 3d f4 bb 59 3d 1e db 14 3e
       0.106253825 0.07661966 0.05315776 0.14536712
000030 b5 19 58 3d d8 bc ce bd 63 ea c6 3d 18 bc 6d bd
       0.05275889 -0.10094613 0.097126745 -0.05804071
000040 0f a0 4c 3e b1 84 ca bd a0 f1 cd bd 19 db 92 bd
       0.19982933 -0.0988859 -0.10055852 -0.07170696
000050 31 47 8a bd 56 73 81 3c e6 3c c9 3d bd ad 39 bc
       -0.0675186 0.015802067 0.098260686 -0.011332926
000060 f2 6d e9 bd 34 66 c6 3c 83 28 28 be 0b 26 a9 bd
       -0.113979235 0.024218656 -0.16421704 -0.08259209
000070 85 b1 bd 3d bb 86 02 3e 41 38 db 3d d1 c2 c3 bd
       0.09262375 0.12746708 0.10704089 -0.09558643
000080 27 66 25 bb c6 fd 34 3e 1e ad 62 3d 70 50 7e 3d
       -0.002523789 0.17674932 0.05534088 0.06208843
000090 5a 78 ba bd 25 e6 84 bd 7e 5b 85 3d 5e 60 05 3e
       -0.091049865 -0.06489209 0.065115914 0.13025042
0000a0 17 a0 ed 3d 73 54 c4 bd a3 34 95 3d 46 69 56 be
       0.116028 -0.0958642 0.0728543 -0.20938596
0000b0 f4 0a 33 bc e7 22 41 3d 84 b8 a1 3d a3 88 31 3d
       -0.010927904 0.047152426 0.07896522 0.043343198
0000c0 32 9a 33 b7 3f bf e9 3d 8b eb ba bb 09 f8 f8 3c
       -1.0705133e-05 0.114134304 -0.0057043484 0.03039171
0000d0 6f dc d2 bd 43 e1 65 bd b5 32 d0 3d 70 f9 cc bc
       -0.102959506 -0.05612303 0.101659216 -0.025021285
0000e0 10 d2 02 3e 6d 69 08 3e 1d 86 92 3d 78 6c 8e bd
       0.12775445 0.13321467 0.07154486 -0.069542825
0000f0 ae 83 23 3e 97 bb 3b 3c 14 ff bb bc 06 7e e0 3d
       0.159682 0.011458299 -0.02294878 0.10961537
000100 2a 89 18 be 2e 48 55 3d b3 e3 da 3d 45 44 30 bd
       -0.14896074 0.05207079 0.106879614 -0.043033857
000110 66 03 58 3e 70 40 55 bd 72 1c 07 3e 73 54 53 3e
       0.21095046 -0.052063406 0.13194445 0.20637684
000120 75 bd 8a 3c 63 33 cb 3c 86 b8 c1 3d a8 be 76 bd
       0.016936043 0.024804777 0.09459023 -0.060240418
000130 ca 7a 5b bd 60 de c2 bd ea 74 fd 3d 0d 9d 4e be
       -0.053583898 -0.09515071 0.12375815 -0.20177098
000140 93 3b 94 bd 34 a0 1e be 5b 9b 55 be c2 06 01 bd
       -0.072379254 -0.154908 -0.20860045 -0.031500585
000150 8b 0e 33 39 99 9a 01 be cf 67 2d be 76 bd ab 3d
       0.00017076188 -0.1265663 -0.16934131 0.08385746
000160 95 34 a5 bd 1d bb 78 bd 72 e7 ce 3c 1a 92 af bd
       -0.0806667 -0.06072532 0.025256846 -0.085727885
000170 d2 c5 91 bc d3 f9 02 3e f8 7f f4 3c 76 40 6e bb
       -0.017794523 0.12790613 0.029846177 -0.003635434
000180 14 5e f2 3d f4 05 01 3d ba 25 e4 bd b5 d9 3b bd
       0.1183435 0.031499818 -0.11140008 -0.04586192
000190 9d 72 92 bd 5a c5 2e bc 5a 9a 5b 3d 0c 74 8c 3c
       -0.07150767 -0.0106671695 0.053613998 0.01714518
0001a0 fc 40 a0 3d 04 55 57 be 18 4b f4 bc 61 52 12 be
       0.07824895 -0.21028525 -0.029820964 -0.14289238
0001b0 a3 7c 37 3e a6 da b4 3d 04 49 05 3e b4 09 a7 3c
       0.17918639 0.088307664 0.13016135 0.020390369
0001c0 19 40 d8 3d 30 0c 0b be 06 c3 69 bd 80 01 b5 bc
       0.10559101 -0.13578868 -0.057070754 -0.022095442
0001d0 a3 de 1d be 94 b7 22 be 9f 57 8a bd 6a 09 39 bc
       -0.1541696 -0.15890342 -0.06754994 -0.011293748
0001e0 73 c5 c3 bb 51 cf 23 be b8 78 00 bd cc 4e 88 bd
       -0.0059744655 -0.15997054 -0.031365126 -0.06655654
0001f0 63 d0 30 3c 70 40 df 3d 0d 42 5a bd 41 c1 c4 3c
       0.010791871 0.10900962 -0.053285647 0.024017932
000200 6e 09 00 3d 11 6b 86 bd ba 1b 19 3e ca ea 2c bd
       0.031258993 -0.0656339 0.14951983 -0.0422161
000210 ae dc c1 bd 88 35 98 bd ec b2 0b 3e af ce 08 bd
       -0.094659194 -0.07432085 0.13642472 -0.033400234
000220 ae f2 b0 bd 80 96 3d ba a5 a2 ac 3d aa 0b 03 3c
       -0.086400375 -0.0007232204 0.084294595 0.007998386
000230 22 9e d3 bd 06 cd 98 bd 0b 49 11 be 10 b2 96 bd
       -0.10332896 -0.0746098 -0.1418802 -0.073581815
000240 be 11 3f 3e 1a 9d c9 bd 7c 04 d8 bd 88 91 81 bd
       0.18659112 -0.09844418 -0.1054773 -0.06326586
000250 0a b3 03 be 55 fd 4d 3d fa a7 cc 3d 0d 6e 2e bd
       -0.12861267 0.050290424 0.099929765 -0.04258542
000260 f6 33 f7 bd 2c 64 18 be 0e c3 23 be e1 48 d9 bd
       -0.12070458 -0.14881963 -0.15992376 -0.10609604
000270 1e d2 de 3d b0 fc 21 3c 62 d0 a4 3d cc 8f fc bd
       0.108799204 0.009886906 0.08047558 -0.123321146
000280 1f 6a 85 bc 22 cd af bd a2 8c ab bd 9f 48 6c bd
       -0.016285954 -0.08584048 -0.08376433 -0.057686444
000290 97 4f ef 3d 53 d3 de 3d ce a2 bb bd 44 5e 92 3c
       0.116851024 0.10880151 -0.09161912 0.017867215
0002a0 df 42 58 bd 02 fd ff 3c 4f 84 5b bd 3c d8 18 bc
       -0.05279815 0.031248573 -0.053592976 -0.009328898
0002b0 fe 44 dc 3d 95 1a 03 3d d6 89 20 bc 24 e0 de bc
       0.10755347 0.032007772 -0.009798488 -0.027206488
0002c0 99 ee a5 3d 42 a8 bb 3d a9 4c 27 be ac 95 e2 3d
       0.081021495 0.09162952 -0.16337837 0.11063704
0002d0 5d 48 25 be 1a 73 12 be 31 42 62 3c 7a 25 d7 bd
       -0.16140886 -0.1430172 0.013809727 -0.10505195
0002e0 67 bf 79 bd 14 30 f7 3d ae 7e ec 3c 7d b7 62 3e
       -0.06097355 0.12069717 0.028869 0.22140308
0002f0 d5 57 09 bd 31 28 ee b8 f2 e1 fe 3d 9b 0e 02 3e
       -0.03353103 -0.000113562106 0.124454394 0.12700884
000300 94 fe d8 bd 77 40 ce 3d 4d 68 cd 3d 97 05 86 3d
       -0.10595432 0.100708894 0.100296594 0.06544035
000310 44 27 38 3e a9 7f 9c bd b9 43 99 3d 27 07 2f be
       0.17983729 -0.07641537 0.0748362 -0.17092572
000320 3a 70 fa bb 57 96 2f bc 5d 39 7b bd b2 de 02 be
       -0.007642773 -0.010716996 -0.061334003 -0.12780264
000330 06 e4 c1 3b f2 94 bb 3c 6f 6e e9 bd 0d 82 a5 3d
       0.005917075 0.022898171 -0.11398017 0.08081446
000340 b4 e1 ed bc f7 ca 39 3d 77 85 b6 bd 68 73 ad 3d
       -0.029038288 0.045359578 -0.08912175 0.084692776
000350 94 f2 ce bd d1 92 a7 3d 5f d1 1b 3c 55 46 44 bd
       -0.10104862 0.081823 0.009510367 -0.047918636
000360 d1 f3 14 be 29 f7 15 3e ca 75 2d 3d 50 f9 96 3c
       -0.14546134 0.14645065 0.04234866 0.018429428
000370 4a 98 1c bd 57 e9 a0 bd 3f dc d7 bc 15 fd 0e 3e
       -0.03823117 -0.07857006 -0.026350139 0.1396373
000380 d5 2b 1d 3d aa 25 d9 bd 01 e2 92 3d 83 6c 42 be
       0.03837188 -0.10602887 0.07172013 -0.18986706
000390 da 62 de 3d f0 e2 35 3e 6a 0f e0 3d 74 6e 2d 3d
       0.10858698 0.17762351 0.1094044 0.042341664
0003a0 de 76 e1 bd fd b6 dc 3d 62 11 2d 3e 94 9d 16 3e
       -0.11009 0.1077709 0.16901162 0.14708549
0003b0 dd 90 a8 3d f9 13 9d 3d e4 e8 11 be 8f 68 15 bc
       0.082307555 0.07669825 -0.14248997 -0.009119167
0003c0 00 b1 fe bd d2 28 0f 3e 4b 4d 0f 3e c3 5f a8 3d
       -0.12436104 0.13980415 0.13994329 0.0822139
0003d0 65 2b 1e 3e 06 e7 08 3d 12 4e e2 bd 1d 6b b3 3a
       0.15446241 0.033423446 -0.11050047 0.0013688538
0003e0 79 c3 1e be 98 93 3a be 2b 2e 09 3e 99 31 c4 3c
       -0.15504254 -0.18220365 0.13396518 0.023949431
0003f0 d4 33 17 be 60 51 44 3d bf 23 e8 bd 0a fc 7b 3d
       -0.14765865 0.047929168 -0.11334943 0.06151966

mixture_net.mol_attn_layers.0.self_attn_layer.in_proj_bias f4 [192]
000000 bc 8e 93 bc 6d e7 ed bc a1 c8 ad bc 12 98 02 3d
       -0.018012397 -0.029041016 -0.021213831 0.031883307
000010 68 6c 2b bc 99 54 b2 3b c3 e2 40 3c ba 05 9e 3c
       -0.010462858 0.0054422137 0.011772814 0.01928984
000020 09 62 74 bc 63 a3 7f 3b 4e cb 33 3d 05 3d eb 3b
       -0.0149159515 0.0039007298 0.04389506 0.007178905
000030 58 84 14 bd 03 3d c5 bc 26 73 cd 3b 4c a2 0e bd
       -0.036259025 -0.024076944 0.0062698303 -0.034822747
000040 a7 a7 75 bc 64 b0 19 3c 7e 82 08 bd 3e 1a db bc
       -0.014993585 0.009380434 -0.033327572 -0.026745912
000050 82 3e 27 3c bb 4b 08 3c 23 f5 0f 3d 7f 52 69 bc
       0.010207774 0.008318837 0.03514589 -0.01424086
000060 91 97 27 3d 7e 8c c5 3c 44 90 3f 3d d6 c0 a7 3d
       0.04091603 0.024114843 0.04676844 0.081910774
000070 f4 7f fc 3a 8d b2 88 3b f0 7b e7 bc 1d e5 30 3c
       0.0019264207 0.0041716755 -0.02825734 0.010796812
000080 ca c3 09 3c 12 34 75 bd 57 d2 f1 3c 80 22 90 3d
       0.008408496 -0.05986411 0.029519243 0.0703783
000090 cb c7 73 3d b8 24 28 3c e8 c1 61 3c 71 87 71 bd
       0.05951671 0.010262661 0.013779141 -0.058967058
0000a0 a8 05 00 bd 17 d2 41 3c 81 ed bb 3b 28 b3 a7 bb
       -0.031255394 0.0118298745 0.0057351 -0.0051177926
0000b0 fe 5d 23 3c b5 68 a4 3b 1b 8e 83 bd dc 6f c1 bc
       0.00997114 0.005017365 -0.06423589 -0.023612909
0000c0 10 d6 f4 3d 4e d2 93 3c 8e 37 b7 bc 1e fb 0b 3c
       0.11954892 0.018044617 -0.022365358 0.008543758
0000d0 d2 3d 8c 3c d7 15 a2 3c 49 15 ab bd d4 17 be 3c
       0.017119322 0.019785805 -0.08353669 0.023204722
0000e0 bb a2 a7 bd b6 d0 09 bc 80 7d 97 3c 37 49 86 bc
       -0.08185335 -0.008411577 0.01849246 -0.016392333
0000f0 02 ed f5 3c 0d dd 90 bd 9c 7c 60 3c b1 12 f8 bc
       0.03002024 -0.07073412 0.013701584 -0.03028235
000100 c1 e1 14 b7 5d 62 fe b6 49 80 c7 b6 10 6d 1d 37
       -8.87405e-06 -7.581241e-06 -5.9455965e-06 9.383322e-06
000110 1f 5e 9e b6 57 08 a2 b7 41 48 9b 37 1a 2e 23 b7
       -4.719724e-06 -1.9315788e-05 1.8511086e-05 -9.726291e-06
000120 1d f5 5f 35 97 22 46 b5 b2 e2 59 37 02 09 a4 b6
       8.343066e-07 -7.381108e-07 1.29869895e-05 -4.8886295e-06
000130 61 fd 3e 36 3b 81 20 b7 f9 e9 99 37 49 b5 ca b7
       2.8459692e-06 -9.566832e-06 1.8347973e-05 -2.4164694e-05
000140 3c 7a d6 b7 67 22 42 37 54 bf 97 b7 e4 10 26 35
       -2.5567708e-05 1.1571311e-05 -1.8089697e-05 6.18644e-07
000150 55 f2 f2 37 4d e7 b0 37 f2 f4 1c 38 cf 64 68 35
       2.8961493e-05 2.1088543e-05 3.742142e-05 8.657343e-07
000160 1f b7 c3 b7 70 e2 6e b7 9c 0a d0 b7 d8 1d 52 b8
       -2.3331084e-05 -1.4238627e-05 -2.4800473e-05 -5.0095696e-05
000170 95 a1 40 b6 9e 5f 12 37 d4 98 58 36 60 1d 9d b3
       -2.8704283e-06 8.724541e-06 3.2275466e-06 -7.3162255e-08
000180 b4 54 96 36 1b 88 b0 b8 3b ea 90 38 cd 63 3e 38
       4.480209e-06 -8.4176856e-05 6.910084e-05 4.5392477e-05
000190 13 ec 80 38 64 08 f3 b6 a9 07 30 37 be 62 52 b8
       6.147488e-05 -7.242941e-06 1.0492201e-05 -5.0159862e-05
0001a0 7c b2 b0 38 6d f0 36 b7 e3 54 fa 36 33 5a 8a 37
       8.425579e-05 -1.0904024e-05 7.4604627e-06 1.6492884e-05
0001b0 2e db d6 b7 b5 d7 bc 35 c2 72 9a 38 f5 70 79 38
       -2.5612851e-05 1.406987e-06 7.3646675e-05 5.9471426e-05
0001c0 38 8b 77 37 74 92 b8 b5 ad 56 3e b7 98 4b 03 37
       1.4754762e-05 -1.3751692e-06 -1.1345063e-05 7.825809e-06
0001d0 e5 eb 12 37 1e d1 00 b6 31 3b 0f b8 7b 70 44 36
       8.757202e-06 -1.9195209e-06 -3.4148983e-05 2.9271748e-06
0001e0 61 e8 0e 39 05 c3 20 b8 a7 98 20 b7 d8 3e 01 b8
       0.00013628743 -3.83286e-05 -9.572285e-06 -3.0814525e-05
0001f0 40 f2 f8 b7 8f 96 e4 38 44 fa f7 37 d2 7f 37 38
       -2.967671e-05 0.00010899931 2.9561234e-05 4.3749642e-05
000200 ff 61 b0 bb 41 da f8 3a 90 16 a4 bb 5d e3 db 3b
       -0.005382776 0.0018985943 -0.0050075725 0.0067104534
000210 39 bf c3 3b dd 12 0c 3c 26 70 a4 ba 2a a7 28 3a
       0.0059737233 0.008549419 -0.001254563 0.0006433601
000220 e9 11 47 3b 61 fa 76 bb 17 27 d5 bb 6c 03 24 bb
       0.0030375666 -0.0037685859 -0.006504904 -0.0025026454
000230 b7 76 1f 3a b0 34 62 3c 1c ed d5 bb 45 16 e5 3b
       0.00060830585 0.013806507 -0.00652851 0.00699118
000240 9c b9 97 ba 0a 04 4a bc 13 14 1e 3c c2 5e 7c bc
       -0.0011575702 -0.012330065 0.009648341 -0.015403451
000250 9a 5c 5d bc 81 bc 31 bc b6 73 04 bc 62 86 d4 3b
       -0.013510847 -0.0108481655 -0.008084228 0.0064857462
000260 4a 22 05 bc 03 5c 06 3c e1 95 37 3c 26 7a cf bb
       -0.008125851 0.008200648 0.0112051675 -0.0063317
000270 9c a0 a2 bb e4 c2 17 3b f5 eb 4f 3c 48 33 c0 bb
       -0.004962994 0.0023156935 0.012690534 -0.005865488
000280 3a 8a 42 3c 5c 42 fd 3a 03 00 09 bc e4 ad ad bb
       0.011873776 0.0019322145 -0.008361819 -0.0053002704
000290 58 09 f4 3b 61 8f ee bb 4c ac 44 3b 1b 3b 0f bb
       0.007447403 -0.0072802757 0.0030009924 -0.0021855298
0002a0 82 84 e9 bb 8b b8 ed bb 2d 1b bf bb fd 8d e3 bb
       -0.007126392 -0.0072546653 -0.005832097 -0.0069444166
0002b0 c7 a7 dd bb 10 af ad 3a 89 96 2e 3c 9c da 47 bc
       -0.0067643854 0.0013251025 0.010656008 -0.012198117
0002c0 a8 f5 97 bb 1f e5 25 3b b2 72 f4 39 18 0e 24 bb
       -0.004637439 0.0025313569 0.0004662476 -0.0025032815
0002d0 6b 1b b6 3b d8 c3 26 3b 55 29 22 3a e1 21 3d 3b
       0.0055574677 0.0025446322 0.00061859685 0.0028859305
0002e0 a9 6f 5a bc 1b 0b 84 3a 4f 61 2d bc 77 9e c5 3b
       -0.013332286 0.001007411 -0.010582282 0.0060308534
0002f0 a5 0e a7 3a b3 b0 7e ba 06 42 fe bb f2 84 41 bb
       0.0012745453 -0.0009715661 -0.0077593355 -0.0029528704

mixture_net.mol_attn_layers.0.self_attn_layer.out_proj.weight f4 [64, 64]
000000 ca da 35 bc 61 49 6c bc 5c 3b 45 3d 86 ac fb bc
       -0.011099527 -0.014421792 0.048152313 -0.030721914
000010 77 00 c2 3a 52 99 dc bc 56 02 61 3d f0 cd 91 3d
       0.0014801164 -0.026928578 0.05493387 0.071193576
000020 ad 0c 8d 3d 52 f6 c4 3d cf 2f 6a 3d 44 ed 66 3c
       0.06887183 0.09617294 0.0571745 0.0140946545
000030 cc c8 25 3d fe d1 5f 3d 2c b1 99 bd 9a 43 af bd
       0.040474698 0.054643624 -0.07504496 -0.08557816
000040 44 18 9e bd 24 c3 13 3d 6e b7 1e 3d 05 4c 75 bc
       -0.07719472 0.036074772 0.03874915 -0.014971738
000050 37 b8 3f bc 16 2a 02 be a1 4f b8 bc bb 54 1a 3d
       -0.011701635 -0.12711367 -0.022498908 0.03767846
000060 6b 50 bc 3d bf a1 3a 3d d9 41 2b 3d c6 53 d9 3d
       0.09195026 0.04556441 0.041810844 0.10611682
000070 86 b4 d8 3c 9d ce 53 3d 56 05 e5 bd 34 66 d6 bc
       0.026453268 0.051710714 -0.111826584 -0.026171781
000080 ca 8a a2 bc ec 0b ea bd b9 d3 1a 3d 72 1b e4 3d
       -0.01984157 -0.11428055 0.03779957 0.11138047
000090 69 e2 2a 3d 0f 99 bb 3d e0 00 7e 3d 5a 12 de 3d
       0.041719828 0.09160053 0.062012553 0.10843344
0000a0 89 c3 f7 3c b7 49 79 3d fa ed d2 3d 4d 38 98 bc
       0.030244606 0.060861316 0.10299297 -0.018581534
0000b0 c8 4d 82 bc dc b7 2b 3d 09 e0 8c 3c c2 0c ff b9
       -0.01590623 0.04192339 0.017196672 -0.00048646895
0000c0 b8 2b f3 bd 96 ce 64 3d 66 f4 35 bc ee 3d 10 3e
       -0.11873573 0.05586108 -0.011105632 0.14086124
0000d0 e6 5b 6d 3c 20 80 3d bd fe 29 e9 3d ee dc 17 3d
       0.014487242 -0.046264768 0.113849625 0.03707593
0000e0 c8 d9 8c bc 77 85 c1 3d 3b 81 41 3d c3 7b 59 bd
       -0.01719369 0.094492845 0.047242384 -0.053096544
0000f0 e7 62 2a 3d f7 a0 59 bc 6f 18 c0 bd 71 f2 3d bd
       0.041598227 -0.013283006 -0.0937966 -0.04637379
000100 c9 54 d6 3d ee 3d 9a 3c 48 c7 11 3e 07 2b fa bd
       0.1046539 0.018828359 0.14236176 -0.12215238
000110 b7 7f b7 3c 3c 0b 73 3d 77 cc 09 3e ea 1f d5 bc
       0.022399766 0.059336886 0.13456903 -0.026016194
000120 35 5c 8f bd 52 3c ac 3d 14 a0 c9 bd f0 a2 3c bd
       -0.07000009 0.08409943 -0.098449856 -0.046053827
000130 cb 1c a7 bd b9 88 dc 3d 2a 57 a1 3d 6f 58 4f bd
       -0.08159789 0.10768265 0.07877953 -0.050621446
000140 bb 4c f3 bc 2e ef 09 bd 3b 79 ed bd 64 58 a3 3d
       -0.029699674 -0.033675365 -0.115953885 0.079758435
000150 57 4c 0b 3e 98 f4 de 3d 2f a6 dc bd 59 fc 60 bd
       0.1360334 0.10886496 -0.107738845 -0.054928157
000160 82 eb 14 be 6c 53 a9 3d 57 f8 b1 3b ce c4 39 3d
       -0.14542964 0.082678646 0.0054312157 0.045353703
000170 55 c6 d8 bd 47 be 6a 3d a6 dc 60 bd cc 65 fa bc
       -0.10584704 0.05731037 -0.054897927 -0.030566119
000180 9c 99 64 bd b3 fa 77 3c e8 2c ea 3d 25 a9 02 3c
       -0.055810556 0.015135455 0.114343464 0.0079748975
000190 59 f0 95 3c 0f ce 65 3d 41 6b 48 bd 1e ff 94 bd
       0.018303083 0.056104716 -0.04893041 -0.07275222
0001a0 07 10 56 bd 55 b8 b8 3c 49 34 01 be f8 30 cf bd
       -0.05226138 0.022548834 -0.12617601 -0.10116762
0001b0 fb b4 f5 bc 2e fc b6 3d 41 65 04 3e 84 a3 d1 bd
       -0.029993525 0.08934818 0.1292925 -0.10236266
0001c0 69 27 52 3d 94 f9 e3 bc 53 ad 08 bd df 6c 05 be
       0.051307116 -0.027828969 -0.03336842 -0.13029812
0001d0 1a 42 91 ba 50 50 4c 3b 70 e2 aa 3d d6 65 8d 3d
       -0.0011082322 0.00311758 0.08343971 0.06904189
0001e0 a3 b5 24 be 58 c9 e1 3d 64 39 d3 3d f8 ce 63 bd
       -0.16084914 0.110247314 0.10313681 -0.055617303
0001f0 cf a2 8e 3b 69 c7 bc bc 5b 2d cc 3d 0b d8 bf 3d
       0.0043529044 -0.023044305 0.09969588 0.09367379
000200 e9 de 24 bd 66 3b fb 3d f4 e8 34 bc 4b 79 e7 3d
       -0.040251646 0.12267189 -0.0110418685 0.11302432
000210 91 2a 89 bd 04 6e 07 be 86 4a 9f 3d d7 b3 00 be
       -0.06697572 -0.13225561 0.07777886 -0.12568603
000220 b1 27 6d 3d 80 8f 9d 3d 8b 92 86 bd d7 ad 02 bc
       0.05789918 0.07693386 -0.065709196 -0.007976017
000230 ba 2b 70 bd ed d6 cd 3d 75 b9 9a bd cc bc 09 be
       -0.05863545 0.100507595 -0.07554904 -0.13450927
000240 77 e1 95 3c 75 86 cc 3c df aa 8f bc d1 bb 34 bd
       0.018295987 0.024966458 -0.017537532 -0.04412443
000250 e1 a7 0e be 0a f0 a2 bb 6d 4f fe bd 45 24 a2 bd
       -0.13931228 -0.0049724625 -0.12417493 -0.07917074
000260 bb 14 e7 3d 97 6c 88 3d 6f b8 8b 3d d4 f3 31 bd
       0.11283251 0.06661337 0.06822287 -0.043445423
000270 07 e1 f7 3d 59 b7 02 be 1a f2 0d 3d bc e3 b4 bd
       0.121034674 -0.12765254 0.034654714 -0.088324994
000280 fa c2 69 3d ff 13 d1 3c 8b c7 92 bd ac a5 aa 3a
       0.05707071 0.02552223 -0.07166966 0.0013019345
000290 77 2d 0b 3e 7d a7 b8 bc 31 ec 8a bd 14 dd 4a 3d
       0.13591562 -0.022540802 -0.06783331 0.049527243
0002a0 c6 84 02 3e 37 84 af 3d 2e f5 b2 bd b8 99 36 3d
       0.12745962 0.0857014 -0.087381706 0.04458019
0002b0 44 c9 8d bd 43 12 b3 bc 9c b1 71 3c 1d 7d c9 bd
       -0.06923154 -0.021859294 0.014751818 -0.098383166
0002c0 30 50 39 3d 34 48 d4 3d 3b 20 b9 bd 3c 13 0e bd
       0.04524249 0.10365334 -0.090393506 -0.034686312
0002d0 96 ac 6e bd 89 94 b9 bc 76 cb 5d 3d 88 1b 7e bd
       -0.05827006 -0.022653835 0.054149114 -0.062037975
0002e0 73 76 f6 bc 4e 25 87 bc 33 9b 07 be ea f3 25 3c
       -0.030085778 -0.01649728 -0.13242798 0.010128954
0002f0 18 07 74 3d 18 aa bd 3d 1d 07 99 bd ee 54 cb 3d
       0.059577078 0.092609584 -0.0747206 0.099283084
000300 a2 90 fd 3d c1 28 83 bd d1 6e b1 3c c4 cd 56 bd
       0.12381102 -0.064042576 0.021659287 -0.052442327
000310 58 99 57 3d f3 e6 00 3b 8c 39 05 3e 3d 47 86 bd
       0.052636474 0.0019668906 0.13010234 -0.065565564
000320 3e 35 b8 3d cc 33 bd bd 8c 4e 07 bc c9 07 5b 3d
       0.0899453 -0.09238395 -0.008258473 0.05347422
000330 af 71 c9 3d c9 b7 d7 3d fb 54 19 be 79 49 71 3d
       0.098361365 0.10533101 -0.14973824 0.05890796
000340 da eb 8d 3d bc fc a1 bd ce 88 ef 3d be 84 95 3d
       0.06929751 -0.079095334 0.11696015 0.07300709
000350 cd 5e df bb 63 ca 8d bd 7b ab 87 3c 58 29 d7 3c
       -0.006816721 -0.06923368 0.01656126 0.026264831
000360 f4 0c 29 3d 29 eb b1 3d 44 0d ca bd 89 34 1d bd
       0.04127212 0.08687431 -0.098658115 -0.03838018
000370 25 81 c3 bd 2e 40 b1 3c 1a 54 80 bd 1f 7e 59 3d
       -0.09546117 0.021637049 -0.06266041 0.053098794
000380 40 b2 87 bc 28 00 a0 3d f1 60 c0 bd 1b c3 9d 3c
       -0.016564488 0.0781253 -0.0939349 0.019258073
000390 f1 3a b2 3d 6c 3e 04 3e 20 59 1b 3d 91 3c 8c 3c
       0.087026484 0.12914437 0.037926793 0.017118724
0003a0 82 de a4 bd 0a 35 d4 3d f7 01 07 3e 28 ba 9f 3d
       -0.080502525 0.10361679 0.13184343 0.07799178
0003b0 a4 82 10 be ae 35 29 3d 94 f2 76 bd f1 4e ac 3c
       -0.14112335 0.04131096 -0.060289934 0.021033736
0003c0 97 a4 61 bd 57 f7 70 3d 21 4e b7 bd 4d 9f 76 bd
       -0.055088606 0.05882963 -0.08950449 -0.060210515
0003d0 a4 2f b4 3d 38 b7 8b bd 71 ee cc bd ff 68 df bc
       0.08798149 -0.068220556 -0.100064166 -0.027271746
0003e0 21 89 8e bc a2 a7 04 3d 2e c9 f4 3c 8b a9 2a bd
       -0.017399373 0.03238643 0.029881086 -0.041665595
0003f0 f6 c8 84 3d c6 00 1a 3d 4f 6a e4 3d db 67 3a bb
       0.06483643 0.037598394 0.11153089 -0.002844325

mixture_net.mol_attn_layers.0.self_attn_layer.out_proj.bias f4 [64]
000000 a2 6f 6d 39 19 30 b4 3b e5 c8 56 bb bd d7 8d bb
       0.00022643668 0.0054988977 -0.003277355 -0.0043286965
000010 9b c5 fd b8 c9 f4 b5 b9 72 84 76 ba a3 b4 8a bb
       -0.00012100787 -0.0003470539 -0.0009403891 -0.0042329594
000020 de 40 d7 bb 3b 3e 81 bb 9b 3e a2 3b 79 9a 56 3b
       -0.006569012 -0.003944186 0.004951311 0.0032745881
000030 da 67 9e 3b 43 d4 1c 3c 2e ac b4 ba 4c 6e ba 3b
       0.0048341574 0.0095720915 -0.0013784224 0.005689418
000040 25 a9 ac bb 19 69 c9 3b f0 27 b2 bb bd 8d b5 ba
       -0.005269187 0.006146562 -0.00543689 -0.0013851445
000050 6f d2 cb bb 52 e4 0b 3c 62 f4 f6 3a 6f 7b 10 3c
       -0.006220154 0.0085383225 0.0018841142 0.008818491
000060 69 9b 58 3b 02 d5 9a 3b 89 ad 7f b9 b0 e0 4c ba
       0.0033051616 0.0047250995 -0.00024383342 -0.00078154635
000070 4a 13 ea 3b 40 a8 c0 bb 1f f0 a1 bb 54 03 d6 3b
       0.0071434127 -0.005879432 -0.0049419547 0.0065311585
000080 15 4c 1c bc 73 5c c2 bb 54 67 1d b9 02 12 97 b9
       -0.009539624 -0.005931431 -0.0001501118 -0.0002881438
000090 05 b1 09 3c df 5d 6b bb ca 8e cf 3a e6 c4 39 3b
       0.008404021 -0.0035914106 0.0015835401 0.002834612
0000a0 69 03 98 bb 19 4f 0a ba 87 cc 21 3c e2 17 28 3c
       -0.0046390784 -0.00052760687 0.009875423 0.0102596
0000b0 78 ee 24 bc 09 58 06 bc 4a 60 ae bb f7 78 85 3b
       -0.010066621 -0.0081997 -0.005321537 0.004073258
0000c0 50 d8 67 bc 24 c1 19 3c e1 cf 43 3c 2a 90 87 3b
       -0.014150694 0.009384427 0.011951418 0.0041370587
0000d0 25 98 23 bb c1 af 40 3b 85 6a 91 ba 2e 54 d6 3b
       -0.0024962511 0.0029401632 -0.0011094367 0.0065407967
0000e0 b4 db 26 bc 30 24 f1 ba 5c d1 b2 3b 60 46 c5 3b
       -0.010184217 -0.0018397626 0.0054570865 0.0060203522
0000f0 62 0d 9f bc 69 77 33 3b 67 5b fe bb f6 94 c5 bb
       -0.019415561 0.0027384406 -0.007762361 -0.0060297204

mixture_net.mol_attn_layers.0.addnorm1.norm.weight f4 [64]
000000 9d 47 80 3f d8 99 80 3f 3b 20 81 3f 19 9c 80 3f
       1.0021855 1.0046949 1.0087961 1.0047637
000010 9e de 7c 3f d3 2e 82 3f a9 3f 7c 3f 8d c3 80 3f
       0.98777187 1.017054 0.9853464 1.0059677
000020 a2 d3 7f 3f 6b e4 7d 3f e1 8f 81 3f 66 3f 7e 3f
       0.999323 0.99176663 1.0122033 0.9931549
000030 93 97 80 3f b9 9d 7c 3f 3e 23 81 3f 2b e2 80 3f
       1.0046257 0.98678166 1.008888 1.0069021
000040 09 1a 80 3f 3f 1b 80 3f 7e 58 85 3f 38 6e 78 3f
       1.0007945 1.0008315 1.0417631 0.9704318
000050 c4 85 7f 3f 19 58 81 3f b6 54 7f 3f 0b 03 81 3f
       0.99813485 1.010501 0.99738634 1.0079054
000060 73 fd 7d 3f 24 39 7e 3f 6b e6 7d 3f 23 f7 80 3f
       0.9921486 0.9930594 0.99179715 1.007542
000070 46 78 81 3f 5e ef 80 3f 0b 41 80 3f aa b7 80 3f
       1.011483 1.0073049 1.001985 1.005605
000080 13 cc 82 3f cc cc 7c 3f 1b 99 80 3f db 08 87 3f
       1.0218529 0.98749995 1.0046724 1.0549577
000090 81 e2 83 3f d0 d9 82 3f 4b c0 7d 3f a6 d8 80 3f
       1.0303499 1.0222721 0.9912154 1.0066116
0000a0 d9 d1 80 3f d8 86 82 3f f5 cf 80 3f eb ad 7c 3f
       1.006404 1.0197401 1.0063463 0.9870288
0000b0 5f 52 7d 3f cf 12 7f 3f a8 fd 82 3f f9 3b 7d 3f
       0.98953813 0.99638075 1.023366 0.98919636
0000c0 4f a8 80 3f 4d 99 80 3f 8e 6c 82 3f 83 89 80 3f
       1.0051364 1.0046784 1.0189378 1.0041965
0000d0 ef d6 84 3f 5c 6d 7f 3f af 39 7f 3f d4 68 80 3f
       1.0378093 0.99776244 0.99697393 1.0031991
0000e0 b1 36 83 3f 5d 89 7f 3f 19 2a 80 3f 9a cb 7e 3f
       1.0251065 0.99818975 1.0012847 0.9952942
0000f0 65 02 7b 3f 6d 88 7f 3f 8f 4e 81 3f b5 19 80 3f
       0.9805053 0.99817544 1.0102099 1.0007845

mixture_net.mol_attn_layers.0.addnorm1.norm.bias f4 [64]
000000 63 55 24 39 0c 7a 44 bb cf 31 3b ba cc 29 8a bb
       0.00015672068 -0.0029979972 -0.0007140906 -0.0042164084
000010 9e 4b 35 3b 6f 42 34 bc eb 5a ca 3a e9 1f 41 bb
       0.002766348 -0.011002167 0.0015438473 -0.0029468483
000020 29 4a 82 bb c3 70 fb ba 21 1b 17 3c 64 53 d2 3b
       -0.0039761257 -0.0019183386 0.009222777 0.0064186323
000030 04 1c 2e 3b 7f e9 13 3c 1b 63 b2 ba fb 2e 86 3b
       0.0026566992 0.009027838 -0.0013609858 0.004094956
000040 0f 97 c0 bb fe 78 8a 3b 20 90 5f bb 30 8b 2f b9
       -0.0058773826 0.004225849 -0.0034113005 -0.00016741152
000050 e7 f7 38 bc 47 de 00 3c 0b d7 5e 3b f6 18 c4 3b
       -0.011289573 0.007865495 0.0034002687 0.005984421
000060 e7 8c db 39 36 ad 1d 3b 81 63 8b 3a 8d 74 be ba
       0.00041875915 0.002405954 0.0010634513 -0.0014530584
000070 c9 fa 88 3b a6 5c d2 bb 77 97 95 bb eb f9 bd 3b
       0.0041802865 -0.006419736 -0.004565175 0.005797615
000080 38 34 e4 bb 25 05 6f bb 79 64 52 3a 96 e0 87 3a
       -0.006964233 -0.0036471572 0.0008025836 0.0010366614
000090 85 ad 9c 3b 99 b3 24 bc 57 17 9e 3b 85 71 ba 3b
       0.0047814273 -0.010052585 0.0048245597 0.005689802
0000a0 4b 54 80 ba 3a ae 9b bb 33 57 cb 3b a5 ed 04 3c
       -0.0009790746 -0.004750994 0.0062054633 0.0081132995
0000b0 f5 7c cd bb 13 ea 03 bc c4 0d 77 bb 60 2d 72 3b
       -0.0062709996 -0.008051413 -0.0037697414 0.0036953315
0000c0 7d e0 f9 bb e7 b4 2e 3c 7f c5 4c 3c fd 1d ff 3b
       -0.007625638 0.010663248 0.012498259 0.0077855573
0000d0 f7 1a de bb bc b5 fa 3a 4c 48 41 3b 52 f3 ed 3b
       -0.006778117 0.0019127647 0.0029492555 0.007261672
0000e0 18 73 25 bc 6b 9f 19 bb d4 67 ce 3a 7b 14 dc 3b
       -0.010098241 -0.0023440968 0.0015747496 0.0067163086
0000f0 d7 26 76 bc ec 4c c3 3b bc 9a 0e bc fa 82 ac bb
       -0.015023909 0.0059600975 -0.008703884 -0.005264637

mixture_net.mol_attn_layers.0.ffn.layers.0.weight f4 [64, 64]
000000 45 83 ea 3d 84 44 b9 bd 19 a2 bd bd 0e 10 84 3d
       0.11450819 -0.090462714 -0.09259433 0.06448375
000010 77 81 ed 3c 97 ea a4 bd 62 6d 5b 3d f6 35 99 bd
       0.028992398 -0.08052557 0.053571112 -0.07480995
000020 d7 4e a8 bd 46 65 69 3b bd 9c d5 bc 50 16 7e 3b
       -0.082181625 0.0035613342 -0.026075715 0.0038770624
000030 2e 32 24 3d 1a df ef bd 49 7a a3 3d eb 9b 72 3d
       0.040086918 -0.11712475 0.079823084 0.059230726
000040 0c 14 f2 bc 03 db f6 3d 0e e2 c4 bd ff a8 13 bc
       -0.029550575 0.12053492 -0.09613429 -0.00901246
000050 7c 86 e8 bd e4 07 df bc ba 8b 22 3d c0 13 dd 3d
       -0.11353776 -0.027225442 0.039684035 0.10794783
000060 46 98 79 bc a9 35 b4 bd 8d c1 bb 3d 95 fc 26 bd
       -0.015234059 -0.08799297 0.09167776 -0.040768225
000070 9f 8a 35 3d 37 af 4b bd 4a d3 e1 bd a0 76 37 3d
       0.044321653 -0.049727645 -0.11026628 0.044790864
000080 b0 c1 aa bc 50 8b ec bd a3 2f 89 bd c6 97 93 3d
       -0.02084431 -0.11550009 -0.06698539 0.07206683
000090 3b 9a db 3d 5b 2b 9f 3d ee c8 ec bc 9a fd e2 bd
       0.107227765 0.07771941 -0.028904404 -0.11083527
0000a0 cf a3 1e 3d 23 67 9f 3d 5e 73 ae 3c c8 8a 85 bd
       0.03873044 0.07783344 0.021295246 -0.06520611
0000b0 75 bc 99 bd bc d9 9c bc 9f 08 a8 bc 85 40 8a bc
       -0.075066485 -0.019146793 -0.020511923 -0.016876468
0000c0 c3 91 a8 3d ed 28 a8 3d f4 cd f0 3d c9 73 c9 bd
       0.08230927 0.08210931 0.117580324 -0.098365374
0000d0 3b 59 a2 3d c7 7a ed 3d 81 d0 06 bd 8e de 75 bd
       0.079271756 0.115956835 -0.03291369 -0.060026698
0000e0 57 a5 e1 3c ac 13 cb 3a 40 78 48 3d f0 a8 56 bb
       0.02754466 0.0015493534 0.048942804 -0.0032754503
0000f0 9d f3 fa bd 00 f9 c9 3b 07 75 68 3c e8 0f a2 3c
       -0.12253497 0.0061637163 0.014188058 0.019782975
000100 07 17 91 bc a4 8a c7 3d a9 c2 45 3d 06 74 e5 bd
       -0.017711176 0.097432405 0.048281346 -0.1120377
000110 63 c5 ef bd dc 54 a1 bd 35 b0 67 3d 69 95 c7 3d
       -0.117075704 -0.07877514 0.05656453 0.097452946
000120 91 87 9a 3c 5f 55 fa 3d d9 83 7d bd 27 a6 ab 3d
       0.018863471 0.122233145 -0.061893318 0.083813004
000130 07 37 95 3d 7b c7 fb 3b 0a 7f 34 3d aa 7a 14 be
       0.07285886 0.007683692 0.044066466 -0.14499918
000140 37 e8 8c 3d 6d 88 89 3b 6d 52 0e be 63 dd 66 bd
       0.06880229 0.0041971714 -0.1389863 -0.056363475
000150 62 d9 e7 bd 46 ec 9b bd 56 04 3b bc 30 74 d2 bd
       -0.11320759 -0.07613425 -0.011414608 -0.10276067
000160 69 11 60 3c c6 5d ed 3c 5a 79 46 bd 9a 4c 88 3c
       0.013676026 0.028975379 -0.048455574 0.016638089
000170 0d 9b 0b bd 3d 2e dd 3d 56 82 00 be 04 86 10 bd
       -0.034083415 0.10799835 -0.12549719 -0.035284057
000180 bc 93 ca 3b 3e 40 5c bd a6 ca be 3d db ff 89 bd
       0.006182162 -0.053772204 0.09315996 -0.06738254
000190 ab d2 95 bd 18 16 5a 3d 5e f7 da bb b2 00 23 bd
       -0.07315572 0.053243726 -0.0066823205 -0.039795585
0001a0 86 f1 1d bc d6 25 bd 3d eb 56 8a bc 80 02 62 3c
       -0.009640103 0.09235732 -0.016887149 0.013794541
0001b0 92 b6 9c 3d 1e ae 4f 3d 16 22 9f bd 8b 25 6f bd
       0.0765201 0.05070316 -0.07770173 -0.058385413
0001c0 20 0f cb bc 4a a0 c7 bd cf 85 eb bd e8 6b ae bc
       -0.024787486 -0.097473696 -0.11500131 -0.021291688
0001d0 cb 2a d9 bd df 21 24 bd 45 ad d5 bd 65 72 c1 bd
       -0.10603865 -0.040071364 -0.10433439 -0.09445647
0001e0 2b c2 8b 3a 87 4e 56 3d 28 c6 2b 3d 48 05 a9 bc
       0.0010662725 0.052320983 0.041937023 -0.020632401
0001f0 7b 7f b0 3d f3 db 36 bb 20 61 8b bd c1 2b 80 3d
       0.08618065 -0.0027902096 -0.068056345 0.062583454
000200 01 7e 9e 3d e4 a4 8a bc 76 05 24 bd af 91 3f bc
       0.07738877 -0.01692433 -0.04004427 -0.0116924485
000210 ae 97 89 3d 39 2c 8e bd 18 23 06 be ac 13 86 bd
       0.06718384 -0.069420286 -0.13099325 -0.06546721
000220 6c 7d c9 3d 9b 4f c0 3c 52 5d 66 bd 2e e3 40 be
       0.098383754 0.023475459 -0.05624134 -0.18836662
000230 05 2d f2 3c 2a b9 06 3e 5a e6 bc 3d c6 cf f6 bd
       0.029562483 0.13156572 0.092236236 -0.120513484
000240 e9 41 f1 bd ef 3d 60 3d 30 1c 66 3d f2 36 d9 3c
       -0.117801495 0.054746564 0.056179225 0.026515458
000250 0c c6 4e 3d 1f 72 44 bd d0 c7 94 3d ab 5a 1a 3d
       0.05048184 -0.047960397 0.07264674 0.037684124
000260 09 2e d9 3c 26 cb d9 3d f5 e2 08 3d ba d7 60 3d
       0.02651121 0.106344506 0.033419568 0.054893233
000270 67 91 6b 3c e3 2d 0d be 56 2d 15 be d1 f6 fa 3d
       0.014377928 -0.13787036 -0.14568076 0.12254108
000280 c2 16 cc 3d b3 3d 0b be 92 cc 3a bd 3b 4d c4 3d
       0.09965278 -0.13597755 -0.04560525 0.09585043
000290 8c 40 17 3b 7a bf cc 3c ec bf 6a 3d 0c b1 86 3d
       0.0023079244 0.024993647 0.057311937 0.06576738
0002a0 fc 62 af 3d f5 f6 0d 3e 27 1e 85 3d 4d d5 c1 3d
       0.08563802 0.13863738 0.06499892 0.09464512
0002b0 a3 f7 a1 3d 2d 4c 50 3d 12 db a5 bd be 87 43 bd
       0.07908561 0.050853897 -0.08098425 -0.047736876
0002c0 aa 4c 4e 3d 71 e1 85 3c 5b b6 9b bd 16 38 16 3e
       0.05036608 0.01634285 -0.07603141 0.14669833
0002d0 f6 4a e5 3c cc d9 3e bd 10 e5 cd 3c 0d d4 02 bd
       0.027989846 -0.046594426 0.02513364 -0.03194051
0002e0 5f 27 75 3d d2 c0 3c 3e d0 8a d2 3d ce 96 a8 bd
       0.059852 0.1843293 0.10280383 -0.08231889
0002f0 bf a6 31 3e 1e 62 08 3e 08 df 93 bd aa ae 14 be
       0.17348765 0.13318679 -0.07220274 -0.14519754
000300 16 8f 51 3d 39 be 51 bd 5f b8 d3 3c f2 a2 87 3d
       0.051161848 -0.0512068 0.02584475 0.06622876
000310 6c 4f 17 bd c3 38 f0 b9 06 6b 76 bc ec fe 08 be
       -0.036940977 -0.00045818658 -0.015040165 -0.13378495
000320 41 05 cf 3d 46 72 92 3d d8 1e de bd be 38 0f 3a
       0.10108424 0.07150702 -0.10845727 0.00054634723
000330 23 8f d6 bd 66 60 19 3d 0c 6a 8a bd 6d 91 c8 bc
       -0.1047652 0.03744545 -0.06758508 -0.024483407
000340 b0 8c 48 bd 83 72 19 bd 8f d4 bb 3c fa a6 fb bd
       -0.048962295 -0.037462723 0.022928504 -0.122877076
000350 dc 74 a5 bd d7 ef 2c bd 37 fc 7c 3c 30 89 ff 3a
       -0.0807893 -0.042220917 0.015440992 0.0019495841
000360 a4 79 be bd ed 6d 9a bc a3 d5 cf 3d 0a 04 24 bd
       -0.09300545 -0.018851245 0.1014817 -0.040042914
000370 6d b8 88 3d c9 1f 79 3d 42 92 e8 3d 7f 91 0a 3e
       0.066758014 0.06082133 0.113560215 0.13532065
000380 83 60 3f bd f7 40 df 3d 4c 00 f3 3b 47 35 0e 3e
       -0.0467229 0.10901063 0.007415807 0.13887511
000390 81 90 ba 3d e9 fd 92 3d 84 c9 34 bd 6c 2c 95 bd
       0.09109593 0.07177336 -0.044137493 -0.072838634
0003a0 c5 07 b4 3c f8 35 d8 bd ee e8 e6 3d 02 ec ba 3d
       0.021976361 -0.10557169 0.112748966 0.09127046
0003b0 77 fb b3 bb cc 50 3a 3d 1b ff 09 bb be 44 ea bd
       -0.0054926234 0.04548721 -0.0021056596 -0.11438893
0003c0 bb 4b 06 3d 52 f9 fc 3d cc b3 c5 3d c6 2f 51 3d
       0.032787066 0.123522416 0.09653434 0.05107095
0003d0 84 a6 80 3d 22 5a 2c be 49 13 78 3c eb d0 4e 3d
       0.0628176 -0.16831258 0.015141317 0.05049221
0003e0 70 52 d3 3d b4 32 52 bd 42 da f9 3d b0 75 b3 bd
       0.10318458 -0.051317886 0.121998325 -0.087626815
0003f0 87 2f c2 bc 3d 73 78 bd 25 b8 e2 bd 29 70 88 bc
       -0.023704303 -0.060656775 -0.11070279 -0.016655045

mixture_net.mol_attn_layers.0.ffn.layers.0.bias f4 [64]
000000 0b 03 1a bd 86 d9 97 bd bd 3c fa 3d 08 0e 33 bd
       -0.03760056 -0.07414536 0.12218616 -0.043714553
000010 ca 28 e3 3d 59 39 23 bd 49 eb b6 bd e8 90 22 bc
       0.11091764 -0.039849613 -0.08931596 -0.009922244
000020 be 1a bf 3d 5e 03 f2 3d 45 71 a8 3c a4 41 80 3c
       0.093312725 0.118170485 0.020561824 0.0156563
000030 e8 7b b4 39 56 24 2a bc a9 ec 7c bd 57 b5 3b bd
       0.00034424593 -0.01038464 -0.061749134 -0.045827236
000040 17 ac 0d bc 30 e3 7b bd 6d ee c8 bd 71 32 bf bd
       -0.008646986 -0.06149596 -0.09811101 -0.09335793
000050 68 22 28 3d eb 59 a8 bd 3c 2a b1 bc 4e ef d6 bd
       0.041048437 -0.082202755 -0.021626584 -0.104948625
000060 5c ad 0f bd 2c 16 f3 bd 90 65 ac bd a3 6a 68 bb
       -0.035077438 -0.11869463 -0.08417809 -0.003546395
000070 03 41 d2 3d 14 ba f3 3c 58 dd 1c bd 89 6f 49 bb
       0.10266306 0.029751815 -0.038297027 -0.0030736646
000080 a3 3a 21 3d d9 35 97 3d a2 49 76 3c 57 79 e9 3c
       0.03936256 0.073833175 0.015032204 0.028500242
000090 f2 e6 06 be 49 a5 d4 bd 80 1d c3 bd 48 f5 cc bd
       -0.13174036 -0.10383088 -0.09527111 -0.10007721
0000a0 40 60 dd 3d 71 f3 da bc d1 3d 04 3e 43 b9 61 3d
       0.10809374 -0.02672741 0.12914206 0.05510832
0000b0 78 57 cc bd e3 49 a1 bd 24 dc cc 3d d4 a2 f6 3b
       -0.09977621 -0.07875421 0.10002926 0.007526735
0000c0 94 45 81 3d fd eb 88 bd 2e 1d b7 3d 82 1d 9e bb
       0.06312099 -0.06685636 0.089411125 -0.004825295
0000d0 e8 37 b1 3d 1d 05 63 3c 62 07 08 be 27 4a ab 3d
       0.086532414 0.0138562 -0.13284066 0.08363753
0000e0 00 fa f8 3d 18 b2 16 bd 94 87 d9 bd 9b 2b fb 3c
       0.12157059 -0.036790937 -0.106215626 0.030660441
0000f0 b4 bc a1 bd 36 8c c8 3c cc fd d8 3c 80 16 47 3d
       -0.078973204 0.02448092 0.026488207 0.048605442

mixture_net.mol_attn_layers.0.ffn.layers.2.weight f4 [64, 64]
000000 01 37 69 3d ed 71 89 3c 2f fa d4 bd 61 d5 9f bd
       0.05693722 0.016777957 -0.10399281 -0.07804371
000010 d7 e9 b5 3c 00 3c 23 bd 94 cf 91 3c 15 03 d5 3d
       0.02220623 -0.039852142 0.017799176 0.104009785
000020 e5 39 d5 bc 6e ab de bc f0 47 eb 3d 3b 2f 00 be
       -0.026028583 -0.027181353 0.1148833 -0.12518017
000030 40 cb d6 bd 81 5e eb bd c7 cf c9 bd 95 75 19 bd
       -0.104879856 -0.114926346 -0.098540835 -0.03746565
000040 4a 5d fb 3d a2 19 86 bd 2f 16 80 3b 1e e1 ce 3d
       0.12273653 -0.06547858 0.0039088945 0.101015314
000050 16 95 d3 3d 12 c1 d9 3d 40 46 ae 3d 2c 09 0a 3e
       0.1033117 0.10632528 0.08509493 0.13480061
000060 c6 e3 8f 3c 65 15 8f bc c4 fd 2d 3d e4 d8 5b 3a
       0.017564666 -0.017466256 0.042478338 0.0008386506
000070 7b c0 0c be 60 e8 d6 3d f7 f0 33 3d 66 27 be 3d
       -0.137453 0.10493541 0.043930974 0.092848584
000080 b5 9e f6 bd 59 7f 0e 3d 76 c0 7f bd 7f 1a 0a bd
       -0.1204199 0.034789417 -0.062439404 -0.033716675
000090 94 3f b5 bd 9f 22 99 3d 6d a0 de 3d c6 88 98 bd
       -0.08850017 0.074773066 0.108704425 -0.074479625
0000a0 76 e1 af 3c 39 38 bc 3d 31 24 e2 bc a8 28 0b 3d
       0.021469813 0.09190411 -0.027605148 0.03397432
0000b0 2a fc ac bd f3 f8 d9 3d 05 ee 95 3d ce 60 1e bb
       -0.08446534 0.106431864 0.07320789 -0.0024166587
0000c0 c0 0b 08 3e 95 a0 53 3c 3e d6 98 bd 8a 5f c6 bb
       0.13285732 0.012916704 -0.074627385 -0.0060538696
0000d0 6a d8 74 3d cc 97 88 bd 54 8d 33 bd 70 78 93 3d
       0.0597767 -0.06669578 -0.043835953 0.07200706
0000e0 23 73 d9 3d 86 82 0e bd 37 25 b4 3d a6 50 53 bc
       0.10617664 -0.034792446 0.08796161 -0.012897646
0000f0 86 9b 14 3c 69 fa 03 be 4c 11 91 3d d6 17 3f 3d
       0.009070283 -0.12888493 0.07083377 0.04665359
000100 c4 bb 5e 3d d9 2c f0 3d 3d 70 15 be b4 0c b1 bd
       0.054378286 0.11727304 -0.14593597 -0.08645001
000110 d8 99 a8 3d a3 2c 9c 3d 97 39 86 3d c7 06 c4 3c
       0.08232468 0.07625701 0.06553953 0.023929013
000120 a8 4c ee 3b 1d 61 2e 3d c3 02 0e be 6c a9 f6 bc
       0.0072723217 0.042573083 -0.13868241 -0.030110084
000130 81 a2 02 bd f5 fb 0a bc 1a 97 8d 3d 3e b3 c9 bd
       -0.031893257 -0.008482923 0.06913586 -0.09848641
000140 6c b9 ce bc de 2e 8d 3c 8b 1c e8 3d 7d 7a 01 be
       -0.0252349 0.017234262 0.11333569 -0.12644382
000150 a2 b2 37 3d 30 3b 79 3d 35 6b 01 bd 62 9e ad bd
       0.044848092 0.06084746 -0.03159638 -0.08477475
000160 47 a1 ee 3c 77 5d fb 3c 59 e6 af bd 16 e7 8b bd
       0.029129637 0.030684216 -0.08588857 -0.068311855
000170 ea b5 d5 bd e6 50 8e bd 57 7a b0 ba 52 65 b3 3d
       -0.10435088 -0.06949024 -0.0013464194 0.0875956
000180 a6 7d d3 3d c3 de a2 3d cf 42 80 3d ee 08 cb bd
       0.103267 0.07952645 0.06262743 -0.099138126
000190 f9 45 10 bd ba d3 8f 3d db c9 88 bd 4e 03 cf 3d
       -0.03522298 0.070228055 -0.06679126 0.10108052
0001a0 f2 7a 53 bd e0 0a 97 3d 6f 4d 3b bc d1 08 92 3d
       -0.05163092 0.07375121 -0.011432036 0.07130588
0001b0 fd b9 a4 3d 92 f7 17 bd e1 fe 80 3d e0 75 44 3c
       0.08043287 -0.037101336 0.06298614 0.011990994
0001c0 c7 58 37 bd e2 99 c1 bd f0 d9 fd bc d5 dd a8 3d
       -0.0447624 -0.09453179 -0.03098771 0.08245436
0001d0 43 3f 45 3d 04 44 f1 3d 7a 56 23 3d 4d b9 8d 3b
       0.048156034 0.11780551 0.039877392 0.004325068
0001e0 4b ad 04 be 43 79 2f 3d a8 a1 db 3c 40 cd 44 3c
       -0.12956731 0.042840254 0.026810482 0.012011826
0001f0 93 14 04 3e 94 80 0a be 56 ce fd 3c 38 46 8c 3c
       0.12898473 -0.13525611 0.030982178 0.017123327
000200 1c a9 15 3d d3 9c 8a bc 6c 2a ad 3d 4c 2a 9c bd
       0.03653823 -0.016920483 0.08455357 -0.07625255
000210 f1 bc 86 bd 30 8c 7f 3d bf 6c a7 3d c9 69 b8 bc
       -0.065790065 0.062389553 0.081750385 -0.02251138
000220 62 1f 13 3d 3b f4 4d bc 56 6a ea bc aa c0 03 3d
       0.0359186 -0.012570436 -0.028615158 0.03216616
000230 27 35 6f 3d 7f 5f 62 bd a1 8b 95 3d 45 41 02 be
       0.0584003 -0.055266853 0.07302023 -0.12720211
000240 39 d0 09 bd 72 88 01 bd 09 40 42 bd be 08 63 bc
       -0.033645842 -0.031624265 -0.04742435 -0.013857065
000250 94 39 aa bc fe ba 10 bb b3 fd a0 3d 95 47 87 3d
       -0.020779409 -0.0022084112 0.07860889 0.0660545
000260 05 f3 0b 3e 33 a4 44 3d 78 44 46 3c 6e ef 95 3d
       0.13666923 0.048008155 0.012101285 0.07321058
000270 9d 7b f4 3d 3d dc e4 3d 6c 41 32 bd d3 7c e5 3d
       0.1193764 0.111748196 -0.043519422 0.11205449
000280 a6 28 ae bd cc cf a6 bd b4 91 cc bd 0b 83 e6 bd
       -0.08503847 -0.08145103 -0.09988728 -0.11255463
000290 64 3e a0 bd df bc a0 3d 74 fa 0c 3c 36 82 6f bc
       -0.078244 0.07848524 0.008604635 -0.014618447
0002a0 4c d2 18 3d 83 1d b5 3d 27 a4 ac 3d cf c4 fa 3c
       0.03730993 0.088435195 0.08429747 0.030611424
0002b0 20 3f fe bd e3 6f fe 3d 33 40 82 bd 6e 7b d2 bc
       -0.12414384 0.124236844 -0.06359901 -0.025693621
0002c0 12 80 f6 3d 83 60 ad 3d 6a 3f 6c bd bd 68 80 bd
       0.12036146 0.08465674 -0.057677664 -0.06269977
0002d0 52 92 43 bd 7d 80 02 3d 9a 89 94 3d 78 d9 a9 3d
       -0.047746964 0.031860817 0.07252808 0.08293432
0002e0 57 61 44 bd 6c c6 0f 3e b9 6c b3 3d f4 1b 0e 3e
       -0.047944393 0.14040536 0.087609716 0.13877851
0002f0 48 5a b6 b9 7f 79 57 3d 36 2e be 3c c7 6d bb bb
       -0.0003478101 0.052606102 0.023215394 -0.0057198736
000300 46 ca 84 bc 0c d4 17 bd 44 e3 af bd b5 3d bc 3b
       -0.016209733 -0.037067458 -0.08588269 0.0057446607
000310 d7 a8 f0 3d ce 2f 6c 3d 89 41 a2 bd 86 14 d3 bb
       0.11750954 0.057662778 -0.07922656 -0.0064416556
000320 cf 7b 44 bd 73 85 04 be 71 e5 c1 3c e9 fc ce bd
       -0.047969636 -0.12941532 0.023668977 -0.101068325
000330 c3 8c 43 3d da 8c 8f bd a4 32 eb 3d ea 0e e0 bc
       0.047741663 -0.07009287 0.11484268 -0.027350862
000340 ac 44 15 bd 94 32 e8 bd a9 db 3d 3d e5 c9 32 bd
       -0.036442444 -0.11337772 0.046352062 -0.043649573
000350 99 89 8e bd d4 6e 72 3c a9 83 d4 bd 69 55 13 3e
       -0.069598384 0.014796931 -0.10376675 0.1438805
000360 3f 33 c2 3d 38 48 3a 3d b3 45 17 3d b2 99 a3 3b
       0.09482431 0.04547903 0.036931705 0.004992687
000370 2f 93 25 bd 00 00 90 3d 63 a5 ee 3d b1 ca ba 3d
       -0.04042357 0.0703125 0.11652639 0.091206916
000380 23 ea 0f 3d 2d 86 af bd e6 bb e5 3d 64 c4 a4 3d
       0.0351354 -0.08570514 0.112174794 0.08045271
000390 9c 46 c1 3c 09 97 4f bd e0 7c a1 3d c2 72 e4 3d
       0.02359324 -0.050681148 0.07885146 0.11154701
0003a0 6d 3a 30 3a 92 e2 cc 3a 48 b9 7f 3c b7 38 0b 3e
       0.00067225733 0.0015631488 0.015608139 0.13595854
0003b0 08 d3 78 3d 3d 63 b2 bd 73 ee f5 bc 6c d7 d9 bd
       0.06074813 -0.087103345 -0.030020928 -0.106367916
0003c0 45 6a 1b 3d 8a 79 61 bd d3 bf d5 3c 31 17 98 3d
       0.037943143 -0.05504755 0.026092445 0.074262984
0003d0 f3 9d de 3d 29 ec 86 bc 4d 95 68 3d d0 04 bb 3b
       0.1086997 -0.016470032 0.05678301 0.005707361
0003e0 d6 41 01 be 6b 97 61 3d 20 c1 e3 bd 78 5b 0c 3d
       -0.1262277 0.055076044 -0.1112082 0.03426692
0003f0 89 84 85 3d 26 8e e5 bb 08 01 f6 3c 84 4a 04 bd
       0.0651942 -0.007005471 0.030029789 -0.032297626
