scripts_chemix/results/chemix_ensemble/top3/chemix.pt (torch, 453146 bytes, 45 tensors)

input_net.weight f4 [64, 196]
000000 ee 09 a1 bd 9d 91 c6 bc 94 cd 67 bd cf 5e 65 3d
       -0.07863222 -0.024239356 -0.05659254 0.05599862
000010 a0 2d 8b bc fe ce d2 3c fe 25 13 bd e1 43 44 bd
       -0.01698953 0.025733467 -0.035924904 -0.047916297
000020 e9 34 4d 3d c1 8e 04 3d e8 ec 07 bd ae 04 f6 bc
       0.050099287 0.032362703 -0.033184916 -0.030031528
000030 3d f3 8d bd 77 c4 af bc b8 5e 3e 3d d2 cb 8b 3d
       -0.0693116 -0.021455986 0.04647705 0.06825985
000040 76 02 95 bd 12 51 42 bc 24 f4 1a bd c8 1c c8 bc
       -0.0727586 -0.011860149 -0.037830487 -0.024427786
000050 62 01 10 3d 70 1f 41 3d a4 39 3b 3c 25 b9 67 3d
       0.03515757 0.04714912 0.011427317 0.056573052
000060 48 aa 12 bd e9 aa fe bc 85 2f 16 3c b1 39 30 3d
       -0.035806924 -0.031087356 0.009166603 0.04302377
000070 17 0f 15 bd 81 48 32 bc 20 2c b9 3c d8 f5 f2 3c
       -0.036391344 -0.010881544 0.022604048 0.029658243
000080 64 cc 5d bc b8 8c 21 3d c5 e0 a5 bd dc 24 9a bc
       -0.0135375 0.03944084 -0.08099512 -0.018816404
000090 5b 99 b4 bc 8c 5f 0d bd bb 67 62 3d e2 2c 52 3d
       -0.022045782 -0.03451495 0.055274706 0.051312335
0000a0 eb 1f 14 3d 06 ec fa 3c 09 a8 21 bd 62 c6 4c bd
       0.03616325 0.030630123 -0.03946689 -0.04999388
0000b0 37 10 4d bb c1 ab 2d bc 09 e2 b1 bc 3f 2f 81 bc
       -0.0031290182 -0.010600031 -0.021714227 -0.015769599
0000c0 6c fd ed 3c fe 4e c2 3b 4d 29 c4 3c 99 c7 e9 bc
       0.029051505 0.0059298268 0.023945475 -0.028537558
0000d0 ab ca 6f bd 0c e4 4c bd 7f 77 e5 3a e6 91 4b bd
       -0.05854289 -0.05002217 0.0017506926 -0.049699686
0000e0 b7 c7 11 3c 78 24 56 3d f0 93 84 3b cc db dc bc
       0.008897713 0.052280873 0.004045956 -0.026960276
0000f0 a5 11 7f bc b7 b3 09 bd 2c 5d 5e bd 48 ae 82 bd
       -0.015568172 -0.033618655 -0.054288074 -0.06380898
000100 56 70 a3 3d f2 dd 3c 3d 72 79 3e bd a0 46 52 3d
       0.07980411 0.0461101 -0.046502538 0.051336884
000110 9d 49 75 3b 74 44 93 3d 22 82 f6 3c f2 ba 86 ba
       0.003742791 0.07190791 0.030091349 -0.0010279103
000120 c5 f4 90 3d 60 d4 6c bd 49 05 0f 3d 81 87 71 3d
       0.07077936 -0.057819724 0.03491715 0.058967117
000130 2c 38 e7 3c 3c 9c 64 bd 1f a2 49 bc 70 e1 66 3d
       0.028225027 -0.05581306 -0.012306719 0.056367338
000140 55 ec 2a bd 90 fd d5 3d c3 0d c8 3c 19 cd af bc
       -0.04172929 0.10448754 0.024420625 -0.021460103
000150 3e 4a 75 3d 0f d2 d3 3b b3 df 55 bc 64 30 c9 bc
       0.059885256 0.00646425 -0.013053822 -0.024559207
000160 84 09 87 3c 26 5c 52 3d b7 74 5b bd 3e fd 69 bd
       0.01648403 0.05135741 -0.053578105 -0.057126276
000170 6e fa 68 bd fa 9e 80 bd 5b 9a af ba ba 7a bf bd
       -0.056879453 -0.062803224 -0.0013397442 -0.0934958
000180 fc ed b6 bc 3b 81 8b bc 0e 3d 3d 3d 7a bf b5 3b
       -0.022330277 -0.017029395 0.046200804 0.0055465074
000190 e0 0d 39 3d aa 21 e2 3c 42 e1 9c 3c b6 63 9e 3b
       0.045179248 0.027603943 0.01915038 0.004833664
0001a0 a5 88 35 3d 58 64 54 bb c8 80 8c bd 1c e5 6e 3c
       0.044319768 -0.0032408442 -0.068605006 0.014580991
0001b0 fc af d7 bc 3b 7a 8d 3d 0b 1b 89 bc b4 59 67 bd
       -0.026329033 0.06908079 -0.016736528 -0.056482032
0001c0 22 12 b3 3d 01 6c 1f bd 0e 29 fc 3c d5 92 1d 3d
       0.08743693 -0.03892136 0.030781295 0.038470108
0001d0 8c 04 ff 3b c2 dd 8f bd ac 79 ba bc bd f5 e9 3c
       0.0077825245 -0.07024719 -0.022763096 0.02855956
0001e0 2c 11 cc bd 37 7a a1 3d ab 61 0a 3d 40 7c 8a 3d
       -0.09964213 0.07884639 0.03378455 0.0676198
0001f0 82 96 55 bd f4 ae 6e 3d ad 0a a1 bc 8c b6 5e 3d
       -0.05214549 0.058272317 -0.01965841 0.05437331
000200 7e c8 32 3a ed 5e 3b 3d 18 0d a5 bc 34 99 76 3c
       0.0006820037 0.045744825 -0.020147845 0.015051175
000210 64 f3 4d 3d 3b d7 a5 3c 43 12 bf 3d 7f 82 8a bc
       0.050280944 0.020244231 0.09329655 -0.016907929
000220 79 26 a8 3d 68 57 ab bc 8b 76 6a 3d 7c a7 9b 3b
       0.08210463 -0.020915702 0.057241958 0.0047501903
000230 68 47 0a bc 70 15 27 bd 9a 49 60 bd 75 a7 07 bc
       -0.008439876 -0.04079193 -0.054757692 -0.008279671
000240 1f 75 19 bd e0 88 97 bc 11 a9 f7 3c 43 79 dd 3b
       -0.03746521 -0.018497884 0.030231984 0.0067588403
000250 8f 59 23 3d 33 0e 86 3d f6 e4 4e bd 7b 73 1c 3d
       0.03988033 0.06545677 -0.050511323 0.03819607
000260 9d 70 62 bd 9f f1 c4 b8 7a d0 5a bc f6 c8 d6 3b
       -0.055283178 -9.391014e-05 -0.013355369 0.006554718
000270 0a 07 e8 3b 01 b2 b9 bc cc 10 6d ba 86 89 25 bd
       0.0070809172 -0.022667887 -0.00090433354 -0.040414356
000280 32 f9 93 3d 6a 24 1a bd 08 27 9d 3d 2a b9 4b bc
       0.072252646 -0.037632383 0.0767346 -0.012434283
000290 5c 5c e1 3c d3 fd ff bc f9 f4 9e 3d 8b 9b 3b bd
       0.02750986 -0.031248963 0.077615686 -0.045802634
0002a0 e0 e3 9e bc bc 18 29 bd ef 4f 6e 3d d6 36 a3 3c
       -0.019395769 -0.041283354 0.0581817 0.019923609
0002b0 23 61 f7 bb 90 84 3c 3d a7 31 20 bc eb 5d a8 3d
       -0.0075494214 0.04602486 -0.009777463 0.082210384
0002c0 4e 09 60 bd f8 27 38 3d e3 2d bc bc 3e 51 d2 bc
       -0.054696374 0.044959992 -0.0229711 -0.025673505
0002d0 d4 a9 5e bc 5b 99 6c bd f2 36 3a bc 31 2b e0 bc
       -0.013590295 -0.05776344 -0.011365639 -0.027364345
0002e0 61 a6 1e bd fe 08 07 3d 51 ac 04 3b 74 f3 86 3d
       -0.03873289 0.03296756 0.002024431 0.06589404
0002f0 b9 f6 96 bd ea 0d 67 3d bf 3c 41 bd cf 1e e7 3c
       -0.07371277 0.056409754 -0.047177073 0.028212933
000300 2f c0 c8 bd de 14 77 3d 44 60 e9 3c 7c f9 9f bd
       -0.09802281 0.060322635 0.028488286 -0.07811257
000310 cd f0 63 3c 42 fe 44 bd 6b 82 93 bd c1 2e 68 3d
       0.013912392 -0.04809404 -0.0720261 0.056685213
000320 15 0f 43 3c 77 ac 56 38 79 69 6a 3c 7f f4 be 3c
       0.011905451 5.1182196e-05 0.014307373 0.023309944
000330 43 5d 6e bd 55 bf 4c bd 0d 90 82 bd 8c 4d 3f 3d
       -0.05819441 -0.049987156 -0.06375132 0.046704814
000340 09 5a a7 bd f6 96 3b bd e0 42 73 3d a5 1b 6f 3c
       -0.0817147 -0.045798264 0.05938995 0.014593993
000350 32 d4 9b bd f5 04 6e bb 5e dd 50 3d 98 0b 40 3d
       -0.076088324 -0.0036318873 0.050992362 0.046886057
000360 e5 dd 9a 3d 75 6a 1b bd 33 77 28 bc 7d 3c 33 3c
       0.07561854 -0.037943322 -0.010282326 0.0109397145
000370 51 c2 80 bd a3 81 51 bd 4a aa 94 3c 97 f6 14 3c
       -0.06287063 -0.05114902 0.018147606 0.009091995
000380 8d c3 7c 3d de cd df 3c 6b 15 60 bc 60 6b fc bc
       0.06170993 0.027319845 -0.013676981 -0.03081292
000390 17 8f 5c bd f9 8a 2b 3d 1e a9 19 3d 05 38 b1 bc
       -0.0538474 0.04188058 0.0375148 -0.021633158
0003a0 85 02 a2 3c 30 7a 36 bc f1 28 f9 3c 49 a6 dc bc
       0.019776592 -0.01113753 0.03041503 -0.02693476
0003b0 56 ed 2c bd 53 ca 93 3d ae a4 03 bc 09 3c 14 bd
       -0.04221853 0.07216325 -0.008034868 -0.036190066
0003c0 de 83 8c bd 37 47 36 bc d9 b6 11 3d cf 30 fe 3a
       -0.06861089 -0.011125377 0.035574768 0.0019393208
0003d0 71 f9 9b bd eb 33 f6 bc 98 d1 de 3b ce 3d 8f bd
       -0.076159365 -0.030054053 0.006799888 -0.0699421
0003e0 b2 00 2b 3d 5e c8 39 3d 27 bf 2d bc d4 36 8d 3d
       0.04174871 0.0453571 -0.010604656 0.06895223
0003f0 84 5f 94 3c 42 97 84 ba ac 4c a0 bd 03 cf cd 3c
       0.018111952 -0.0010115879 -0.07827124 0.025123125

input_net.bias f4 [64]
000000 17 a1 fb 3c 30 8b 7e bd ad 8d af 3b 22 df fe bc
       0.030716462 -0.06214446 0.0053574652 -0.031112257
000010 bf f9 97 3d f1 a7 88 bd ce 1a 26 bd e3 c7 12 bd
       0.07420682 -0.06672657 -0.040552907 -0.035835158
000020 23 59 91 bc b5 f5 5c 3d 1e a8 13 3c d6 a1 8b 3d
       -0.017742699 0.053945262 0.00901225 0.06817977
000030 1c b3 5b bd 1a e4 4a bd 02 a1 89 bd e2 b4 72 bc
       -0.05363761 -0.04953394 -0.06720163 -0.014813634
000040 1e 95 c7 bc 6e 8f 6f 3c b9 a1 f2 ba 52 89 55 3c
       -0.024363097 0.014621599 -0.0018511332 0.013033228
000050 32 e5 24 3d 0d ae ea 3c 92 ec 70 bd 4b de 77 3b
       0.04025764 0.028647447 -0.05881936 0.0037821706
000060 2c 0e d9 bc de d3 9f ba 06 c7 5a bd 25 9d f9 bc
       -0.026496015 -0.0012193879 -0.05341246 -0.03047044
000070 7c 80 6b bd 71 a3 01 3d 0c ea d0 3b 86 42 9c bd
       -0.05749558 0.03165001 0.006375557 -0.07629876
000080 2a 49 90 bd f7 e8 20 3c 02 9e 8b 3d 51 f8 18 bd
       -0.07045205 0.009821168 0.06817247 -0.037346188
000090 aa e7 a0 3c c3 f7 cb 3b 88 26 97 bd ce 13 a1 3c
       0.019641716 0.006224604 -0.07380396 0.019662764
0000a0 38 ac 98 bd 11 09 c0 3c 2a 28 45 bb 5f a6 49 bd
       -0.07454723 0.023441823 -0.0030083754 -0.04923093
0000b0 ec 42 22 3d 48 d2 f7 3c e2 b1 6e 3d 3a 93 86 bd
       0.039614603 0.030251637 0.05827511 -0.0657105
0000c0 32 c6 5d bd 90 4f df bc 90 63 9f ba f5 40 2b bd
       -0.054144092 -0.027259618 -0.0012160409 -0.041809995
0000d0 e5 3d 81 3d 0f 65 e0 b9 d6 91 e1 3c cb 97 46 3d
       0.063106336 -0.00042799904 0.02753536 0.048484605
0000e0 c3 30 85 bc 59 b0 a2 3d 46 f9 30 3d 5c a3 7f 3d
       -0.016258603 0.07943792 0.043206476 0.06241165
0000f0 40 14 6a bd 1f d2 95 bc 90 46 2c bd 3c 9b 17 bc
       -0.05714822 -0.01828867 -0.04205948 -0.009253319

mixture_net.mol_attn_layers.0.self_attn_layer.in_proj_weight f4 [192, 64]
000000 fa e4 f2 3d 1d b0 d4 bd 89 e6 55 3d 34 94 90 3d
       0.1186008 -0.103851534 0.05222181 0.070595175
000010 b5 0a 52 3e 85 da 8f 3d 66 0f a8 bc ec 21 16 be
       0.20511897 0.07024101 -0.020515155 -0.14661378
000020 d8 db c1 3d 4e 33 1d bd c4 a5 4a 3e b7 e6 29 be
       0.0946576 -0.038379006 0.19789797 -0.16591917
000030 67 bd de 3c 61 ed 2b 3e f5 d3 13 3e af 52 c5 bc
       0.027189923 0.16789772 0.14436324 -0.024087278
000040 92 4a 94 3d e4 3e ed bd 63 47 84 bd c7 74 0a bc
       0.07240786 -0.11584261 -0.064589284 -0.008450693
000050 04 78 a7 bc 5d 4e 8d bd b5 a8 58 3d d8 74 7e 3d
       -0.02044297 -0.06899712 0.052895267 0.06212315
000060 78 da b5 3d c4 7b c0 3b e3 52 ba 3d 68 8f f3 bd
       0.0887956 0.005874129 0.09097841 -0.11892587
000070 62 39 a9 bd e5 4f 27 bd 83 c2 19 bc 8b f5 58 bd
       -0.08262898 -0.040847678 -0.009384754 -0.052968543
000080 05 77 91 bd d7 d5 21 be 04 c3 f4 bb b5 8a af bc
       -0.07102779 -0.1580423 -0.0074695367 -0.021428445
000090 0d 89 42 bd 9b 4c b9 bd a8 59 21 3e ba 9c 1b be
       -0.047493983 -0.090478145 0.15756857 -0.15196505
0000a0 d3 e1 65 3d 2b 2a 1f bd c0 79 14 3b 13 62 83 3b
       0.056123566 -0.038858574 0.0022655576 0.004009494
0000b0 ef c3 b6 3d 15 82 3b 3e 1a 0b 7b 3d f2 e4 64 bc
       0.0892409 0.18311341 0.061289884 -0.0139706
0000c0 b6 6e 2e 3d 92 64 99 bd 3f 91 ab 3c 02 9e a5 3d
       0.04258605 -0.074898854 0.020943282 0.08086778
0000d0 56 cd 1f 3e 01 e5 be 3d e2 d1 b6 3d 69 69 f9 3d
       0.15605673 0.09321023 0.08926751 0.121783085
0000e0 79 77 23 3b 8a 66 3d 3b bf 69 91 3d 16 d6 e7 3c
       0.0024943037 0.002890023 0.071002476 0.028300326
0000f0 3d 3f 54 3d f0 96 09 3e 40 ae c8 bd a2 dd 22 3e
       0.05181812 0.13436484 -0.097988605 0.15904859
000100 f3 05 31 3e 7b 40 08 bd 49 a7 a8 bd 89 4f fe bd
       0.17287426 -0.03326462 -0.08235032 -0.12417514
000110 be b9 64 bc 51 62 00 be d5 47 08 3d 06 47 b1 bd
       -0.0139603 -0.12537505 0.03327163 -0.08656125
000120 db d3 38 3e 55 39 3f 3c 9d a7 15 3e 81 12 8a 3d
       0.18049566 0.011671384 0.1461472 0.067418106
000130 4a d7 53 3e 08 11 b7 bd f0 8e 28 3d 6b c6 26 be
       0.20687595 -0.08938795 0.04115194 -0.16286628
000140 22 b3 5d bc 01 0b 6c bc ab 5b b1 3d 98 68 1e bc
       -0.013531478 -0.01440692 0.086600624 -0.009668492
000150 a3 e0 64 3d ae 2a 1c 3d 17 40 0e 3e ae 7d f7 3d
       0.055878293 0.03812664 0.13891636 0.120845184
000160 f5 a8 d6 3a 57 e8 18 3c 7f ee 73 bd 2e 01 eb 3d
       0.0016377257 0.009332738 -0.05955362 0.114748344
000170 7d a0 46 bd 45 57 56 bd ac 66 8c 3d 9e 3c ab bd
       -0.048492897 -0.05232932 0.068555206 -0.08361171
000180 fc db 83 bb cd 16 12 bd f8 6a 02 3e bb 1f 0e be
       -0.004024027 -0.035666276 0.12736118 -0.13879292
000190 b4 6d 35 be 48 68 6b bd 8c 70 1a be 33 89 3d 3c
       -0.1771763 -0.057472497 -0.15081996 0.011568355
0001a0 d4 5a 29 bd 0a 6c dd bd 8f ad 1c 3e 20 41 11 be
       -0.041346386 -0.108116224 0.15300582 -0.14185
0001b0 d6 86 dc 3d 69 a3 56 3e 47 09 0f 3e ae 23 fb bd
       0.107679054 0.20960774 0.13968383 -0.12262665
0001c0 d9 6f d4 3d 7e 30 6f 3d f7 96 53 be f5 10 5d bc
       0.10372896 0.058395855 -0.20663057 -0.013492812
0001d0 d4 73 93 3d 56 08 ad bd dc 37 e0 3d af 39 33 be
       0.07199827 -0.084488556 0.10948154 -0.17502473
0001e0 b6 57 4a 3e 37 75 16 3e bb 05 aa 3d 33 ca 27 3d
       0.19760022 0.14693151 0.08301874 0.040964317
0001f0 93 94 ff bd a7 d9 3a 3d 41 c7 f1 3d 84 ca 93 3c
       -0.1247951 0.045617726 0.11805583 0.018040903
000200 ed 50 73 3d 6a 27 3c bc d0 e7 b8 38 26 cb 63 bd
       0.05940335 -0.011484006 8.816982e-05 -0.05561366
000210 d0 87 11 be 4d cd 19 3e fb 98 44 be e8 f5 8e bd
       -0.14211965 0.15019722 -0.19198982 -0.06980497
000220 95 45 a1 bd 15 30 62 3d c0 71 45 bd 4d b4 cc 3d
       -0.078746 0.055221636 -0.048204184 0.09995327
000230 5d 4d 59 bd 3b 33 eb bd 9d 13 13 bd b5 8a fd 3c
       -0.053052295 -0.11484381 -0.035907377 0.03094993
000240 8a b6 8e 3e f6 c3 c8 bd 91 82 bc 3c f0 45 ae 3d
       0.2787364 -0.098030016 0.023011478 0.08509433
000250 15 12 37 be 58 f8 7f bd 50 8b ce bc 42 df df 3d
       -0.17877991 -0.0624927 -0.025212914 0.10931255
000260 c0 fd a4 3d db da 31 be a2 7b 16 bd 49 82 35 bd
       0.080562115 -0.17368643 -0.036739 -0.044313703
000270 ea 59 66 3d a0 e2 48 bd 35 3b af bd dd e7 3d 3d
       0.056238092 -0.04904425 -0.08556215 0.0463637
000280 42 2e 93 3c c4 52 e0 bd f2 07 00 be 35 4c 76 bd
       0.017966393 -0.10953286 -0.12503031 -0.06013127
000290 62 89 63 bd 2d 7b 00 bc f5 8c 22 bc bb 39 8e 3c
       -0.05555094 -0.007841867 -0.009921302 0.017361512
0002a0 da ee f1 bd e9 35 11 be 94 50 bc bd 58 97 45 3e
       -0.118131354 -0.14180721 -0.091950566 0.19296014
0002b0 17 64 89 3d b4 0e d7 bd 5f f8 92 bd 1a 48 a1 3d
       0.06708544 -0.10500851 -0.07176279 0.078750804
0002c0 e3 78 8c bd 3a 50 f2 3c 49 96 fd bc 84 17 d5 3d
       -0.06858995 0.02957927 -0.03095545 0.10404876
0002d0 1b 78 63 bd 9a 25 51 3d 82 00 0d 3e e4 fc 74 3d
       -0.055534463 0.05106125 0.13769725 0.059811488
0002e0 cd b6 d0 3c ee 19 2f 3e 27 a2 d4 bd df 47 18 be
       0.025477791 0.17099735 -0.103824906 -0.14871167
0002f0 7d 8a a6 3c 5f f1 d4 3d 49 3a f9 bd d2 9c 8e bd
       0.020329708 0.103976004 -0.1216932 -0.06963505
000300 86 75 10 3e ca 46 b9 bd 25 83 a9 bd ab a5 0a 3e
       0.14107332 -0.09046705 -0.08276967 0.1353976
000310 16 73 9f bd 62 54 a5 bd ef e8 84 3d 6f b2 b9 bc
       -0.07785623 -0.08072735 0.06489741 -0.022668092
000320 41 98 29 3e 48 7c 3f bd 57 6c 28 3e 81 df 0b be
       0.16561987 -0.046749383 0.16447578 -0.13659479
000330 70 40 45 3d b3 95 3e bd 14 3f 10 bc 82 b2 8d bd
       0.048157156 -0.046529483 -0.0088041015 -0.06918813
000340 d1 ce 5d bd 9d bf 1c 3d 29 d4 18 be a7 61 29 3d
       -0.054152314 0.038268674 -0.14924683 0.041352894
000350 3c 32 a8 3c 89 b9 07 3c c5 66 c5 bd ba e9 ee 3d
       0.020531766 0.008283981 -0.09638742 0.116656736
000360 cd f9 7f 3d e5 72 31 be 24 fc 16 3e 0c 70 ae 3d
       0.062494088 -0.17328985 0.14744622 0.08517465
000370 8b f1 73 bd 10 0f 80 3d 18 fa 26 be f1 61 5d 3d
       -0.059556525 0.06252873 -0.1630634 0.054048482
000380 b5 df e8 bc c4 e7 ad 3d d4 e8 81 3d 10 81 11 be
       -0.028426984 0.084914714 0.063432366 -0.1420939
000390 60 77 91 3d 50 b3 e9 3d a7 c4 ca 3d 8a 2e ec 3d
       0.07102847 0.11411154 0.0990079 0.11532314
0003a0 10 36 33 3d f6 45 2f bd 13 e7 99 bd 31 3d c0 3c
       0.04375273 -0.04279133 -0.07514777 0.023466678
0003b0 f3 64 21 3d cb 89 32 3d 5b 71 23 be 7d bf a8 3c
       0.039402913 0.04358844 -0.1596121 0.020599121
0003c0 97 e8 9a bd 62 92 af 3d dd 9b 0a be b5 bf 7d bd
       -0.07563894 0.08572842 -0.1353602 -0.061950404
0003d0 0b 04 5b 3d b9 29 73 3d e3 24 16 3d c5 62 23 bd
       0.053470653 0.05936596 0.03665627 -0.039889116
0003e0 c2 3e bf bd 24 c9 07 3e 5b 5d 9a 3c 61 53 04 bc
       -0.09338142 0.13260323 0.018843343 -0.00807652
0003f0 ac d8 05 3d 13 74 af 3c 16 03 d7 bd 4c f3 e7 3c
       0.032677338 0.021417653 -0.104986355 0.028314255

mixture_net.mol_attn_layers.0.self_attn_layer.in_proj_bias f4 [192]
000000 69 2b 59 3c c5 4a 10 3d 01 97 b1 bc d4 f2 ba 3c
       0.013254979 0.035227556 -0.02167845 0.022820868
000010 f2 64 28 3d f8 e7 5a 3c 53 05 92 3c 4e d0 17 3c
       0.041111894 0.01336097 0.017824804 0.009265972
000020 e3 0c 0e bd c9 69 41 bb 3e 49 43 3c 8d 21 72 3c
       -0.03468026 -0.0029512516 0.011919318 0.014778507
000030 ba 8a b4 3c 4b 41 c9 3c bb 8e 1b bd ac 13 f7 3c
       0.022038806 0.024567267 -0.037977915 0.030160747
000040 96 19 fa bb 5b 52 bf bc 19 9c 8a bc 16 df 7f 3c
       -0.0076324446 -0.0233547 -0.016920136 0.015617153
000050 db 2b 28 3c 4e 43 68 3c 72 56 48 bc 00 fa e3 bc
       0.010264362 0.014176203 -0.012227641 -0.02782917
000060 8a eb 89 bc 3d bd 0e 3d d0 14 a9 bb 20 8a b2 3c
       -0.016835947 0.03484844 -0.0051599517 0.021794379
000070 eb 65 cb 3c 80 50 c0 bc 6b 72 df bb ce 54 f2 bc
       0.024828872 -0.023475885 -0.0068190596 -0.029581454
000080 91 36 46 3c ab 3b 82 bc 97 e9 8c bc d2 95 20 bd
       0.012097971 -0.015897593 -0.017201228 -0.03920538
000090 89 c0 fd 3c e1 3a e2 bd a7 0e c6 bc 84 ca a8 3c
       0.030975597 -0.110463865 -0.024176909 0.02060438
0000a0 df 07 30 3d a0 66 cd bd f7 0d bb bd aa 37 16 3c
       0.042976256 -0.1002934 -0.09133523 0.009168545
0000b0 ac f2 2e bc 61 07 1d bc ae 83 15 bd f3 3f 40 3d
       -0.010677975 -0.009584279 -0.036502533 0.046935987
0000c0 1a 41 d0 3c ee a7 5c bc 9f d4 b4 bc 32 56 e3 bc
       0.025421668 -0.013467772 -0.022074042 -0.027751062
0000d0 8d 36 e3 bc 30 4b f6 3c 46 87 38 3d 61 46 19 bd
       -0.027735973 0.03006515 0.04505088 -0.037420634
0000e0 cd 14 9b bc 66 8d 43 bc 9f 1e 43 bd 09 ab 69 3d
       -0.018930817 -0.0119355675 -0.047636624 0.057047877
0000f0 23 43 b2 bd 94 8f f8 bc e3 e1 36 3d 05 12 2d 3c
       -0.087042116 -0.0303419 0.044649016 0.010563378
000100 60 9e 94 38 f9 68 7e 39 26 f5 ad 36 59 c8 e6 37
       7.0866896e-05 0.00024262433 5.184341e-06 2.751143e-05
000110 30 ee 8d 38 5d b9 ab 37 a4 35 b5 38 73 07 34 38
       6.76777e-05 2.0471105e-05 8.640744e-05 4.2922282e-05
000120 ab 9d 89 b8 65 1b fb 37 f0 31 10 37 4c 63 33 37
       -6.562037e-05 2.9934288e-05 8.594696e-06 1.0692351e-05
000130 38 cf 67 38 df 12 23 b6 27 5d 47 b8 b9 dd 29 38
       5.526768e-05 -2.4299877e-06 -4.7532052e-05 4.0499235e-05
000140 24 88 b9 b6 f3 48 c2 38 5a b8 2a 38 3c 53 9e b8
       -5.5292785e-06 9.264229e-05 4.070285e-05 -7.549531e-05
000150 1c 30 12 b8 af 71 bd b7 15 94 bb 38 51 c3 9e 38
       -3.4853918e-05 -2.2583494e-05 8.944437e-05 7.5704076e-05
000160 e5 44 26 39 01 47 9b b8 d0 00 a5 b8 9e 82 b9 b8
       0.00015856659 -7.4042015e-05 -7.8679645e-05 -8.845817e-05
000170 15 3b 49 b8 40 93 5a 39 aa 77 c0 37 dd a9 7e 38
       -4.797716e-05 0.00020844955 2.2943907e-05 6.0716517e-05
000180 71 25 eb 37 07 3e ca 38 25 83 c9 b6 5c 4b 3f b8
       2.8031618e-05 9.643664e-05 -6.005534e-06 -4.5608132e-05
000190 29 16 6b 38 68 e3 32 b9 52 fb b3 b6 da 33 d0 38
       5.6049004e-05 -0.00017060118 -5.3638732e-06 9.927871e-05
0001a0 74 e9 98 38 3e 83 f4 b8 25 57 1f b9 3b f8 aa 38
       7.291409e-05 -0.000116592724 -0.00015195885 8.152468e-05
0001b0 30 6a 81 b7 0f 8c a9 37 71 8a 1b b9 50 05 45 39
       -1.5427446e-05 2.021159e-05 -0.00014833525 0.00018789363
0001c0 7d e2 66 b6 13 12 24 36 4e 25 80 b6 5e a5 8d b7
       -3.4404504e-06 2.4448425e-06 -3.81904e-06 -1.6885515e-05
0001d0 27 1e e5 36 89 52 2e 38 b8 a1 dc b7 d2 09 d1 35
       6.828242e-06 4.15617e-05 -2.630135e-05 1.5574572e-06
0001e0 c1 eb 93 b7 5d 90 3d b6 77 0e 32 b8 ad 52 64 38
       -1.7633547e-05 -2.8247225e-06 -4.245198e-05 5.4436434e-05
0001f0 8e ec 5a b4 80 40 19 36 a9 98 ef b7 aa 22 ed 36
       -2.038889e-07 2.283632e-06 -2.8562108e-05 7.067186e-06
000200 f1 3f 2d bc 0f 7d 3e 3c 28 f4 a9 bb b7 eb 84 bb
       -0.010574327 0.011626496 -0.0051865764 -0.0040564197
000210 c5 66 eb bb 46 1b ee 39 06 89 74 3b 46 45 6e b9
       -0.007183882 0.00045415218 0.0037313118 -0.00022723255
000220 59 31 e8 ba dc 52 0b 3c e9 56 29 b9 5b b9 09 bc
       -0.0017714902 0.008503642 -0.00016149473 -0.008406009
000230 1b c2 a6 bb d7 54 ef 3a 1e fa e5 bb 57 d0 d7 ba
       -0.005089057 0.0018259537 -0.0070183417 -0.0016465288
000240 32 98 90 bb af da 06 3c d8 c1 43 3b 5e 53 b2 3b
       -0.0044126743 0.008230849 0.0029870179 0.005442067
000250 6f e0 ab 3b e0 eb cd bc 06 ae b9 3b a1 66 23 bb
       0.0052452604 -0.025136888 0.005666497 -0.0024932998
000260 c8 0a 9f bb e6 a5 08 bb 21 a6 27 3b ec c4 22 bc
       -0.00485358 -0.0020850836 0.0025581198 -0.009934645
000270 cc b4 3f bc 21 fd c3 bb 04 cc 3a bc 48 84 0a 3b
       -0.01170082 -0.005981103 -0.01140118 0.0021135975
000280 a3 32 02 bc 24 24 1f bc 42 cf 5f 3b 1e 62 50 3c
       -0.007946643 -0.009713206 0.0034150635 0.012718705
000290 3b 08 a5 bc e8 c3 15 ba de 6b db 3c 72 85 dc bb
       -0.020145526 -0.0005713091 0.026784834 -0.006729775
0002a0 8a 6a 83 3c 5b 7e 7d bb 41 26 82 bc e8 50 bc 3c
       0.016042013 -0.003868005 -0.015887382 0.022987798
0002b0 50 c7 a2 3a 9c c0 5b 3b 02 60 59 3b 15 e4 4d 3c
       0.0012419019 0.0033531552 0.0033168797 0.012566586
0002c0 fc a4 aa ba 4c c0 bc 3b e7 f4 10 3b 84 c3 f8 3a
       -0.001301914 0.0057602283 0.002211863 0.0018979167
0002d0 f2 97 e7 3b af b2 10 3b 85 8a bf bc e0 53 17 bb
       0.007067674 0.002207916 -0.023381481 -0.0023090765
0002e0 a5 61 d3 39 a3 b0 9d bb dd f6 36 3a fa 48 14 3c
       0.00040317807 -0.0048123165 0.00069795345 0.009050602
0002f0 f5 33 dc ba 3b 21 2e 3c 57 03 9c 3c 5c 28 db 3b
       -0.0016800152 0.01062804 0.019044561 0.006688161

mixture_net.mol_attn_layers.0.self_attn_layer.out_proj.weight f4 [64, 64]
000000 30 3e 80 3c b0 ee 3a 3c 55 d5 60 bb 12 34 c5 bd
       0.015654653 0.011409447 -0.0034306843 -0.09629072
000010 27 e6 cb bd ed 45 5e 3c 9e 59 0d bd 1c c6 e3 bc
       -0.099560075 0.013566476 -0.034509294 -0.027804427
000020 5c af b4 3d 03 69 ce 3d 0a 59 39 bd 73 2f d1 bc
       0.0882251 0.10078623 -0.04525093 -0.02553532
000030 f9 59 2f bd 5f 48 aa 3d ab a8 f3 3d 36 84 a1 3c
       -0.042810414 0.08314585 0.11897405 0.019716363
000040 f6 d3 ac 3c 83 bb ce 3d ab 54 2c 3d 42 9f 6a 3d
       0.021097165 0.10094359 0.042072933 0.057280786
000050 35 0f e1 3d 05 87 c2 3d 64 6b 33 3d 8b 72 88 3b
       0.10989229 0.09498409 0.043803588 0.004164045
000060 93 7d bf bc 95 46 06 3d 5c 27 e8 3d 55 3e 69 bd
       -0.023375308 0.032782156 0.11335632 -0.05694421
000070 61 21 ae ba 35 6c 8a bd 42 46 6d bd c9 19 41 bd
       -0.0013285094 -0.0675892 -0.05792833 -0.04714373
000080 a7 ae 0c bd b8 9b 00 3e 91 a3 54 bc 94 f2 f0 bc
       -0.03434625 0.12559402 -0.01297845 -0.029412545
000090 e9 d0 ca bc 19 da b7 3c 2f f4 57 bd 0a fd cc bd
       -0.02475782 0.022442864 -0.052723106 -0.10009201
0000a0 ad 66 56 bd 30 2f d4 3d 10 b6 9a bd 92 67 78 bd
       -0.052344013 0.10360563 -0.07554257 -0.060645647
0000b0 0a b4 6b 3d 03 26 03 3d 89 bb ca 3d c3 35 cf bd
       0.057544746 0.032018673 0.09899051 -0.10117676
0000c0 31 0c ca 3d c5 11 6a bd 06 89 6b 3d 15 79 20 bd
       0.098656066 -0.057145853 0.057503723 -0.039177973
0000d0 9b fa 79 bd ff cf a9 bd 6c 23 8e bd 97 67 40 3b
       -0.06103001 -0.08291625 -0.0694035 0.002935862
0000e0 cd 61 98 bd 0c 24 67 bd cc 02 e2 3d c6 1c 0e bd
       -0.07440529 -0.05643086 0.1103569 -0.03469541
0000f0 03 d6 c7 3b f0 02 ec bd 0c 2d ac bd 66 92 1e ba
       0.00609851 -0.11523998 -0.084070295 -0.0006049037
000100 a4 96 df bd 4f 7f ee bd 44 f0 86 bd 7d 54 00 bd
       -0.10917404 -0.11645376 -0.06588796 -0.031330574
000110 09 9b 31 bb c6 91 59 3d e2 d5 67 3d 89 79 9e bd
       -0.0027100465 0.053117536 0.05660046 -0.07738025
000120 b7 37 a4 bd ca dd a5 bd a4 d4 25 bc 76 43 f6 bd
       -0.08018439 -0.080989435 -0.010121498 -0.12024586
000130 d4 c9 27 3d 2e ff 73 bd 57 02 a0 bc 1a 15 a6 bd
       0.040963963 -0.05956953 -0.019532366 -0.081094936
000140 e7 9a 14 be ea 0c 9e bd 93 76 b9 3c dd a9 3d bd
       -0.14512216 -0.07717307 0.022639548 -0.046304572
000150 ad f6 2f 3d 1c de 29 bd a5 4e 13 3d 39 72 a7 3d
       0.042959858 -0.041471586 0.035963673 0.08176083
000160 ca 83 d8 3d af 3e 4b bd a1 60 94 bd ad 8d 2d bc
       0.10572012 -0.049620327 -0.07244993 -0.01059286
000170 26 7d 85 3d 3d ba d1 bd 41 c8 82 3c 16 96 7f 3d
       0.06518011 -0.102406 0.01596463 0.062398992
000180 18 44 c5 bd b1 44 fe 3b 4a 1a 94 bd 5f 0e 06 3d
       -0.096321285 0.0077596535 -0.07231577 0.03272855
000190 fa 20 8a bd 91 c1 62 3d a7 58 f0 3d cc 1b e8 bd
       -0.06744571 0.05536038 0.11735659 -0.11333427
0001a0 6a 2c d5 3d 1b ab a0 3c 77 f8 da bb 4e 4e 13 be
       0.10408862 0.01961284 -0.0066824513 -0.1438534
0001b0 39 38 1b 3d de 44 a5 bb 2c bc 69 3b d4 5d b4 bd
       0.037895415 -0.00504361 0.0035665138 -0.08806959
0001c0 9a 41 3b bb d4 b1 bb 3c 9d 36 77 bc 1b 0d e7 3d
       -0.0028573037 0.022911943 -0.015088704 0.112817965
0001d0 7c 70 a2 bd 2c 83 96 3d f0 17 57 bd f5 d8 96 bd
       -0.07931611 0.07349238 -0.052513063 -0.073656
0001e0 27 c0 11 be 76 ee 09 3d 9b 6e 93 3d 1e 89 ba 3a
       -0.14233457 0.03367468 0.07198831 0.0014231538
0001f0 e3 41 fa 3c ae cf 32 bd c5 36 76 bd 77 2f db 3d
       0.030548995 -0.04365509 -0.060110826 0.107024126
000200 c8 b3 e5 bd 47 4c ed 3c f9 4d c2 bd 80 a5 fa bc
       -0.11215931 0.028967036 -0.09487528 -0.030596495
000210 1b b1 84 bc b2 21 7b bb 59 25 19 3e bf 2d 08 3e
       -0.016197732 -0.0038319645 0.14955653 0.13298701
000220 03 9f 36 bc 4b 4e 85 bd 12 a0 cd bd 3d 31 7e bd
       -0.01114631 -0.06509074 -0.100402966 -0.062058676
000230 b8 c6 87 bd 37 09 a3 bd 2c db ce bd 89 da 3c bd
       -0.066296995 -0.07960742 -0.101003975 -0.04610685
000240 86 80 c4 3d 5c 03 fd bc a6 1f d9 3d 2a ae 85 bc
       0.095948264 -0.030885391 0.106017396 -0.0163184
000250 85 7a 22 3d b2 ad 8f bd 85 a2 08 be e9 66 06 3d
       0.039667625 -0.070155516 -0.13343246 0.032812987
000260 af fd 44 bd 0c 6a b6 3d 6d 00 c8 3d 26 2e f7 3c
       -0.048093494 0.089069456 0.09765706 0.030173372
000270 c4 64 0c bd 44 4c 9c 3d 60 cf 51 bd 20 2d 91 bc
       -0.034275785 0.07631734 -0.05122316 -0.017721713
000280 09 07 f0 3d 29 de c6 3d 47 bb d3 bc 99 51 44 3c
       0.11720092 0.097103424 -0.025846137 0.011982345
000290 27 e2 c0 bd 67 3b de 3d 09 3f 55 3c 31 42 58 bc
       -0.09418135 0.10851174 0.013015517 -0.013199375
0002a0 83 6f 31 3e 17 14 9a 3d f8 bc 4b 3c 2b f5 08 bd
       0.17327695 0.07523363 0.01243519 -0.033436935
0002b0 95 f4 d9 bd be 9d 15 bd 34 de 80 3c dd 13 2b 3d
       -0.106423534 -0.036527388 0.015730955 0.04176699
0002c0 be 98 1a 3e fb e5 a8 bd ae b6 ef bd d5 f9 8b bd
       0.15097329 -0.0824699 -0.11704765 -0.06834761
0002d0 68 18 c8 bb 3c c2 87 bd 4c 32 57 bd ce 5c 9d 3d
       -0.006106425 -0.06628844 -0.0525382 0.07683717
0002e0 a5 2f 82 bd 2d b6 77 3d 06 73 1b bd 71 40 10 3d
       -0.06356744 0.06047647 -0.03795149 0.035217706
0002f0 33 31 07 be 4e a7 b8 3d 9a ce 4f bd 8f a6 ac 3d
       -0.13202362 0.09016286 -0.05073414 0.08430206
000300 3a 7e a7 bd d8 2e 14 bd b8 3d 00 3e 96 6e dd bd
       -0.08178373 -0.036177486 0.12523544 -0.10812108
000310 13 b4 d1 bd 73 6b 02 be 81 d9 1c be e5 a3 00 3d
       -0.102394246 -0.12736301 -0.15317346 0.031406302
000320 3c 53 15 3d 64 56 86 3d 29 e7 d8 bc 82 93 96 bd
       0.03645633 0.065594465 -0.026477413 -0.07352354
000330 39 19 a4 3d c4 ea 43 bd 24 b2 b7 bc 15 52 88 3d
       0.08012623 -0.04783131 -0.022423811 0.06656281
000340 fb da 2a be a9 88 bc bd f7 7a 40 3d 57 e2 93 bc
       -0.16685097 -0.09205753 0.04699227 -0.018052263
000350 5d 9d fb bd 50 45 87 bd 9b 0f d8 3c 14 a8 e1 3c
       -0.12285874 -0.06605017 0.026374629 0.027545966
000360 b8 72 9b 3d 2a 1f f6 3c 3c c3 23 bd c0 4d 0f 3c
       0.0759024 0.030044157 -0.039981112 0.008746564
000370 e3 a0 8e 3d ff 23 61 3d e3 13 6e bd c9 55 96 3c
       0.069642805 0.05496597 -0.058124434 0.018351452
000380 81 69 a1 bc f4 ba 86 bd fe d8 af 3c 9c 53 98 3d
       -0.019703628 -0.06578627 0.021465775 0.07437822
000390 41 28 55 bd 0f c7 7e bd ee f3 65 3c 5a 36 f3 bb
       -0.052040342 -0.062201556 0.014035208 -0.0074222507
0003a0 e4 09 c8 bc c8 5e db bd de c1 64 3d a9 2e 09 3e
       -0.024418779 -0.107114375 0.05584895 0.13396706
0003b0 6e cd 30 bc 1e 8b 17 3d a1 36 4f 3d 2b 87 09 be
       -0.010791166 0.036997907 0.050589208 -0.13430469
0003c0 22 e6 e8 3d 04 7d 19 bc 9d af 82 bd 9e a8 a6 3d
       0.11372019 -0.009368185 -0.06381152 0.0813763
0003d0 c1 9a b0 bd 56 a3 bb bd cd 2a 98 bd fc 0a 16 3e
       -0.08623267 -0.09162013 -0.074300386 0.14652628
0003e0 5f 08 30 3d 27 50 c3 3d 70 8f c6 bb c8 69 04 3e
       0.042976733 0.09536772 -0.0060595796 0.12930977
0003f0 9a b1 ab bd ee 15 d6 3d 97 27 7e bd 97 1b b5 bd
       -0.08383484 0.104534015 -0.062049475 -0.08843153

mixture_net.mol_attn_layers.0.self_attn_layer.out_proj.bias f4 [64]
000000 e5 bb 03 3a 32 43 de 3b e6 39 19 3c 10 1b fc bb
       0.0005025252 0.0067829126 0.009352183 -0.007693656
000010 6f 15 85 3c 54 65 3b 3b 81 cc 1f bc 00 ec e8 3a
       0.016245572 0.0028594332 -0.009753347 0.0017770529
000020 ba 5c 7a bb b1 d0 2e bb 64 8d 85 3c 56 26 ad bb
       -0.0038202242 -0.0026674683 0.016302772 -0.005284111
000030 ed 83 5e 3c f4 2f fa 3b 7f cb e0 bb 2c 4d 81 3b
       0.013581258 0.007635111 -0.006860196 0.003945967
000040 7d 59 f9 3b 77 84 05 3c 5f c5 de bb cf b2 8d 3b
       0.007609545 0.008149258 -0.006798431 0.004324294
000050 22 df 84 3b df 2f 8b bb 1a 20 44 3c d8 39 e5 3b
       0.00405492 -0.00424765 0.011970544 0.006995421
000060 65 d4 9a bb 4a d5 b2 bb c4 a5 72 3c fb d4 c7 3b
       -0.0047250264 -0.005457555 0.014810029 0.0060983873
000070 52 4d f7 3b 37 0d 71 bc 25 22 5c bb 9d 2e 1b bc
       0.007547059 -0.014712623 -0.0033589688 -0.009471563
000080 a3 74 d7 3a de 63 89 bb c6 96 1c 3a 3d 7a bd 3b
       0.0016437959 -0.0041928133 0.0005973395 0.005782394
000090 38 fd a0 bb 9b 77 1e 3b dc f2 63 bb 76 0e 01 ba
       -0.0049129985 0.0024180177 -0.0034782207 -0.00049231143
0000a0 c8 30 bb bb 0a 01 94 3b d9 9f 92 3a 38 9e d2 bb
       -0.0057126023 0.0045167254 0.0011186554 -0.0064275526
0000b0 31 c5 9f 3a aa 89 53 ba 0f b5 19 bc 17 16 37 bc
       0.0012189505 -0.0008069525 -0.009381547 -0.0111747
0000c0 53 f8 44 bb e7 ff 9d bc d2 a9 b0 ba 57 7b ed b9
       -0.003005524 -0.019287063 -0.0013478345 -0.00045296058
0000d0 3d 8d e1 bb 2f 4e 9c ba 68 3d 73 3b bf f4 f2 bb
       -0.006883292 -0.0011925156 0.0037115458 -0.00741443
0000e0 cf 9e 12 3c f6 23 11 3c 36 36 d0 3a 27 dc 3c bb
       0.008948996 0.008858671 0.0015885297 -0.0028817744
0000f0 83 b1 4d 3b 51 4c 03 3c ea 98 89 3a c8 84 75 3c
       0.0031386323 0.008013801 0.0010497842 0.014985271

mixture_net.mol_attn_layers.0.addnorm1.norm.weight f4 [64]
000000 16 01 7e 3f 72 c5 7f 3f 73 3e 83 3f 09 16 83 3f
       0.99220407 0.9991065 1.0253433 1.02411
000010 d4 fe 81 3f 4d 21 7e 3f 7b 05 7f 3f f0 3d 82 3f
       1.0155892 0.9926956 0.9961774 1.0175152
000020 f5 3c 81 3f 44 69 81 3f 7c e1 81 3f f0 24 81 3f
       1.0096728 1.011025 1.0146937 1.0089397
000030 b6 59 82 3f 4c 7a 7e 3f a1 e6 7d 3f 44 f7 80 3f
       1.0183628 0.9940536 0.99180037 1.007546
000040 7f 36 80 3f 55 92 7a 3f 07 7f 81 3f 07 72 7f 3f
       1.0016631 0.97879535 1.0116891 0.99783367
000050 ba ab 7b 3f f3 e3 83 3f b7 33 81 3f 59 de 80 3f
       0.9830891 1.030394 1.0093907 1.0067855
000060 3f 9d 81 3f eb 1c 81 3f cf 21 80 3f 0a 16 82 3f
       1.0126113 1.008695 1.0010318 1.0162976
000070 33 22 80 3f 16 42 81 3f 19 ad 80 3f 50 23 89 3f
       1.0010437 1.0098293 1.0052825 1.0713902
000080 3d 59 80 3f af 0f 81 3f 61 01 7e 3f b8 ae 81 3f
       1.0027233 1.0082911 0.99220854 1.0131445
000090 c1 db 74 3f 54 d0 81 3f 4a d0 7f 3f be 57 80 3f
       0.9564782 1.0141702 0.999272 1.0026777
0000a0 7f 3f 82 3f b7 a0 80 3f 9e 16 80 3f d2 3c 81 3f
       1.0175627 1.0049046 1.0006902 1.0096686
0000b0 35 08 82 3f dd b7 7f 3f c9 76 80 3f b0 3a 7f 3f
       1.0158755 0.9988993 1.003625 0.99698925
0000c0 70 34 7d 3f d0 a5 81 3f a7 45 81 3f c5 3e 80 3f
       0.9890814 1.0128727 1.0099381 1.0019156
0000d0 ed fc 7d 3f 0d 12 83 3f 9f 1d 80 3f 34 f0 7c 3f
       0.9921406 1.0239884 1.000904 0.9880402
0000e0 0e 24 82 3f 5b e6 80 3f 7e 5a 83 3f 89 1a 83 3f
       1.0167253 1.0070299 1.0261991 1.0242473
0000f0 78 c4 7e 3f e1 06 80 3f 28 15 83 3f 66 00 84 3f
       0.9951854 1.0002099 1.0240831 1.0312622

mixture_net.mol_attn_layers.0.addnorm1.norm.bias f4 [64]
000000 32 9e 1b 3b d3 4f 44 3b 1f 9e fe 3b 15 be 4a 3b
       0.0023745415 0.0029954806 0.0077703143 0.0030936052
000010 45 97 ef 3b d3 dc 31 ba 1a 4a 43 ba 14 29 97 bb
       0.007311734 -0.00067849195 -0.00074497017 -0.004613051
000020 15 88 88 bb dc d1 ce ba e9 ad 18 3c 5e 01 df bb
       -0.004166613 -0.0015779096 0.009318807 -0.006805583
000030 1b ee 12 3c a2 05 82 3b 39 fc 87 bb 9c 39 77 3b
       0.008967902 0.0039679566 -0.0041499403 0.0037723547
000040 8f 31 96 3b ed f0 d2 3a 7b f9 b1 bb 99 2f d4 3b
       0.0045835446 0.001609353 -0.0054313517 0.0064754006
000050 9d d4 b5 3b ba 8c 6e bb eb c8 37 3a a5 6e 50 3b
       0.005549027 -0.0036399798 0.0007010835 0.003180423
000060 ce 87 8c bb 5e 14 e4 bb c9 23 1b 3c ff 10 33 3c
       -0.00428865 -0.006960436 0.009468981 0.010929345
000070 7e 8b 84 3b 01 97 48 bc 60 a6 ab bc 70 04 9f ba
       0.004044949 -0.012243033 -0.020953357 -0.001213206
000080 19 62 4b 3b 98 fe 94 bb 4c f3 82 bb 8c 67 31 3c
       0.0031033813 -0.0045469515 -0.0039962884 0.01082791
000090 30 52 8e 39 2b 41 ce 3a 2c b3 31 bb 46 cf 0b 3c
       0.00027145585 0.0015735974 -0.0027114851 0.008533305
0000a0 6e 83 88 bb c5 d5 97 3b 34 18 9d bb 03 85 c5 3b
       -0.0041660583 0.0046336376 -0.004794145 0.006027819
0000b0 33 2b c6 3b 5c f9 1b 3b 16 b0 c1 bb 6c 41 37 bc
       0.00604763 0.0023799753 -0.0059108837 -0.011185031
0000c0 91 85 28 bc a3 f8 5a bc 7f d6 59 bb 42 01 a2 3a
       -0.010285751 -0.013364944 -0.0033239422 0.0012359994
0000d0 39 ee 42 bc 56 ec 59 ba b2 6e 62 ba 68 68 7f bb
       -0.011897617 -0.000831311 -0.00086377107 -0.0038972143
0000e0 ee c8 ea 3b f9 1a 29 3b 6f 8f 1d bc dd d3 26 bb
       0.007165066 0.002580343 -0.009616717 -0.002545587
0000f0 f3 9e c8 ba a6 e4 1f bc 47 d1 3c 3a 1c 09 1d 3c
       -0.001530616 -0.009759104 0.00072028156 0.009584691

mixture_net.mol_attn_layers.0.ffn.layers.0.weight f4 [64, 64]
000000 9e 99 d3 3d 7f 6c f9 bd 9b d2 95 bb 13 d1 18 3e
       0.103320345 -0.12178897 -0.0045722253 0.14923505
000010 73 2e 99 3c 5b 7e c9 bc 5b ef 06 be d1 91 7a 3c
       0.018698907 -0.024596384 -0.13177244 0.015293554
000020 86 2a e7 bd fe da 8d bd a5 0b 80 bc be 32 68 bd
       -0.112874076 -0.06926535 -0.015630553 -0.056689017
000030 eb 56 0c bd a8 82 01 3e d1 0c df bd 86 ae 7f 3d
       -0.03426258 0.12647498 -0.108911164 0.062422298
000040 7b e0 d2 bd c6 d6 b8 3d 98 e8 a7 3d f6 93 1e bd
       -0.102967225 0.0902534 0.081986606 -0.038715325
000050 b9 4e be 3d 10 45 60 3d 66 a2 b7 3d 81 4f b0 3d
       0.09292359 0.054753363 0.08966522 0.08608914
000060 67 58 67 3d 52 e8 b5 3c d1 b4 d0 bd 28 ef be 3d
       0.05648079 0.022205506 -0.10190738 0.09322959
000070 50 a6 ea bd 18 c5 cd bc 2a 7f ef bd c8 7e b1 3c
       -0.11457503 -0.025118396 -0.116941765 0.0216669
000080 6c a9 14 3d ea a5 4c 3d ec 03 06 bd bc b8 2d 3d
       0.036294386 0.049962915 -0.032718584 0.042412505
000090 e7 ad b5 3d f9 05 ea 3d cb 67 2e bd 7c 0f 88 3d
       0.0887106 0.114269204 -0.042579453 0.066435784
0000a0 4a 72 ec 3d 25 aa 5d bd 1e d4 c8 bd e0 14 b5 bd
       0.115452364 -0.05411734 -0.09806083 -0.08841872
0000b0 d4 00 78 3d 0a 36 e5 bc 9a be 17 3d c0 00 65 bd
       0.060547665 -0.02797987 0.037047006 -0.05590892
0000c0 92 09 32 bc 1c f8 97 3c db 11 c9 3d 15 b0 ab bd
       -0.01086654 0.018550925 0.09817859 -0.08383194
0000d0 92 44 81 bd 10 bd 69 bd 1d fc 4e bc cd 98 98 3d
       -0.06311907 -0.05706507 -0.012633351 0.074510194
0000e0 f5 63 d5 bd 8d 9e ff 3d c4 d5 f6 bc a6 de ef bc
       -0.10419456 0.12481413 -0.030131228 -0.029280972
0000f0 02 f1 8f bd ba fe 5b 3d 46 8a fc bd e1 4e d9 bc
       -0.070283905 0.053709723 -0.12331061 -0.02652687
000100 93 77 47 3c aa 05 cf 3d da 04 3c 3d 05 57 af bd
       0.012174505 0.10108502 0.045903064 -0.085615195
000110 65 a8 d4 3d bf 96 32 bd 64 8d 40 3d c3 bc 8b bd
       0.10383681 -0.043600794 0.04700984 -0.06823113
000120 91 ab ea 3d 65 49 81 3c 4d d1 82 3d 60 51 87 3d
       0.11458505 0.015782068 0.06387577 0.06607318
000130 bb 0a 5d bd f2 29 63 3d fe 5d 8e bc a2 8e d4 3d
       -0.05396531 0.055459924 -0.017378803 0.103787675
000140 fa a9 8e bd 5c 64 bd 3c 68 ea d1 3c 91 ff 0f 3c
       -0.06966014 0.023119144 0.025624469 0.008788959
000150 12 61 81 bd a4 fe fa bd da 12 8b bd 0a de 8e 3d
       -0.06317343 -0.122556 -0.06790705 0.06975944
000160 eb d8 83 3c 13 db d5 bd e8 0e a0 3d 31 ac f4 bd
       0.016094645 -0.10442176 0.07815343 -0.119469054
000170 5d 29 27 be bf 81 da 3d 29 8e f6 bb dc fb 9e 3c
       -0.16324373 0.10669278 -0.007524271 0.019407205
000180 58 d4 27 3d 4f ea 9f 3a 1e f3 bb bd 76 e8 11 3e
       0.04097399 0.0012200567 -0.0917723 0.14248833
000190 ab df 49 bd 2b e5 d3 3d 89 a1 4c 3d c1 de 06 bd
       -0.049285572 0.10346445 0.04995874 -0.03292728
0001a0 d1 72 f4 bc c6 6b a6 bd 81 06 00 3d d9 ba 80 3d
       -0.029839905 -0.08126025 0.031256203 0.06285638
0001b0 f7 6f e2 bd 13 e4 63 3c e9 77 74 bd 55 0a 9c bd
       -0.11056512 0.013909358 -0.059684668 -0.07619158
0001c0 47 e2 2a bb 98 21 4c bd 1e c8 0a 3c 8c 2d d5 bd
       -0.0026074813 -0.049836725 0.008470563 -0.10409078
0001d0 0d 70 81 bd 61 ad 27 bd c0 a7 0c 3e 0c b8 b0 3c
       -0.063202 -0.04093683 0.13735867 0.021572135
0001e0 46 b0 e2 bd d4 ff a5 bd a7 ec ca 3d c4 4d 38 bd
       -0.11068778 -0.08105436 0.09908419 -0.044996038
0001f0 b7 98 56 3d 51 2c a5 bd 13 c7 c1 3d 0c ec bc bb
       0.052391734 -0.08065093 0.094617985 -0.0057654437
000200 fb 21 a8 bd 36 cc eb bb c6 62 bc bd 34 ea 29 3e
       -0.08209606 -0.0071959747 -0.09198527 0.16593248
000210 ea bb 06 3b 7b be 37 3d f4 27 0b be a5 85 85 3d
       0.0020558783 0.04485939 -0.1358946 0.06519631
000220 af 6f 0e bd 4e 3c a7 3d f7 4b c6 3d 1e 64 28 be
       -0.03477448 0.08165799 0.09682458 -0.16444442
000230 1a 35 6b 3c 11 d7 5a bd 0f e4 2a 3d f1 17 89 3d
       0.014355922 -0.05342776 0.0417214 0.066940196
000240 5d 18 9a 3d 6e 31 02 bc 4d f0 36 bc 03 c3 97 3d
       0.07524178 -0.007946355 -0.011165691 0.074102424
000250 dd 90 83 3d 1e 9e d6 3c 2d 3a df bd a8 0b 06 3e
       0.06424115 0.026198443 -0.10899768 0.13090384
000260 59 2f af bd 1f b6 c0 3d b7 7b 6a 3d 1f 57 8e 3d
       -0.08553953 0.09409737 0.05724689 0.06950211
000270 ab 7a 10 3d 3b 5a 0d be 26 e9 85 3d 52 b4 f2 3d
       0.035273235 -0.13803951 0.0653861 0.118507996
000280 f1 79 96 3d 0a ba 52 bd 06 37 0b 3d d7 1b e8 3c
       0.07347477 -0.051446952 0.03398802 0.028333588
000290 d8 b0 9e 3c 6e e2 b8 bd 14 42 15 ba 14 06 0a 3e
       0.019371435 -0.09027563 -0.00056937453 0.13478881
0002a0 24 4b ce 3c dc e4 c9 bd fa 06 15 3a 28 d4 d5 bc
       0.025182314 -0.098581046 0.00056849385 -0.02610214
0002b0 10 bf 13 3e 51 ad 96 3d 16 a9 04 3d 4c 98 27 bc
       0.14428353 0.07357276 0.032387815 -0.0102291815
0002c0 f6 12 36 bd 3b 55 e7 bd 9e b0 0a 3d c5 f1 63 bd
       -0.044451676 -0.11295553 0.03385984 -0.05565049
0002d0 c7 6c 03 be 6e ee f9 bd c6 ab 94 bd c9 ea 0b 3d
       -0.12834464 -0.1220368 -0.07259326 0.034159455
0002e0 8a 8a 08 3e 5c 3a d3 bc ad 4b 83 3d 46 3c c5 bd
       0.13334098 -0.025784664 0.064109184 -0.09630637
0002f0 ce 49 8f 3d e7 a8 84 bd bf 73 18 3e e9 c5 9c bd
       0.06996499 -0.06477528 0.14887904 -0.07654936
000300 34 ed ee bd 38 4c ca 3c 38 d1 7a bc fc 6c d5 3c
       -0.11666337 0.024694547 -0.015308671 0.026052944
000310 84 b4 ba 3d 4d bc c3 bd 87 bd de bd 8c 0b de bb
       0.09116462 -0.095574 -0.10875993 -0.006776279
000320 1a 3a 61 3d aa b0 89 bd 4f 16 b3 bd 5b 7f b0 3c
       0.05498705 -0.06723149 -0.087444894 0.021545103
000330 e9 06 5c bd 48 57 8d bd 6f 3b aa 3d 5f 17 54 3d
       -0.053717528 -0.06901413 0.08312117 0.0517801
000340 69 c1 06 bd 5b 1f c7 bd af d9 a1 3b ca 61 a2 3d
       -0.032899294 -0.097227775 0.00493928 0.07928808
000350 a6 7d c4 bc 34 7b 7b bd 04 c6 c3 3d 10 7e fa 3d
       -0.023985695 -0.061396793 0.09559253 0.12231076
000360 07 39 8e bc 9f 5b 87 bd b2 a4 8e 3c 8c ab 15 bd
       -0.017361177 -0.06609272 0.017412517 -0.036540553
000370 1a 8f 70 bc 8e c1 46 bc 7b ca b6 bd 41 0b bc bd
       -0.014682556 -0.012131108 -0.08925339 -0.09181834
000380 00 15 dd bd f8 76 0f 3e 74 09 03 3e d9 7a 4f 3d
       -0.10795021 0.14010227 0.12796575 0.050654266
000390 03 81 96 bd b4 f6 08 be 0e c0 e4 3c 10 1f 81 3c
       -0.07348826 -0.1337536 0.02792361 0.015761882
0003a0 46 ef b1 3d b5 c5 b8 bd 6b 23 0c 3e 6c 76 f2 bd
       0.08688216 -0.090220846 0.13685386 -0.118389934
0003b0 43 5d 11 3d 34 7a ed bd ed 65 a6 3d 63 90 11 bd
       0.035489332 -0.11595574 0.081249095 -0.03553809
0003c0 c8 1b d7 3d 01 f2 82 3d 1a af c1 bc 50 29 50 3d
       0.10503346 0.06393815 -0.023643065 0.05082065
0003d0 5d 4a ed bb 1d 88 06 bd 5f d7 b1 bd 7c 94 99 bd
       -0.007241531 -0.03284465 -0.08683657 -0.07499024
0003e0 db c4 1a be a5 e4 a0 bd f2 e8 9b 3d 07 0f 4a bd
       -0.15114157 -0.078561105 0.0761279 -0.049330737
0003f0 df 6c 12 3d 75 f1 d6 bb 92 fa 85 bd 07 2b 4b 3d
       0.03574836 -0.0065595456 -0.06541933 0.04960158

mixture_net.mol_attn_layers.0.ffn.layers.0.bias f4 [64]
000000 41 95 9a 3d fb e4 26 3d 1b 02 fc 39 79 70 c4 bd
       0.07547999 0.040745717 0.00048066754 -0.09591765
000010 a9 3b fb bd d0 2b 8e bd 3e 67 2c 3d 81 4a 07 3d
       -0.12267239 -0.0694195 0.042090647 0.033030037
000020 42 4b b3 bd 69 00 f7 bd d7 c9 52 bd 19 26 c7 3d
       -0.08754589 -0.12060625 -0.05146202 0.097240634
000030 9d ba a8 bd 28 c7 9a bd c2 ea de bd 8c 0b 84 bd
       -0.08238719 -0.07557517 -0.1088462 -0.06447515
000040 8e 2d a8 bd 35 fe 4d bd 54 c1 4d bd a1 48 74 3d
       -0.08211814 -0.05029126 -0.0502332 0.059639577
000050 96 74 1a 3d 22 3d 85 3d 96 40 85 3d a1 44 2f 3d
       0.03770884 0.06505801 0.065064594 0.04279006
000060 10 33 ec 3d 88 c8 85 3d dc 60 2f 3c 81 fd bd 3c
       0.11533177 0.06532389 0.010704245 0.02319217
000070 c0 15 38 3d 56 83 b3 bb 0e 3d 16 3d 7e a5 e8 bd
       0.044942617 -0.005478303 0.03667932 -0.1135969
000080 90 53 72 bd 01 47 c9 3d 45 03 a8 3d 67 75 86 bd
       -0.059161723 0.09827996 0.082037486 -0.065653615
000090 51 2f 55 3d cf 7f df bd 8f 3e 8f 3d 78 8b e2 3d
       0.052047078 -0.109130494 0.06994354 0.11061758
0000a0 97 d3 9b 3d cc 1e f5 bd 76 80 ce bd c6 f0 de 3c
       0.07608717 -0.11968765 -0.10083096 0.02721442
0000b0 80 27 21 3d 8e d1 2d bd 95 67 9e 3d 37 09 d0 3d
       0.03934431 -0.042436175 0.077346005 0.101580076
0000c0 a6 3a 27 bd bd f3 ac bd 2b 9c 81 3d de 04 05 3d
       -0.040827416 -0.08444927 0.06328615 0.032475345
0000d0 1b b3 dd bd f6 77 ea bc 59 cc 7d bd 67 af 07 bd
       -0.10825177 -0.028621655 -0.06196246 -0.03312626
0000e0 42 84 89 3d 44 32 66 3d 03 b1 97 3d 12 0f b6 bd
       0.06714679 0.05620028 0.07406809 -0.08889593
0000f0 79 66 56 bc 00 1f b1 bd 34 60 99 3d ab 56 d8 3d
       -0.013085955 -0.08648491 0.074890524 0.105634056

mixture_net.mol_attn_layers.0.ffn.layers.2.weight f4 [64, 64]
000000 ad b6 a6 bc 46 d8 9d 3d c0 c8 54 3d c2 09 d4 bc
       -0.020350778 0.077072665 0.051949263 -0.02588356
000010 a0 6e 4c 3c 4c ee 09 be 9f 0c e5 bd 27 34 a2 3b
       0.012477547 -0.1346981 -0.11184048 0.0049500647
000020 19 e9 7d 3d b3 5e 02 bc 3b 46 c4 3d f6 13 b4 3d
       0.061989877 -0.007957148 0.09583708 0.0879287
000030 3a 15 6c bc 3e 34 04 be e8 80 23 3d 14 14 26 3c
       -0.014409358 -0.12910554 0.039917856 0.010136623
000040 45 c0 2f bd 5b 0a b8 3d f0 52 89 3d 38 9a c6 bd
       -0.042907972 0.0898635 0.06705272 -0.09697384
000050 a3 0f ae bd f7 e7 3b bd 1c 2d a3 3d 3b f2 d5 bd
       -0.08499076 -0.045875516 0.07967588 -0.104465924
000060 c1 dd e8 bd 55 ab 8a bd 7d 29 e7 3d 3d 71 44 bc
       -0.11370421 -0.0677096 0.1128721 -0.011989889
000070 f0 7a db 3d 49 97 04 3e 04 6d 89 bd 8b 71 b3 bd
       0.10716808 0.12948336 -0.06710246 -0.08761891
000080 eb 97 43 bd 4a 7a 90 bd 5b fc f9 3d 18 a3 c3 bd
       -0.047752302 -0.07054575 0.12206336 -0.09552592
000090 fd e5 7a bd 0d 09 cd bd de 72 ba bd 20 4e e6 3d
       -0.06125449 -0.10011492 -0.091039404 0.1124537
0000a0 2c 38 6d 3d 26 a5 b2 3d 9c d7 a9 bd 92 7e 54 3d
       0.057914898 0.08722906 -0.08293077 0.05187852
0000b0 78 87 28 bb 89 08 9a bc 13 69 a3 bd d2 c6 e5 3d
       -0.0025715511 -0.018802898 -0.07979026 0.112195626
0000c0 bf c5 07 bd 7e d2 95 bd 20 94 c6 bd e7 41 2b 3d
       -0.03314757 -0.07315539 -0.09696221 0.041810896
0000d0 5a 8e 1a be 76 81 07 3d 04 a4 2e bd b6 91 b0 bd
       -0.15093365 0.033082448 -0.042636886 -0.08621542
0000e0 cf 75 da bd f5 15 88 bb b9 24 f6 bc a8 a2 cf bc
       -0.106670015 -0.004153008 -0.030046808 -0.025346115
0000f0 9b 47 28 3c c5 6d 4f bd d3 e8 84 bd 80 9e 49 3c
       0.010270978 -0.050641794 -0.0648972 0.012305856
000100 4e dd 97 bd 06 83 97 bc 15 c3 a8 3d fe 1c 41 3d
       -0.074152574 -0.018495094 0.08240334 0.04714679
000110 6c 4f ef 3d 9c 52 f5 bd 58 ca c0 3d d2 2f 31 bd
       0.116850704 -0.11978647 0.09413594 -0.043258496
000120 ff e5 d9 3d 2b 6a e3 3d a0 40 a9 3d fe da 87 39
       0.106395714 0.11104234 0.08264279 0.00025912368
000130 8d 49 c6 3d 1d 45 6d bd 7b 69 d4 3c f3 2e 9e bd
       0.096819974 -0.05792724 0.025929203 -0.077237986
000140 a7 0b 42 bd e0 ac 37 3d eb e9 a2 3c df f5 68 3d
       -0.047374394 0.0448426 0.019886931 0.056875106
000150 ff 8e 88 3d 99 43 5d 3c af 28 b9 bd 12 ee d2 bd
       0.06667899 0.013504886 -0.09040963 -0.102993146
000160 80 dc 2a 3d 72 7a 07 be ce 1a d6 3a 84 43 e3 bd
       0.04171419 -0.13230303 0.0016334893 -0.11096862
000170 5f 84 c7 3d 1b 69 b5 3b 80 ec cf bd 38 ea e9 3c
       0.09742045 0.005536211 -0.10152531 0.028554067
000180 d5 d6 e5 3d ed b0 bb bd 05 a9 ab 3c 0d 36 02 3e
       0.112226166 -0.09164605 0.020954618 0.12715931
000190 a9 16 c8 3c 12 d2 ae 3d 0f 25 52 bc cf bb d4 bd
       0.024424868 0.085361615 -0.012826218 -0.10387384
0001a0 3d 1d 93 3d 73 bc 8a bd 68 a7 e8 bd 3e 42 09 bd
       0.07183311 -0.06774225 -0.11360055 -0.03351044
0001b0 2c 41 da bd 4d ca 4d 3d 9c 20 8a bc 02 82 2b bd
       -0.10656962 0.050241757 -0.016861252 -0.041872032
0001c0 c2 17 92 3d 5c f9 ea bd 15 e2 bb bd 35 d0 41 3d
       0.07133438 -0.11473343 -0.09173981 0.047317702
0001d0 14 f9 a3 3d 3e 7c 47 bc e9 b8 07 bc a2 fb c8 3d
       0.08006492 -0.012175618 -0.008283832 0.0981362
0001e0 72 bd e9 bd a2 02 27 3d ea d3 bf bc 51 e7 d3 3d
       -0.11413087 0.040773995 -0.023416478 0.103468545
0001f0 76 81 c9 bc 70 8b 14 3e 33 47 5f 3d 42 20 d9 3d
       -0.024597865 0.14506316 0.05451126 0.10601856
000200 f8 65 bd bd 22 a1 14 be 5e 2e 5d 3d e3 b0 82 bc
       -0.092479646 -0.14514592 0.053999297 -0.015953487
000210 36 64 1b ba 70 62 02 be 02 ec 1f 3c b3 6b f5 3d
       -0.00059277134 -0.12732863 0.0097608585 0.119834326
000220 b7 95 05 3d 24 33 e4 3c 66 2b 8a bd 9b 12 29 bd
       0.032613482 0.027856417 -0.06746559 -0.04127751
000230 bc 89 31 bd 83 fa 0d 3d 62 fd be 3d 9c ac 10 bd
       -0.043344244 0.034662735 0.09325673 -0.035320863
000240 a0 27 f9 bc 6b 39 50 bd 2e 66 59 bb ec 8a 80 3d
       -0.030414402 -0.050836008 -0.0033172476 0.06276497
000250 c0 43 27 bd c9 d4 40 bc 80 98 9b 3d 7e 6b c6 bd
       -0.040836096 -0.011769482 0.075974464 -0.09688471
000260 6b 12 84 bd 8b 40 01 3d 24 8d 26 3d 0e 1f fe 3d
       -0.064488254 0.031555694 0.040661946 0.12408267
000270 f7 b7 d1 3d 98 d8 9e 3d 25 ae 09 bd b5 90 af bd
       0.10240167 0.07756156 -0.033613343 -0.085725226
000280 4d 1d bf bd b8 ba 03 3e d9 d5 bf 3c 1e 94 f4 bd
       -0.093317606 0.12864196 0.0234174 -0.119423136
000290 41 3d 3f bd ce ad 35 bd 87 79 de 3d 60 6b 06 be
       -0.046689276 -0.044355206 0.10863023 -0.13126898
0002a0 bc d6 b8 bd cb ff 79 bd bd 53 71 bd fc c6 e7 bd
       -0.09025332 -0.06103496 -0.05891775 -0.1131725
0002b0 4b 95 90 3d 0c 56 3d 3d e0 af b9 3d 91 53 99 3d
       0.070597254 0.04622464 0.090667486 0.07486642
0002c0 e9 ec ad bd 4c c3 84 3d 8b 8d bc bd 98 a2 fd 3d
       -0.08492453 0.064825624 -0.09206685 0.12384528
0002d0 d2 8c b1 3d 40 79 28 bd 39 1a 16 bd e5 95 75 bb
       0.086694375 -0.041131258 -0.0366461 -0.0037473377
0002e0 c4 a3 b9 3c 19 ab a3 bd 4d 83 9f 3c 66 4d d3 bd
       0.022661097 -0.07991619 0.019471789 -0.10317497
0002f0 f0 0d f5 bd 0b b4 0e 3d 98 47 37 bd dd 7b 1d 3d
       -0.11965549 0.03483967 -0.04474601 0.038448203
000300 dd 54 d2 bd 76 0a 4f 3d f2 2e 0a be 72 1f 41 ba
       -0.10270093 0.050547086 -0.1349447 -0.00073670514
000310 09 60 b8 bc 5b a1 1f bd d6 97 a4 3c d2 f7 4b bd
       -0.02250673 -0.03897224 0.020091932 -0.049796887
000320 b3 d4 0f 3d ec e4 cd bc b4 9e 17 bd 49 e1 66 3d
       0.035114955 -0.025133573 -0.037016585 0.056367192
000330 ec 14 73 bd 87 ac b5 bd 51 56 06 bc 6a d6 c0 bc
       -0.059346125 -0.088707976 -0.00819929 -0.02353974
000340 34 aa a9 3d e1 52 45 bd ef 16 d3 bd 4f 82 0c 3d
       0.08284417 -0.048174743 -0.103071086 0.03430396
000350 1c 93 ec bd 46 67 d0 bc 63 27 92 bc 17 7c b6 bd
       -0.115514964 -0.02543987 -0.017841047 -0.08910387
000360 6d 57 a1 bd 9b 7f 9b 3d dd b1 67 3d dd 94 33 3d
       -0.07878003 0.07592698 0.056566108 0.04384314
000370 60 2d e8 bc 2a 26 20 3d 4b 53 b9 bd 0f bb e1 bc
       -0.028341949 0.039098896 -0.0904909 -0.027555017
000380 5c 70 a4 3d 2c 43 55 3d 5b db 7f bd 8d 8a 9e bd
       0.08029243 0.052066013 -0.062465053 -0.0774127
000390 93 1d d3 3d 2c 61 1c bb 4b 66 a2 3d 6a 41 ba bd
       0.10308375 -0.002386163 0.07929667 -0.09094508
0003a0 fa f4 e0 3d a4 2a bc 3c 14 6c a3 3c eb 11 e9 bd
       0.109842256 0.022969551 0.019948997 -0.11380371
0003b0 2c 86 10 bd 06 43 05 be c4 38 c3 3d cc 06 31 bc
       -0.035284206 -0.13013849 0.095323116 -0.010804843
0003c0 71 12 0a be 09 88 db bd 37 86 75 bd 03 ca 74 bd
       -0.13483597 -0.10719306 -0.05994245 -0.059762966
0003d0 2a 13 1d 3c c6 fc 14 bc 51 02 14 3e a0 1b 60 3d
       0.009587089 -0.009093469 0.14454009 0.054713845
0003e0 73 ce 6d bc c4 e7 b6 bc f3 4e e3 3d 23 04 d3 3d
       -0.014514553 -0.022327311 0.11099043 0.103035234
0003f0 e6 2f e1 bc cc 50 ea 3c a8 4c 43 3d 14 d8 e1 bd
       -0.02748866 0.02860298 0.047680527 -0.11027542
