scripts_chemix/results/chemix_ensemble/top4/chemix.pt (torch, 110410 bytes, 33 tensors)

input_net.weight f4 [32, 196]
000000 2e c0 1d 3b 54 8a 64 3d 36 18 b1 bb 56 c5 5e bd
       0.0024070847 0.055795982 -0.0054044975 -0.054387413
000010 e3 40 fe 3d 06 24 cb bc b3 3c 88 bd 96 7d 70 3d
       0.1241472 -0.02479745 -0.066522025 0.058713518
000020 9a dc 6e bd a1 62 83 3d 16 93 4a 3d db a4 be bc
       -0.05831585 0.06415296 0.04945668 -0.023271969
000030 61 fc 27 3d 19 46 3f 3d 8b aa 34 3b 91 9e 6c bc
       0.04101217 0.04669771 0.0027567472 -0.014442102
000040 ef d0 58 3c 93 31 b0 bc 1d 6b 19 bd ab 8c 43 3d
       0.013233407 -0.021508014 -0.037455667 0.047741573
000050 a7 ad 60 3d 74 a4 31 3e 96 2a 15 bb c4 1a ec 3c
       0.054853108 0.1734789 -0.002276098 0.028821357
000060 cf 5a 67 3d b8 a2 28 bd 0d 25 64 3d 36 cf 56 3c
       0.056483086 -0.041170806 0.055699397 0.013110926
000070 ea 31 f0 3c 10 b3 89 bc 2b 54 8a bd df 8c 9e bd
       0.029320676 -0.016809016 -0.06754335 -0.07741713
000080 1f ea 50 bd a8 2c 0a bd 4c 9e 91 3b 59 1f b1 3c
       -0.051004525 -0.033733994 0.0044439193 0.021621393
000090 e6 9d 59 bc 5e d4 5e bd 89 d5 e0 3c 3c 0b 05 3d
       -0.013282275 -0.054401748 0.027445571 0.032481417
0000a0 bb 61 b4 3c 8f b6 0f bd eb 1a b0 3b 91 48 8e 3d
       0.022019258 -0.03508621 0.0053743026 0.06947435
0000b0 6c d0 49 bd 67 bf e9 3c 68 88 18 3b 5e b9 32 bd
       -0.049271032 0.02853365 0.0023274664 -0.04363381
0000c0 ee 23 a8 bd 67 9e 34 3e d1 98 0a bd df 71 02 bd
       -0.08209978 0.1763855 -0.033837143 -0.031846877
0000d0 cf b3 12 3d 0a 98 d8 bd 8d 60 97 bc 07 15 f9 3c
       0.03581601 -0.10575874 -0.018478656 0.030405534
0000e0 fe 2b 44 bd 68 7b 9f 3c 55 87 46 bc 70 c3 b1 bb
       -0.047893517 0.019468024 -0.012117227 -0.0054249093
0000f0 85 cf 1e 3c cb e2 dc bb 9d c1 3c 3d 55 42 b5 bd
       0.009693031 -0.006740903 0.04608308 -0.088505425
000100 8b 61 8b bc 27 9c 9d 3d bb 62 a8 bc 11 08 95 bd
       -0.017014286 0.07695799 -0.02055489 -0.07276929
000110 f6 8a 58 bd dc b0 9c bd a6 a3 81 3d c0 dd 08 3d
       -0.0528669 -0.07650921 0.063300416 0.033414602
000120 3d ae 67 bd e4 c5 3b 3d a0 5d a6 3d 62 9a 30 3d
       -0.05656265 0.04584302 0.08123326 0.04311598
000130 93 15 2b 3d de 01 48 bb 3a 78 8c bd 95 9e fa ba
       0.04176862 -0.003051869 -0.06858869 -0.0019120747
000140 2e 40 7d bc 72 c4 1f be b1 0d 0b bd a1 e4 86 bd
       -0.015457196 -0.15602282 -0.033948604 -0.06586576
000150 b1 4b 3a bc 72 d8 8f bd da 67 3c 3d 4d 54 0c bd
       -0.011370585 -0.070237055 0.045997478 -0.034260083
000160 09 48 18 3d 6c b6 6c 3d 5b 5b 54 3d e2 06 60 bc
       0.037178073 0.05779116 0.051844936 -0.013673516
000170 e3 c7 43 3d 42 f8 1c bd c6 48 8a bd af de 15 bc
       0.04779805 -0.038322695 -0.06752162 -0.00914733
000180 5e 09 76 3b 38 25 67 bc 74 f4 57 3c 67 60 26 3c
       0.0037542204 -0.014107995 0.013180841 0.01015482
000190 fb 4f a3 bc a4 8e b3 bd 08 98 8e bd 29 aa 7a 3d
       -0.019935599 -0.08767441 -0.069625914 0.061197434
0001a0 7d 9d 15 3d b3 76 1c 3d f1 8d 83 bc 7f 2a fd bc
       0.036527146 0.038199138 -0.016058894 -0.030904053
0001b0 8b 6a 19 bd 61 93 3d bb d8 cb 59 bd f6 bb c6 bc
       -0.037455123 -0.0028926956 -0.053172916 -0.024259549
0001c0 76 73 40 3c 52 fa 0e 3d ca 52 d2 bc 8c 2a 70 bd
       0.011746278 0.034906693 -0.025674243 -0.058634326
0001d0 3a 86 aa bc 87 75 01 bc e8 76 8b bd fe a8 16 3d
       -0.020815957 -0.007901556 -0.06809789 0.036782257
0001e0 20 87 d4 bd c8 76 72 3d 71 0e 91 3a f7 cc da bc
       -0.103773355 0.05919531 0.0011066926 -0.026709063
0001f0 31 b8 a6 3c c1 1b 6e bd 57 49 ab 3d 57 6b 15 3d
       0.020351501 -0.058131937 0.08363598 0.03647932
000200 aa 94 90 bc ce 87 2c bd 29 5e 9b bd 4f 86 f4 bc
       -0.017649014 -0.0421217 -0.07586319 -0.0298492
000210 79 04 8c 3d d4 05 77 bc ab f3 f0 bd 0d 5c 08 3d
       0.068367906 -0.015077073 -0.11765226 0.03329091
000220 4e c2 e6 3d 8b 48 6b bc d8 04 17 bd 42 8d 00 bd
       0.112675294 -0.014360557 -0.036869854 -0.031384714
000230 94 81 89 3d 36 3c bd bc 4d f2 f7 3c d7 71 14 3e
       0.06714168 -0.0231 0.030266905 0.14496551
000240 6f 0f 4e bd e9 22 0c bd 34 36 c7 bd 0b 4c cc 3c
       -0.050307687 -0.03421298 -0.09727135 0.024938604
000250 41 fb 22 bc 40 76 fc 3d 0a 4f 15 3d 28 45 46 3d
       -0.009947599 0.12327242 0.03645233 0.048405796
000260 38 93 d3 bd 7b a4 4d bc 9c 12 8f 3d 08 90 35 bd
       -0.10330814 -0.012551422 0.06985971 -0.044326812
000270 cb 96 45 3d 26 39 8e bd 89 1e 34 3c 61 be 76 bd
       0.04823951 -0.06944494 0.010993608 -0.060240153
000280 06 df 13 ba 61 b3 1d bd 87 8c 45 3d 71 fb 13 bd
       -0.0005640838 -0.038501147 0.04822972 -0.036128465
000290 b4 e0 c7 bd 2e 4b 9e bd 20 8d 15 bd 2b c2 2c 3d
       -0.097596556 -0.07729183 -0.03651154 0.04217736
0002a0 b6 01 8c bc f3 1d 64 bd 0d 6f 26 bd db a0 9f bd
       -0.01709066 -0.055692624 -0.04063325 -0.077943526
0002b0 8e b3 e0 3b 62 cd c8 bc 5d c7 96 bc aa 68 dc bc
       0.006857342 -0.024511997 -0.01840561 -0.026905376
0002c0 7e 7b 8c 3d 52 93 22 3d 98 2c ac bd a2 f6 26 3d
       0.06859492 0.039691277 -0.08406943 0.04076255
0002d0 53 3e 09 bd e2 17 7b 3c 38 e6 e2 3c 94 11 63 3a
       -0.033506703 0.015325518 0.027697667 0.0008661982
0002e0 74 85 34 3c 52 50 49 3d c6 32 13 bc 26 b8 94 bd
       0.011018146 0.049148865 -0.008984273 -0.07261686
0002f0 b5 09 8e bd 35 0f a6 3d 7e 2c 8c bd 52 c7 82 bc
       -0.06935445 0.08108369 -0.06844424 -0.015964184
000300 a1 60 f5 bc a2 c6 4e 3c 20 8a 8d b8 51 1f b0 bd
       -0.029953303 0.0126206 -6.749132e-05 -0.08599723
000310 75 00 2e 3c 6c 06 31 bd 52 d2 60 bd 5e fe 07 3d
       0.010620226 -0.043219015 -0.054888077 0.033201568
000320 c8 62 a8 3d b3 7b 9b 3d 96 b8 b6 bb 27 d9 89 3d
       0.08221966 0.07591953 -0.0055762036 0.06730872
000330 92 88 7d 3c d2 ab 99 3d c6 10 d1 bd a5 95 d2 bd
       0.015474455 0.07503475 -0.102082774 -0.10282449
000340 75 d0 cb bc ff 6a a8 3d f0 28 01 3e ea 3b 8a bc
       -0.024879673 0.08223533 0.12613273 -0.016874272
000350 57 0e 83 bd 70 f9 1d bd 01 b2 ad 3d 92 19 5d bd
       -0.063992195 -0.03856796 0.08481217 -0.053979464
000360 9c a4 56 3d dd be ea 3c 43 97 12 3d 67 a7 84 bd
       0.052403077 0.028655464 0.035788786 -0.06477242
000370 63 13 05 bd d8 a6 f7 3c c4 8e 85 bd 36 d2 8d 3d
       -0.03248919 0.030230924 -0.06521371 0.0692486
000380 f6 52 fe 3c c2 8b 32 3d 1b ad 24 3d 72 67 40 bc
       0.031045418 0.043590315 0.04020415 -0.011743413
000390 7d f4 a3 bb a1 57 b4 3d 0f 94 d5 3c 73 56 ce bc
       -0.0050035105 0.088057764 0.026071576 -0.025187707
0003a0 da 0f c8 bc c8 57 0c 3d fa c9 94 ba 1b 2c 3a 3a
       -0.024421621 0.034263402 -0.0011351698 0.0007101909
0003b0 78 4c 2a 3d 06 a3 84 bc 1a 71 ea bc df a3 ab 3c
       0.041576833 -0.016191017 -0.028618384 0.020952163
0003c0 8d 8c 07 bd fa 4a cd 3d db 84 a3 3d 1a 35 d8 bc
       -0.033093024 0.10024066 0.079843245 -0.026392508
0003d0 82 34 39 3d ba bc af bd e8 c4 f4 bc 31 a7 d9 3d
       0.04521609 -0.085809186 -0.029879048 0.10627592
0003e0 4e 6a 12 bc 12 65 91 bd 06 db 1e bd 75 86 ba 3d
       -0.008936478 -0.07099356 -0.038783096 0.09107677
0003f0 f1 c4 d1 3b 24 7f 20 3d de 73 6f 3c 2e 38 0d 3d
       0.006401651 0.03918375 0.014615027 0.034477405

input_net.bias f4 [32]
000000 0e 80 50 bd 63 29 92 bd c7 44 e6 bc ce 48 b6 b9
       -0.050903372 -0.071368 -0.028108967 -0.0003476799
000010 48 f1 65 3d b0 99 c0 3c d1 a0 b1 bc 43 19 98 bb
       0.056138307 0.023510784 -0.021683129 -0.0046416833
000020 9c a6 05 3d c3 76 67 3d 6d 2a f2 ba 98 de 06 bd
       0.032629594 0.056509744 -0.0018475779 -0.032927126
000030 d8 e0 42 bd 80 02 b0 bd ab ce f9 3c 8e 3a c3 bc
       -0.04757771 -0.08594227 0.030494055 -0.023831632
000040 45 1d 78 3c 20 f8 67 bd db a1 03 bc 7a bb 83 bd
       0.015143697 -0.056633115 -0.008034195 -0.06432243
000050 41 bd 15 3d f5 1b 03 3d d9 b9 90 bc e8 47 a6 3d
       0.03655744 0.032009084 -0.017666744 0.08119184
000060 2f 34 2c 3c 45 5c 8d bb ed c4 68 bd 04 ac 67 bd
       0.010510488 -0.004313978 -0.056828428 -0.05656053
000070 21 2d 00 3d 87 d7 bc bc 3d fd 7f bc b8 df 9c bb
       0.03129304 -0.02305199 -0.015624342 -0.0047874115

mixture_net.mol_attn_layers.0.self_attn_layer.in_proj_weight f4 [96, 32]
000000 e9 f1 5a be cb a2 00 3d 79 5c 13 be e4 c1 0d 3e
       -0.21381344 0.03140525 -0.14390744 0.13843495
000010 3d 10 bb 3d c6 40 5a be 38 f5 c8 3b 9d 5f 4f be
       0.091339566 -0.21313772 0.006132748 -0.20251317
000020 01 25 33 bd 3b db 1b bc 75 86 75 bd 82 2e 75 bd
       -0.04373646 -0.009512718 -0.05994268 -0.059858806
000030 49 a5 ac be d1 9b f9 bd b6 c2 6e 3e ef 0c 84 be
       -0.33719853 -0.12187923 0.23316464 -0.25791118
000040 df c6 82 3e 6a 67 d5 bc 8c fa 02 bd fb ec 0b 3e
       0.25542352 -0.026050288 -0.03197722 0.1366462
000050 b7 62 82 3e 2b 7f c6 bd 79 c7 02 3e 12 b4 1f be
       0.25465938 -0.09692224 0.12771405 -0.15596035
000060 7d c8 8b 3d 8e e6 21 3e 37 d9 30 3e 28 a2 2e ba
       0.068253495 0.15810606 0.17270361 -0.00066617364
000070 fa 56 fc 3d 18 ee d7 3d ba b5 2e be f5 03 05 bd
       0.12321277 0.1054346 -0.1706151 -0.032474477
000080 1f 72 6e 3e 33 ba e4 3d 89 12 7c be cf 7f ae be
       0.23285721 0.11168327 -0.24616446 -0.34081885
000090 f2 05 17 3d 94 04 86 3e 6d 5d d5 3c d3 a4 d5 3c
       0.036870904 0.26175368 0.026045525 0.02607957
0000a0 b0 55 10 bd c0 7b fc 3d 7c f0 a0 3b 4f 57 5b 3d
       -0.035237968 0.12328291 0.0049114805 0.05355006
0000b0 36 63 93 3d e3 12 2d 3d c2 67 94 3d 25 e1 9f 3d
       0.07196657 0.04225434 0.07246353 0.07806615
0000c0 69 c5 67 3e 6b d7 98 be d9 2e 81 bd 8d 1c 88 be
       0.226339 -0.2985185 -0.063077636 -0.26584283
0000d0 b5 2f 6d 3d 93 dc 76 be 38 3c b8 be 87 68 59 bd
       0.057906825 -0.2410758 -0.35983443 -0.0530782
0000e0 6d 97 21 3d bd 27 f7 3d a4 73 89 be a9 83 4a be
       0.03945105 0.12068126 -0.2684604 -0.19776787
0000f0 6a e2 eb bd 13 fd f2 3d b1 8a 13 3e 6c d7 2f be
       -0.115177944 0.11864676 0.14408375 -0.1717202
000100 da c9 f4 3d 7a 2a 0d 3e 8d 4f 13 3e a0 88 c9 3d
       0.11952563 0.13785735 0.14385815 0.09840512
000110 32 d6 10 be 3e 41 3a be ec 4e 04 be 6f 2e 44 3e
       -0.14144209 -0.1818895 -0.12920731 0.19158338
000120 ed bd c5 bd f2 80 81 3d 26 7c 91 bd c5 ed 5f be
       -0.09655366 0.063234225 -0.071037576 -0.21868046
000130 e2 a9 34 3e 29 8b 8b bd 40 11 3c be 10 aa 0a 3d
       0.1764293 -0.06813652 -0.18365955 0.03385359
000140 93 25 25 3e 84 6d eb bd cb a2 c4 3d 6a b6 02 3d
       0.16127615 -0.11495498 0.09601363 0.031912245
000150 ea 82 af 3c d9 31 6c 3e cf 95 2e be 1c 20 85 3e
       0.02142473 0.2306589 -0.17049335 0.2600106
000160 41 b9 07 3e 32 e1 30 be 20 10 b9 3c 03 6f 0a 3e
       0.13254263 -0.17273405 0.022590697 0.1351891
000170 9e c9 f0 ba 6a e0 86 3e 9f 02 fd bc 9d b4 99 be
       -0.0018370633 0.2634309 -0.030885039 -0.3002061
000180 3a a6 d0 ba 1f 35 b1 3b 40 24 21 be e4 56 b6 3d
       -0.001591868 0.005407944 -0.15736485 0.08903292
000190 14 0b 17 3c 80 4c 4f 3e 06 e7 10 bd 24 91 2a 3d
       0.00921895 0.20244026 -0.03537657 0.041642323
0001a0 ea 51 5b 3e b3 1b c6 bd d2 94 4b be 0b 15 94 bd
       0.21417966 -0.09673252 -0.19880989 -0.07230576
0001b0 de f6 54 3e 7b 57 7b bd 57 6b 02 3b 1c fd c6 bd
       0.20797297 -0.061362725 0.0019900405 -0.097162455
0001c0 09 b4 8e 3c bb 12 97 3c 83 54 97 3e b5 05 00 be
       0.017419832 0.018441549 0.29556665 -0.12502177
0001d0 83 8d 1f bd 5d bb 2d 3e 65 31 a8 3d 30 59 c9 3c
       -0.038953315 0.16966005 0.08212546 0.02457866
0001e0 81 22 88 3d 98 e1 dc 3d 5a 4e 21 3e 8d bb 16 be
       0.06647206 0.10785216 0.15752545 -0.14719982
0001f0 df 30 8d 3e d6 8d de bc 68 c1 58 be 4d e7 30 be
       0.27576348 -0.027167242 -0.21167529 -0.17275734
000200 a7 9b 38 3e 68 5f d9 3d 04 7e 10 be eb 26 56 3d
       0.18028127 0.106139004 -0.14110571 0.05228321
000210 5c 3d 2c be 35 3b 25 be 57 f2 3a 3e 94 41 12 bd
       -0.16820282 -0.16135867 0.18256508 -0.03570707
000220 4f 96 63 3c ac 81 a6 bd 4d 67 10 be 37 54 d2 bc
       0.013890817 -0.08130202 -0.14101906 -0.025674922
000230 ad 86 0d bd 43 b2 64 be 43 af 02 3e 4d 35 83 bd
       -0.034552265 -0.22333626 0.1276217 -0.06406651
000240 86 4e 37 3d b8 f5 15 be a4 6e 8d 3b 80 0d 37 be
       0.04475262 -0.14644516 0.004316168 -0.17876244
000250 9a 91 51 3d 75 22 94 bb 7f 8a a9 3e 73 92 97 bd
       0.051164247 -0.004520709 0.33113477 -0.0740098
000260 e9 9b 34 be a1 ba 5a 3e 42 0f 75 be c6 ed f0 3b
       -0.176376 0.21360256 -0.23931602 0.0073525636
000270 8a 54 09 3e cc cf 19 3e 88 d1 1d be 55 c6 d8 3d
       0.13411155 0.15020674 -0.15411961 0.10584704
000280 0c 0b 8d 3e a0 9f aa bd 8a ac 63 be e8 0a 9f 3d
       0.2754749 -0.08331227 -0.22233787 0.07765752
000290 b6 3e 75 3e 35 ee 1b 3c d8 ce 12 be d0 e1 29 be
       0.23949704 0.009517242 -0.14336717 -0.16590047
0002a0 5c 05 c7 bc 59 78 4a be 38 72 02 3d 53 0b a4 bd
       -0.024294548 -0.19772471 0.03184721 -0.080099724
0002b0 5f 2e ba bd df 0f 12 3e 78 c4 8d bd 28 9d 28 3d
       -0.09090876 0.14263867 -0.06922239 0.0411655
0002c0 36 08 c3 bd ec f4 99 be fe cc cd bd 7b d0 0f 3d
       -0.095230505 -0.30069673 -0.10048865 0.03511093
0002d0 de e0 b6 be 65 d8 40 3e c5 e5 2d be 8b f6 08 3e
       -0.35718435 0.18832548 -0.16982181 0.13375299
0002e0 00 a7 86 3e 6f e4 a4 3d 8e d6 c4 bd c1 05 a2 3b
       0.26299286 0.08051383 -0.096112356 0.0049445336
0002f0 bf 18 88 be 23 3c 78 bd 63 ee 79 3e 57 96 44 be
       -0.2658138 -0.060604226 0.24407344 -0.19197975
000300 c4 a5 8d be 23 56 a3 3c dc 83 b9 3b 59 2e 17 be
       -0.27665532 0.019938534 0.005661471 -0.14763774
000310 a4 1a a1 be 7a 5e 0e 3e 2d a2 f0 3d a5 fa c8 bd
       -0.31465638 0.13903227 0.117496826 -0.09813432
000320 40 82 cf 3e 7d 16 e6 3d da 04 64 be ad d6 9b be
       0.4052906 0.11234758 -0.22267476 -0.30437222
000330 6e a6 78 bc 00 a7 a4 3c a3 ea 6a 3e 74 13 16 be
       -0.015176399 0.020099163 0.2294107 -0.14655858
000340 ac fa 68 be 8e 1d 06 bd c5 29 86 3e 4d 49 0d 3e
       -0.22751874 -0.03274303 0.26203743 0.13797493
000350 c7 df 76 bd 8f b3 8d 3e ab 0c bb 3e e3 99 57 bd
       -0.060272004 0.27676055 0.36533102 -0.052636992
000360 6d 14 8b be 7e 68 9b 3e 4f 05 62 bd 61 98 81 be
       -0.2716402 0.3035316 -0.055180844 -0.25311568
000370 d7 1d 9d 3d 72 5c 18 3d 61 46 8d be 42 bf 6a 3d
       0.07671707 0.037197538 -0.27592757 0.057311304
000380 08 06 8b 3d e4 ca c0 bd 90 0e 67 3e 33 dc e4 bd
       0.0678826 -0.09413698 0.22564149 -0.11174812
000390 30 49 bd 3d 1e b1 49 3e b1 b1 f1 3c 8d fa 62 3d
       0.09242475 0.19696471 0.029503675 0.055414725
0003a0 0a 2c 5b 3d 31 4b 59 bd db 58 8a 3d cb 39 a3 3d
       0.053508796 -0.053050224 0.06755229 0.079700075
0003b0 a4 24 ba 3d d0 43 b3 3c 39 5b 29 be 90 ae 08 3d
       0.0908902 0.021882921 -0.16538705 0.0333696
0003c0 66 4e 7a 3e 4b 6b 92 3d 96 91 91 bd 71 8b 4a bd
       0.24443969 0.07149371 -0.071078464 -0.049449388
0003d0 0c da a8 bd b5 99 c2 3d 95 98 7b be c8 43 cb 3b
       -0.08244714 0.095019735 -0.24569924 0.0062031485
0003e0 d5 b4 fa bd 38 3d 5c be b6 61 db 3d 20 50 fa bc
       -0.12241522 -0.21507728 0.10711996 -0.030555785
0003f0 4c 81 bc bc 63 c1 fe bd b1 78 f8 bc 0a c4 42 be
       -0.023010872 -0.12439229 -0.030330988 -0.19020095

mixture_net.mol_attn_layers.0.self_attn_layer.in_proj_bias f4 [96]
000000 91 b6 07 bd 2d e8 af 3c 97 7b 28 3d a9 41 c9 bb
       -0.033133093 0.021473015 0.04113349 -0.0061418605
000010 28 4b 98 bd 8a 78 fa 3d 83 63 2d be bf fe 9a 3c
       -0.0743621 0.12230022 -0.16932492 0.0189203
000020 e5 ae f4 bc a5 70 6b be 51 4e f5 bd 7b 02 b9 bd
       -0.029868552 -0.22992189 -0.11977828 -0.09033676
000030 31 a3 93 bd e0 03 b6 bd 52 10 59 3d d7 2c 3f 3e
       -0.07208861 -0.08887458 0.05299408 0.18669449
000040 55 7c 95 bc c3 bc c6 bc 01 77 39 bc 60 14 2e bd
       -0.018247763 -0.02425993 -0.011319877 -0.0424999
000050 a6 14 72 3d 9d f5 25 bd 51 de 9a 3d 88 6d 7e 3c
       0.059101723 -0.04051744 0.07561935 0.015529044
000060 40 c0 a5 3d 1b eb 16 3d 0e a6 73 bc fb 27 20 be
       0.080933094 0.036845308 -0.0148711335 -0.15640251
000070 9e 32 04 bd 0f 49 14 be 3d 9b 0c 3d 9e 92 9f 3d
       -0.032274835 -0.14480995 0.034327734 0.07791637
000080 83 b6 82 39 4e 29 e1 b8 ae 1f 92 b9 ed 06 87 b8
       0.00024931514 -0.0001073653 -0.00027870893 -6.438592e-05
000090 ce 3a 79 b9 c8 77 be 39 1c 1c 5d ba 17 f0 22 39
       -0.00023768397 0.00036328868 -0.00084346696 0.00015538964
0000a0 69 5c c5 b9 cc 9e 20 39 79 d4 d1 b9 74 7b b4 b9
       -0.0003764362 0.00015317946 -0.0004002189 -0.00034424255
0000b0 16 23 3f b9 0b 17 e2 3a e9 10 07 ba b1 c5 e2 ba
       -0.0001822825 0.0017249299 -0.0005152361 -0.0017301348
0000c0 f1 02 fe 3a 35 5a 81 3a 11 eb 32 ba f7 9f 59 3a
       0.0019379539 0.0009868803 -0.0006825189 0.00083017297
0000d0 31 7c 6e b9 55 4e ad 3a ac 23 27 ba 84 9d b3 b9
       -0.00022743714 0.0013222197 -0.000637586 -0.000342589
0000e0 52 73 23 3b 31 5a c0 39 3d db b6 ba ae f0 a9 bb
       0.0024940562 0.00036688292 -0.0013950836 -0.005186162
0000f0 04 9b 57 3a 0c 3d 77 3b 4a 7c a5 b9 fa 85 9e ba
       0.0008224698 0.0037725596 -0.00031563855 -0.0012094371
000100 c0 2b 3e 3c 8c 38 ae bc 13 ec 82 3a 3f 17 04 bd
       0.0116071105 -0.021267198 0.0009988568 -0.03224873
000110 de 33 ad bb 56 c0 16 bd 22 8d 95 3b 61 79 41 3a
       -0.005285724 -0.03680452 0.0045639435 0.00073804526
000120 da 7b b3 3c 38 84 aa 38 af c1 42 bc 29 1f bb bc
       0.021909643 8.130859e-05 -0.011886998 -0.022842007
000130 78 44 57 bd 53 a6 86 bc b9 fc 1f bc 72 26 2b bc
       -0.05255553 -0.016436731 -0.009764844 -0.010446178
000140 bd 78 0f 3d 4d b0 97 3b fd 8a ae bc c1 55 9e 3c
       0.035027254 0.004629171 -0.02130651 0.019328
000150 7f 6d 06 bc 2d d0 02 bc a1 3b 52 bb a0 a4 46 bc
       -0.008204817 -0.007984203 -0.0032078999 -0.012124211
000160 ca 58 e2 bb d2 8c 92 bc aa 20 23 3b dd 7e 54 3c
       -0.006907557 -0.017889414 0.0024891295 0.0129697
000170 3d d9 9a 3c a3 75 51 b8 19 79 95 3c d7 2a 90 bb
       0.018902415 -4.993904e-05 0.01824622 -0.004399638

mixture_net.mol_attn_layers.0.self_attn_layer.out_proj.weight f4 [32, 32]
000000 d4 6e af bd 00 b2 2c 3e 68 bc bc bd 97 c0 e8 bd
       -0.08566061 0.16864777 -0.09215623 -0.113648586
000010 06 2d d3 3d 33 87 df 3d 66 22 7e 3d 88 fb 03 3e
       0.10311322 0.10914459 0.062044524 0.1288892
000020 38 12 e1 b9 b1 ed 40 be a6 04 fc 3d 7c ca df 3d
       -0.00042928918 -0.18840672 0.12305574 0.10927293
000030 e2 84 00 be 0b b4 f4 3d 9c 5b 4d 3e 2f 97 1a bd
       -0.12550691 0.11948403 0.20054477 -0.037741836
000040 a3 fd b6 bd a0 3c 17 be c5 fa 4f 3e 56 2d 10 be
       -0.08935096 -0.1476922 0.20310505 -0.14079794
000050 f3 c0 76 3c e8 2a 29 3d 11 9b fa bc a4 8e e1 3d
       0.015060651 0.041300684 -0.03059152 0.11013535
000060 d0 53 35 be 38 77 b2 bd 2a c2 23 3e e7 f9 a3 bd
       -0.17707753 -0.087141454 0.15992036 -0.080066495
000070 65 97 d4 bd a0 d7 bb 3d dd 04 38 be 0f 23 05 3e
       -0.10380439 0.091719866 -0.17970605 0.13001655
000080 d9 81 27 3e db 1b 23 be 02 d0 c8 bd e6 87 44 be
       0.16358127 -0.15928595 -0.09805299 -0.19192466
000090 58 88 c1 3d 41 8f 2c be c4 1b 82 b7 52 24 7f be
       0.09449834 -0.16851522 -1.5510137e-05 -0.24916199
0000a0 ae d1 46 ba e2 c6 7d 3d f5 34 0b 3e 85 6a d1 bd
       -0.00075843453 0.061957248 0.1359442 -0.10225395
0000b0 37 2e d3 bd bd de d3 bd 41 b9 9d bd 02 a8 ec bd
       -0.10311549 -0.10345218 -0.0770135 -0.115554824
0000c0 a4 02 6a 3c 69 30 84 3d a2 9d 34 bd 6b d3 b6 bd
       0.014282856 0.06454546 -0.044095643 -0.089270435
0000d0 8c 8b 2e bd b7 1f f7 bc b9 03 6b 3d 06 19 ab bd
       -0.04261355 -0.03016649 0.057376597 -0.08354382
0000e0 08 2e 13 3e 84 98 9d b9 fe 5a ab bd 1a ec 4a 3e
       0.14373028 -0.00030059007 -0.08366965 0.19816628
0000f0 0f 0f ba 3d 53 c1 99 bd 3a ad 74 3d 40 77 13 bd
       0.090849034 -0.07507577 0.059735514 -0.036002398
000100 35 01 af 3d 24 c4 6b bd b7 1c 2e 3e 26 bd 36 bd
       0.08545152 -0.0575601 0.17003141 -0.04461398
000110 2d cc b0 bd 7f 3a 38 be 18 e7 26 3d df 10 95 bd
       -0.086326934 -0.17991064 0.040747732 -0.072786085
000120 c4 17 71 be f2 c2 d8 bb a8 08 98 bd 3c b9 0c bc
       -0.23544222 -0.006615036 -0.07423526 -0.008589085
000130 be d2 00 be 78 24 fe 3d 16 f4 17 be 33 78 01 bd
       -0.12580392 0.124092996 -0.14839205 -0.03160877
000140 a6 1f dc bd 21 4d 6a 3d 3f b1 47 bd df f2 83 3c
       -0.10748224 0.057202462 -0.04875302 0.01610702
000150 88 6a dc bd fe 4e 39 bc 13 94 80 bd a0 b1 0c 3d
       -0.10762507 -0.011310337 -0.06278243 0.034349084
000160 6b 98 0f 3e 7d 24 7c 3c 50 4b 17 3c 6f 8b f1 bd
       0.14022987 0.015389559 0.0092342645 -0.11794173
000170 32 90 b8 3d 51 4e 1e be 66 c4 00 be 11 d8 ec 3d
       0.09011878 -0.15459563 -0.1257492 0.11564649
000180 76 d9 4c bd c6 8c a7 bd 2f da 1e 3c 39 79 29 bd
       -0.050012074 -0.08181147 0.009695574 -0.041375373
000190 0a 50 33 bc 5c 33 55 3d 54 f1 38 3e 67 ec d8 3b
       -0.010944376 0.052050933 0.1806081 0.006619978
0001a0 ab 56 a3 bd a9 a6 1e be 12 03 bf bd 04 88 20 3e
       -0.07975515 -0.15493263 -0.093267575 0.15676886
0001b0 bd a5 29 bc d1 db e5 bd 5f 29 11 3e 84 b6 f4 3c
       -0.0103544565 -0.11223567 0.14175938 0.029872186
0001c0 9c 78 15 be 69 7c 88 bc f7 56 1c 3e be 86 a2 bd
       -0.1459679 -0.016660886 0.1526755 -0.07935856
0001d0 55 df 02 3d 04 49 5d 3d 16 9a ec bd 22 26 09 3e
       0.031951267 0.05402471 -0.11552827 0.13393453
0001e0 9f 1b f1 3d 69 5a a0 3c d5 8f 09 3e b3 e4 46 bb
       0.117728464 0.01957436 0.13433774 -0.0030348718
0001f0 8e 7e 23 bc 85 c3 d9 bd 36 55 89 bd 5a e1 e1 3d
       -0.009978903 -0.106329955 -0.06705706 0.110293105
000200 c6 a6 f1 bd b2 f3 14 bd 85 f4 16 be 16 46 4f 3d
       -0.11799388 -0.03636522 -0.14741714 0.05060395
000210 bd db 57 bc 18 cd 15 be de 0e 97 bd d5 9c 45 bd
       -0.013174948 -0.14629018 -0.073758826 -0.04824527
000220 9b 75 dc 3d 23 6b 5e bc 4e 13 e3 3d c5 67 e2 bd
       0.10764619 -0.013575348 0.110876665 -0.11054949
000230 7a b9 ad 3d eb 0e 59 be 11 45 b1 bc c1 f6 11 3d
       0.084826425 -0.21197097 -0.021639379 0.035635713
000240 28 ed b5 3b 64 b7 27 3e 12 d2 13 be 83 87 c9 bd
       0.005551953 0.16378552 -0.14435604 -0.098403
000250 25 e4 48 3e 18 eb 33 3e cd 1b 33 3e fb 14 0e be
       0.1961828 0.1757015 0.17491074 -0.13875191
000260 29 ba 02 be d0 ae c1 bd df 63 a0 bd d3 92 35 3e
       -0.12766327 -0.09457171 -0.07831549 0.1773179
000270 40 a8 49 be 6c a6 91 bd 35 48 37 3e 2c ce 48 be
       -0.19693089 -0.071118206 0.17898639 -0.19609898
000280 73 83 04 3e 0d 04 af 3d 28 64 2a be cb 29 2a bd
       0.12940769 0.085456945 -0.16639769 -0.041543763
000290 be 65 a3 3d 35 d8 4f 3c e9 85 3f 3e d7 a2 6c bd
       0.0797839 0.012685825 0.18703426 -0.057772484
0002a0 fc 84 98 bd 60 be c1 bd 2f 30 b5 bd f9 ec 7e bd
       -0.0744724 -0.09460139 -0.08847081 -0.062237713
0002b0 99 a8 94 3c 9c cb 26 3e 9a 41 c2 3b f0 5b fe bd
       0.0181468 0.16288608 0.0059282305 -0.124198794
0002c0 8c 4d a7 bd d9 2a a8 bd bf 64 e3 bc b2 cd c3 bc
       -0.08169088 -0.082112975 -0.027758 -0.023901794
0002d0 7d 5e d8 bc d3 c1 37 be a7 9d c4 bd 89 ff 53 3e
       -0.026412243 -0.17945032 -0.09600382 0.20702948
0002e0 0b c0 91 3d 2a a9 54 3d da 29 ae 3b cd 4a 52 bd
       0.071167074 0.05191914 0.0053150477 -0.051340867
0002f0 b4 49 18 bd 5a 0f dd bc 0b 3d 0e 3e bc 10 0b 3e
       -0.037179664 -0.02698486 0.13890474 0.13580602
000300 d6 41 27 bd b0 ff 0b be 94 c9 04 be 95 9b 81 bd
       -0.04083427 -0.13671756 -0.12967521 -0.06328503
000310 52 59 09 bd 50 88 2c 3b 2a ff 6b bd 35 2d e7 bb
       -0.033532448 0.0026326366 -0.05761639 -0.0070549496
000320 69 5d 08 3e bc 6c 8f 3d 01 ff 89 bc 2c e4 b5 bd
       0.13316883 0.07003161 -0.016845228 -0.08881411
000330 86 a7 9d bc 51 45 cc bd d4 0a 54 bc 7e ac c1 bc
       -0.01924492 -0.099741586 -0.012942035 -0.023641821
000340 b6 58 07 be 8b cb 17 bc e7 3b c5 bc 12 05 39 bd
       -0.13217434 -0.009264837 -0.024076415 -0.04517085
000350 12 61 51 3e a2 cc 0f be d5 5e 5b bd 46 ec f7 bd
       0.20447186 -0.14042905 -0.053557236 -0.121056125
000360 73 78 04 be b3 e5 7d be f2 cd 90 3d d2 7a d8 3d
       -0.12936573 -0.24794655 0.07070531 0.10570301
000370 dc 53 51 3e c3 0d e5 bc 73 9f 68 3e a0 bf c1 bd
       0.20442146 -0.027960664 0.22717075 -0.09460378
000380 b4 f4 c4 bd 18 65 4d 3c e8 2a 33 bd d9 a6 2f be
       -0.09616986 0.01253631 -0.04374209 -0.17153491
000390 23 c0 16 3d 7b 28 f9 bd eb f2 92 bc de 64 a0 3c
       0.03680433 -0.12165924 -0.017938098 0.019579347
0003a0 6d 82 41 3d 8a d5 d1 3d e7 54 be 3d 53 19 2a 3d
       0.047243524 0.102458075 0.092935376 0.041528057
0003b0 0c 1f 80 bd e1 34 a1 bc 1c 55 ba bc b1 43 ce bd
       -0.06255922 -0.019678535 -0.022745661 -0.10071505
0003c0 8d dc b0 3d ee 00 8a bd 75 5b 1a be 96 ec 45 be
       0.08635817 -0.067384586 -0.1507395 -0.19328532
0003d0 0c c4 0b 3e 67 2c cc bd c3 bd 5a bd ac 45 68 bd
       0.13649005 -0.099694066 -0.053403627 -0.05670707
0003e0 6f 4a 08 3d 32 c4 0a bd 8c 1b a3 bd 64 fb 1a 3d
       0.03327411 -0.033878513 -0.079642385 0.0378374
0003f0 b5 32 18 3e 81 72 c2 3d a9 be 9b bd 4c 9e 46 be
       0.14863093 0.09494496 -0.07604725 -0.19396323

mixture_net.mol_attn_layers.0.self_attn_layer.out_proj.bias f4 [32]
000000 87 83 a0 bb 4a e7 a1 3c 38 2e cb 3c bb 6b 91 bc
       -0.004898492 0.019763608 0.024802312 -0.017751565
000010 73 af 9e 3a ad 28 0c 3d 20 dc 23 b9 81 9c 09 3d
       0.0012106731 0.03421848 -0.00015626894 0.03359652
000020 f0 f6 e5 3c 1f bb 0a 3b f0 d2 a0 bc 3c 77 f3 3c
       0.02807185 0.0021168662 -0.019631833 0.029719941
000030 95 1a d3 3b bf 83 0d bc 52 b4 e6 3c e3 bb 6b 3c
       0.006442378 -0.008637368 0.028162155 0.014388057
000040 4c e5 b6 bc 69 c9 47 3c 26 fe e4 bb fb 50 8c bc
       -0.022326134 0.012194016 -0.0069883047 -0.017128458
000050 6f 73 56 bb 5d c5 3f bc 89 2b 95 bc 3a d0 92 3c
       -0.0032722612 -0.01170477 -0.018209236 0.017921556
000060 2c 43 b8 bc 73 9f 08 bd b3 1b 39 3a e5 91 05 3b
       -0.022492968 -0.033355188 0.00070613174 0.002038115
000070 90 64 e0 3b 9e 79 e6 3c 56 7f dc 3a e1 e3 9b bc
       0.0068479255 0.028134163 0.0016822617 -0.01902956

mixture_net.mol_attn_layers.0.addnorm1.norm.weight f4 [32]
000000 08 50 7e 3f 4a f9 7e 3f c4 0d 8d 3f 46 17 89 3f
       0.9934087 0.99599135 1.1019826 1.0710227
000010 ee 48 85 3f 83 19 76 3f 8f 49 85 3f d1 2b 88 3f
       1.0412881 0.9613268 1.0413073 1.0638372
000020 98 cb 80 3f 87 d7 80 3f 1c 8f 6f 3f 45 d7 86 3f
       1.0062132 1.0065774 0.9357774 1.0534445
000030 14 00 85 3f 54 d7 85 3f be de 7a 3f 0b 32 80 3f
       1.0390649 1.0456338 0.9799613 1.0015272
000040 94 8a 76 3f 91 83 8c 3f 1b df 80 3f e5 75 7f 3f
       0.96305203 1.0977651 1.0068086 0.9978927
000050 b4 82 83 3f 58 89 7f 3f cc 8d 81 3f df d0 78 3f
       1.0274262 0.99818945 1.0121398 0.9719371
000060 89 1f 79 3f 2f f1 83 3f 9c 54 80 3f db 53 80 3f
       0.97313744 1.0307978 1.0025821 1.0025591
000070 ee 89 79 3f 58 3e 82 3f 51 d0 79 3f 19 57 87 3f
       0.9747609 1.0175276 0.9758349 1.0573455

mixture_net.mol_attn_layers.0.addnorm1.norm.bias f4 [32]
000000 2d 55 fb ba 24 1d eb 3b 52 5b a5 bc 58 9d 97 bc
       -0.0019175165 0.0071751047 -0.020185146 -0.018507645
000010 ec 63 d7 3b 89 e0 b2 3c 59 ee 64 3c a3 9e 17 bc
       0.006573191 0.021835582 0.013972842 -0.009254131
000020 a6 9f e4 3c 7b 9d de 3b 34 4e 12 3c 96 40 d5 3c
       0.027908158 0.0067936755 0.008929778 0.026031774
000030 cc 07 a4 3c b0 f0 9c bc 94 8c 1c 3c d8 1d 98 3c
       0.02002325 -0.019157737 0.009555001 0.018568918
000040 bf 0f ce bc 49 9a c7 3c 3d f5 bb bc e3 ac 9f bc
       -0.025153993 0.024365561 -0.022944087 -0.019491618
000050 83 97 6d b9 d2 60 f4 bc 80 1c bd bb 4e b3 8c 3c
       -0.00022658524 -0.029831324 -0.0057712197 0.017175343
000060 f5 b6 c6 bc 7f 99 32 3a 62 85 9d bc 33 05 85 bc
       -0.024257163 0.0006813034 -0.019228641 -0.01623783
000070 4c 41 7e 3c c6 69 a0 3c f2 da 81 3b f5 cd a9 3c
       0.015518498 0.019581687 0.003962868 0.02072809

mixture_net.mol_attn_layers.0.ffn.layers.0.weight f4 [32, 32]
000000 ba 05 35 3d ca 23 2a be ce ab 30 3d 4f 30 01 3e
       0.044194914 -0.16615215 0.043132596 0.12616085
000010 08 7b 12 be 97 bc bf bb 20 9b 8d 3d f0 a3 18 3d
       -0.14304745 -0.005851339 0.06914353 0.037265718
000020 cd 19 df bc b5 e4 1b 3e 35 48 08 3e 03 b7 38 3d
       -0.027233982 0.15223964 0.13308795 0.04509641
000030 b5 48 05 be ab 7c 24 bd 36 d7 0f be 48 5b 11 be
       -0.13016017 -0.040157955 -0.1404694 -0.14194977
000040 d1 51 a0 3d 1e 82 a3 bc 05 43 c9 bc bd 55 7a bd
       0.07828105 -0.019959506 -0.02456809 -0.061116923
000050 71 59 16 3d 90 2e 84 3c cd 2f 5a 3d 89 5b f0 3d
       0.03670639 0.016135484 0.053268243 0.11736209
000060 95 d5 74 3d ab 01 24 3e c0 bf 5c bd 28 1f 26 3e
       0.059774 0.16016261 -0.053893805 0.16222823
000070 dd fa 13 bd b9 2b e4 bc c6 79 27 be 86 76 4b 3e
       -0.036127914 -0.02785288 -0.16355047 0.19869432
000080 ed c6 c3 bd 01 f7 fe 3d 3e 73 a6 bd cf da 3d be
       -0.095594265 0.12449456 -0.081274495 -0.185405
000090 76 e4 42 3e a0 46 1f bc cb 17 a6 3d f2 42 0a bd
       0.19032463 -0.009721428 0.08110007 -0.03375525
0000a0 28 53 b8 bb 40 f2 82 3d c6 5c e9 3c 70 b6 be bc
       -0.0056251474 0.06393862 0.02848662 -0.023280352
0000b0 b7 1a 20 bd 64 1f 0c 3e d3 53 23 3a 2e 5d 88 3d
       -0.039087977 0.1368385 0.00062304473 0.066583976
0000c0 14 bc 9c bc 91 42 e1 3d cd 77 1e 3e a5 f9 4d bc
       -0.019132651 0.10999025 0.15475388 -0.012571727
0000d0 c7 54 2d be ef 57 89 bd f3 50 a2 3e c7 29 d7 bd
       -0.16926871 -0.06706225 0.31702384 -0.10506015
0000e0 bc d7 8a 3c f1 e6 42 3d b7 36 c5 3d 4b 45 6b 3d
       0.016948573 0.047583524 0.09629577 0.05743913
0000f0 b8 3f c0 3b cc 86 e1 3d 99 a3 59 bd 9d ea 59 3e
       0.005866971 0.110120386 -0.053134535 0.21280904
000100 b5 42 07 3d d0 a9 09 bd a0 fc 0f 3e 93 d1 80 be
       0.0330226 -0.03360921 0.14061213 -0.25159892
000110 1d b0 0f be 1d 9f 0c 3e b3 8e af bb e6 f6 3c be
       -0.14032026 0.13732572 -0.0053575872 -0.1845356
000120 f7 60 7a 3d ed 66 d3 bd d9 34 15 bd 05 2b 4b 3d
       0.06112763 -0.10322366 -0.036427353 0.049601573
000130 00 bb 57 bd b3 cd 04 3e ef 2f 89 3e 8c 32 bd bd
       -0.05266857 0.12969093 0.26794383 -0.09238157
000140 0e e5 be 3d 81 29 2c 3e f2 6b d9 3d f9 a3 e3 bd
       0.093210325 0.16812707 0.10616292 -0.1111526
000150 77 33 80 3d ff d5 27 be 44 87 28 3d a0 26 b0 bd
       0.06259816 -0.16390227 0.041144624 -0.08601117
000160 ae 4a fe 3c 64 e2 f7 3c 1b a9 14 be 50 7d 04 be
       0.03104147 0.030259319 -0.14517634 -0.12938428
000170 c6 55 20 bd f8 3f fd bc d3 5c 7b 3d 17 1c b5 bc
       -0.0391443 -0.030914292 0.06136782 -0.02210812
000180 a1 fc fa bd 29 85 34 3e 46 50 e6 3d 27 d5 a7 3d
       -0.122552164 0.17628922 0.1124578 0.081949525
000190 4b d8 88 3d 13 68 bc 3c 8b 24 34 3e a6 f0 13 3e
       0.066818796 0.022998845 0.17592065 0.14447269
0001a0 27 bd 8e 3b ef 6e 02 be 60 c7 28 be ee 53 5c 3e
       0.004356045 -0.1273763 -0.16482306 0.21516392
0001b0 4a 05 a6 3d 34 dc 2a be 77 76 42 3d 10 c7 bb 3d
       0.081064776 -0.16685563 0.047476258 0.091688275
0001c0 ae 95 8b bd 9d da ae bd 8c 95 dc bd 7a ce b1 bb
       -0.068156585 -0.08537791 -0.10770711 -0.0054262253
0001d0 a9 dd 39 be a2 d3 ea bd 59 85 07 be af 20 91 bd
       -0.18150963 -0.11466147 -0.13234462 -0.07086312
0001e0 a3 ff 47 3e 9d cd 90 bc 56 61 06 be 2e 29 18 bd
       0.19531111 -0.017676169 -0.13123068 -0.037148647
0001f0 4c a4 a1 bd 96 dc fe bd 8b 15 72 bd 60 71 9d 3d
       -0.07892665 -0.12444417 -0.059102576 0.0768764
000200 f2 42 fe bb 92 96 c2 bc 5c 3e 53 3d 66 59 03 be
       -0.0077594453 -0.023753438 0.051573142 -0.12827072
000210 4f 4f 0b be 78 b6 aa bd 94 6d 68 3e 66 2f d4 bd
       -0.13604473 -0.083355844 0.2269805 -0.10360603
000220 f7 fe b0 bd d2 e6 af bc 72 26 cc 3d bb b5 a0 bb
       -0.08642381 -0.021472368 0.0996827 -0.0049044765
000230 b5 99 2e 3e fe 63 8a 3d cb f7 b7 3d 51 9c d9 3c
       0.17050822 0.06757353 0.0898281 0.026563795
000240 ff a5 25 bd 9d 62 c5 3c 90 27 aa 3d ba e5 2c be
       -0.04044151 0.024094874 0.08308327 -0.16884509
000250 ae f2 92 3d 7e c3 01 3e 05 8a 4d 3d 3a f1 48 3d
       0.07175194 0.1267223 0.050180454 0.049058177
000260 00 bb e6 bc 97 c6 2b bd 6d 60 6d 3d 5e 63 ee 3d
       -0.02816534 -0.041937437 0.057953287 0.116400465
000270 f7 f8 9d 3d 41 6b 52 bc b3 da 6d 3d bd 2b fc bd
       0.07713502 -0.012842954 0.058069896 -0.1231303
000280 53 22 12 3e 65 b7 21 3e 0d 9f b8 bc 22 4f 33 3e
       0.14270906 0.15792616 -0.022536779 0.17510656
000290 8a 7c 45 be b0 f7 26 be c1 37 71 3d 7e e6 de bd
       -0.19285789 -0.16305423 0.05889106 -0.10883807
0002a0 01 c1 0a bd 4c e0 f2 bd 22 ff 39 3e 20 67 5c 3d
       -0.03387547 -0.118591875 0.18163732 0.053809285
0002b0 69 3b cb bc 75 b6 eb bd 29 b8 c4 3d 94 f5 98 bd
       -0.024808602 -0.1150941 0.09605438 -0.07468715
0002c0 0c c4 b7 3d 15 f0 40 bd a2 a3 07 3e 02 25 66 3d
       0.0897294 -0.04710396 0.13246015 0.056187637
0002d0 f4 50 f8 bc 6d 8b 3b 3e 10 5c 34 bc d1 ba 1e 3e
       -0.030312039 0.18314905 -0.011008278 0.15500952
0002e0 55 cd 54 3e 6a 8f 55 3e e0 8d cb bc 15 6b 23 3d
       0.20781453 0.2085549 -0.024847925 0.039897043
0002f0 8b b6 d2 3d 31 2f fb bd 37 89 d2 bd 89 70 c8 3d
       0.102887236 -0.122648604 -0.10280078 0.097870894
000300 97 bf 07 3d 9d e5 af 3d 91 13 16 be 7c 91 1d be
       0.0331417 0.08588717 -0.14655901 -0.15387529
000310 98 59 96 3d 8f 6a 75 3e ab 08 70 3e dd 91 ed bd
       0.073413074 0.2396643 0.23440807 -0.11600087
000320 a7 07 86 3e 70 ea 54 3e 44 a6 ba 3d 9e 23 f9 bd
       0.26177713 0.20792556 0.09113744 -0.121649966
000330 e9 78 8b bd 9e d3 58 be c6 6f 06 be 31 fc ae 3d
       -0.06810171 -0.21174476 -0.13128576 0.085441954
000340 ef 92 38 be 2a 96 17 3e 72 58 4d 3e c0 61 30 be
       -0.180248 0.14803377 0.2005327 -0.17224789
000350 fe fd 38 bd 02 96 21 be 60 1c 57 3d dd 5b 2d bd
       -0.0451641 -0.1577988 0.052517295 -0.042323936
000360 01 ad a6 be 62 5b 88 bd 17 2d d5 3d d1 b9 12 3d
       -0.32553867 -0.06658055 0.10408991 0.03582174
000370 f7 a3 35 3e 44 7e b9 3d 6f 3c 9e 3e 93 5c 56 3e
       0.17738329 0.090572864 0.30905482 0.20933752
000380 61 0c a1 3d 6f e4 a7 bd 8d 23 94 be d1 db 4f be
       0.07863689 -0.08197867 -0.28933373 -0.20298697
000390 98 65 26 3e 85 04 1b 3d d5 e8 20 3e 94 88 89 bd
       0.16249692 0.037846107 0.15713818 -0.06715503
0003a0 e4 38 19 be d4 f2 28 be fa 24 01 be a5 e2 c0 bd
       -0.14963108 -0.16498882 -0.12611762 -0.09418229
0003b0 be 8c 26 3e 5c 00 2f 3e cb c7 95 bd be 9f 22 3e
       0.16264626 0.17089981 -0.07313498 0.1588125
0003c0 b2 6a 89 3b cd 7c bc 3d 54 68 37 3d 49 59 cf 39
       0.0041936273 0.09203491 0.04477723 0.0003954864
0003d0 7a 3b 38 bb 39 73 58 be 53 fd f6 3d ea c9 1f bd
       -0.0028111623 -0.21137704 0.120600365 -0.03901092
0003e0 eb 75 ca bd 1c f4 b5 bd e6 9b aa 3e 72 87 42 3e
       -0.09885772 -0.08884451 0.33322066 0.18996981
0003f0 68 1f 66 3e 1d ab 11 be eb aa 7b 3d fd 4f 78 3d
       0.22472918 -0.14225431 0.061442297 0.060623158

mixture_net.mol_attn_layers.0.ffn.layers.0.bias f4 [32]
000000 0f 6b ae 3d fc b9 97 3d 7d 59 1f 3e 7c d4 af bb
       0.085165136 0.074085206 0.15561481 -0.0053659063
000010 10 5d a0 3d ff a0 98 bd 99 8b 0a be 17 fb f3 bc
       0.0783025 -0.074525826 -0.13529815 -0.029782815
000020 ee 60 1c bc f8 82 11 3e 1c 4b ee 3d f6 b1 32 3c
       -0.009544594 0.14210117 0.1163542 0.010906687
000030 b6 b8 cd 3c f1 79 06 be 6d 00 21 3d 03 40 11 be
       0.025112491 -0.13132454 0.039307047 -0.14184575
000040 23 fc 15 3e 8a 77 86 bc 63 d4 2b be 03 fb 86 bd
       0.14646964 -0.016414423 -0.16780238 -0.065908454
000050 fe 34 85 bd e2 9e e1 3d d4 eb a5 3d 8e 82 0a 3e
       -0.06504248 0.110166326 0.08101621 0.13526365
000060 76 13 e6 bd 86 ac e1 bd e5 9f 0c 3d 6f 7f f6 3c
       -0.11234181 -0.11019234 0.034332175 0.030090062
000070 c3 70 ea 3d 5e 7c 0e 3e b6 e5 46 be 64 9e 13 3d
       0.11447289 0.1391463 -0.19423565 0.036039725

mixture_net.mol_attn_layers.0.ffn.layers.2.weight f4 [32, 32]
000000 d1 2b 6c bb a7 06 d9 bc a4 bd f3 bb 38 29 88 be
       -0.0036036859 -0.02649243 -0.0074383784 -0.26593947
000010 5e 0b fe 3c bb 30 f8 bd c7 5c 8b 3c 2e e7 a5 3d
       0.03101128 -0.121186696 0.017012013 0.08100735
000020 32 6e a2 3d 84 b4 32 be d5 23 53 bd ff 90 39 be
       0.07931174 -0.17451674 -0.051547844 -0.18121718
000030 27 c0 fa 3d dc 89 1e 3e 69 8c 20 be 7e 5e 2c bc
       0.122436814 0.15482277 -0.15678562 -0.010520576
000040 ea 30 1e be 75 86 93 bd be fd 06 be a2 7a a9 bd
       -0.15448347 -0.0720338 -0.13182732 -0.082753435
000050 df b5 e6 3d 7a 98 a8 3d 66 aa be bd d7 8e 7e 3d
       0.11265158 0.082322076 -0.09309845 0.06214794
000060 14 cb e7 3d eb 18 a5 3d fc 34 7b 3d 3c f7 30 be
       0.11318031 0.08061393 0.061329827 -0.17281812
000070 af 73 c6 bd 16 69 81 bd fd d3 33 be 1a 06 52 be
       -0.09690034 -0.06318872 -0.17561336 -0.2051014
000080 f9 d5 6b 3d d3 a4 91 3c cd 82 10 be 40 32 28 3e
       0.057577107 0.01777879 -0.14112397 0.16425419
000090 43 0b 04 be 73 ff c5 bc 7e cb 02 3e 27 1b 05 3e
       -0.12894921 -0.02416966 0.12772939 0.12998639
0000a0 28 23 48 3c 9a 43 3d 3e 83 9b cf 3d 98 63 94 3d
       0.012215413 0.18482819 0.101370834 0.072455585
0000b0 eb ef 0d 3d 0a 27 ac 3d e1 b3 5f 3e d0 c9 67 be
       0.03465263 0.084058836 0.21845962 -0.22635579
0000c0 92 d3 08 be 7a c1 3c 3e 2a 1b c0 bd 4f 19 2e bd
       -0.13361958 0.1843318 -0.09380181 -0.042504605
0000d0 df f9 2d bc 18 cc 6a bd f8 99 ac bd 73 a1 10 3e
       -0.010618656 -0.057323545 -0.08427805 0.14124088
0000e0 39 28 d3 3c 9f 9a dd 3d 0e 82 04 bc bc 89 aa 3d
       0.025776016 0.10820507 -0.008087648 0.08327052
0000f0 aa a9 05 3e ea 3c 27 3e 80 23 71 3e 26 d6 d5 bc
       0.13053003 0.1633183 0.23548698 -0.02610309
000100 d5 00 74 bd dc e9 8f bd a6 fd bd 3c f7 24 2d be
       -0.059571106 -0.07027027 0.023192238 -0.16908632
000110 b3 14 2a bc d0 75 3c 3e b4 29 d1 bd 25 41 83 be
       -0.010380912 0.18404317 -0.10213032 -0.2563564
000120 07 df 44 3d 43 6a 2f be 27 67 72 3c 3d ba ba bc
       0.048064258 -0.1713038 0.014795101 -0.022793883
000130 3a 93 89 bd a9 f7 f9 bb 0d 7d 01 be 1b 10 63 3c
       -0.06717534 -0.0076284003 -0.1264536 0.01385882
000140 a1 8e 52 be 6d 84 dc bd 00 a8 b7 bd 1b 57 12 3d
       -0.20562221 -0.10767446 -0.0896759 0.0357276
000150 84 db fb 3c 05 29 6d bc 4c 89 86 3d 9c 40 c5 bd
       0.030744322 -0.014475112 0.06569156 -0.09631464
000160 90 02 40 bd 36 24 c4 bd d2 e3 e9 3d 11 4d 02 3e
       -0.046877444 -0.09577219 0.114204064 0.12724711
000170 26 21 ac bd 49 24 a0 bd 82 9f c2 bd 01 62 2f be
       -0.0840476 -0.07819421 -0.0950308 -0.1712723
000180 b1 bb 25 be 7f 1b 06 be 8a 2a 07 be 55 38 aa bd
       -0.1618488 -0.13096426 -0.13199821 -0.08311526
000190 ac 63 ea 3a c9 be 6c bd 54 86 5d bb 73 33 68 3c
       0.0017882488 -0.057799134 -0.003380199 0.014172423
0001a0 dd 79 a1 3b 43 24 43 be 9d 16 3c 3e 8a 4b 5c 3e
       0.0049278573 -0.19056801 0.18368001 0.21513191
0001b0 e4 20 02 be ef 53 39 be f7 db 0c 3e 15 7e 42 be
       -0.1270786 -0.18098424 0.13755785 -0.18993409
0001c0 20 d1 bd bc 9e e9 83 bc ac 4b 6d 3d 26 97 38 3e
       -0.023171008 -0.016102608 0.057933494 0.18026409
0001d0 96 8c 85 3d 77 34 00 be 35 ad 83 bc 5e 73 99 bc
       0.06520955 -0.12520014 -0.016073802 -0.01873177
0001e0 e8 35 75 bd 3e 3e 6b bd 98 2b 66 3d 25 b3 e7 bd
       -0.059865862 -0.057432406 0.056193918 -0.11313466
0001f0 84 c2 bf bd d9 6c 82 3d 9f 6f 82 3d 95 6a 61 be
       -0.09363273 0.06368417 0.06368946 -0.22013314
000200 54 a3 d3 bd 72 58 f3 3d e6 f0 59 bd 9b e9 d2 bc
       -0.10333887 0.11882104 -0.053208254 -0.025746157
000210 7d ac dd bd e1 df a2 3d 7e d5 fa 3d a6 22 29 3e
       -0.10823915 0.07952858 0.12247752 0.16517124
000220 37 23 fa bc 74 71 4c 3e 94 03 1e be 5b 8a a4 bd
       -0.03053437 0.19965154 -0.15431052 -0.08034202
000230 15 d0 f2 3d bf ba 7d bc 21 74 8b bd d5 44 e5 bd
       0.11856095 -0.015486418 -0.06809259 -0.11194769
000240 cd 53 92 ba 2b 1e fa bd d0 14 ff 3b f2 78 02 be
       -0.0011163891 -0.12212785 0.0077844635 -0.1274145
000250 d2 8f d5 bd 64 48 85 bd 5b 60 22 be ae dd 2d 3e
       -0.10427822 -0.06507948 -0.15857069 0.16979095
000260 23 5c 15 3e 28 da c0 bd 7f 30 84 be a4 3c 12 3e
       0.14585929 -0.0941661 -0.2581825 0.14280945
000270 e9 26 54 be 58 64 34 3e ef fd 5a 3d df 81 40 3e
       -0.20717968 0.17616403 0.053464826 0.18799542
000280 d5 32 bf bd aa 2a 7a 3d 52 ce e4 bd e6 4a 56 bc
       -0.09335867 0.061075844 -0.11172165 -0.013079381
000290 96 26 27 be e9 20 0e 3c 4d 85 6f 3e 67 53 87 be
       -0.16323313 0.008674839 0.23390694 -0.26430818
0002a0 eb 94 36 3e 0c 81 03 3c d3 f5 a9 3d 62 bd 73 3e
       0.17830245 0.008026373 0.082988404 0.23802713
0002b0 d2 1b 27 be c1 56 86 3d c3 ac 02 3e 31 14 6d be
       -0.16319206 0.06559516 0.12761216 -0.23152234
0002c0 e6 cd 69 bd ab 50 62 3d af 6c 3e 3d c1 53 3b 3e
       -0.057081126 0.055252712 0.046490368 0.18293668
0002d0 84 0a f9 3d 31 a3 dd 3d 01 ab e6 bd b9 aa a5 3d
       0.12160209 0.10822142 -0.11263085 0.080892034
0002e0 0a 3b 65 be ee 33 54 3e 07 73 da 3d 62 c1 9d bd
       -0.22385803 0.20722935 0.10666471 -0.077029005
0002f0 68 a8 5e 3d d0 f9 dd 3d 8a eb bf bd e0 dd e5 bd
       0.054359823 0.108386636 -0.093710974 -0.1122396
000300 2e e1 01 be 8a f5 44 3d 59 36 d1 bd 6c e1 88 bd
       -0.12683555 0.048085727 -0.10215444 -0.06683621
000310 94 8d 24 be f3 1c 28 3c 5f e2 97 bd f2 d7 92 3d
       -0.16069633 0.010260808 -0.07416224 0.071700945
000320 da 73 f1 3d 12 20 07 be 5a 5a c6 bc d7 46 ef 3c
       0.11789675 -0.13195828 -0.024213005 0.029208584
000330 1d 89 f9 bb 02 ec 1c 3e d4 df 27 3e 8d 1c a0 bd
       -0.007615222 0.15324405 0.16393977 -0.07817946
000340 18 91 e7 bc bd 39 ad 3d e6 c4 82 3b 1a 61 bf 3d
       -0.028267428 0.08458278 0.0039907573 0.093446925
000350 c6 bc 65 bd 1f eb 29 be 49 57 16 be 4f f3 9b 3b
       -0.05608823 -0.16593598 -0.14681734 0.0047592293
000360 b0 3f d9 3d 41 f3 2b be 57 27 5a be 91 40 28 be
       0.106078506 -0.16792013 -0.2130407 -0.1643088
000370 2b 72 2c bc ef a2 33 3e 29 67 88 3e a5 c3 44 3d
       -0.010525267 0.17542623 0.26641205 0.048038144
000380 77 cd 1f bd 53 15 83 3e 61 fb a7 bd 3f 65 a8 3c
       -0.039014306 0.25602207 -0.082022436 0.02055609
000390 83 86 c0 bd 3d 70 17 3e 96 50 c5 bd 85 b6 9b 3e
       -0.09400656 0.1478891 -0.09634511 0.3041269
0003a0 3f ca 20 3e fb 69 7b 3e d0 e4 3c be e3 d5 13 be
       0.15702151 0.24552147 -0.1844666 -0.1443706
0003b0 dd ab 20 be 62 9c 64 bd 5d 24 ed bc c4 2d e5 bd
       -0.1569056 -0.0558132 -0.028948003 -0.1119037
0003c0 0e c7 c1 bd 6c 17 00 be 67 1a ee bc fc 1c b1 bd
       -0.09461795 -0.12508935 -0.029065324 -0.086481065
0003d0 5a 1e bf bc 57 99 ef 3d e4 7a 88 bd f3 d4 bf 3d
       -0.023329902 0.11699169 -0.066640645 0.09366789
0003e0 b5 ac 4a 3e cb a8 98 bd 52 57 f0 bb d8 c9 56 3e
       0.19792445 -0.0745407 -0.007334628 0.20975435
0003f0 ae 20 2e be 76 d7 a9 bc 0c 48 19 be b1 7b 13 bd
       -0.17004654 -0.020732623 -0.1496889 -0.036006633

mixture_net.mol_attn_layers.0.ffn.layers.2.bias f4 [32]
000000 92 70 fd 3d b0 0b 10 bd 6e 89 e7 3d fc 9c d7 3d
       0.12374987 -0.035167396 0.113055095 0.10527989
000010 14 25 19 3d 60 86 f3 3d c7 5a ce 3d 57 1e 05 3e
       0.037388876 0.11890864 0.10075908 0.12999855
000020 c2 7b 0a 3e 5d 5e 1a be 4b 74 94 bd 45 dc 82 bd
       0.13523772 -0.15075059 -0.072487436 -0.06389669
000030 ea 0f 9c 3d a8 b1 07 bd d7 b5 12 be bf e6 f3 bd
       0.07620223 -0.03312841 -0.14327179 -0.11909246
000040 2c 5a 07 3e 69 25 b0 3d aa 73 54 3d 3c ab b9 3d
       0.13217992 0.086008854 0.05186812 0.090658635
000050 3d 7a bd bd 78 76 f0 3c 5c 5a e2 bd 22 a9 81 3d
       -0.09251831 0.029353365 -0.11052391 0.06331088
000060 bf 9f 42 3d be 8f 01 3e e4 22 1c bc c3 f9 ba bd
       0.047515627 0.1265249 -0.009529803 -0.091296695
000070 d0 1b db 3c 14 f1 f5 bc c7 50 7f 3b 7f b5 db bd
       0.02674666 -0.030022182 0.003895806 -0.10727977

mixture_net.mol_attn_layers.0.addnorm2.norm.weight f4 [32]
000000 5b 6d 83 3f a0 a1 83 3f 8a 6b 88 3f 2f 66 87 3f
       1.0267748 1.0283699 1.0657818 1.0578059
000010 d7 96 88 3f 30 3e 82 3f 60 ea 86 3f 82 32 8e 3f
       1.0671033 1.0175228 1.0540276 1.1109164
000020 cf c7 84 3f b6 24 81 3f 4e 54 80 3f 76 46 85 3f
       1.0373477 1.0089328 1.0025728 1.0412128
000030 35 89 82 3f f1 7f 8b 3f 31 31 78 3f 77 2d 84 3f
       1.0198122 1.089842 0.9695006 1.0326375
000040 52 ee 81 3f 92 69 8e 3f ab 26 88 3f 60 b9 80 3f
       1.0150855 1.1125968 1.06368 1.0056572
000050 b8 8b 87 3f 0c b5 81 3f 20 cc 81 3f ca 47 80 3f
       1.0589514 1.0133376 1.0140419 1.0021908
000060 7f ad 7a 3f 0a f1 8d 3f ea ba 82 3f bd 58 84 3f
       0.97920984 1.1089184 1.0213292 1.0339581
000070 e9 01 7f 3f 98 95 91 3f 05 14 7b 3f 6f 8e 86 3f
       0.9961229 1.1373777 0.9807742 1.0512217

mixture_net.mol_attn_layers.0.addnorm2.norm.bias f4 [32]
000000 2a 42 69 3c 05 7a 43 3c 7e 25 66 bc 7d 8f 2d bd
       0.014236966 0.011930947 -0.014047025 -0.04237317
000010 6a 77 2d 39 ee 0f 81 3c 86 77 2b bb 21 65 94 3b
       0.00016543051 0.015754666 -0.002616377 0.004528657
000020 0f 3d 83 3c 0c 2b fb bb 45 46 a2 3c 8c 97 ba 3c
       0.016020326 -0.0076650437 0.019808898 0.022777341
000030 89 8c 3b 3c d2 33 8c bc ce 47 48 3b e5 5f 86 3c
       0.01144708 -0.017114554 0.0030560377 0.016403148
000040 fd 3c 37 bc c3 0d 52 3c 1a 9b 09 bc f9 58 cd bc
       -0.011183974 0.012820664 -0.0083987955 -0.02506684
000050 55 cf a9 ba f7 09 d3 bc 4f ba 0e bc 97 bf b7 3c
       -0.0012955467 -0.025761588 -0.008711412 0.022430224
000060 d7 66 5c bb f5 bf ec 3a 07 81 43 bc d0 48 7d bb
       -0.0033630633 0.0018062579 -0.011932618 -0.0038648136
000070 74 1d cc 3b ce bc f6 3b c6 72 30 3c 08 f9 47 3c
       0.006229097 0.0075298315 0.010769552 0.01220537
