scripts_chemix/results/chemix_ensemble/top5/chemix.pt (torch, 329370 bytes, 29 tensors)

input_net.weight f4 [64, 196]
0.044382542 0.02455103 0.06732786 0.009595487 -0.0072644646 -0.043884322 -0.077743255 0.01319848
0.010092546 0.028141236 -0.06360277 0.12385575 0.06421051 -0.06658679 -0.08656757 -0.0035051457
-0.03213675 0.06203792 0.08331254 -0.017412493 -0.07724967 -0.029153286 0.07027206 -0.001286615
-0.031043986 0.060651805 0.046063475 0.00285674 -0.07313702 -0.008341429 -0.04361399 0.036522657
-0.011727347 0.059291877 0.051775426 -0.047626976 -0.029562963 -0.014974423 -0.006355651 -0.012020794
-0.01791594 0.004706043 -0.06749278 -0.0497366 0.060006805 -0.0057468 -0.044959567 0.060555495
0.007196377 -0.05683001 0.0148078 0.0064825932 0.0004207233 0.011999715 0.007500351 -0.025877062
0.017012501 -0.023370722 -0.013767665 0.045476966 -0.06999125 0.021429705 -0.0108328 -0.01700559
-0.00093638105 -0.013969735 -0.07296496 0.051932666 0.02371833 0.0030376958 0.06573363 0.0039859563
-0.0025506925 -0.028469268 -0.04308936 0.013193924 0.024409855 0.016162455 0.06368462 0.023291815
-0.018250704 0.043238394 0.05185705 0.06118776 0.037752792 0.012602842 0.073558874 0.025868537
-0.05109077 0.036237024 -0.09326769 0.00015491054 0.08097074 0.051296283 -0.071289055 -0.022654675
-0.067807525 -0.03172794 -0.046965133 -0.028237576 -0.04035871 -0.064169206 0.027114147 0.06893248
0.02435995 0.088587545 -0.039254807 0.058305204 0.07544373 0.0963092 0.02501766 0.06217658
0.020907251 -0.057989206 -0.07690422 0.008473127 0.072871536 0.054987725 0.05687655 -0.031815205
-0.027959907 0.041493975 0.05599418 0.008105401 -0.024980955 0.06687461 0.09794433 -0.07330678
0.05332717 0.04047252 -0.0055451957 -0.026900407 -0.028544433 0.026094748 -0.05574362 -0.06657227
0.0069979955 -0.03998349 -0.054845907 -0.009696466 -0.032928485 0.02434364 0.04060404 -0.08921454
-0.005918776 -0.01625867 0.059953403 0.002541475 -0.07985694 0.039083872 -0.088021316 0.0032659133
-0.05886762 -0.039641306 -0.016278675 0.062487654 0.080526926 0.09890662 0.026991632 -0.04917607
-0.00720328 -0.020240001 -0.06890357 0.044526234 0.0726042 -0.051751897 0.009480013 -0.037861653
-0.04372802 -0.027848648 -0.018056469 -0.040761746 -0.013851764 0.018050574 -0.065272756 -0.07234319
0.058761932 0.048036907 0.04636816 -0.02043179 -0.0657241 -0.030397834 0.065445065 -0.014561025
0.036062207 -0.021027733 -0.056367513 -0.04399112 0.078072794 0.030628283 0.052905146 -0.01788556
0.049398854 -0.012258345 0.043902155 -0.035322085 -0.021170126 0.08643679 0.009525289 0.0019979523
-0.021317512 0.026376488 -0.055213995 0.061679926 -0.024125895 -0.028845612 0.07131203 0.004232806
0.025368707 -0.00024538542 0.014144538 0.033167917 0.009953636 0.026823545 -0.0907301 -0.0530903
-0.09667256 -0.047264457 -0.04401266 0.050456543 -0.008861604 0.037502065 -0.0041060685 -0.039033514
0.039410196 0.04501116 -0.076612994 0.0015762292 -0.00022211952 0.055292726 -0.042728253 -0.05385132
-0.007472921 0.03259237 -0.05167471 0.07895916 0.063456565 -0.054898813 -0.07891302 0.028584445
0.038194016 0.029359257 0.088589616 -0.03461138 0.088159695 -0.04133557 -0.03575845 -0.00026355454
0.10359524 0.06198637 -0.08337201 0.09041129 -0.06086622 -0.06542611 0.021533933 0.007516012
00000000: 78ca 353d 3e1f c93c 30e3 893d 6436 1d3c
00000010: bf0a eebb 0cc0 33bd db37 9fbd 703e 583c
00000020: 355b 253c 7388 e63c 2b42 82bd 15a8 fd3d
00000030: cd80 833d a85e 88bd 574a b1bd 96b6 65bb
00000040: d3a1 03bd 791b 7e3d c49f aa3d a5a4 8ebc
00000050: 1335 9ebd dfd2 eebc ccea 8f3d a3a3 a8ba
00000060: f54f febc 076e 783d 0ead 3c3d 2538 3b3b
00000070: ddc8 95bd 7daa 08bc 95a4 32bd c898 153d
00000080: 0f24 40bc 0adc 723d 7812 543d 8114 43bd
00000090: 072e f2bc 4857 75bc 1143 d0bb ddf2 44bc
000000a0: 73c4 92bc 2635 9a3b a839 8abd 9bb8 4bbd
000000b0: b2c9 753d a74f bcbb 8627 38bd 0a09 783d
000000c0: 96cf eb3b 96c6 68bd 6a9c 723c ef6b d43b
000000d0: 8794 dc39 749a 443c 81c5 f53b 22fc d3bc
000000e0: cd5d 8b3c f573 bfbc c691 61bc 0e46 3a3d
000000f0: 9357 8fbd 598d af3c 0e7c 31bc 4f4f 8bbc
00000100: 7877 75ba 51e1 64bc a76e 95bd 59b7 543d
00000110: f14c c23c 1414 473b 5a9f 863d a09c 823b
00000120: 8529 27bb 6238 e9bc 787e 30bd 542b 583c
00000130: 2df7 c73c 2067 843c 156d 823d 7ace be3c
00000140: 8082 95bc be1a 313d 0f68 543d 04a0 7a3d
00000150: aca2 1a3d 277c 4e3c 09a6 963d 41ea d33c
00000160: 8e44 51bd 466d 143d 2103 bfbd 7b6f 2239
00000170: fdd3 a53d 0d1c 523d ffff 91bd 4c96 b9bc
00000180: acde 8abd 28f5 01bd 835e 40bd 7d52 e7bc
00000190: 2d4f 25bd 256b 83bd 7d1e de3c 792c 8d3d
000001a0: 858e c73c 636d b53d a6c9 20bd 70d1 6e3d
000001b0: 3e82 9a3d c23d c53d d6f1 cc3c dfac 7e3d
000001c0: af45 ab3c 1786 6dbd f67f 9dbd dfd2 0a3c
000001d0: ac3d 953d cf3a 613d 63f7 683d a950 02bd
000001e0: 2d0c e5bc 96f5 293d 275a 653d 84cc 043c
000001f0: dca4 ccbc 8ef5 883d 0997 c83d dd21 96bd
00000200: 976d 5a3d 83c6 253d 79b4 b5bb 3e5e dcbc
00000210: 04d6 e9bc a7c4 d53c 6c53 64bd 0b57 88bd
00000220: 714f e53b bac5 23bd 1aa6 60bd eddd 1ebc
00000230: 05e0 06bd 506c c73c 6c50 263d 1db6 b6bd
00000240: 4bf2 c1bb e730 85bc b391 753d e08e 263b
00000250: 098c a3bd 6916 203d 8544 b4bd ef08 563b
00000260: 2c1f 71bd ec5e 22bd db5a 85bc 0ef3 7f3d
00000270: 4deb a43d 8e8f ca3d 8e1d dd3c d96c 49bd
00000280: 7e09 ecbb 5cce a5bc 511d 8dbd 2461 363d
00000290: 83b1 943d ccf9 53bd 0e52 1b3c d214 1bbd
000002a0: 271c 33bd d922 e4bc 29eb 93bc caf5 26bd
000002b0: 82f2 62bc ccde 933c b9ad 85bd ab28 94bd
000002c0: 5ab0 703d 59c2 443d 8aec 3d3d 9260 a7bc
000002d0: 5b9a 86bd e104 f9bc 1008 863d 5e91 6ebc
000002e0: f7b5 133d 5a42 acbc 9fe1 66bd 0830 34bd
000002f0: a1e4 9f3d 2ae8 fa3c 11b3 583d bd84 92bc
00000300: 7456 4a3d 3ad7 48bc bfd2 333d e4ad 10bd
00000310: f96c adbc c605 b13d f50f 1c3c 14f0 023b
00000320: 10a2 aebc 8113 d83c 1228 62bd 17a4 7c3d
00000330: aba3 c5bc a24d ecbc 0b0c 923d 5ab3 8a3b
00000340: 09d2 cf3c 13a7 80b9 7ebe 673c 15db 073d
00000350: 9314 233c 0dbd db3c b4d0 b9bd 3775 59bd
00000360: 43fc c5bd 6098 41bd 9e46 34bd 85ab 4e3d
00000370: 4330 11bc c49b 193d 338c 86bb 9be1 1fbd
00000380: 966c 213d 9f5d 383d 46e7 9cbd 7a99 ce3a
00000390: c1e8 68b9 a07a 623d d203 2fbd 3493 5cbd
000003a0: 68df f4bb 947f 053d dca8 53bd 57b5 a13d
000003b0: 84f5 813d 94dd 60bd 269d a1bd ed29 ea3c
000003c0: 5471 1c3d d382 f03c 796e b53d aac4 0dbd
000003d0: 128d b43d 7d4f 29bd 7477 12bd b12d 8ab9
000003e0: be29 d43d 6be5 7d3d f2be aabd 8e29 b93d
000003f0: dc4e 79bd 20fe 85bd ee67 b03c e148 f63b

input_net.bias f4 [64]
-0.06812346 0.05823266 -0.022535643 -0.047459446 -0.021788599 0.040595777 -0.06843706 0.043917228
-0.006978264 -0.05297008 -0.03205753 0.0149750635 -0.010139259 -0.019164985 -0.02584299 -0.037403353
0.052116834 0.032748483 -0.063228376 0.025214555 -0.023576241 -0.06530602 0.024718842 0.00022819037
-0.0033425926 0.0098449085 0.030092603 -0.010351051 -0.017324371 0.020313004 0.04418733 0.0024308786
-0.018706344 -0.019356335 -0.005955559 0.047200426 0.014846076 0.051041864 0.017388228 0.03277782
-0.019825296 0.0021942568 -0.054150082 0.049546197 0.055100456 -0.031820074 -0.029995106 0.038623188
0.059140794 0.01452434 0.025115991 -0.037682336 -0.013540123 0.021361127 0.011171284 -0.06383652
0.036240704 -0.052782256 -0.03316851 0.0116117345 0.012963851 0.035884093 -0.049252283 -0.028104423
00000000: 5084 8bbd 5f85 6e3d ab9c b8bc d664 42bd
00000010: 017e b2bc c247 263d bb28 8cbd 8de2 333d
00000020: eca9 e4bb 28f7 58bd c24e 03bd f859 753c
00000030: 221f 26bc e3ff 9cbc aeb4 d3bc 4234 19bd
00000040: 7678 553d 4623 063d e17d 81bd c18e ce3c
00000050: f622 c1bc 2abf 85bd 2b7f ca3c 6346 6f39
00000060: 660f 5bbb 8a4c 213c c384 f63c 7497 29bc
00000070: d7eb 8dbc 7567 a63c c6fd 343d 604f 1f3b
00000080: 0c3e 99bc 2d91 9ebc da26 c3bb 3c55 413d
00000090: f53c 733c 4611 513d c271 8e3c 0942 063d
000000a0: a968 a2bc 85cd 0f3b 7acc 5dbd f4f0 4a3d
000000b0: 04b1 613d c455 02bd 4cb8 f5bc 5933 1e3d
000000c0: 9e3d 723d 7ff7 6d3c 0dc0 cd3c cb58 1abd
000000d0: 64d7 5dbc 88fd ae3c c307 373c b9bc 82bd
000000e0: 2271 143d 3532 58bd b4db 07bd 253f 3e3c
000000f0: 5566 543c 33fb 123d c3bc 49bd 3f3b e6bc

mixture_net.mol_attn_layers.0.self_attn_layer.in_proj_weight f4 [192, 64]
-0.12499142 -0.1639518 -0.110076 0.1721735 0.047484875 -0.05513122 0.122605585 -0.12911767
0.06536039 -0.13781108 -0.10881512 -0.026599515 -0.07322999 0.10271798 0.080074124 -0.20984496
0.018453712 0.08320117 0.07196631 -0.12962072 0.08853767 -0.07848318 -0.15198201 -0.07430451
0.12701201 0.018561954 -0.06509033 0.083990134 0.046506222 -0.06686469 0.041276872 0.12881455
-0.0032427793 0.07779915 -0.10832797 -0.07283867 -0.052848183 -0.09715447 -0.122617856 -0.0543603
0.043886468 0.0653953 0.09484006 0.26880127 -0.14102054 0.028406624 -0.20723079 -0.062152185
0.092337675 0.089847594 0.09771355 -0.0026469852 0.07318307 0.061728444 0.0071568727 0.2526311
0.023879923 0.1063231 0.172541 0.018740917 0.12517576 0.00934247 0.1178228 -0.1254356
0.03832542 0.0410419 0.13786888 -0.025520766 0.14463708 0.014888164 -0.15991455 0.03289939
0.118025295 -0.00018309457 -0.11357709 -0.13917044 -0.0274983 0.09545569 -0.15069765 -0.1425886
-0.18892092 -0.21729203 -0.080175325 0.097701035 -0.2092704 -0.058145948 0.17416017 -0.11141331
-0.15159847 -0.13792329 0.11411112 0.10415458 -0.16990751 0.07013086 -0.19736236 -0.1788334
0.10331788 0.095808715 0.103538856 -0.039419193 0.1445965 -0.129232 0.17299171 0.056386594
0.14125833 0.11196762 0.074582525 -0.09672846 -0.04864104 0.16053574 -0.14174318 -0.20765446
-0.10935032 0.029627116 -0.13898759 -0.0052496023 -0.029907055 -0.03943187 0.02144194 -0.10600915
0.00031121506 0.09705575 -0.17294295 -0.08378839 -0.022424288 0.14132266 -0.18225457 0.047869414
0.07515225 0.28525722 -0.08074877 -0.0038012906 -0.21914741 -0.10276618 0.14540914 -0.033383988
-0.028395517 0.1729328 0.07777664 0.043208886 0.16507053 0.1417781 -0.065154634 -0.03990586
0.007855535 0.12860113 -0.009945224 0.078925975 -0.060888823 0.026763657 -0.027409378 0.014068509
0.16215625 -0.16181602 0.07091122 -0.006968288 0.022776129 -0.056052 -0.086603686 0.095327385
-0.13198727 -0.07755344 -0.21742511 -0.047996994 0.02439736 -0.07012363 -0.22722605 0.0023531965
0.002883962 -0.14371632 -0.15181902 -0.0116101615 0.088527806 0.1516733 -0.029754257 -0.02425666
0.13415854 -0.17319107 0.1415486 -0.18318321 -0.022679286 0.20689674 -0.11830428 -0.12559636
0.04878019 -0.108362935 -1.9901865e-05 -0.094138645 -0.17777587 -0.072129756 -0.1161509 0.092268944
-0.20372963 -0.09445016 -0.010727543 -0.08275313 0.0056840507 0.03962881 0.004048619 0.058144256
0.22777486 -0.032149322 -0.04862298 -0.08844174 -0.17747486 0.08232757 0.023478677 -0.1363331
-0.04455947 -0.15099043 -0.012847763 0.03442909 0.14044495 -0.07559831 -0.033743497 -0.08706483
0.07406684 -0.032051828 -0.00037033466 -0.0930037 0.019354057 0.26253262 0.035826676 0.11622174
0.028012127 0.04858813 -0.10641088 0.1724958 -0.11526251 0.14078057 -0.06094359 -0.17403936
0.062134292 0.0673545 0.11160657 0.1387158 -0.12896998 0.048467774 0.09718623 0.1390347
-0.09631546 -0.111036524 0.014663287 -0.07782897 0.092211336 -0.14029837 0.006674432 -0.14896178
0.12149608 0.017588971 -0.029848775 0.026852073 -0.11732962 0.1158948 0.17141968 0.1177445
00000000: 80fb ffbd fbe2 27be 876f e1bd 404e 303e
00000010: 807f 423d 46d1 61bd a318 fb3d 6c37 04be
00000020: abdb 853d 591e 0dbe 76da debd 3ae7 d9bc
00000030: 9bf9 95bd ce5d d23d e7fd a33d 99e1 56be
00000040: 3d2c 973c 6065 aa3d 1363 933d 4bbb 04be
00000050: 3d53 b53d cabb a0bd 2ca1 1bbe f72c 98bd
00000060: 700f 023e 3d0f 983c 144e 85bd 0503 ac3d
00000070: 4f7d 3e3d 5bf0 88bd f011 293d f6e7 033e
00000080: cf84 54bb 2955 9f3d 0edb ddbd 712c 95bd
00000090: 5677 58bd ecf8 c6bd 121f fbbd e8a8 5ebd
000000a0: 4cc2 333d f9ed 853d 813b c23d 52a0 893e
000000b0: b067 10be 02b5 e83c 4f34 54be 4a93 7ebd
000000c0: 891b bd3d 0402 b83d 0b1e c83d 0b79 2dbb
000000d0: 01e1 953d f7d6 7c3d 3384 ea3b dd58 813e
000000e0: d49f c33c edbf d93d 97ae 303e 8d86 993c
000000f0: 132e 003e 2911 193c 154d f13d 3172 00be
00000100: 1efb 1c3d 8d1b 283d 802d 0d3e ed10 d1bc
00000110: be1b 143e 7ced 733c a4c0 23be 83c1 063d
00000120: 3fb7 f13d 13fd 3fb9 1b9b e8bd b282 0ebe
00000130: 1d44 e1bc 467e c33d 7c50 1abe bf02 12be
00000140: 7c74 41be cd81 5ebe f632 a4bd 7b17 c83d
00000150: fb4a 56be 722a 6ebd 0b57 323e a92c e4bd
00000160: a13c 1bbe c33b 0dbe 17b3 e93d ff4e d53d
00000170: 3cfc 2dbe c5a0 8f3d 5c19 4abe 1a20 37be
00000180: 5398 d33d 5c37 c43d 2e0c d43d 0576 21bd
00000190: 1b11 143e 6555 04be bd24 313e a1f5 663d
000001a0: 06a6 103e 484f e53d b9be 983d 9219 c6bd
000001b0: d43b 47bd 7b63 243e 2025 11be 5fa3 54be
000001c0: 10f3 dfbd 91b4 f23c c352 0ebe db04 acbb
000001d0: a4ff f4bc 5083 21bd 02a7 af3c 531b d9bd
000001e0: 942a a339 2ac5 c63d f517 31be 3f99 abbd
000001f0: 24b3 b7bc e3b6 103e f1a0 3abe b812 443d
00000200: 6ce9 993d 3c0d 923e 9c5f a5bd 131f 79bb
00000210: 2e68 60be 1377 d2bd 22e6 143e a6bd 08bd
00000220: b79d e8bc 4c15 313e 5c49 9f3d cdfb 303d
00000230: 4008 293e 472e 113e cb6f 85bd 5474 23bd
00000240: 80b4 003c 04b0 033e 4bf1 22bc f1a3 a13d
00000250: 8f66 79bd 753f db3c a289 e0bc 9b7f 663c
00000260: 4a0c 263e 19b3 25be e739 913d 3d56 e4bb
00000270: 0195 ba3c c896 65bd 465d b1bd 013b c33d
00000280: ac27 07be 57d4 9ebd b0a4 5ebe 7f98 44bd
00000290: f9dc c73c fa9c 8fbd f2ad 68be 1638 1a3b
000002a0: da00 3d3b 5f2a 13be 7276 1bbe 8c38 3ebc
000002b0: 114e b53d 3f50 1b3e 33bf f3bc e7b5 c6bc
000002c0: db60 093e 0059 31be 1ef2 103e 6194 3bbe
000002d0: e9c9 b9bc bddc 533e 8449 f2bd 559c 00be
000002e0: bdcd 473d 63ed ddbd eef2 a6b7 c3cb c0bd
000002f0: e10a 36be c4b8 93bd 86e0 edbd 80f7 bc3d
00000300: 809e 50be 166f c1bd 94c2 2fbc 797a a9bd
00000310: 4641 ba3b d251 223d 47aa 843b ac28 6e3d
00000320: d03d 693e 02af 03bd e428 47bd f120 b5bd
00000330: f8bb 35be 5b9b a83d 5b56 c03c e79a 0bbe
00000340: fe83 36bd 3c9d 1abe 6c7f 52bc 8405 0d3d
00000350: cdd0 0f3e 49d3 9abd 9f36 0abd 0c4f b2bd
00000360: 5bb0 973d c748 03bd 7a29 c2b9 b978 bebd
00000370: 668c 9e3c ad6a 863e febe 123d aa05 ee3d
00000380: b079 e53c 5904 473d f3ed d9bd bda2 303e
00000390: c00e ecbd c828 103e fc9f 79bd 6037 32be
000003a0: 8780 7e3d 28f1 893d fc91 e43d 840b 0e3e
000003b0: b510 04be 2586 463d 9309 c73d 1d5f 0e3e
000003c0: 0a41 c5bd 1e67 e3bd 493e 703c cc64 9fbd
000003d0: 4cd9 bc3d 60aa 0fbe 32b5 da3b 7089 18be
000003e0: f0d2 f83d bf16 903c 6b85 f4bc e1f8 db3c
000003f0: 834a f0bd 415a ed3d a488 2f3e 0724 f13d

mixture_net.mol_attn_layers.0.self_attn_layer.in_proj_bias f4 [192]
0.049192257 0.033142954 -0.08139965 0.02929958 -0.0636963 -0.05189176 0.047223937 0.025455097
-0.030788494 -0.043215357 -0.02332858 0.03952521 0.037100792 0.002775937 -0.039220944 0.03949087
0.035993848 -0.06421662 0.0041456902 -0.030837007 -0.049797338 0.016695607 -0.07784623 -0.014229169
-0.06492472 -0.022789426 -0.063098 0.05606223 0.006557018 0.05693039 0.02196442 0.00076499605
0.024324166 -0.06715417 -0.03553634 -0.047030646 -0.04320294 0.07723667 -0.03613356 0.005542282
0.0055725463 -0.056712028 -0.009629122 0.030692827 -0.007175633 0.0124838585 0.03924461 -0.020739341
0.011833458 0.027386798 -0.006760164 -0.04416994 -0.032635845 0.03951934 0.042300787 -0.043842368
0.059114438 -0.04935252 -0.00442611 -0.0023153496 0.027005848 0.010681214 -0.032775406 0.002580522
-3.2635748e-05 3.6422094e-05 -5.2443786e-05 -2.1299798e-05 -2.9463565e-05 -1.9624234e-05 -3.6517864e-05 -2.4932764e-05
-3.2286403e-05 9.388093e-06 8.206275e-05 -0.00019908402 -7.3997603e-06 3.8575778e-05 1.9760982e-05 -7.71322e-05
-3.5258603e-05 1.5495036e-05 8.0796555e-05 5.6248755e-05 2.872377e-05 2.115482e-05 -3.8980015e-05 3.2164015e-05
2.6387893e-06 -0.000106574465 3.2117903e-05 -1.0385003e-05 2.661471e-05 3.1316863e-06 5.187405e-05 -7.5091884e-05
-1.773706e-05 -6.3789186e-05 -1.597426e-05 -1.6651475e-05 -5.540623e-05 4.8896047e-05 -2.9689014e-05 3.0889805e-05
-2.4908425e-06 -1.11636955e-05 -2.7245884e-05 6.7344254e-06 -5.841184e-07 -6.0798462e-05 -1.8831013e-05 -3.455641e-06
1.3041403e-05 3.7422808e-05 -9.488537e-06 -3.509884e-06 -5.852983e-05 8.2841434e-05 3.864391e-05 -1.7811199e-05
-6.144282e-05 -6.561507e-05 0.00010347967 -0.00022115636 -8.153678e-05 -4.664746e-06 -8.024427e-05 3.0354628e-05
-0.02353144 -0.004292459 0.006763294 0.010622031 -0.009380988 -0.0015702981 -0.009864368 -0.009853541
0.016202312 0.024786264 0.003137895 0.021421459 0.0021335045 0.015662814 0.00812035 0.010215995
-8.638264e-06 -0.033409715 -0.013392831 0.02091417 0.0034017002 6.445834e-05 -0.008995409 0.01084375
0.010561488 0.034386884 0.010148786 0.0034531553 -0.00690671 0.004931211 0.010094746 0.0058372
0.018458452 0.00026460676 -0.017735338 0.023205483 0.0024645817 0.00839841 -0.0055532805 -0.0030479569
-0.0057246573 -0.0086934995 -0.00489664 0.0043888255 0.005929523 -0.005084207 0.0006713286 -0.01323956
0.002764029 0.0033914926 0.005548751 -0.010951997 -0.015665857 0.009162604 -0.0065562977 0.003959726
-0.006671687 0.016682444 0.0070906794 -0.01048094 -0.016893912 0.0037025881 -0.0010894454 0.012985896
00000000: d27d 493d e8c0 073d dcb4 a6bd ac05 f03c
00000010: 3573 82bd 748c 54bd e36d 413d 3587 d03c
00000020: 2738 fcbc 9602 31bd 941b bfbc 30e5 213d
00000030: 00f7 173d 7fec 353b 24a6 20bd 2ec1 213d
00000040: 496e 133d 0184 83bd 92d8 873b e49d fcbc
00000050: 4bf8 4bbd 3ac5 883c d86d 9fbd 7621 69bc
00000060: 40f7 84bd e4b0 babc 8639 81bd 82a1 653d
00000070: 41dc d63b d72f 693d baee b33c 048a 483a
00000080: 7943 c73c 2088 89bd 8e8e 11bd 35a3 40bd
00000090: 91f5 30bd 422e 9e3d c900 14bd 089c b53b
000000a0: e899 b63b df4a 68bd 77c3 1dbc 866f fb3c
000000b0: 9321 ebbb 1989 4c3c f5be 203d 8de5 a9bc
000000c0: 1fe1 413c 475a e03c 5e84 ddbb 8aeb 34bd
000000d0: 2aad 05bd 08df 213d 9743 2d3d 0e94 33bd
000000e0: fb21 723d de25 4abd e708 91bb 1fbd 17bb
000000f0: 5e3b dd3c 4200 2f3c 813f 06bd fa1d 293b
00000100: 5ee2 08b8 edc3 1838 16f7 5bb8 f8ac b2b7
00000110: 8628 f7b7 b99e a4b7 c22a 19b8 b426 d1b7
00000120: 436b 07b8 8d81 1d37 1a19 ac38 36c1 50b9
00000130: 754b f8b6 6dcc 2138 63c4 a537 09c2 a1b8
00000140: a3e2 13b8 56fb 8137 5271 a938 a4ec 6b38
00000150: d4f3 f037 a175 b137 797e 23b8 d9e7 0638
00000160: 0e16 3136 bb80 dfb8 56b6 0638 403b 2eb7
00000170: a842 df37 f629 5236 5693 5938 a67a 9db8
00000180: 0cca 94b7 8fc6 85b8 7600 86b7 c5ae 8bb7
00000190: fd63 68b8 bb15 4d38 ac0c f9b7 ad8f 0138
000001a0: 5928 27b6 b54b 3bb7 178e e4b7 46f8 e136
000001b0: 50cc 1cb5 da01 7fb8 4bf7 9db7 76e7 67b6
000001c0: 66cc 5a37 6ff6 1c38 f530 1fb7 598b 6bb6
000001d0: ed7d 75b8 28bb ad38 9515 2238 4269 95b7
000001e0: ddda 80b8 d39a 89b8 3a03 d938 35e6 67b9
000001f0: bafe aab8 dd85 9cb6 d048 a8b8 11a2 fe37
00000200: 02c5 c0bc c2a7 8cbb 9f9e dd3b 0708 2e3c
00000210: b7b2 19bc 76d2 cdba 289e 21bc bf70 21bc
00000220: b6ba 843c 900c cb3c 24a5 4d3b 0e7c af3c
00000230: 44d2 0b3b 4d4f 803c 370b 053c fd60 273c
00000240: 10ed 10b7 a0d8 08bd 9b6d 5bbc 3254 ab3c
00000250: 0fef 5e3b cf2d 8738 7b61 13bc fca9 313c
00000260: 170a 2d3c 43d9 0c3d 1847 263c 554e 623b
00000270: af51 e2bb ff95 a13b 6f64 253c fc45 bf3b
00000280: 2e36 973c ebba 8a39 b349 91bc 6d19 be3c
00000290: d284 213b 7c99 093c 4bf8 b5bb 3bc0 47bb
000002a0: e895 bbbb 2e6f 0ebc fe73 a0bb 23d0 8f3b
000002b0: 724c c23b 6b99 a6bb 1afc 2f3a bdea 58bc
000002c0: b624 353b ce43 5e3b 4cd2 b53b 0170 33bc
000002d0: af55 80bc bf1e 163c 36d6 d6bb 97c0 813b
000002e0: 2b9e dabb 9fa9 883c ee58 e83b 40b8 2bbc
000002f0: 1a65 8abc 1fa7 723b b9cb 8eba ccc2 543c

mixture_net.mol_attn_layers.0.self_attn_layer.out_proj.weight f4 [64, 64]
0.026343111 0.06757981 0.04059573 -0.08223753 -0.080434896 0.027012067 -0.021099096 -0.0025473034
-0.016416937 0.022255491 -0.006591316 -0.12582865 -0.084348254 0.07477915 0.10665406 0.10360346
0.0082082795 0.17261952 -0.043743487 0.12253052 -0.09699122 0.09871575 0.05151194 0.030650498
-0.018627381 0.04400883 0.13428546 0.12428426 -0.04001991 -0.1055667 -0.11612928 0.006030968
-0.078666694 0.09914739 0.09615626 -0.03579411 0.008502731 0.07435824 -0.09811537 0.010036398
-0.14110959 -0.094835915 -0.021405602 -0.1277392 0.13272308 0.05089028 0.017734148 0.18338785
-0.011940161 -0.103214875 -0.07082601 -0.06275782 0.021284686 0.03245126 -0.0011053989 0.08803034
-0.14921373 -0.03796364 -0.014027356 0.043653976 -0.04363187 -0.040533584 -0.0069704126 -0.090227194
0.06216323 0.08046892 -0.07409784 -0.00036445633 -0.09844404 0.077778235 0.045828644 0.103466995
0.048403084 0.041828178 0.023534566 0.05620975 -0.010732153 0.11412482 -0.09113185 -0.012528492
-0.14234073 -0.06375479 0.1416731 -0.058421865 -0.08265022 -0.056128543 -0.107272014 -0.032346025
0.03827151 0.04179894 0.097213715 0.006051583 -0.09195106 0.059433576 -0.0713533 0.012176511
-0.09579469 -0.015683593 0.085521944 0.047958616 0.02049795 -0.095099255 0.09914855 0.046425454
0.06898287 -0.078327805 0.127804 0.106696 0.08101352 -0.08762099 -0.10055272 -0.08907714
-0.01459943 -0.1164601 -0.018786963 -0.04835535 0.062219463 0.09280977 -0.036793843 -0.025533022
0.09638046 0.030587954 -0.110619985 -0.016163554 0.017210385 0.108906604 0.10016726 -0.012700807
0.014529232 -0.061328463 -0.1160602 0.097898155 0.12161169 -0.10416266 -0.00879496 -0.09774889
0.120924264 -0.02875366 0.010672941 -0.0105513735 -0.015057422 -0.07267069 -0.05037909 -0.052214388
0.094777174 -0.008833717 0.061078653 -0.0010811243 0.07573211 -0.032083947 0.026609084 -0.11198552
-0.05993218 -0.08339637 0.079656914 0.016624397 -0.020713279 0.06085292 0.05337706 -0.06742609
0.058663152 -0.054991722 -0.0017913273 0.046171997 0.052638233 0.0281035 0.01538327 0.119625054
0.002878884 0.047161393 -0.031404726 0.029652564 -0.007979244 -0.06108175 0.066522576 -0.008827797
0.09845838 -0.06325406 -0.103932634 0.029094543 -0.10373959 0.010862593 -0.0063953972 -0.052362338
-0.105765305 -0.064076595 -0.009467822 -0.12244114 0.07196095 0.068992175 -0.05984444 -0.0028693536
0.036569644 0.02195248 0.050116636 0.054659612 0.07461023 0.028114306 0.004674215 0.009331487
0.022949478 -0.053919576 0.1322049 0.11978169 -0.05852425 -0.054078612 -0.055973653 0.042722125
-0.057401523 0.06922035 -0.031787764 -0.032258715 0.12684657 -0.120894976 -0.10182458 0.09658329
-0.04150919 -0.09212343 0.0216992 -0.015033362 -0.096144035 0.04892117 -0.079101235 -0.047253113
-0.0131482715 0.08456844 -0.08738283 -0.10773416 0.062088817 0.109158374 -0.008881064 -0.053198442
-0.025435949 -0.012600077 0.14695315 0.074542046 -0.027136825 -0.12048843 -0.042787705 -0.03770283
0.027636677 0.06260699 -0.078494556 -0.042519785 0.06485118 -0.052701265 -0.0634658 -0.07125942
-0.07265842 0.11017992 0.043074597 0.1682859 0.025419138 0.10871879 -0.03971284 0.13927242
00000000: 82cd d73c 4967 8a3d b547 263d 266c a8bd
00000010: 0dbb a4bd 6948 dd3c 03d8 acbc a9f0 26bb
00000020: d07c 86bc 2651 b63c f7fb d7bb 3ad9 00be
00000030: c7be acbd d025 993d 726d da3d 0d2e d43d
00000040: 057c 063c 2cc3 303e 5f2c 33bd 48f1 fa3d
00000050: 55a3 c6bd 7c2b ca3d 2ffe 523d c116 fb3c
00000060: 7398 98bc 9a42 343d 2182 093e bf88 fe3d
00000070: ebeb 23bd 5b33 d8bd 30d5 edbd 6d9f c53b
00000080: 011c a1bd c90d cb3d 93ed c43d d89c 12bd
00000090: 0a4f 0b3c 2249 983d b6f0 c8bd b46f 243c
000000a0: 087f 10be 5539 c2bd cd5a afbc 11ce 02be
000000b0: 8fe8 073e 5472 503d 3447 913c 06ca 3b3e
000000c0: aaa0 43bc 5262 d3bd 3a0d 91bd 2c87 80bd
000000d0: 395d ae3c 9deb 043d 08e3 90ba 4049 b43d
000000e0: 7ccb 18be c37f 1bbd ffd2 65bc 83ce 323d
000000f0: 55b7 32bd 8b06 26bd 0f68 e4bb 09c9 b8bd
00000100: df9e 7e3d e4cc a43d 9cc0 97bd 8014 bfb9
00000110: 079d c9bd 324a 9f3d d1b6 3b3d 81e6 d33d
00000120: 5042 463d 0654 2b3d 90cb c03c 323c 663d
00000130: ead5 2fbc 46ba e93d 56a3 babd 4e44 4dbc
00000140: c5c1 11be df91 82bd c112 113e c44b 6fbd
00000150: 8544 a9bd 0be7 65bd 6eb1 dbbd 447d 04bd
00000160: 96c2 1c3d 5e35 2b3d fc17 c73d 5c4c c63b
00000170: d650 bcbd 9f70 733d ae21 92bd fd7f 473c
00000180: 0230 c4bd e17a 80bc 2126 af3d 4170 443d
00000190: 51eb a73c 66c3 c2bd 650e cb3d 9e28 3e3d
000001a0: e446 8d3d 546a a0bd 0ddf 023e 6f83 da3d
000001b0: 6bea a53d a272 b3bd 96ee cdbd 136e b6bd
000001c0: 7332 6fbc a282 eebd 1ee7 99bc 4210 46bd
000001d0: d6d9 7e3d 0c13 be3d 24b5 16bd a12a d1bc
000001e0: 1e63 c53d 9793 fa3c bb8c e2bd 6e69 84bc
000001f0: cbfc 8c3c 6d0a df3d 7e24 cd3d 0c17 50bc
00000200: 040c 6e3c 8e33 7bbd f8b0 edbd d47e c83d
00000210: 8d0f f93d 3c53 d5bd bc18 10bc 9230 c8bd
00000220: 24a7 f73d cc8c ebbc 8fdd 2e3c abdf 2cbc
00000230: 68b3 76bc 5fd4 94bd 4e5a 4ebd c1de 55bd
00000240: 891a c23d 4bbb 10bc 9c2d 7a3d 83b4 8dba
00000250: 7019 9b3d 756a 03bd 4bfb d93c aa58 e5bd
00000260: 727b 75bd b7cb aabd 2a23 a33d e32f 883c
00000270: e5ae a9bc e940 793d e7a1 5a3d b116 8abd
00000280: c648 703d 003f 61bd f8ca eaba d91e 3d3d
00000290: 309b 573d 5039 e63c 1c0a 7c3c fbfd f43d
000002a0: a9ab 3c3b 4e2c 413d 3ea2 00bd efe9 f23c
000002b0: 60bb 02bc db30 7abd fd3c 883d 77a2 10bc
000002c0: 8ca4 c93d 588b 81bd a2da d4bd ae57 ee3c
000002d0: 6c75 d4bd 04f9 313c 7b90 d1bb e479 56bd
000002e0: 7b9b d8bd 973a 83bd ec1e 1bbc 6cc2 fabd
000002f0: 4360 933d c54b 8d3d 721f 75bd c40b 3cbb
00000300: 0dca 153d b0d5 b33c 1a47 4d3d c2e2 5f3d
00000310: 40cd 983d f94f e63c 282a 993b 18e3 183c
00000320: 8b00 bc3c c6da 5cbd b960 073e 1a50 f53d
00000330: 20b7 6fbd 8981 5dbd a144 65bd 65fd 2e3d
00000340: dc1d 6bbd 66c3 8d3d e333 02bd b721 04bd
00000350: 11e4 013e c997 f7bd 6889 d0bd 76cd c53d
00000360: 8a05 2abd 35ab bcbd 85c2 b13c 7e4e 76bc
00000370: 2ae7 c4bd 9161 483d d4ff a1bd 7b8c 41bd
00000380: d96b 57bc 3832 ad3d c5f5 b2bd baa3 dcbd
00000390: d850 7e3d 6d8e df3d e281 11bc 9ce6 59bd
000003a0: 0d5f d0bc 8e70 4ebc e37a 163e 80a9 983d
000003b0: 0c4e debc a3c2 f6bd 2942 2fbd 486e 1abd
000003c0: 5066 e23c 1838 803d c1c1 a0bd 3a29 2ebd
000003d0: b2d0 843d 48dd 57bd 5bfa 81bd 75f0 91bd
000003e0: f0cd 94bd 03a6 e13d fd6e 303d 2453 2c3e
000003f0: cc3b d03c f5a7 de3d eea9 22bd 6e9d 0e3e

mixture_net.mol_attn_layers.0.self_attn_layer.out_proj.bias f4 [64]
0.0061165364 0.027206887 0.011837497 0.011983033 0.00527996 0.0052030683 0.0008626069 -0.0060700173
-0.0014005693 0.008816574 -0.013210403 -0.0042994027 0.015010931 -0.005958595 0.010553839 -0.0095393965
0.0020967452 -0.005265271 0.006389143 -0.00055305054 -0.0023888468 -0.008887714 -0.0018459889 0.00023768403
0.009893409 0.0023098972 -0.022749417 -0.011406258 0.02797474 0.015699908 0.021500364 0.008290593
0.013069258 0.004703202 0.012870835 -0.00029673203 -0.035801567 0.0021572527 0.00036308097 -0.0011991906
-0.0048433607 -0.009263613 0.0010330296 -0.0023962092 -0.0036987711 0.0008101758 -0.009529143 0.001296401
-0.0123001635 0.0011468044 -0.0016179495 -0.009229651 -0.0082248 0.01199122 0.0031440337 0.01661747
-0.0007254522 -0.004377006 -0.008580417 0.021431275 -0.011434666 -0.009457193 0.01617769 0.009760009
00000000: 3a6d c83b fae0 de3c 10f2 413c 7c54 443c
00000010: 8403 ad3b 807e aa3b 9220 623a ffe6 c6bb
00000020: 4f93 b7ba 6473 103c 7270 58bc 01e2 8cbb
00000030: 68f0 753c 5140 c3bb 02ea 2c3c 214b 1cbc
00000040: 8c69 093b 4b88 acbb 045c d13b 98fa 10ba
00000050: 338e 1cbb c69d 11bc 1cf5 f1ba d23a 7939
00000060: f717 223c a561 173b fc5c babc 50e1 3abc
00000070: 482b e53c 189d 803c 8821 b03c 44d5 073c
00000080: 7120 563c 511d 9a3b 32e0 523c b392 9bb9
00000090: aaa4 12bd b260 0d3b e75b be39 292e 9dba
000000a0: 0eb5 9ebb 69c6 17bc b966 873a b809 1dbb
000000b0: 1567 72bb fa61 543a 1f20 1cbc 00ec a93a
000000c0: a086 49bc 5f50 963a 6011 d4ba f637 17bc
000000d0: 50c1 06bc d276 443c 220c 4e3b 5c21 883c
000000e0: 462c 3eba fd6c 8fbb e194 0cbc a490 af3c
000000f0: 7758 3bbc 58f2 1abc 1387 843c 72e8 1f3c

mixture_net.mol_attn_layers.0.addnorm1.norm.weight f4 [64]
0.9966571 0.99160075 1.0104959 1.0448186 1.014038 1.0400428 0.99164635 1.0038832
0.99018687 1.016202 1.0126741 1.0225871 1.0128725 1.0147322 0.9921911 1.0188062
0.9996576 0.98169863 1.0060776 1.016561 0.9725255 0.9916435 1.0087215 0.9715284
0.99035364 0.98530346 1.0029142 1.0310084 1.0006535 1.0044093 1.0175334 0.9746836
1.0102829 0.9905184 1.0121024 1.0182097 1.0102506 1.021257 1.0020616 0.9881568
0.98727083 1.0028247 0.9987589 1.0081346 1.013643 1.021522 1.0194483 0.9860377
1.029109 0.9990655 0.9775271 1.0001563 1.0090481 1.0017238 0.99526465 1.0034878
0.98173946 1.0005536 1.0048395 0.99928105 0.9864555 0.98298573 1.0169533 1.0105217
00000000: eb24 7f3f 8cd9 7d3f ee57 813f 9ebc 853f
00000010: ffcb 813f 1f20 853f 89dc 7d3f 3f7f 803f
00000020: e37c 7d3f e812 823f 4e9f 813f 22e4 823f
00000030: cea5 813f bfe2 813f 3c00 7e3f 3e68 823f
00000040: 8fe9 7f3f 9a50 7b3f 27c7 803f ac1e 823f
00000050: 6ef7 783f 59dc 7d3f c91d 813f 16b6 783f
00000060: d187 7d3f d93c 7c3f 7e5f 803f 15f8 833f
00000070: 6a15 803f 7c90 803f 893e 823f dd84 793f
00000080: f350 813f 9d92 7d3f 928c 813f b254 823f
00000090: e44f 813f 8db8 823f 8e43 803f d8f7 7c3f
000000a0: c8bd 7c3f 8f5c 803f aaae 7f3f 8e0a 813f
000000b0: 0ebf 813f 3cc1 823f 487d 823f f76c 7c3f
000000c0: d8b9 833f c2c2 7f3f 373f 7a3f 1f05 803f
000000d0: 7d28 813f 7c38 803f aac9 7e3f 4a72 803f
000000e0: 4753 7b3f 2412 803f 959e 803f e2d0 7f3f
000000f0: 5988 7c3f f4a4 7b3f 872b 823f c658 813f

mixture_net.mol_attn_layers.0.addnorm1.norm.bias f4 [64]
-0.0060380385 0.0029635115 -0.02777358 0.037475694 -0.0039866148 0.00861763 -0.0047245175 -0.0067460635
-0.0015110833 0.02009487 0.0010112037 0.0065756296 -0.0049516335 0.009536939 -0.0027439997 -0.0008642806
-0.0017531373 -0.006071642 0.0032017035 -0.011451903 -0.0019978497 -0.008287529 0.0045355386 -0.0069159213
-0.00267147 -0.0047832956 -0.0081725605 -0.00208211 0.025705488 0.005717818 0.008616764 0.010828286
0.017575156 -0.016142152 0.010218823 -0.012214411 -0.0054524806 -0.017505724 -0.012171077 -0.0008011049
-0.012628234 -0.0009941509 0.04127245 0.0032716293 -0.00576872 -0.010716849 -0.026303733 -0.010664906
0.001304487 0.0026176504 -0.005115158 -0.007757953 -0.002638636 0.0010115012 -0.0128968265 0.011017372
0.0070413593 -0.0022955672 0.0068606525 0.010329038 -0.021921467 0.0030197422 0.032701086 0.023275927
00000000: bdda c5bb 7937 423b 6b85 e3bc 1d80 193d
00000010: 26a2 82bb f630 0d3c 20d0 9abb 150e ddbb
00000020: 8b0f c6ba ff9d a43c 5e8a 843a 6178 d73b
00000030: 5041 a2bb d240 1c3c add4 33bb e490 62ba
00000040: 87c9 e5ba a0f4 c6bb acd3 513b c3a0 3bbc
00000050: 5bee 02bb 6bc8 07bc db9e 943b f49e e2bb
00000060: d413 2fbb 31bd 9cbb 34e6 05bc 0274 08bb
00000070: 5194 d23c 895c bb3b 542d 0d3c 2069 313c
00000080: c6f9 8f3c 8c3c 84bc da6c 273c f41e 48bc
00000090: b9aa b2bb 2a68 8fbc 3269 47bc 3d01 52ba
000000a0: a7e6 4ebc 2b4e 82ba 4d0d 293d d568 563b
000000b0: 8807 bdbb b995 2fbc ed7a d7bc dcbb 2ebc
000000c0: 52fb aa3a e38c 2b3b 0e9d a7bb 6d36 febb
000000d0: f7ec 2cbb 5994 843a 364d 53bc 3582 343c
000000e0: 34bb e63b 3a71 16bb 53cf e03b 203b 293c
000000f0: a694 b3bc dee6 453b 93f1 053d 28ad be3c

mixture_net.mol_attn_layers.0.ffn.layers.0.weight f4 [64, 64]
-0.1285948 -0.070770964 0.003414763 -0.116055176 -0.06477403 0.012290052 0.0015596 0.07966371
0.047254864 -0.12992944 0.06979728 0.07929886 -0.045279857 -0.05628632 0.08873643 -0.010055636
-0.07607132 0.07555901 0.0915341 -0.049200617 0.11005849 -0.033951767 0.07730557 0.044421356
-0.08724092 -0.07873851 -0.096808866 -0.05505098 0.1055656 0.03785445 0.043251727 0.04421611
0.04774585 0.08765701 0.0047134827 -0.0013776431 -0.020797407 0.04839921 0.00056954013 0.124599785
0.023472145 -0.14217176 -0.036637206 0.056258004 0.089553185 0.13162813 0.08854485 0.1228237
0.08834191 0.11949646 0.11230116 0.008441524 0.0083887605 0.041305095 0.03481328 0.10811715
-0.047088712 0.08338815 0.12257467 -0.061049003 -0.027716994 -0.043926463 -0.11710162 -0.037897974
-0.10028315 0.034211405 -0.096058615 -0.098611675 -0.016246945 0.07757745 0.016785016 -0.03633419
-0.098735385 -0.07572601 -0.06111687 0.014620107 -0.009698272 -0.10426621 -0.02429931 -0.041332986
0.051733524 -0.020879459 -0.06333114 0.08977424 0.09523483 0.016080119 0.02937105 0.094296046
-0.14453809 -0.092357084 0.057069402 0.1602286 -0.07441469 0.044144437 0.06371749 -0.023215963
0.009968366 0.090581045 -0.07960236 -0.07668169 0.065173626 -0.057017084 -0.088213116 0.12956679
0.089516446 -0.026073037 0.04636132 0.10566175 0.07448813 0.06362657 -0.05322291 0.038435474
0.01268868 0.041170914 0.082856916 -0.036181677 -0.032320317 0.092249945 0.019582422 -0.054698404
0.10593088 -0.06739229 0.07746112 0.0029750608 -0.08608967 0.007193592 -0.05625794 -0.037417553
-0.027629774 0.062072113 0.08423677 -0.17534524 0.18808706 -0.120736435 0.019229364 -0.010519261
-0.099047065 -0.027017845 0.07170667 0.010320148 0.016769651 -0.07591532 0.059540544 -0.061044894
-0.079766355 -0.063174106 -0.003126711 0.12512587 -0.021101728 0.14693144 -0.08935343 0.05187856
0.010757887 0.05502759 -0.049795687 -0.041053273 -0.13985375 0.12134815 -0.10993543 0.09867722
-0.012845985 0.14244105 -0.009861676 0.024623943 0.05867753 -0.011447611 -0.06436499 -0.029071555
-0.109455064 0.09011722 -0.08448143 0.07540795 -0.027331918 0.057134625 0.09199007 0.03138789
0.033078782 -0.097009175 -0.074069135 -0.100319214 -0.054385323 -0.1391338 -0.03717827 -0.087985426
-0.19372231 0.08612544 -0.13849324 0.10987405 -0.013093029 -0.009029387 -0.112711444 -0.09293246
-0.020216534 -0.10935792 -0.05919005 -0.10706342 -0.044869047 -0.10749154 0.088373646 0.07245979
0.03679077 -0.09858481 0.17217098 -0.013483848 0.0713513 -0.04321199 0.006324382 -0.023934778
0.05469744 -0.048782744 0.08699259 0.079012066 0.074593544 0.052604303 -0.044876803 0.010647881
0.018781582 -0.015649486 -0.028889226 -0.14625096 -0.07824155 0.095259815 -0.07171587 0.07518342
0.06813117 -0.12577952 0.0909924 -0.04492996 0.085988544 0.11161697 0.04535333 -0.024386073
-0.0032782236 -0.05250186 -0.06228691 0.06489936 -0.021273047 -0.032922275 0.12837617 0.08787651
-0.00251151 -0.11698028 0.0014456921 0.09921468 0.04946815 -0.05494908 0.09980197 -0.10484841
-0.052320704 0.051858597 -0.071970254 -0.049636006 0.03164801 0.084745936 0.09942947 -0.022011882
00000000: 5bae 03be 5ef0 90bd 37ca 5f3b 56ae edbd
00000010: 3fa8 84bd 375c 493c 7e6b cc3a ba26 a33d
00000020: 518e 413d 390c 05be e0f1 8e3d 7167 a23d
00000030: 5f77 39bd 7c8c 66bd 72bb b53d 65c0 24bc
00000040: 48cb 9bbd afbe 9a3d 3b76 bb3d 9686 49bd
00000050: 5866 e13d 0211 0bbd 6252 9e3d 2bf3 353d
00000060: 5eab b2bd a841 a1bd ba43 c6bd 237d 61bd
00000070: c732 d83d 450d 1b3d b928 313d f41b 353d
00000080: 2791 433d 8585 b33d 8f73 9a3b 0892 b4ba
00000090: 535f aabc 403e 463d 314d 153a 2c2e ff3d
000000a0: a848 c03c 7995 11be e510 16bd cb6e 663d
000000b0: a967 b73d 86c9 063e 0157 b53d fe8a fb3d
000000c0: 9aec b43d 8fba f43d 27fe e53d 514e 0a3c
000000d0: 0371 093c 882f 293d 5f98 0e3d 866c dd3d
000000e0: 18e0 40bd 68c7 aa3d 6e08 fb3d 850e 7abd
000000f0: c00e e3bc 3cec 33bd f9d2 efbd e83a 1bbd
00000100: 4161 cdbd 4221 0c3d 61ba c4bd ebf4 c9bd
00000110: 5018 85bc ede0 9e3d bb80 893c 29d3 14bd
00000120: c735 cabd 3d16 9bbd af55 7abd 2c89 6f3c
00000130: 80e5 1ebc 8689 d5bd 590f c7bc c74c 29bd
00000140: 88e6 533d 660b abbc c2b3 81bd 8fdb b73d
00000150: 7b0a c33d 74ba 833c 8e9b f03c 491e c13d
00000160: cb01 14be b625 bdbd 9bc1 693d f712 243e
00000170: bb66 98bd ccd0 343d 517e 823d 672f bebc
00000180: 5b52 233c 8e82 b93d 9006 a3bd 4a0b 9dbd
00000190: c079 853d bf8a 69bd 14a9 b4bd 28ad 043e
000001a0: 6654 b73d 1f97 d5bc 5ee5 3d3d 3065 d83d
000001b0: 3c8d 983d a64e 823d 4400 5abd 846e 1d3d
000001c0: 2ee4 4f3c d5a2 283d e3b0 a93d 3d33 14bd
000001d0: 4f62 04bd 8aed bc3d 516b a03c 6f0b 60bd
000001e0: 4af2 d83d f804 8abd f0a3 9e3d 3df9 423b
000001f0: c84f b0bd 39b8 eb3b ba6e 66bd 2643 19bd
00000200: d657 e2bc 543f 7e3d 5484 ac3d b48d 33be
00000210: e599 403e aa44 f7bd e686 9d3c fa58 2cbc
00000220: 30d9 cabd 8754 ddbc f2da 923d d715 293c
00000230: 8260 893c 7e79 9bbd c9e0 733d 360a 7abd
00000240: 8b5c a3bd 6d61 81bd 81e9 4cbb ff20 003e
00000250: 88dd acbc 3275 163e eefe b6bd 9d7e 543d
00000260: d941 303c 9c64 613d 90f6 4bbd 7a27 28bd
00000270: d235 0fbe 6185 f83d d425 e1bd 4817 ca3d
00000280: f777 52bc 11dc 113e de92 21bc 27b8 c93c
00000290: da57 703d c38e 3bbc cbd1 83bd 7827 eebc
000002a0: fa29 e0bd 618f b83d 9a04 adbd 7c6f 9a3d
000002b0: 30e7 dfbc ff05 6a3d 4a65 bc3d 9790 003d
000002c0: 9e7d 073d bfac c6bd 8fb1 97bd 2974 cdbd
000002d0: 25c3 5ebd 1779 0ebe 3e48 18bd b431 b4bd
000002e0: 245f 46be 8962 b03d 2cd1 0dbe a505 e13d
000002f0: 2584 56bc feef 13bc 42d5 e6bd 6053 bebd
00000300: 259d a5bc 0cf7 dfbd 4471 72bd 1144 dbbd
00000310: 9bc8 37bd 8624 dcbd 3efd b43d cc65 943d
00000320: ebb1 163d d5e6 c9bd 974d 303e 5ceb 5cbc
00000330: a120 923d 0eff 30bd c33c cf3b de12 c4bc
00000340: 6c0a 603d 6ad0 47bd 2c29 b23d 14d1 a13d
00000350: 80c4 983d 9c77 573d bdd0 37bd 7374 2e3c
00000360: d5db 993c 5a33 80bc 19a9 ecbc d0c2 15be
00000370: 1b3d a0bd 9417 c33d c5df 92bd c4f9 993d
00000380: 5b88 8b3d 59cc 00be 395a ba3d 7a08 38bd
00000390: c31a b03d 7097 e43d 6ac4 393d 4dc5 c7bc
000003a0: 77d7 56bb 310c 57bd 8f20 7fbd f5e9 843d
000003b0: d044 aebc 82d9 06bd 0b75 033e 9af8 b33d
000003c0: 2598 24bb 5b93 efbd 617d bd3a 1131 cb3d
000003d0: 1d9f 4a3d 4912 61bd fa64 cc3d c3ba d6bd
000003e0: 3c4e 56bd ae69 543d 2465 93bd 204f 4bbd
000003f0: 58a1 013d 478f ad3d aea1 cb3d 4352 b4bc

mixture_net.mol_attn_layers.0.ffn.layers.0.bias f4 [64]
-0.12683618 0.0978007 -0.09818568 0.07605534 -0.0077647036 0.079161406 -0.110699534 -0.11429695
0.040117107 -0.060562022 -0.13992794 0.050457302 -0.02498128 -0.06573507 0.033610757 -0.053962402
-0.028846534 0.061575305 -0.021754898 0.039029755 -0.066784285 -0.11678513 -0.03142432 0.09053539
0.040984217 0.035085794 -0.074654214 -0.08987656 0.0050428943 -0.035243634 -0.013781537 -0.10676857
0.00034118426 -0.010788168 -0.11195834 0.070727766 -0.004344587 -0.098025374 -0.04098127 -0.07442276
-0.008930298 -0.084218934 -0.08594611 0.04435318 -0.100265376 -0.013293671 -0.07247607 -0.12732227
0.10122143 0.065123625 -0.002042788 0.10291226 0.037431125 -0.055457793 -0.08154866 -0.06747203
0.08658119 -0.086009115 0.009327726 -0.085015096 0.027337167 0.050995413 0.020017292 -0.010328216
00000000: 58e1 01be bc4b c83d 9315 c9bd e7c2 9b3d
00000010: 0e6f febb 601f a23d 70b6 e2bd 8514 eabd
00000020: d651 243d e20f 78bd 4549 0fbe 51ac 4e3d
00000030: 8ba5 ccbc 1ca0 86bd 6fab 093d ae07 5dbd
00000040: 914f ecbc 6336 7c3d 5437 b2bc aadd 1f3d
00000050: 33c6 88bd 0b2d efbd cab6 00bd 9e6a b93d
00000060: 11df 273d 1fb6 0f3d 4fe4 98bd 3411 b8bd
00000070: dd3e a53b a15b 10bd f5cb 61bc 7ba9 dabd
00000080: fae0 b239 dbc0 30bc 6a4a e5bd b8d9 903d
00000090: 0a5d 8ebb 87c1 c8bd fadb 27bd f66a 98bd
000000a0: 6250 12bc fa7a acbd 8404 b0bd aeab 353d
000000b0: ef57 cdbd b3cd 59bc 556e 94bd c560 02be
000000c0: 2e4d cf3d 895f 853d 4ce0 05bb aac3 d23d
000000d0: 6151 193d b627 63bd fc02 a7bd c72e 8abd
000000e0: 7b51 b13d 8c25 b0bd 52d3 183c 651c aebd
000000f0: 32f2 df3c 91e0 503d 4efb a33c ad37 29bc

mixture_net.mol_attn_layers.0.ffn.layers.2.weight f4 [64, 64]
0.09100671 0.07326032 0.07864888 -0.012662413 -0.08231996 0.013004178 -0.04026591 0.08514104
0.066006124 0.044591855 0.047930986 -0.104627214 0.12278938 0.08469701 0.11101995 -0.056832038
0.04675315 -0.14092185 0.07003748 -0.04662716 -0.08532144 -0.12442498 0.087595634 -0.0037470765
0.009658374 0.0371282 -0.053709354 -0.14304015 -0.0352965 0.09059787 0.0012799024 0.079907216
0.04123022 -0.0853613 -0.042257898 0.079221115 -0.063848466 0.06883627 -0.07819583 -0.026195725
-0.038302578 -0.08722032 -0.0994783 -0.008954171 -0.10256218 0.09604746 0.014032448 -0.06332732
0.11624094 -0.0836274 0.017600851 0.027913291 0.0012270925 0.035649966 0.11079285 -0.0045168176
-0.01129805 0.0832353 -0.0034675656 -0.0027068793 -0.06786454 -0.09331235 -0.054438844 -0.15081193
0.0034004394 -0.091729134 0.09541544 -0.023301832 0.016825518 -0.041383155 0.010200994 0.08458736
0.08529609 -0.007014427 -0.01342151 0.12185933 -0.02216818 0.13525507 0.051245794 0.0035372875
-0.02125934 0.008582018 -0.1439647 0.121871196 0.036645148 -0.090370595 0.002334554 -0.06371951
0.075580426 -0.22522964 -0.07104026 0.08527218 0.030129027 -0.059378803 0.118784346 0.13267158
-0.13052765 -0.007490451 0.06919046 -0.06949782 -0.012182475 -0.10007729 0.05983793 0.066333055
0.02945219 0.04873587 0.02503908 0.0705815 0.10912284 0.049797002 -0.1282032 -0.031076834
-0.09303724 -0.06824355 -0.122796915 -0.1125784 -0.010735199 0.05594757 0.055213694 0.08500662
-0.10921874 0.07581456 0.054764114 0.057341564 -0.015471813 -0.0047387434 -0.034438428 0.03761106
0.11473008 0.10112548 -0.10553161 0.067471325 0.09946102 -0.11468663 -0.0283127 -0.07813765
0.045289334 0.06756764 0.13718167 0.15705927 0.030997645 -0.015934827 0.033552635 -0.089671336
-0.07906255 0.03919476 -0.07223272 0.052544408 -0.14997429 0.019316565 0.0057446226 0.10348338
-0.03430602 0.11967686 0.01193882 -0.11249959 0.06037334 0.026768325 0.035133716 0.02383131
0.09487424 0.17611346 -0.07090762 -0.03621077 0.07121168 -0.045275442 -0.14583507 0.059096593
-0.0020688258 -0.095922716 0.030760031 0.020060439 0.050659984 0.025260014 -0.08348871 0.005904294
0.061897717 -0.0699344 0.05534277 0.010595872 -0.017786894 0.065037064 0.06290238 -0.029939083
-0.037486672 0.033533342 0.012264779 0.092975825 -0.0420718 0.08611848 -0.07541622 -0.13633709
0.030700967 0.06438821 0.05330514 0.0145508805 0.07406553 -0.0436078 0.022849336 0.08319518
0.042110845 -0.045262795 0.067997575 -0.06867513 -0.043683793 0.03294811 -0.11416779 -0.007232649
-0.0010082821 -0.0011316739 -0.026100392 0.11433015 0.019526107 -0.019970704 0.03578837 -0.05622651
-0.14094552 0.05716035 0.105261974 0.03583094 0.13482015 0.121980526 0.117243215 0.005158641
0.07774551 -0.068659835 -0.008233132 0.0750711 -0.0642505 0.04744588 0.050517596 0.03276128
-0.009219886 -0.051838253 -0.026896454 -0.071477145 0.13424724 -0.0017459304 0.0820721 0.04421073
-0.116073474 -0.077122964 0.13193968 0.091292806 -0.08238763 -0.044834618 0.027703436 -0.1396378
0.040970355 -0.017326929 0.09582247 -0.0062627504 -0.0638686 0.03536364 -0.056806374 -0.017435603
00000000: ba61 ba3d 8209 963d aa12 a13d 0276 4fbc
00000010: 5e97 a8bd 7a0f 553c deed 24bd 6d5e ae3d
00000020: 382e 873d f3a5 363d 4853 443d cb46 d6bd
00000030: 0079 fb3d a075 ad3d 6d5e e33d b6c8 68bd
00000040: 3b80 3f3d d14d 10be cf6f 8f3d 1ffc 3ebd
00000050: 02bd aebd 86d2 febd 5765 b33d 8391 75bb
00000060: 283e 1e3c bd13 183d 57fe 5bbd 1e79 12be
00000070: 1093 10bd 608b b93d 66c2 a73a 65a6 a33d
00000080: 05e1 283d e8d1 aebd 9e16 2dbd ae3e a23d
00000090: fcc2 82bd 08fa 8c3d 2325 a0bd 6b98 d6bc
000000a0: 2ae3 1cbd 91a0 b2bd 47bb cbbd 84b4 12bc
000000b0: 1f0c d2bd 88b4 c43d 5ae8 653c c1b1 81bd
000000c0: bb0f ee3d d844 abbd a92f 903c 6aaa e43c
000000d0: 64d6 a03a b305 123d 5de7 e23d d001 94bb
000000e0: 751b 39bc 4577 aa3d 1940 63bb e665 31bb
000000f0: 90fc 8abd 8c1a bfbd 44fb 5ebd 716e 1abe
00000100: e8d9 5e3b 7cdc bbbd 2c69 c33d 7ce3 bebc
00000110: abd5 893c 6281 29bd 1222 273c 233c ad3d
00000120: b7af ae3d 47d9 e5bb e5e5 5bbc 6291 f93d
00000130: 0b9a b5bc 4e80 0a3e 1ce7 513d d6d1 673b
00000140: 1128 aebc 989b 0c3c 7b6b 13be 9b97 f93d
00000150: 3919 163d 3814 b9bd 51ff 183b 607f 82bd
00000160: e9c9 9a3d 99a2 66be 8e7d 91bd 2ea3 ae3d
00000170: 26d1 f63c 3037 73bd 3545 f33d 0fdb 073e
00000180: 0aa9 05be 7572 f5bb bab3 8d3d e054 8ebd
00000190: 0199 47bc 52f5 ccbd 9e18 753d a0d9 873d
000001a0: b845 f13c 439f 473d c21e cd3c 098d 903d
000001b0: cc7b df3d f1f7 4b3d b347 03be d894 febc
000001c0: 4f8a bebd 46c3 8bbd f37c fbbd 818f e6bd
000001d0: b0e2 2fbc 4729 653d c127 623d f317 ae3d
000001e0: 13ae dfbd aa44 9b3d 5650 603d fdde 6a3d
000001f0: 7d7d 7dbc 7647 9bbb 4f0f 0dbd 0e0e 1a3d
00000200: 9bf7 ea3d e01a cf3d f520 d8bd 682e 8a3d
00000210: 38b2 cb3d d3e0 eabd 09f0 e7bc a206 a0bd
00000220: 4f81 393d e760 8a3d 5a79 0c3e 25d4 203e
00000230: c6ee fd3c c189 82bc 7d6e 093d 9ba5 b7bd
00000240: 8ceb a1bd af8a 203d c0ee 93bd ce38 573d
00000250: dc92 19be c63d 9e3c 633d bc3b 18ef d33d
00000260: 7884 0cbd 2419 f53d 0a9b 433c 2f66 e6bd
00000270: 094a 773d 3f49 db3c 5fe8 0f3d e139 c33c
00000280: 6d4d c23d 1657 343e 0438 91bd bf51 14bd
00000290: 6ed7 913d be72 39bd ca55 15be 450f 723d
000002a0: 2395 07bb 2173 c4bd 76fc fb3c ca55 a43c
000002b0: d880 4f3d 17ee ce3c 21fc aabd cf78 c13b
000002c0: 7688 7d3d c439 8fbd 1aaf 623d 4f9a 2d3c
000002d0: d2b5 91bc 2732 853d f7d2 803d cf42 f5bc
000002e0: a08b 19bd 425a 093d 36f2 483c 1c6a be3d
000002f0: 7b53 2cbd e35e b03d d273 9abd f39b 0bbe
00000300: 9880 fb3c f7dd 833d 7e56 5a3d d166 6e3c
00000310: abaf 973d 189e 32bd 882e bb3c 3c62 aa3d
00000320: 6c7c 2c3d 7b65 39bd 5042 8b3d 8ca5 8cbd
00000330: c7ed 32bd 99f4 063d cdd0 e9bd dbff ecbb
00000340: 5528 84ba ad54 94ba 7dd0 d5bc ed25 ea3d
00000350: 37f5 9f3c 9a99 a3bc d396 123d c54d 66bd
00000360: 0654 10be f920 6a3d 9793 d73d 77c3 123d
00000370: 4b0e 0a3e edd0 f93d 361d f03d d109 a93b
00000380: 0a39 9f3d 879d 8cbd 42e4 06bc e0be 993d
00000390: c495 83bd 9c56 423d 8aeb 4e3d b130 063d
000003a0: 010f 17bc 5954 54bd f455 dcbc 9c62 92bd
000003b0: 1c78 093e b4d7 e4ba 6b15 a83d 4f16 353d
000003c0: eeb7 edbd a5f2 9dbd 321b 073e b9f7 ba3d
000003d0: d9ba a8bd 81a4 37bd 51f2 e23c 36fd 0ebe
000003e0: 88d0 273d 34f1 8dbc 923e c43d c237 cdbb
000003f0: 8acd 82bd 77d9 103d cdad 68bd 1cd5 8ebc

mixture_net.mol_attn_layers.0.ffn.layers.2.bias f4 [64]
0.045893412 0.1238199 -0.051060524 0.057256266 0.024071138 0.07534714 0.011822712 0.06556811
-0.053763255 -0.014955354 0.08673255 -0.028023882 0.016307151 -0.08752202 -0.06895989 0.011925418
-0.07284653 0.0035647948 0.080372386 -0.08179218 -0.091588646 -0.05198049 0.08575802 0.06240551
0.056168128 0.0394465 0.031061823 0.043520264 0.0065337364 0.07509888 -0.10185743 0.07157136
0.06836759 0.033736296 -0.065223776 0.068395294 -0.08557855 0.041461207 -0.06410331 -0.10097072
-0.074426055 -0.021153871 -0.04162929 -0.01628005 0.040743854 -0.038744736 0.015852934 -0.07810226
0.08930948 0.060015265 0.03332488 -0.020967612 -0.11295329 0.06525789 -0.0652274 0.018990807
-0.028918376 -0.011075993 -0.034547776 -0.03959409 -0.05441978 -0.084478736 0.11361054 0.07175532
00000000: bbfa 3b3d 4a95 fd3d d724 51bd 8c85 6a3d
00000010: d630 c53c 9a4f 9a3d 0cb4 413c 9348 863d
00000020: dc36 5cbd 4d07 75bc d6a0 b13d 5792 e5bc
00000030: 9396 853c bf3e b3bd d83a 8dbd d462 433c
00000040: 9030 95bd 559f 693b 479a a43d a982 a7bd
00000050: d492 bbbd 7fe9 54bd e7a1 af3d ec9c 7f3d
00000060: 8d10 663d a792 213d 5d75 fe3c 4e42 323d
00000070: f418 d63b 71cd 993d a19a d0bd 0194 923d
00000080: 4f04 8c3d 122f 0a3d 0b94 85bd d512 8c3d
00000090: cf43 afbd 3ad3 293d 9948 83bd bdc9 cebd
000000a0: b06c 98bd e24a adbc 7983 2abd bd5d 85bc
000000b0: 07e3 263d cdb2 1ebd 03de 813c 14f4 9fbd
000000c0: e3e7 b63d 91d2 753d ab7f 083d 45c4 abbc
000000d0: 0e54 e7bd eea5 853d f195 85bd 9c92 9b3c
000000e0: 3be6 ecbc 1578 35bc f881 0dbd 6a2d 22bd
000000f0: 46e7 5ebd 3003 adbd a5ac e83d 74f4 923d

mixture_net.mol_attn_layers.0.addnorm2.norm.weight f4 [64]
0.99799234 1.0050179 1.0093831 1.0410228 1.0191779 1.0547615 0.9927632 1.0128558
0.9859608 1.0257212 1.0003601 1.0296961 1.010944 1.0146155 0.9998798 1.0134087
1.0025202 0.99020106 1.0034817 1.0190578 0.96051204 1.0146899 1.0129851 0.9757341
0.9924558 1.0022404 1.0021656 1.031443 1.0232568 1.0015446 1.0221494 0.98488164
1.0072875 0.98933464 1.0211272 1.0224156 1.0046281 1.0361166 1.0071719 0.9818596
0.9863875 1.0110108 1.0188031 1.0128553 1.0152197 1.0360667 1.0245183 0.98589784
1.0269952 1.002012 0.98187375 0.9993266 1.0078446 1.005935 0.98847306 1.003783
0.9955538 1.0047679 1.0077862 0.99971366 0.9846798 0.9865786 1.0179869 1.0086517
00000000: 6d7c 7f3f 6da4 803f 7733 813f 3c40 853f
00000010: 6c74 823f 6d02 873f bb25 7e3f 42a5 813f
00000020: ed67 7c3f d54a 833f cd0b 803f 15cd 833f
00000030: 9d66 813f ecde 813f 1ff8 7f3f 60b7 813f
00000040: 9552 803f d17d 7d3f 1772 803f 7c70 823f
00000050: 1ee4 753f 5ce1 813f 7fa9 813f b6c9 793f
00000060: 9511 7e3f 6a49 803f f646 803f 5306 843f
00000070: 14fa 823f 9d32 803f cbd5 823f 3421 7c3f
00000080: ccee 803f 0945 7d3f 4cb4 823f 84de 823f
00000090: a797 803f 789f 843f 02eb 803f 275b 7b3f
000000a0: e483 7c3f cd68 813f 2468 823f 3ea5 813f
000000b0: b8f2 813f d59d 843f 6a23 833f cd63 7c3f
000000c0: 9474 833f ee41 803f 145c 7b3f ded3 7f3f
000000d0: 0d01 813f 7ac2 803f 920c 7d3f f67b 803f
000000e0: 9ddc 7e3f 3c9c 803f 23ff 803f 3ced 7f3f
000000f0: fa13 7c3f 6a90 7c3f 654d 823f 801b 813f

mixture_net.mol_attn_layers.0.addnorm2.norm.bias f4 [64]
-0.0014152082 0.010529342 -0.034704532 0.038560525 -0.006230253 0.010729853 0.0057387794 -0.007787225
-0.0043115206 0.019144844 -0.003467073 0.007119308 -0.020147413 0.011880134 -0.009983567 -9.2471186e-05
-0.009061993 -0.0051573124 0.0039879517 -0.00697143 0.0019973319 -0.009849987 0.005397907 -0.005720437
-0.0027708428 -0.008725171 -0.00088112673 -0.00036658233 0.024045711 0.008856517 0.009303202 0.009265215
0.016926052 -0.008259001 0.0060467664 -0.01812424 -0.0119915325 -0.034865472 -0.010821922 0.0026383484
-0.011212746 -0.005472424 0.045174915 0.02059847 -0.0064856755 -0.02100514 -0.030749038 -0.0067719473
-0.0066427677 0.0052396366 -0.0030505366 -0.0042248247 -0.0051351218 -0.006875094 -0.01148897 0.0073064924
0.015581557 0.00804087 0.011837236 0.002935873 -0.019412046 0.0018741911 0.0385005 0.025738994
00000000: 827e b9ba 4383 2c3c 5726 0ebd a4f1 1d3d
00000010: 2627 ccbb 44cc 2f3c 5f0c bc3b fa2b ffbb
00000020: a847 8dbb a6d5 9c3c d537 63bb 1649 e93b
00000030: 300c a5bc e5a4 423c 1d92 23bc 17ed c1b8
00000040: c178 14bc acfe a8bb 5dad 823b 9870 e4bb
00000050: abe5 023b d761 21bc ede0 b03b 8172 bbbb
00000060: 0797 35bb 05f4 0ebc 6afb 66ba d931 c0b9
00000070: 83fb c43c ed1a 113c 756c 183c 21cd 173c
00000080: 81a8 8a3c c350 07bc f423 c63b 4979 94bc
00000090: 2278 44bc 19cf 0ebd 6e4e 31bc 24e8 2c3b
000000a0: aab5 37bc 0552 b3bb 5509 393d 1fbe a83c
000000b0: ca85 d4bb f912 acbc 68e5 fbbc 36e7 ddbb
000000c0: 93ab d9bb 42b1 ab3b 83eb 47bb 6670 8abb
000000d0: 8644 a8bb 7848 e1bb 3c3c 3cbc 4d6b ef3b
000000e0: c949 7f3c dabd 033c f7f0 413c c767 403b
000000f0: 0306 9fbc 6ba7 f53a b3b2 1d3d 95da d23c
